runs/8_hour_forecasting/239/best_model.pt (torch, 523385 bytes, 6 tensors)

net.0.weight f4 [64, 1958]
0	0x3c683556	0.0141728725
1	0x3cad3eb7	0.021148069
2	0xbc8642e9	-0.016389327
3	0x3c9c7a01	0.019101145
4	0xbbdc544a	-0.006723915
5	0x3bcad9a0	0.0061904937
6	0xbc69f2c2	-0.014279069
7	0x3b7a62c3	0.003820584
8	0x3beaca4f	0.0071652303
9	0xbc89d3ac	-0.016824566
10	0x3c3db7b1	0.01157944
11	0x3bff1534	0.00778451
12	0x3c121cf1	0.008918033
13	0xbbc23e25	-0.0059278184
14	0x3c424498	0.011857174
15	0xbbd208e2	-0.0064097503
16	0x3cc21f60	0.023696601
17	0x3c106014	0.008811969
18	0xbb6bb10c	-0.0035963682
19	0x3c0763cc	0.0082635395
20	0xbb841126	-0.0040303646
21	0x3bb8f888	0.0056448616
22	0xb9ade62b	-0.0003316862
23	0x3c8b134b	0.016976973
24	0xbc9b96df	-0.01899284
25	0xbc5b137d	-0.013371346
26	0xbc20f95b	-0.009825076
27	0xbc800306	-0.015626442
28	0x3c0ed02f	0.008716627
29	0xbc76b369	-0.015057423
30	0x3c9c7e6c	0.019103251
31	0xbc416587	-0.011803991
32	0x3c9b537d	0.018960709
33	0x3bf70d87	0.0075394544
34	0x3bcd1e7c	0.0062597375
35	0x3ca4e064	0.020126529
36	0x3c2d6d6d	0.010585171
37	0x3cc9906d	0.024605
38	0x3b2567f9	0.0025238974
39	0xbc0f678e	-0.008752717
40	0xba4b6577	-0.0007758955
41	0x3c299a0b	0.010351668
42	0x3c87322c	0.016503416
43	0x3cb5629a	0.022141743
44	0x3be40e0b	0.006959682
45	0xbc4f0920	-0.012636453
46	0x3c1519b2	0.0091003645
47	0x3c326884	0.010889176
48	0x3c84bfff	0.016204832
49	0xbc2251e3	-0.009907219
50	0xbc90da57	-0.017682238
51	0xbc442911	-0.011972682
52	0xbc9493b3	-0.018136835
53	0x3ccea1fe	0.025223728
54	0x3c603dc0	0.013686597
55	0x3c5449b6	0.012957027
56	0x3c67fd62	0.014159532
57	0xbbf3393f	-0.0074225958
58	0x3ca29114	0.01984457
59	0xbc0479cc	-0.008085679
60	0x3b2445f3	0.0025066107
61	0xbcacc26d	-0.021088803
62	0x3c6cad23	0.014445576
63	0xb9d398c2	-0.0004035887
64	0x3c36d446	0.011159008
65	0xbb1b7bbe	-0.002372488
66	0x3ccc96b2	0.0249742
67	0xbc3be724	-0.011468682
68	0xbc964e24	-0.018347807
69	0xbc828b36	-0.015935522
70	0x3cb6c380	0.022310019
71	0x3bdce587	0.006741229
72	0x3cca7414	0.024713553
73	0xbc9bcebf	-0.019019483
74	0xbcb432ec	-0.021996938
75	0xbc8901cf	-0.016724495
76	0xbbb632bf	-0.0055602486
77	0x3ba112ba	0.0049155625
78	0x3c00f438	0.007870726
79	0x3c84de3f	0.016219256
80	0xbc3173e1	-0.01083085
81	0xbc88222c	-0.016617857
82	0x3c345a4f	0.011007859
83	0xbc3858e0	-0.011251658
84	0x3c5bc136	0.013412764
85	0xbc32982c	-0.010900538
86	0x3c4f35e9	0.0126471305
87	0xbc611b66	-0.013739442
88	0xbb613e8d	-0.0034369559
89	0x3b3a1718	0.0028395113
90	0x3c09693c	0.008386906
91	0xbc60c58d	-0.013718975
92	0x3c82567e	0.015910383
93	0x3c8737ec	0.016506158
94	0xbc547653	-0.012967664
95	0xbc8a720c	-0.016900085
96	0x3c4722e9	0.012154319
97	0xbc8eb1cf	-0.01741877
98	0xbc06df0a	-0.008231888
99	0xbce6c40a	-0.02816965
100	0xbc06f94a	-0.008238146
101	0xba7b541a	-0.0009587422
102	0xbc5bcec7	-0.013415999
103	0xbc67029e	-0.014099745
104	0xbab783da	-0.0014001087
105	0xbc2993ad	-0.01035015
106	0xbc3a56b2	-0.011373209
107	0xbb80f487	-0.0039354
108	0xbca3b2c8	-0.01998271
109	0xbc435bbf	-0.011923729
110	0x3cf1d466	0.029520225
111	0x3c5f2c6f	0.013621434
112	0x3c4f4bbf	0.012652337
113	0xbcb7b4c6	-0.022425067
114	0xbc93885b	-0.018009355
115	0xbbde5e8c	-0.006786173
116	0x3c092384	0.008370284
117	0xbc85fc17	-0.016355557
118	0xbb2bce62	-0.0026215543
119	0xbc516a92	-0.012781756
120	0x3bca2461	0.0061688875
121	0xbc12db4b	-0.008963416
122	0x3b95468f	0.0045555304
123	0x3af37ad2	0.0018576032
124	0xbbf49d00	-0.007465005
125	0xbbf33cc3	-0.007423015
126	0xbb0e5670	-0.0021719001
127	0xbc7578f6	-0.014982453
128	0x3c721e99	0.014777803
129	0xbc0523dc	-0.008126225
130	0x3cef511a	0.029213477
131	0x3c1dc55e	0.009629576
132	0xbca4e09c	-0.020126633
133	0x3c1ac4f8	0.009446375
134	0xbc24a8fc	-0.010050055
135	0xbc280628	-0.010255374
136	0xbc16ee0a	-0.009212026
137	0xbcb18cb4	-0.021673538
138	0x3c0aec0a	0.008479128
139	0xbb937307	-0.0044997963
140	0x3bc0ba56	0.005881588
141	0xbc9b81c4	-0.018982776
142	0x3cc20cea	0.023687799
143	0xbc1881a3	-0.009308252
144	0x37bd8880	2.2594118e-05
145	0x3c44ead7	0.012018881
146	0x3ba2073f	0.0049447115
147	0x3caa40cc	0.02078285
148	0x3cec42b3	0.028840398
149	0xbc881dc0	-0.016615748
150	0x39c1f400	0.00036993623
151	0xbb15025f	-0.002273701
152	0x3ba89e72	0.0051458413
153	0xbc494070	-0.0122834295
154	0x3cbf5415	0.023355523
155	0xbc289768	-0.010290004
156	0x3c6d37ed	0.014478666
157	0x3bc6c815	0.006066332
158	0x3b984eb1	0.0046480526
159	0xbc3261cd	-0.010887575
160	0x3c917890	0.017757684
161	0x3c0ebdd7	0.0087122535
162	0x3b1ef740	0.002425626
163	0xbc894b97	-0.016759677
164	0x3c07adac	0.008281153
165	0x3b9c0ecd	0.0047625066
166	0xbc687dc8	-0.014190145
167	0x3ca143bb	0.019685617
168	0x3b448242	0.0029984866
169	0xbc4c4635	-0.012467911
170	0xbc554fdc	-0.013019528
171	0xbb2ca71b	-0.002634472
172	0x3c093e58	0.00837668
173	0xbba4f5b8	-0.005034175
174	0xbc99b4d1	-0.018762978
175	0xbbf2c242	-0.0074084112
176	0xbc55ff86	-0.01306141
177	0x3c83480b	0.016025564
178	0x3c180773	0.00927912
179	0xbc8f7fc0	-0.01751697
180	0xbb427732	-0.0029673097
181	0x3c6a8004	0.014312748
182	0x3bf76b72	0.0075506503
183	0xbbb0c353	-0.005394378
184	0x3be21db5	0.006900514
185	0x3c0f10dc	0.008732047
186	0xba379970	-0.000700376
187	0xbb509d2b	-0.003183196
188	0xbc66e7f4	-0.014093388
189	0x3bf4cd9b	0.007470799
190	0xbbdab16d	-0.006673983
191	0xbc88c3bb	-0.016694894
192	0x3c7b2ba9	0.015330234
193	0x3ca44add	0.020055229
194	0x392e2141	0.00016606321
195	0xb7c051f5	-2.2926348e-05
196	0x3c139634	0.009007979
197	0x38f9e55d	0.000119159675
198	0x3bc04f02	0.0058687935
199	0x3c5b538e	0.01338662
200	0xbc4c9aa5	-0.012488042
201	0xba1b2a25	-0.0005919061
202	0x3c7cd7d9	0.0154323215
203	0x3c12934c	0.008946251
204	0x3a90f330	0.0011058804
205	0xbbf42fec	-0.007452002
206	0xbc5ee496	-0.013604304
207	0xbc5a59f1	-0.013327108
208	0xbbf8717d	-0.007581888
209	0x3c703813	0.014661807
210	0x3c4a1f17	0.012336514
211	0x3c836728	0.0160404
212	0xbc2ba506	-0.010476356
213	0xbc23c330	-0.009995267
214	0x38d04012	9.930147e-05
215	0x3cd9af1a	0.026572753
216	0x3b8d56f6	0.004313345
217	0xbbbf998a	-0.0058471607
218	0x3bd9185b	0.006625218
219	0xba5421b1	-0.00080921786
220	0xbc79410e	-0.015213264
221	0x3c7f2ded	0.015574914
222	0xbc132add	-0.008982387
223	0xbc0fd4cc	-0.008778762
224	0xbccd916a	-0.025093753
225	0x3c8e6470	0.017381877
226	0x3c68fe47	0.014220781
227	0x3c4d362d	0.012525124
228	0xbc4f5f68	-0.012657024
229	0xbccc8d60	-0.024969757
230	0xbc98203b	-0.018570056
231	0x3cc3cbab	0.023900827
232	0x3c94f503	0.018183237
233	0x3cbdc524	0.023165293
234	0x3c9ec111	0.01937917
235	0xba5e2cec	-0.0008475322
236	0x3b263602	0.002536178
237	0xbc0dd5f2	-0.008656966
238	0xbc935f25	-0.017989704
239	0xbcd6dcb4	-0.026228286
240	0x3c8855a0	0.016642392
241	0xbb547421	-0.003241785
242	0x39ed8963	0.00045306524
243	0xbc21285c	-0.009836283
244	0x3b189703	0.002328337
245	0xbc57f1ed	-0.013180238
246	0xbc645df2	-0.013938414
247	0x3b773faf	0.0037727167
248	0xbbc754b0	-0.0060830936
249	0x3c330e7f	0.010928749
250	0xbb0bed93	-0.0021351322
251	0xbc8507b4	-0.016239025
252	0xbb02c827	-0.0019955726
253	0xbc51a93b	-0.012796695
254	0xba936ca1	-0.0011247584
255	0xbcd085a9	-0.02545436

net.0.bias f4 [64]
0	0x3c8e5612	0.017375026
1	0x3ce13267	0.027489854
2	0x3c25eea7	0.0101277
3	0x3c6cf7a2	0.014463337
4	0xbbfa6086	-0.007640901
5	0xbbdc3e26	-0.006721276
6	0x3c52698d	0.012842548
7	0x3bd40008	0.0064697303
8	0x3ccdf6b7	0.025142057
9	0xb9c91b07	-0.00038357844
10	0xba12c545	-0.00055988535
11	0x3cf420be	0.029800769
12	0x39b8b1ea	0.0003522777
13	0x3c9fba88	0.019498125
14	0xbae1495c	-0.0017188
15	0xbb197edb	-0.002342156
16	0x3c90d819	0.017681168
17	0x3c07821d	0.0082707675
18	0xbc808c87	-0.015692009
19	0xbc9cdbe4	-0.01914782
20	0xbbc316b1	-0.0059536328
21	0x3b63e64c	0.0034774719
22	0x3d058794	0.0326
23	0xbc8ad5fe	-0.016947743
24	0x3b4da344	0.0031377831
25	0xbb19431d	-0.002338595
26	0x3c4e22c2	0.012581529
27	0x3c8c501d	0.017128045
28	0x3c131fa8	0.008979715
29	0xbb210bd4	-0.00245737
30	0x3bd0e244	0.006374629
31	0x3ced2245	0.028947005
32	0x3aa4d82c	0.0012576631
33	0x3c183a14	0.009291191
34	0x3c799404	0.015233044
35	0x3cef8523	0.02923829
36	0x3c8f5d35	0.0175005
37	0x3c85127f	0.016244171
38	0xbc2c516f	-0.010517462
39	0x3ca27de1	0.019835414
40	0xbc197b49	-0.009367772
41	0x3be3cb00	0.0069516897
42	0x3cf8d587	0.030375255
43	0xbabe6bf2	-0.001452802
44	0x39e58666	0.00043778418
45	0x3bba9a08	0.0056946315
46	0x3c4bc2ca	0.012436578
47	0xbc87a6b6	-0.016558986
48	0xbc0889e9	-0.008333662
49	0xbc936615	-0.017993012
50	0xbc444168	-0.011978485
51	0x3a0d8c8d	0.0005399667
52	0x3cbe005b	0.023193529
53	0x3c8df8c1	0.01733053
54	0xbb492ec0	-0.0030698031
55	0x3c4caf3f	0.012492954
56	0x3bce0f47	0.0062884423
57	0x3c707954	0.014677364
58	0x3ce38528	0.027773455
59	0x3c2d7e45	0.010589187
60	0x3afd02db	0.0019303219
61	0x3ceb9b5d	0.028760606
62	0xbc435dcf	-0.011924221
63	0xbb867da1	-0.0041043316

net.2.weight f4 [64, 64]
0	0x3b80a698	0.0039261095
1	0x3d875977	0.06608861
2	0xbd1ef06d	-0.038803507
3	0x3dc9c41a	0.098518565
4	0x3dc4214e	0.09576665
5	0xbdec0a1e	-0.11525367
6	0x3d4044dd	0.046940673
7	0xbde2e2cb	-0.110784136
8	0xbd826ce6	-0.06368427
9	0xbdab835f	-0.083746664
10	0x3ccc94a2	0.024973217
11	0xbd046568	-0.03232327
12	0x3c4ef169	0.012630799
13	0xbc84fd70	-0.01623413
14	0xbda034cf	-0.078225724
15	0xbd3dea6c	-0.04636614
16	0xbdf17f85	-0.117919005
17	0xbe0242d4	-0.12720805
18	0x3cf93ffb	0.030426016
19	0x3d16a08c	0.036774203
20	0xbd7523e5	-0.059848685
21	0xbd992f19	-0.07479686
22	0x3dbc9a39	0.09209103
23	0xbc151a6f	-0.009100541
24	0xbd64e2ae	-0.05588024
25	0xbe04cdc5	-0.1296912
26	0x3db5e2f8	0.088811815
27	0x3dc6c055	0.09704653
28	0xbd733b1d	-0.059382547
29	0xbd0e7cb4	-0.034786895
30	0xbd87a147	-0.06622558
31	0xbd73fee1	-0.059569243
32	0xbc4db461	-0.012555213
33	0x3db22f62	0.08700444
34	0xbd94b98a	-0.07261951
35	0xbc7be2af	-0.01537387
36	0x3d655170	0.055985868
37	0x3d9b31ea	0.0757788
38	0xbc28d7e1	-0.010305376
39	0x3d34d76b	0.04415075
40	0x3dee3d6c	0.11632809
41	0xbd446b78	-0.047954053
42	0xbd11c7be	-0.03559088
43	0x3d745b80	0.059657574
44	0xbb94806e	-0.0045319116
45	0x3dc2c67e	0.09510516
46	0x3dc25e39	0.09490628
47	0x3d99a26c	0.07501683
48	0x3dfbd261	0.12295986
49	0x3dae77a3	0.08518913
50	0x3de9cc08	0.11415869
51	0x3c491dc3	0.012275162
52	0x3dd61e82	0.10455038
53	0x3db87c2c	0.09008059
54	0xbbb59ca8	-0.0055423565
55	0xbd716f14	-0.058943823
56	0x3d550c5d	0.052013744
57	0xbd9e43ec	-0.07727799
58	0x3d265e01	0.040616993
59	0xbd1d86da	-0.038458683
60	0xbe0b5c61	-0.13609459
61	0x3d1eae9e	0.038740747
62	0xbd938b99	-0.072043605
63	0x3dd12637	0.10212367
64	0x3d154761	0.036445025
65	0xbdb502c9	-0.08838422
66	0xbbc10695	-0.005890677
67	0xbd0c8866	-0.034309767
68	0xbcb119ab	-0.021618685
69	0xbd960533	-0.073252104
70	0x3d215125	0.039384026
71	0xbd25881e	-0.040413015
72	0xbce0fa50	-0.027463108
73	0x3dc07f10	0.09399235
74	0xbc91625f	-0.017747102
75	0xbbaaa631	-0.0052078
76	0x3cb02db4	0.021506168
77	0x3dcbcbb7	0.09950965
78	0x3d86e00b	0.065857016
79	0xbc494562	-0.012284609
80	0xbd37981f	-0.04482281
81	0xbd97572e	-0.07389675
82	0x3dd41792	0.10356058
83	0xbd60673e	-0.05478596
84	0x3d32c568	0.043645293
85	0x3c339463	0.010960671
86	0x3ddfb573	0.109232806
87	0x3d8dc2d1	0.06921924
88	0xbdcfa7e4	-0.101394445
89	0xbdd562c0	-0.10419226
90	0x3da3d5bb	0.0799975
91	0x3d04fc97	0.03246745
92	0x3d7242ce	0.05914574
93	0xbd89c37d	-0.067267396
94	0x3dfebf9c	0.1243889
95	0xbd0c10f0	-0.03419584
96	0x3ccf8f30	0.025336832
97	0xbd921e3b	-0.07134672
98	0xbdce3e52	-0.100704804
99	0x3cd4f995	0.025997916
100	0xbd6f3c80	-0.058407307
101	0xbb90a86a	-0.004414608
102	0x3dc81886	0.097703025
103	0x3d96a09a	0.07354851
104	0x3e0083fd	0.1255035
105	0x3dd84c2f	0.10561406
106	0x3dbf4f8a	0.09341343
107	0xbc5841ad	-0.013199252
108	0x3e263c56	0.16233954
109	0x3d6693bc	0.056293234
110	0xbd3bc3c0	-0.04584098
111	0xbdb247a8	-0.087050736
112	0x3da14d4a	0.0787607
113	0x3c867baf	0.016416399
114	0x3ca656fe	0.020305153
115	0x3dd588ee	0.10426508
116	0x3d886138	0.06659168
117	0xbd8b8edb	-0.06814357
118	0x3cadba58	0.02120702
119	0x3d95ef0b	0.073209845
120	0xbd8d74b9	-0.06907029
121	0xbdf555cf	-0.11979257
122	0xbd655ade	-0.05599486
123	0xbd8ec0df	-0.06970381
124	0x3baabd19	0.0052105305
125	0x3d8c3cc2	0.06847526
126	0x3c34b733	0.011030006
127	0xbdb63717	-0.08897226
128	0xbc1fbf6a	-0.0097502265
129	0x3db542ef	0.08850657
130	0x3db9fee7	0.09081822
131	0xbd582d1b	-0.05277739
132	0x3d24d1d9	0.04023919
133	0x3def3b02	0.11681177
134	0xbced7e6d	-0.028990949
135	0x3dbb1b35	0.09136049
136	0xbda2fcb0	-0.079583526
137	0xbdd64790	-0.10462868
138	0xbcfbe989	-0.030751007
139	0x3de27f2b	0.110594116
140	0xbdbf0bec	-0.09328446
141	0xbcb56b9f	-0.022146044
142	0x3d73c6a5	0.059515614
143	0xbd6d744c	-0.057972237
144	0x3cac0189	0.020996826
145	0xbd87cf25	-0.066313066
146	0xbde894d1	-0.113565095
147	0x3dc579be	0.09642361
148	0xbd788b1a	-0.060679533
149	0x3de64aa0	0.11244702
150	0x3c779fff	0.01511383
151	0xbdbe9a18	-0.09306735
152	0x3ddbcd76	0.10732548
153	0xbcb19e51	-0.021681936
154	0xbc7df819	-0.015501046
155	0xbdc134de	-0.09433912
156	0xbbfd775f	-0.0077351774
157	0xba854079	-0.0010166309
158	0xbdc459a8	-0.09587413
159	0x3dd2d255	0.10294024
160	0xbe0105d6	-0.12599882
161	0xbdf3865a	-0.1189086
162	0xbc777f6b	-0.015106062
163	0xbd16800c	-0.03674321
164	0x3da0a43d	0.07843826
165	0xbd29403d	-0.041321028
166	0x3d8b19f1	0.06792057
167	0x3d84a7e9	0.06477339
168	0xba9b4087	-0.0011844792
169	0x3dd175f7	0.10227578
170	0xbd8a2dac	-0.067469925
171	0x3e10e13b	0.14148419
172	0x3cfe6d7c	0.031058066
173	0x3d4cfc11	0.050045077
174	0x3db87ef0	0.090085864
175	0x3dd8ec19	0.10591907
176	0x3d9f20d0	0.0776993
177	0x3dff706c	0.12472615
178	0x3db0e03c	0.08636519
179	0xbd7c7b37	-0.061640944
180	0x3da59e9b	0.08086892
181	0xbd341f7d	-0.043975342
182	0x3de7b97e	0.11314677
183	0x3e034fa2	0.12823346
184	0xbdb4ec0b	-0.08834084
185	0xbaefe2cf	-0.0018301847
186	0xbd282698	-0.04105243
187	0x3c18820a	0.0093083475
188	0x3d4a7632	0.049429126
189	0x3c835b96	0.016034883
190	0x3d79ab6c	0.060954496
191	0x3dde7989	0.10863025
192	0xbbde9652	-0.006792822
193	0xbd605ee3	-0.05477799
194	0xbcf4850a	-0.029848594
195	0x3ce606ab	0.028079351
196	0x3d479bd8	0.04873261
197	0xbdb5ff2e	-0.08886562
198	0xbddf4ac6	-0.10902934
199	0xbde849f0	-0.113422275
200	0x3c388857	0.011262975
201	0xbd80b05c	-0.06283638
202	0xbd286a16	-0.041116796
203	0xbd834845	-0.06410269
204	0x3dc9a792	0.098464146
205	0xbc80aed5	-0.015708366
206	0xbd26968e	-0.040670924
207	0xbca51d0f	-0.020155458
208	0xbd20d925	-0.039269585
209	0xbdd7ec91	-0.10543168
210	0xbdc1d1ee	-0.09463869
211	0x3dc7a575	0.09748355
212	0xbde00759	-0.109389015
213	0x3d506d60	0.050885558
214	0x3c4351c3	0.011921349
215	0xbdefdbec	-0.11711869
216	0x3d14e389	0.036349807
217	0xbda52eb3	-0.08065548
218	0x3dc9e592	0.0985824
219	0x3dd86179	0.105654664
220	0xbc00ff49	-0.007873365
221	0xbda632f5	-0.08115188
222	0xbdc301bf	-0.095218174
223	0x3d9fd5d3	0.078044556
224	0x3d5910a1	0.052994374
225	0x3cedb379	0.029016243
226	0x3e003612	0.12520626
227	0xbd87f8a8	-0.06639224
228	0x3b872f2a	0.0041254954
229	0xbd6d76e9	-0.05797473
230	0x3bc00f3e	0.005861192
231	0xbc90b3e0	-0.017663896
232	0x3d2488f0	0.040169656
233	0xbd32810b	-0.043580096
234	0xbda0c4bb	-0.07850023
235	0xbda1d8dd	-0.079026915
236	0x3e06e4a0	0.13173151
237	0xbc8ea369	-0.017411904
238	0x3dd01a46	0.10161261
239	0xbdbd98cd	-0.0925766
240	0x3b8f10b8	0.0043660067
241	0x3b767eec	0.0037612272
242	0x3b0cab3f	0.0021464375
243	0xbdc22715	-0.094801106
244	0xbdce1271	-0.10062111
245	0xbe047305	-0.12934501
246	0xbc2f5f3a	-0.010703856
247	0xbda89cea	-0.08233054
248	0xbdb7b569	-0.08970148
249	0x3c687330	0.014187619
250	0x3d55f785	0.052238006
251	0xbe04b7f0	-0.12960792
252	0xbd56e0ee	-0.052460603
253	0x3d988209	0.07446677
254	0xbca4f4df	-0.020136295
255	0x3d497a55	0.04918893

net.2.bias f4 [64]
0	0x3c12bf71	0.008956776
1	0xbd3b5af1	-0.045741025
2	0x3da23c7f	0.07921695
3	0xbd34f2b1	-0.04417676
4	0xbd1776fd	-0.03697871
5	0xbd0789cf	-0.03309041
6	0x3dd598db	0.104295455
7	0xbdf8a522	-0.121408716
8	0x3d2ba99c	0.0419098
9	0xbd1255b4	-0.035726264
10	0x3d0356dc	0.032065257
11	0xbdb7581d	-0.08952353
12	0xbdd54071	-0.10412682
13	0x3cf4a02c	0.029861532
14	0xbd82e011	-0.063903935
15	0xbdf53034	-0.11972085
16	0x3d848f56	0.06472652
17	0x3dc43aaf	0.095815055
18	0x3cff8795	0.03119258
19	0x3d38f328	0.045153767
20	0xbd88b592	-0.06675257
21	0x3d886c93	0.06661334
22	0x3c717cd6	0.014739236
23	0xbc873a19	-0.016507195
24	0x3de4512a	0.11148293
25	0x3d3634b8	0.04448387
26	0xbd8c7dd0	-0.06859934
27	0xbc15b733	-0.009137916
28	0x3dcd955e	0.10038255
29	0x3d0eaf43	0.03483511
30	0xbcab0a92	-0.020879064
31	0xbdd182cd	-0.102300264
32	0xbc47f05c	-0.012203302
33	0x3e092aa1	0.13395168
34	0x3e03a74a	0.12856784
35	0x3d1f61a6	0.038911484
36	0xbdde871f	-0.10865616
37	0xbdabbceb	-0.083856426
38	0x3db3e94f	0.087847345
39	0xbcb183b2	-0.021669243
40	0x3dcf0ffd	0.101104714
41	0xbd9b1dc8	-0.0757404
42	0xbccf5dd8	-0.025313303
43	0xbb8510ba	-0.004060832
44	0xbd40e2bd	-0.047091234
45	0xbc23a700	-0.009988546
46	0x3bb95620	0.005656019
47	0xbda2019d	-0.07910464
48	0x3df88749	0.121351786
49	0x3da5941f	0.080848925
50	0x3d8afe56	0.06786792
51	0xbade4217	-0.0016956952
52	0xbc48b85c	-0.012250986
53	0xbdecbe48	-0.11559731
54	0xbba7b33a	-0.005117801
55	0x3dbc5d79	0.09197516
56	0xba79ad0f	-0.0009524384
57	0xbd3fa9fa	-0.04679296
58	0x3d93fd82	0.07226087
59	0x3de2e4b6	0.110787794
60	0xbb31b1d4	-0.002711405
61	0xbd2d8de6	-0.042371653
62	0x3d985786	0.07438569
63	0xbdbbef16	-0.091764614

net.4.weight f4 [8, 64]
0	0x3dcfecf7	0.10152619
1	0x3d3fab0e	0.04679399
2	0xbd883f51	-0.06652702
3	0xbc851d83	-0.016249424
4	0xbddc26da	-0.10749598
5	0x3bde9cd2	0.006793597
6	0x3d26a3cd	0.040683556
7	0xbd8781dd	-0.06616566
8	0xbe0f9482	-0.14021495
9	0xbd1a2b32	-0.03763885
10	0xbbe2da6e	-0.0069230115
11	0xbde079d3	-0.10960736
12	0x3d8c5c15	0.06853501
13	0x3e1857f6	0.14877304
14	0xbdbd021d	-0.09228919
15	0x3d93259b	0.07184907
16	0x3d522181	0.051301483
17	0x3cc0af15	0.023520986
18	0x3ca20d0a	0.019781608
19	0xbdb6c4bc	-0.08924243
20	0x3dcb9381	0.099402435
21	0x3d560e11	0.05225951
22	0xbda93b5f	-0.08263277
23	0xbdd6488e	-0.104630575
24	0x3e167acc	0.14695281
25	0xbd8e55cb	-0.069499575
26	0xbbe31721	-0.0069302474
27	0xbd1fdc05	-0.039028186
28	0x3e2a33c7	0.16621314
29	0xbd2fed7d	-0.042951096
30	0x3cd64cd7	0.026159687
31	0xbdd0d92b	-0.101976715
32	0x3df12df7	0.11776345
33	0x3da56dc6	0.08077578
34	0xbd95a878	-0.073075235
35	0xbe05b9b9	-0.13059129
36	0x3dc6e649	0.09711892
37	0xbc480213	-0.012207526
38	0x3cd10d6d	0.025519097
39	0xbdb175d0	-0.08665049
40	0xbd0d3b71	-0.034480516
41	0xbdb872fa	-0.09006305
42	0xbd2ce574	-0.04221101
43	0x3da554aa	0.08072789
44	0x3d868324	0.06567982
45	0x3ceac58c	0.02865865
46	0xbdd6c76e	-0.10487257
47	0x3de6940d	0.11258707
48	0xbd5fea32	-0.054666705
49	0x3dafcb25	0.085836686
50	0x3dfaa7f7	0.12239068
51	0xbd3f22ee	-0.04666417
52	0xbd1644b0	-0.0366866
53	0x3d68d8be	0.056847326
54	0xbd3e1ae6	-0.04641237
55	0xbc8eddeb	-0.017439803
56	0x3d729817	0.059227075
57	0xbd8972b6	-0.067113325
58	0x3dc4d26a	0.09610446
59	0xbe0396d1	-0.128505
60	0xbd62dbbe	-0.055385344
61	0x3c2b5809	0.010458001
62	0xbdcdd3f8	-0.100501955
63	0x3dcadb96	0.09905164
64	0xbd41ade5	-0.04728498
65	0x3e224344	0.15845972
66	0x3d28290b	0.041054767
67	0xbd8d97a7	-0.06913691
68	0xbd5d9f74	-0.054107144
69	0xbdbe1289	-0.09280879
70	0xbcce48a8	-0.02518113
71	0xbd25bd52	-0.040463753
72	0xbc248336	-0.010041049
73	0x3cacd5e7	0.02109809
74	0x3dc79125	0.09744481
75	0xbd192165	-0.037385363
76	0x3b44d492	0.0030033928
77	0x3e03d0ac	0.12872571
78	0xbbbd227f	-0.0057719345
79	0x3c43dcf1	0.011954532
80	0xbcd2fe24	-0.02575595
81	0x3c6d73ec	0.01449297
82	0x3dd59029	0.10427887
83	0x3d732dfe	0.059370033
84	0x3d77dcee	0.06051343
85	0xbdafd238	-0.08585018
86	0x3d29d555	0.041463215
87	0x3c8a887f	0.01691079
88	0x3d59c1b9	0.053163264
89	0x3d54baf9	0.051936124
90	0x3bc4a005	0.006000521
91	0xbdfa2483	-0.12213995
92	0x3e1da965	0.1539665
93	0x3dad0a1e	0.08449195
94	0x3d96ed47	0.07369476
95	0xbdcc9758	-0.09989804
96	0xbd0c0a9e	-0.034189813
97	0xbdf6004c	-0.120117754
98	0xbd81ddd8	-0.063411415
99	0xbde7278b	-0.11286839
100	0x3dad9433	0.084755324
101	0xbdc5c91d	-0.096575
102	0x3d96c094	0.0736095
103	0xbcbd2c7e	-0.023092505
104	0xbd961776	-0.073286936
105	0x3d3053ad	0.04304855
106	0xbe008a35	-0.12552722
107	0xbc857461	-0.016290845
108	0xbd303f0f	-0.043028887
109	0xbdb5bfac	-0.08874449
110	0xbc8ec839	-0.017429458
111	0x3dd1bc10	0.10240948
112	0x3d0d0883	0.034431946
113	0x3c67cbaf	0.014147683
114	0xba803467	-0.0009781242
115	0x3dfbf86f	0.12303244
116	0x3be23d1c	0.0069042575
117	0x3d42621e	0.047456853
118	0xba45291c	-0.00075210794
119	0xbc4be2e3	-0.012444231
120	0x3dc1b039	0.0945744
121	0x3c926e2b	0.017874798
122	0xbdf98651	-0.12183822
123	0x3cc3dabd	0.023908013
124	0x3dadad0b	0.08480271
125	0x3d350298	0.044191927
126	0x3ddf7eff	0.109128945
127	0xbc9ddc2c	-0.019270025
128	0x3e084d3f	0.13310717
129	0xbc994bfe	-0.018712994
130	0xbe158a36	-0.14603505
131	0x3d13697d	0.035989273
132	0xbe0d8f7d	-0.13824268
133	0x3d7cf163	0.06175364
134	0x3d86dc64	0.06585005
135	0xbb0874e7	-0.0020821632
136	0x3d0177c9	0.031608377
137	0x3dd3f2f8	0.10349077
138	0xbdbc7afd	-0.09203146
139	0xbdd1130c	-0.10208711
140	0x3deeee21	0.11666513
141	0x3d93e787	0.07221895
142	0xbddc9897	-0.10771292
143	0x3dd3712c	0.1032432
144	0xbd8814d6	-0.06644599
145	0x3dad74e3	0.0846956
146	0x3dec2fd2	0.115325585
147	0xbdac2b9a	-0.08406754
148	0x3d9822de	0.074285254
149	0xbd2b8c82	-0.041882046
150	0x3d029fea	0.031890787
151	0xbdd8ce66	-0.105862424
152	0x3e1207bd	0.14260764
153	0xbda1f5b4	-0.07908192
154	0x3db24d0b	0.08706101
155	0xbdd1aa55	-0.102375664
156	0x3dad2d41	0.08455897
157	0xbd34cbd3	-0.044139694
158	0xbd97c80b	-0.07411202
159	0x3dc1e31a	0.09467144
160	0xbd24445a	-0.040104248
161	0xbd9ac9db	-0.07558032
162	0xbdb6bce9	-0.089227505
163	0x3c643740	0.013929188
164	0xbd6213a7	-0.055194523
165	0x3daca91a	0.08430691
166	0x3d4c85e4	0.049932376
167	0xbc9103ca	-0.017702002
168	0x3dbaa4a3	0.09113433
169	0x3b976cd6	0.0046211286
170	0xbd288aa6	-0.04114785
171	0xbcd05d81	-0.025435211
172	0x3dd49b82	0.10381223
173	0xbaa76715	-0.001277181
174	0x3caeed86	0.021353494
175	0x3df1855e	0.11793016
176	0x3d5e4d13	0.054272722
177	0xbd9f0ecb	-0.077664934
178	0x3da72942	0.08162166
179	0x3ddd2aeb	0.107992016
180	0x3e16fd8b	0.14745156
181	0xbd0983ce	-0.033572964
182	0x3bb7f9d7	0.0056145
183	0xbd33b01a	-0.043869115
184	0x3da252b0	0.07925928
185	0xbd94a2f3	-0.072576426
186	0xbc719664	-0.014745329
187	0x3d7463de	0.059665553
188	0x3dc8af1e	0.09799026
189	0x3dc4b1e4	0.096042424
190	0x3da76848	0.08174187
191	0xbcc7df58	-0.02439849
192	0x3d20c97e	0.039254658
193	0x3dbfc564	0.09363821
194	0xbdd0c51d	-0.101938464
195	0x3db3567b	0.08756729
196	0x3d30772c	0.0430824
197	0xbd476fd1	-0.04869062
198	0x3cfe3e2f	0.03103551
199	0x3d8a22f2	0.067449465
200	0xbdb992f8	-0.09061235
201	0x3c2dbab2	0.010603594
202	0xbde11b06	-0.109914824
203	0xbd515b11	-0.05111224
204	0x3ccdb456	0.025110405
205	0x3e07328c	0.13202876
206	0x3c505240	0.012714922
207	0xbcacf81e	-0.021114405
208	0xbd53377a	-0.05156658
209	0xbc7a115a	-0.015262926
210	0xbc52f1bd	-0.012875018
211	0x3dec6917	0.11543482
212	0x3dec93aa	0.11551602
213	0x3d9220f5	0.07135192
214	0x3c97b862	0.018520538
215	0xbe16e2cf	-0.14734958
216	0x3d9c86e1	0.076429136
217	0xbca9a114	-0.02070669
218	0xbd05219a	-0.032502748
219	0xbd061a62	-0.032740004
220	0x3bd4ff76	0.00650018
221	0x3e1caad2	0.15299538
222	0x3d387deb	0.04504196
223	0xbd63b056	-0.05558809
224	0x3d75b999	0.059991453
225	0xbd800dcc	-0.062526315
226	0xbd41e9e1	-0.047342185
227	0xbdbf6e86	-0.093472525
228	0x3df1ff8d	0.118163206
229	0x3d8ceb6d	0.068808414
230	0xbbf73312	-0.00754393
231	0xbc8041df	-0.01565641
232	0x3c9b5e02	0.018965725
233	0x3d613972	0.054986425
234	0xbd795c6c	-0.060879156
235	0xbdf6ef81	-0.120574005
236	0xbc887fb9	-0.016662465
237	0xbc957532	-0.01824436
238	0xbc93dbce	-0.018049147
239	0x3dc68c48	0.09694725
240	0xbd131d4c	-0.03591661
241	0x3d342e25	0.04398932
242	0xbd04400c	-0.032287642
243	0x3e0011c6	0.1250678
244	0x3e25388b	0.1613485
245	0xbd08a1c0	-0.03335738
246	0xbc066502	-0.008202793
247	0xbd775789	-0.060386214
248	0xbd13cbda	-0.03608308
249	0x3de0a7f2	0.10969533
250	0xbd3b4842	-0.045723207
251	0xbdf86ee6	-0.12130527
252	0x3db2e39d	0.0873482
253	0x3e0e84f4	0.13917905
254	0x3cc77f7c	0.024352781
255	0x3d672a66	0.05643692

net.4.bias f4 [8]
0	0xbd9db214	-0.07699981
1	0x3dacd1e5	0.08438472
2	0x3ccf36dd	0.025294716
3	0xbd9977d8	-0.074935615
4	0xbd10b061	-0.035324458
5	0xbe00ee90	-0.12591004
6	0xbd6635b0	-0.056203544
7	0x3dbddea3	0.0927098
