runs/4_hour_forecasting/275/best_model.pt (torch, 362873 bytes, 6 tensors)

net.0.weight f4 [64, 1335]
0.016796397 0.02651116 -0.021740552 0.0029985283 -0.0020420144 0.0037816337 -0.011994212 0.020328777
0.016998176 -0.03888795 0.031970095 0.013879342 0.012108615 0.004082134 0.019940728 -0.018904034
0.020447027 -0.0013959107 -0.006923091 -0.003247852 -0.0075674127 -0.0027518084 -0.014755503 0.007457461
-0.02309488 -0.023493562 -0.0025180052 -0.010355486 -0.0009871469 -0.02977646 0.012598577 -0.029502751
0.02087166 0.0018645143 -0.0065190406 0.0093324995 -0.0076540145 0.021631198 0.00572706 -0.008909411
0.0042648134 -0.016780265 0.008697603 0.009753033 0.00855624 -0.015118688 0.012783189 -0.0067684334
0.0048790886 -0.024166014 -0.033879858 -0.017203461 -0.023883933 0.025208581 0.009674261 0.009669801
0.010797287 -0.006651023 0.01929974 -0.013382841 -0.0026819205 -0.024413753 0.009708483 -0.0055900305
0.009828662 -0.009222432 0.027010866 -0.019555427 -0.013439216 -0.018871246 0.025767209 0.009476893
0.029432563 -0.019185932 -0.028634122 -0.017855408 -0.022683207 0.011542255 0.01112471 0.022944245
-0.010736176 -0.019562209 0.020774538 -0.013128224 0.022763671 -0.020447424 0.022308823 -0.014198509
-0.011302962 0.0051755295 0.007489637 -0.024180453 -0.0070446376 0.021704273 -0.022718335 -0.013233121
0.026596773 -0.016967675 -0.024995765 -0.019974826 -0.008857945 -0.00029715567 -0.004082089 -0.013353377
-0.017896973 -0.014485995 -0.021087993 -0.014464235 -0.026507305 -0.012084002 0.02959469 0.005763565
0.0008812009 -0.02630881 -0.025574928 -0.0038038515 0.010234088 -0.026109505 -0.014939619 -0.026939819
-0.0035768952 -0.009365624 -0.0030645023 -0.019923769 -0.026069595 -0.021574415 -0.011277566 -0.020722834
0.020868035 -0.0089096585 0.018923575 0.0017087619 -0.036998466 0.011394011 -0.012705223 -0.01004985
-0.029281368 -0.027963717 0.0030025016 -0.008962257 0.0043442966 -0.024797935 0.02373122 -0.017625596
-0.0059208325 0.008415018 0.008180149 0.020520581 0.031749226 -0.025581978 0.0015136515 -0.00988237
0.0014696525 -0.018344134 0.021901857 -0.0150516005 0.0117585175 0.012564244 0.0061928025 -0.013555394
0.025106806 0.008904727 0.006004079 -0.026699785 0.014904979 -0.0076285736 -0.011590488 0.02428369
0.0063162213 -0.011623957 -0.014761658 0.00361809 0.014019177 -0.00049666426 -0.029001372 -0.0014586747
-0.013379234 0.012267625 0.014793443 -0.021536304 -0.012877359 -0.008360591 0.005781023 -0.01501415
0.01507844 0.011876295 0.0010616205 -0.019366184 -0.0017549716 0.0074691502 -0.009606163 -0.007772583
0.024975011 0.005974462 0.0021150229 -0.01373458 0.0021944724 0.000506006 0.011370394 0.0070023197
-0.024463965 -0.012823955 0.024310695 0.0012818082 0.0017475648 -0.014481653 -0.02013826 -0.022601143
-0.022466645 0.0018234026 0.018780356 0.012007365 -0.023704825 -0.022312159 -0.00716063 0.023949591
0.0022102017 -0.009833974 0.0062891184 -0.023171518 -0.022543233 0.011601898 -0.017232085 -0.010524011
-0.02698078 0.009134395 0.01432907 0.0022467359 -0.029364595 -0.033006337 -0.024149269 0.024359018
0.016195027 0.022243248 0.01747151 0.001140235 -0.0014358694 -0.0132604465 -0.026898392 -0.03067006
0.013664852 -0.008425575 -0.0026596452 -0.018394323 0.00066007423 -0.021745095 -0.015325843 0.0064320858
-0.006703645 0.017266465 -0.0060639647 -0.018441983 -0.00809707 -0.009443083 -0.011687098 -0.024710253
00000000: 9998 893c ef2d d93c 3e19 b2bc f582 443b
00000010: 51d3 05bb 49d5 773b 5f83 44bc 8988 a63c
00000020: c23f 8b3c f948 1fbd 13f3 023d 2e66 633c
00000030: 3663 463c 6cc3 853b bd5a a33c a2dc 9abc
00000040: 8680 a73c fef6 b6ba 19db e2bb ead9 54bb
00000050: 0ff8 f7bb af57 34bb 11c1 71bc b85d f43b
00000060: 7931 bdbc 9275 c0bc 1e05 25bb 0eaa 29bc
00000070: 2763 81ba c3ed f3bc 436a 4e3c c1af f1bc
00000080: 0bfb aa3c b862 f43a ad9d d5bb 57e7 183c
00000090: 87ce fabb e933 b13c 10aa bb3b c7f8 11bc
000000a0: d9bf 8b3b c476 89bc 6480 0e3c 2fcb 1f3c
000000b0: 792f 0c3c 60b4 77bc 9570 513c bcc9 ddbb
000000c0: c3e0 9f3b cef7 c5bc 9bc5 0abd 46ee 8cbc
000000d0: 3da8 c3bc 3a82 ce3c cb80 1e3c 166e 1e3c
000000e0: 1be7 303c d3f0 d9bb 7d1a 9e3c b443 5bbc
000000f0: 29c3 2fbb 5aff c7bc 5410 1f3c 932c b7bb
00000100: 6508 213c af19 17bc e445 dd3c b432 a0bc
00000110: 2830 5cbc df97 9abc c115 d33c f844 1b3c
00000120: 8f1c f13c d12b 9dbc 1b92 eabc 8145 92bc
00000130: 22d2 b9bc ba1b 3d3c 6a44 363c 92f5 bb3c
00000140: c9e6 2fbc ed40 a0bc 5d2f aa3c c317 57bc
00000150: e17a ba3c 5b81 a7bc fec0 b63c dda0 68bc
00000160: 0f30 39bc 7d97 a93b a16b f53b 1616 c6bc
00000170: b4d6 e6bb 29cd b13c cd1b babc bbcf 58bc
00000180: 7ae1 d93c cbff 8abc ebc3 ccbc 3fa2 a3bc
00000190: ea20 11bc 8fcb 9bb9 0bc3 85bb 1fc8 5abc
000001a0: ac9c 92bc ab56 6dbc bac0 acbc 66fb 6cbc
000001b0: d925 d9bc fafb 45bc 9070 f23c 4adc bc3b
000001c0: 6400 673a 9385 d7bc 8382 d1bc 0a4a 79bb
000001d0: e0ac 273c 9ae3 d5bc 4ec5 74bc e5b0 dcbc
000001e0: 586a 6abb 4672 19bc d1d5 48bb 2c37 a3bc
000001f0: e78f d5bc d4bc b0bc 8ac5 38bc efc2 a9bc
00000200: 71f3 aa3c d1f9 11bc 9d05 9b3c 89f8 df3a
00000210: b48b 17bd f2ad 3a3c 9129 50bc 20a8 24bc
00000220: 7bdf efbc 2a14 e5bc 9ec5 443b 6ed6 12bc
00000230: 9a5a 8e3b 0a25 cbbc fa67 c23c 8e63 90bc
00000240: 8b03 c2bb 25df 093c 0806 063c c71a a83c
00000250: 7a0b 023d 4c91 d1bc b765 c63a aae9 21bc
00000260: 5ba1 c03a 7046 96bc 866b b33c fd9a 76bc
00000270: cca6 403c 42da 4d3c feec ca3b 7117 5ebc
00000280: caac cd3c 22e5 113c ddbd c43b 82b9 dabc
00000290: 0334 743c 1df9 f9bb 08e6 3dbc 97ee c63c
000002a0: 4ef8 ce3b 6972 3ebc e2da 71bc 7a1d 6d3b
000002b0: b1b0 653c 9332 02ba 4994 edbc 0031 bfba
000002c0: 9334 5bbc 26fe 483c 3260 723c e76c b0bc
000002d0: 8ffb 52bc dcfa 08bc bc6e bd3b e9fd 75bc
000002e0: 900b 773c cb94 423c 1326 8b3a d5a5 9ebc
000002f0: 1307 e6ba c6bf f43b 2b63 1dbc 27b1 febb
00000300: 6598 cc3c 6bc5 c33b 329c 0a3b 0107 61bc
00000310: 23d1 0f3b 7da5 043a e44a 3a3c b773 e53b
00000320: a768 c8bc 911b 52bc 3927 c73c 5902 a83a
00000330: 8b0e e53a 7544 6dbc fef8 a4bc 0826 b9bc
00000340: f80b b8bc 3dff ee3a 43d9 993c 8aba 443c
00000350: 9f30 c2bc fdc7 b6bc b8a3 eabb ef31 c43c
00000360: 08d9 103b ad1e 21bc f314 ce3b 32d2 bdbc
00000370: 96ac b8bc e315 3e3c 4d2a 8dbc e76c 2cbc
00000380: cc06 ddbc 6ea8 153c 7ac4 6a3c f93d 133b
00000390: 058e f0bc a731 07bd b0d4 c5bc 908c c73c
000003a0: 6fab 843c 7937 b63c 6a20 8f3c f073 953a
000003b0: c833 bcba 5842 59bc 045a dcbc c73f fbbc
000003c0: 8be2 5f3c 6c0b 0abc 714d 2ebb b1af 96bc
000003d0: d508 2d3a c522 b2bc 3f19 7bbc 3fc4 d23b
000003e0: 40aa dbbb 6772 8d3c 39b4 c6bb a413 97bc
000003f0: 93a9 04bc 29b7 1abc 3e7b 3fbc 286d cabc

net.0.bias f4 [64]
-0.012498732 0.021682268 0.021125441 -0.0026281844 0.029048078 0.023733957 0.004886252 0.027893772
0.030578312 -0.032516412 0.010486256 0.023375683 0.025093757 -0.0028559393 -0.013539207 0.014138001
0.018654754 0.04121959 0.01044783 -0.0010170188 0.025765974 0.03599039 -0.00809518 -0.0144154895
-0.0031249628 0.021503009 0.023556575 -0.023240343 -0.010154221 0.006437214 -0.00840396 0.02852484
0.005762972 0.034229334 -0.027943501 -0.014832848 -0.017513461 -0.01899464 0.020690367 0.0031164612
0.018139742 0.0017145267 -0.023598753 0.028844805 0.039526258 0.028425256 0.017692715 0.02137845
-0.011236241 -0.0055590444 -0.024430024 -0.014711878 -0.020934464 -0.0050336663 0.0057502054 0.003865452
0.0043066046 -0.008468975 -0.016396249 0.0016048286 0.022491422 0.028970586 0.010167056 -0.0044539887
00000000: 7bc7 4cbc 039f b13c 430f ad3c 9e3d 2cbb
00000010: 3cf6 ed3c b76d c23c da1c a03b 7b81 e43c
00000020: 5e7f fa3c ee2f 05bd 8cce 2b3c 5c7e bf3c
00000030: 6c91 cd3c b62a 3bbb 8dd3 5dbc 13a3 673c
00000040: dbd1 983c dfd5 283d 602d 2b3c 7d4d 85ba
00000050: 2a13 d33c a96a 133d a5a1 04bc f22e 6cbc
00000060: 2dcc 4cbb 1427 b03c b8f9 c03c 8862 bebc
00000070: e45d 26bc 44ef d23b c3b0 09bc edac e93c
00000080: 50d7 bc3b 0f34 0c3d c5e9 e4bc 7905 73bc
00000090: 6478 8fbc a69a 9bbc d87e a93c 8b3d 4c3b
000000a0: cc99 943c f8b9 e03a 2c52 c1bc f14b ec3c
000000b0: 49e6 213d 15dc e83c 50f0 903c dc21 af3c
000000c0: 3618 38bc a528 b6bb 7921 c8bc 170a 71bc
000000d0: c17e abbc 74f1 a4bb 386c bc3b 8653 7d3b
000000e0: 6b1e 8d3b 75c1 0abc 6d51 86bc 1d59 d23a
000000f0: ee3f b83c b953 ed3c b993 263c c4f2 91bb

net.2.weight f4 [64, 64]
0.004562678 -0.06688336 0.10422997 0.04886398 0.008864259 -0.13692786 -0.0141339395 -0.07226173
0.008778521 -0.1286242 0.0244133 0.114211135 -0.05377505 0.0840973 -0.11913084 -0.0073052216
-0.048351113 0.057261627 0.062871 0.06786494 -0.054226216 -0.017546045 0.084675096 -0.11623955
0.024286365 0.118022345 -0.016548501 0.12026973 0.035499807 0.13781522 0.061402664 -0.13714066
0.059233658 -0.055826876 -0.07150841 0.093505524 0.13960026 0.08389586 -0.027137643 -0.10765811
0.04387059 0.10412641 -0.036373343 0.09179644 0.014035395 0.07902999 -0.0777121 0.113702714
-0.108679645 -0.03110459 0.0355511 0.02447261 0.12674098 0.05428055 0.05477411 0.094430685
0.019402293 0.048252963 -0.08385357 -0.09988756 -0.12339254 -0.12685694 -0.05890045 -0.06331233
0.012377469 0.08783426 -0.00421135 0.015522058 -0.09221774 -0.012090423 -0.01764609 -0.021223815
-0.088304386 -0.06458513 -0.046788655 -0.08339421 -0.06561712 0.11884451 0.09758846 0.10331674
-0.13603777 -0.101898536 -0.052240692 -0.10554057 0.09907525 0.07778402 0.0020737073 0.018846571
0.06629763 0.12729001 0.008878968 0.09189426 0.11694245 0.041788116 0.03780487 -0.012235128
0.09055237 0.044333268 0.060287457 -0.038226694 -0.005865217 0.047973853 -0.06587298 -0.09578333
-0.11403284 -0.03770141 0.09002477 -0.09887846 -0.0019434347 -0.025578931 -0.05922526 -0.026604235
0.020946681 0.026642168 -0.06604427 -0.026703218 0.09845915 0.03639887 -0.048608985 -0.09318013
0.0940661 -0.02656133 0.06898687 0.10668634 0.030374847 -0.090717696 -0.019202463 -0.10166157
-0.06658056 -0.08417131 0.02709995 -0.10529643 -0.014397243 0.077352375 0.083665326 -0.0047417907
0.0925409 -0.051435903 0.07884548 -0.078506224 0.021991499 -0.09037752 0.14918165 0.10520994
0.08478043 0.0572826 0.08372359 0.12971634 -0.018040229 0.048639312 -0.09047015 -0.026756657
0.03500401 -0.056348044 0.09620295 0.03593942 0.03538521 -0.07816961 -0.07160542 -0.027462414
0.0033010505 0.10780747 0.08346533 0.108650215 -0.106284454 -0.112536915 -0.06157826 -0.085810065
0.077386394 0.0032854022 -0.022334876 -0.099645026 -0.08620213 -0.020699674 0.028442206 0.04752737
-0.06379072 0.033613782 -0.03620994 0.06031838 -0.0011985 -0.00057711644 0.033865083 0.022661796
0.06075971 -0.05275633 0.077061966 -0.051048532 -0.002901143 0.034634914 0.12940605 0.05848861
-0.09497821 -0.010995407 0.06374591 -0.046312097 -0.11805488 -0.07054302 0.10652177 -0.09172525
-0.13586454 -0.029001497 -0.049551953 0.08042141 0.101936646 0.048631143 -0.12665485 -0.014427662
0.100692324 -0.0758173 -0.0042770025 0.04486071 0.08699682 -0.010156081 -0.047330964 -0.010326247
-0.087972075 0.12530185 0.09380564 0.07095794 -0.06425894 0.020839874 -0.031694196 -0.1265049
-0.011607955 -0.02675685 -0.004244643 -0.036280718 0.064833835 0.04092911 0.061093107 0.09407244
0.047614664 0.06595666 0.08710837 0.08622454 0.10269252 0.06489146 0.024114115 0.019756442
0.091028914 0.015439318 0.065385886 0.13188745 0.05968301 0.06990351 0.13639146 0.12037382
0.073384486 0.037597243 0.00859966 -0.05015634 -0.008224278 -0.06842671 -0.084370665 -0.06336153
00000000: 8482 953b 25fa 88bd 8676 d53d 9925 483d
00000010: 663b 113c d136 0cbe 0a92 67bc f5fd 93bd
00000020: c9d3 0f3c 10b6 03be 67fe c73c 87e7 e93d
00000030: 3a43 5cbd 353b ac3d dffa f3bd a460 efbb
00000040: d10b 46bd 2b8b 6a3d 83c2 803d c6fc 8a3d
00000050: 4f1c 5ebd b9bc 8fbc 236a ad3d 000f eebd
00000060: 33f4 c63c b3b5 f13d b990 87bc fa4f f63d
00000070: 3f68 113d 6f1f 0d3e 5c81 7b3d 9a6e 0cbe
00000080: fe9e 723d b9aa 64bd 0073 92bd d37f bf3d
00000090: 5ff3 0e3e 98d1 ab3d c34f debc db7b dcbd
000000a0: a6b1 333d 3a40 d53d 37fc 14bd c6ff bb3d
000000b0: b7f4 653c 7ada a13d 8627 9fbd f8dc e83d
000000c0: 6f93 debd 0ecf febc 089e 113d c87a c83c
000000d0: 63c8 013e 4855 5e3d d15a 603d e064 c13d
000000e0: 8ff1 9e3c e6a4 453d 6cbb abbd d991 ccbd
000000f0: 3ab5 fcbd c9e6 01be 9941 71bd e5a9 81bd
00000100: deca 4a3c 73e2 b33d 5dff 89bb 3b50 7e3c
00000110: a8dc bcbd e916 46bc 888e 90bc 91dd adbc
00000120: eed8 b4bd 3545 84bd 76a5 3fbd 95ca aabd
00000130: 4562 86bd c064 f33d 75dc c73d ba97 d33d
00000140: 7c4d 0bbe 2eb0 d0bd 56fa 55bd a825 d8bd
00000150: f7e7 ca3d 3a4d 9f3d 09e7 073b 2064 9a3c
00000160: 0dc7 873d 5058 023e 1779 113c 0f33 bc3d
00000170: 867f ef3d 042a 2b3d 48d9 1a3d d975 48bc
00000180: 8573 b93d cd96 353d fbef 763d 9893 1cbd
00000190: 0231 c0bb 3b80 443d 6ae8 86bd 0d2a c4bd
000001a0: 0d8a e9bd cb6c 1abd e85e b83d ca80 cabd
000001b0: d9ba feba e88a d1bc 3096 72bd 20f1 d9bc
000001c0: 6098 ab3c ad40 da3c 3842 87bd b5c0 dabc
000001d0: f3a4 c93d fb16 153d 371a 47bd 39d5 bebd
000001e0: baa5 c03d 2597 d9bc fd48 8d3d 5e7e da3d
000001f0: acd4 f83c 33ca b9bd 7c4e 9dbc f133 d0bd
00000200: 635b 88bd 0262 acbd b700 de3c a8a5 d7bd
00000210: 6ae2 6bbc ec6a 9e3d ba58 ab3d 0661 9bbb
00000220: 1586 bd3d 74ae 52bd bd79 a13d dfc7 a0bd
00000230: 8427 b43c d917 b9bd 13c3 183e 4f78 d73d
00000240: 5da1 ad3d 29a1 6a3d 4677 ab3d 5cd4 043e
00000250: 1ac9 93bc 043a 473d 6a48 b9bd c730 dbbc
00000260: 5d60 0f3d 35cd 66bd 0d06 c53d 3735 133d
00000270: 15f0 103d 6317 a0bd dda5 92bd dbf8 e0bc
00000280: 7056 583b 2aca dc3d dfef aa3d 0184 de3d
00000290: aaab d9bd c179 e6bd 7c39 7cbd 30bd afbd
000002a0: c27c 9e3d e74f 573b a1f7 b6bc b112 ccbd
000002b0: be8a b0bd 5d92 a9bc a1ff e83c 0fac 423d
000002c0: b6a4 82bd 9bae 093d e050 14bd 6810 773d
000002d0: fd16 9dba a149 17ba 1db6 0a3d 3ba5 b93c
000002e0: 2cdf 783d 0617 58bd aad2 9d3d 4418 51bd
000002f0: 1a21 3ebb 57dd 0d3d 0583 043e c191 6f3d
00000300: f083 c2bd 1426 34bc 378d 823d c1b1 3dbd
00000310: c2c6 f1bd dc78 90bd 1628 da3d 73da bbbd
00000320: 1320 0bbe 8c94 edbc fdf6 4abd fbb3 a43d
00000330: 29c4 d03d 7331 473d cfb1 01be 0062 6cbc
00000340: c737 ce3d 1a46 9bbd 1926 8cbb ddbf 373d
00000350: 642b b23d b165 26bc 1dde 41bd 6b2f 29bc
00000360: b42a b4bd 214f 003e 2c1d c03d 6552 913d
00000370: 319a 83bd 62b8 aa3c c6d1 01bd 808a 01be
00000380: 4b2f 3ebc 2e31 dbbc a516 8bbb 179b 14bd
00000390: 9ac7 843d 48a5 273d c43c 7a3d 0da9 c03d
000003a0: 9807 433d 4914 873d e065 b23d 7e96 b03d
000003b0: 7550 d23d d0e5 843d f78a c53c 43d8 a13c
000003c0: 5e6d ba3d 31f5 7c3c 09e9 853d 810d 073e
000003d0: 2c76 743d 9229 8f3d 34aa 0b3e 8d86 f63d
000003e0: 9b4a 963d 91ff 193d 97e5 0c3c bc70 4dbd
000003f0: 1fbf 06bc 4e23 8cbd 87ca acbd b1c3 81bd

net.2.bias f4 [64]
0.12507525 0.06419877 0.082988225 -0.10892972 0.11450664 0.024999304 0.025692916 0.053015545
0.007106537 0.06156191 -0.124107465 -0.10088058 -0.07775676 0.011557365 0.08341148 -0.035135865
-0.021761242 -0.105451874 -0.06808237 -0.026159221 -0.10870718 -0.032854244 -0.08732523 -0.043968055
0.08373389 -0.07928877 0.080599636 -0.073590524 0.029645296 -0.083661534 -0.06794689 0.0983782
0.021776076 -0.092483215 0.07451154 0.043847878 0.104876384 0.08514535 -0.06343844 0.12773629
0.016364504 0.013634656 -0.08809064 0.021100605 -0.097250074 -0.030098835 0.07656941 -0.10451554
0.110640004 0.053599562 -0.004061202 0.011310731 -0.0024006523 -0.11169057 -0.010282663 -0.0977883
0.05824364 -0.055931024 -0.10404182 -0.095309004 0.119421735 -0.10404779 0.11560955 0.12102252
00000000: ba13 003e a57a 833d bbf5 a93d 8c16 dfbd
00000010: 7582 ea3d 57cb cc3c f379 d23c d426 593d
00000020: f4dd e83b 5728 7c3d 0e2c febd 7a9a cebd
00000030: f03e 9fbd 1a5b 3d3c a3d3 aa3d a0ea 0fbd
00000040: a244 b2bc 27f7 d7bd c56e 8bbd dd4b d6bc
00000050: dfa1 debd 2c92 06bd 92d7 b2bd d917 34bd
00000060: ac7c ab3d 2762 a2bd 6c11 a53d a1b6 96bd
00000070: b1da f23c bd56 abbd bd27 8bbd 827a c93d
00000080: be63 b23c d767 bdbd 8299 983d d599 333d
00000090: 6ec9 d63d af60 ae3d 03ec 81bd 4dcd 023e
000000a0: da0e 863c e463 5f3c de68 b4bd 2ddb ac3c
000000b0: 0c2b c7bd d591 f6bc 6cd0 9c3d 3e0c d6bd
000000c0: 3a97 e23d 378b 5b3d d513 85bb a550 393c
000000d0: 4354 1dbb 07be e4bd 9d78 28bc 3b45 c8bd
000000e0: e290 6e3d ee17 65bd e113 d5bd 5e31 c3bd
000000f0: 6293 f43d 0217 d5bd b3c4 ec3d a8da f73d

net.4.weight f4 [4, 64]
0.09782704 -0.06462724 0.030191096 -0.012197218 0.067312695 -0.108510874 -0.031407926 0.10196487
-0.06175379 0.037739076 -0.0073974417 -0.078021 -0.036463607 0.023294058 -0.07342013 -0.12187997
-0.097192466 -0.079720706 -0.034299377 -0.116097026 0.065135196 0.050011773 0.05347716 -0.100304596
-0.121685356 0.08521348 -0.010949779 -0.027122501 0.034658674 0.061192315 -0.06537667 -0.045202713
0.09227785 -0.11178441 -0.018872898 0.048972685 0.009639614 0.054519545 -0.017422015 0.036141858
0.11162692 -0.13059342 0.11889683 0.111576706 -0.09830296 -0.11286487 0.021114046 -0.12621444
-0.07509076 0.050075553 0.13513142 0.052053392 -0.039069813 0.00019838018 0.080199264 -0.07252002
-0.022925822 -0.07411506 0.108922325 0.0074381833 -0.056832936 -0.007577444 0.03418959 0.0846627
0.10796424 -0.059414312 -0.068509005 0.13152762 0.100532725 0.03034139 0.047891837 0.071948476
-0.07798252 0.08640456 0.020013437 -0.05393281 -0.12041825 0.08060059 -0.018687407 -0.0027223001
-0.057230696 0.078628615 0.04017537 0.026308006 0.12283231 0.02871331 -0.0899644 -0.05353045
-0.032099597 0.032635864 -0.033694103 0.1525351 -0.05023049 -0.100824594 -0.052816138 0.08863922
-0.114565276 -0.04333738 0.029857144 0.13470127 -0.055110052 0.05141838 0.13933256 0.11403822
0.062136292 0.015604126 0.027504174 -0.0060818507 -0.14054582 -0.024735741 0.10751585 -0.03445159
-0.08690943 -0.0017011623 0.06560074 -0.015335568 0.02916525 -0.026113288 -0.007331879 0.1318577
0.13311402 -0.056444474 0.12440007 0.0215187 -0.069545984 -0.017468236 -0.0914008 0.03756631
0.07220658 0.06261381 -0.033227123 0.101219885 0.12691921 -0.10421529 0.07022502 -0.05728898
0.05323211 -0.030017497 -0.08781009 -0.012034418 -0.071023844 0.06907752 -0.09942159 -0.1462028
-0.13272342 0.103620976 -0.10532182 -0.067594856 0.05989383 -0.11202811 -0.05367331 0.041007105
-0.059018284 -0.011252788 0.15967937 0.010168159 0.07309853 0.042863 -0.058613513 0.14665155
0.08403557 0.041793577 -0.00042424732 0.14542727 -0.07989204 -0.098129116 0.09379005 0.1641801
-0.019185012 -0.044467244 0.13958716 0.04133464 -0.09517001 -0.054054506 0.033029318 -0.105113424
0.05927441 0.080787174 -0.009474594 -0.05956877 -0.1618832 0.1181173 -0.09032355 -0.028906502
0.15633647 -0.093350284 0.037074417 -0.11095494 0.009592785 0.085756026 -0.050505992 0.012926058
0.0027164698 0.09998381 -0.021992307 -0.010540546 0.14011577 -0.106060505 0.047295418 0.10328433
0.018062912 -0.02755058 -0.026693914 0.00932196 -0.14939041 0.025632784 -0.10895149 -0.12821242
-0.042551722 0.013022298 0.00091778085 -0.09279514 0.022236776 -0.16498443 -0.12104766 -0.06655025
-0.07494531 0.033228867 0.17252195 0.06465321 0.0894396 0.08199506 -0.058681887 0.13651599
0.0015740087 0.105195075 0.13863462 0.124740586 -0.15034835 -0.14359006 -0.051850915 0.082989424
-0.020246133 0.014482802 -0.07431689 0.120818295 -0.060889557 -0.068052076 -0.012814428 0.04672669
-0.05278685 0.15869874 0.1055411 -0.09278337 -0.018797323 0.17113984 -0.018320264 0.0813645
0.14821512 0.040880244 0.12290516 -0.016913716 -0.14914145 0.054427464 0.034630846 0.0973131
00000000: 8b59 c83d 495b 84bd 5153 f73c d7d6 47bc
00000010: 3ddb 893d f33a debd 99a5 00bd f5d2 d03d
00000020: 8bf1 7cbd 4a94 1a3d 3d66 f2bb 79c9 9fbd
00000030: dd5a 15bd 2ed3 be3c 4b5d 96bd 359c f9bd
00000040: d80c c7bd 9c44 a3bd 817d 0cbd 47c4 edbd
00000050: 9a65 853d 25d9 4c3d de0a 5b3d 7f6c cdbd
00000060: 2c36 f9bd 6884 ae3d b466 33bc 0230 debc
00000070: 41f6 0d3d cba4 7a3d 34e4 85bd 7b26 39bd
00000080: 2bfc bc3d 3aef e4bd 569b 9abc 9597 483d
00000090: 79ef 1d3c e34f 5f3d 9db8 8ebc 7c09 143d
000000a0: a89c e43d 48ba 05be 2e80 f33d 5482 e43d
000000b0: 1053 c9bd b225 e7bd 5df7 ac3c 5c3e 01be
000000c0: 2fc9 99bd 061c 4d3d e45f 0a3e f035 553d
000000d0: ab07 20bd 4604 5039 833f a43d 6085 94bd
000000e0: efce bbbc a3c9 97bd ab12 df3d 01bc f33b
000000f0: a7c9 68bd 354c f8bb 620a 0c3d a363 ad3d
00000100: 5b1c dd3d 6c5c 73bd 734e 8cbd 2daf 063e
00000110: 1ae4 cd3d 828e f83c 3b2a 443d b959 933d
00000120: 4db5 9fbd e0f4 b03d 38f3 a33c a6e8 5cbd
00000130: d89d f6bd ec11 a53d 5516 99bc 9e68 32bb
00000140: bc6a 6abd 0a08 a13d ee8e 243d e383 d73c
00000150: 828f fb3d 2d38 eb3c 413f b8bd bf42 5bbd
00000160: de7a 03bd 2fad 053d d402 0abd 2932 1c3e
00000170: 7cbe 4dbd 207d cebd bc55 58bd 7b88 b53d
00000180: 33a1 eabd 8982 31bd f896 f43c 21ef 093e
00000190: 14bb 61bd 149c 523d 32ad 0e3e df8c e93d
000001a0: a082 7e3d 73a8 7f3c 6f50 e13c 434a c7bb
000001b0: 3eeb 0fbe 9ca2 cabc 4531 dc3d 1c1d 0dbd
000001c0: 92fd b1bd 89f9 deba ae59 863d 0942 7bbc
000001d0: f6eb ee3c 89eb d5bc 4240 f0bb b405 073e
000001e0: 0b4f 083e 5232 67bd 77c5 fe3d fc47 b03c
000001f0: 206e 8ebd 8c19 8fbc 5830 bbbd 22df 193d
00000200: 0be1 933d ab3b 803d 2a19 08bd 5f4c cf3d
00000210: 1cf7 013e d36e d5bd 23d2 8f3d d9a7 6abd
00000220: ea09 5a3d 41e7 f5bc c7d5 b3bd 022c 45bc
00000230: f374 91bd 8478 8d3d 8c9d cbbd 30b6 15be
00000240: a6e8 07be 3c37 d43d f7b2 d7bd 2c6f 8abd
00000250: 3c53 753d fe6e e5bd 8bd8 5bbd 11f7 273d
00000260: 28bd 71bd 9d5d 38bc fd82 233e 5a98 263c
00000270: afb4 953d 1d91 2f3d b914 70bd d32b 163e
00000280: d71a ac3d be2f 2b3d 836d deb9 e3ea 143e
00000290: 709e a3bd ebf7 c8bd ff14 c03d d41e 283e
000002a0: e329 9dbc 4923 36bd f0ef 0e3e 834e 293d
000002b0: 7fe8 c2bd 4268 5dbd c049 073d b545 d7bd
000002c0: b9c9 723d bf73 a53d 543b 1bbc 62fe 73bd
000002d0: b6c4 25be 7ce7 f13d 8efb b8bd 54cd ecbc
000002e0: ab16 203e 6f2e bfbd 58db 173d 583c e3bd
000002f0: 0e2b 1d3c dba0 af3d 5fdf 4ebd d1c7 533c
00000300: cd06 323b 50c4 cc3d 3629 b4bc 41b2 2cbc
00000310: 827a 0f3e 4036 d9bd d7b8 413d bc86 d33d
00000320: acf8 933c c1b1 e1bc 32ad dabc 22bb 183c
00000330: cdf9 18be d8fb d13c f521 dfbd 1e4a 03be
00000340: b74a 2ebd 7a5b 553c 3b97 703a 610b bebd
00000350: e629 b63c aef1 28be d6e7 f7bd 7f4b 88bd
00000360: ed7c 99bd fe1a 083d 98a9 303e e768 843d
00000370: 1c2c b73d 07ed a73d 6b5c 70bd d9ca 0b3e
00000380: f84e ce3a 8470 d73d 3cf6 0d3e fe77 ff3d
00000390: ebf4 19be 4609 13be a061 54bd 5cf6 a93d
000003a0: 38db a5bc 4649 6d3c 7433 98bd 956f f73d
000003b0: 5467 79bd e35e 8bbd 9bf3 51bc 7c64 3f3d
000003c0: 0637 58bd ec81 223e ef25 d83d 3505 bebd
000003d0: d8fc 99bc 483f 2f3e 6114 96bc 6ea2 a63d
000003e0: b4c5 173e 0b72 273d b3b5 fb3d a28e 8abc
000003f0: 89b8 18be 55ef 5e3d 13d9 0d3d 174c c73d

net.4.bias f4 [4]
0.046462107 -0.047787417 -0.088930875 0.014622915
00000000: 0d4f 3e3d bdbc 43bd 6421 b6bd f394 6f3c
