runs/4_hour_forecasting/215/best_model.pt (torch, 203385 bytes, 6 tensors)

net.0.weight f4 [64, 712]
0.030721417 0.028746858 -0.00050577347 0.031067342 -0.0103752185 0.019686406 -0.0015217381 0.02231187
0.04440846 -0.037170164 0.046032134 0.009225178 0.029193584 0.00994502 0.03749558 0.00013919198
0.027498294 -0.0027024557 -0.013919235 0.011456496 -0.0019973617 -0.013282431 -0.026987378 0.021921827
-0.019330576 -0.013697689 -0.009327693 -0.026387855 0.016923761 -0.041881833 0.038660485 -0.043788645
0.030862393 0.0047007976 -0.012979389 0.02341079 0.004014871 0.02328831 0.000119866956 -0.011031842
0.009183973 -0.027971081 0.011081318 0.021131178 0.015574957 -0.014460785 0.021247996 0.0025412226
0.013055228 -0.03231444 -0.038670767 -0.012171078 -0.025431626 0.025184372 0.0056253714 0.01170912
0.0030183261 0.0063820174 0.028974153 -0.029700743 0.00407071 -0.019490387 0.0046678563 -0.020270336
0.011800214 -0.013472131 0.028573627 -0.0258923 -0.028063837 -0.028954249 0.03080133 0.0027374018
0.036485072 -0.02957337 -0.041760914 -0.03136118 -0.025811197 0.014386952 0.00607316 0.0210898
-0.020188877 -0.027014872 0.01787562 -0.018898774 0.018676495 -0.017600358 0.024406599 -0.034380388
-0.009683326 0.009001121 0.0055634337 -0.0002223862 0.017324079 0.025368147 -0.012177347 -0.007961336
0.028460795 -0.0013168177 -0.024216875 -0.021522045 -0.013645312 0.009308053 -0.0022453556 -0.010659409
0.0046332423 -0.027503071 -0.03340358 -0.01343169 -0.02887488 -0.0118880905 0.03375959 -0.0044661015
0.013041895 -0.02356795 -0.016763518 -0.006658361 0.009634527 -0.020819426 -0.02065349 -0.01496427
0.000210783 -0.009545437 0.00278923 -0.024267292 -0.032192767 -0.027788065 -0.020595819 -0.031953596
0.027110698 -0.00805897 0.02108938 0.0010465154 -0.038039323 0.027116181 -0.014985957 -0.015194319
-0.038905315 -0.041764535 -0.004162256 -0.013138171 0.018227624 -0.025443856 0.024059676 -0.030868769
-0.0083104195 0.0006691274 0.027659167 0.031687286 0.033964187 -0.0262793 0.016842363 -0.021538675
-0.009695926 -0.024909522 0.02979861 -0.028111346 0.017962439 0.004290538 0.0032330207 -0.0251357
0.022943541 0.005181664 0.0032222522 -0.039882757 0.013198962 -0.008839768 -0.018780591 0.023956409
-0.0022908533 -0.02433859 -0.022000795 -0.008138394 0.015915465 -0.017163167 -0.028978568 -0.0076989494
-0.033254262 0.022597507 0.027435353 -0.03810494 0.015407078 0.017289922 0.0038427496 -0.005072654
0.031779114 0.017277379 0.024933562 -0.015306232 -0.0016845035 0.011238724 -0.0031511465 -0.008317572
0.037283726 0.043433513 -0.0056443475 -0.0042341924 0.01242299 0.00081272377 0.01985672 0.008083125
-0.0441086 -0.00795171 0.037226796 0.016270908 0.0036125598 -0.0137194265 -0.013349409 -0.036345903
0.00097390905 0.015508271 0.025002541 0.029105145 -0.030650454 -0.029560275 -0.015711885 0.027647002
0.0030915819 -0.016117878 0.003842604 -0.018883001 -0.030407604 0.018006766 -0.012134802 -0.012298827
-0.03966459 0.0023073247 0.024465792 0.0012272905 -0.03213468 -0.031287044 -0.02267711 0.026849885
0.01704697 0.032513518 0.015284592 0.019211994 0.0039972104 -0.024896432 -0.026171051 -0.025818095
0.012446093 -0.021007776 -0.0012811638 -0.023522908 -0.0045185355 -0.025936821 -0.03521565 0.0035379212
-0.016544845 0.010396334 -0.01816596 -0.03153229 -0.014321815 -0.02076013 -0.01642414 -0.037525013
00000000: 7bab fb3c 887e eb3c e295 04ba f080 fe3c
00000010: d2fc 29bc 6345 a13c 0f75 c7ba 62c7 b63c
00000020: a5e5 353d be3f 18bd 318c 3c3d 3325 173c
00000030: 6227 ef3c 70f0 223c f794 193d 10f4 1139
00000040: 1a44 e13c af1b 31bb 810d 64bc 07b4 3b3c
00000050: 2be6 02bb 8e9e 59bc a214 ddbc 6795 b33c
00000060: 285b 9ebc 466c 60bc 2ed3 18bc 582b d8bc
00000070: b3a3 8a3c 498c 2bbd 755a 1e3d b95b 33bd
00000080: 21d3 fc3c 2609 9a3b 81a7 54bc fcc7 bf3c
00000090: 2e8f 833b 20c7 be3c 1561 fb38 e6be 34bc
000000a0: 6078 163c 9c23 e5bc 6b8e 353c 4b1b ad3c
000000b0: 1b2e 7f3c eeec 6cbc 4710 ae3c a48a 263b
000000c0: 98e5 553c 255c 04bd 3d65 1ebd 3369 47bc
000000d0: fc55 d0bc 754f ce3c 0955 b83b 9cd7 3f3c
000000e0: 1ccf 453b 3e20 d13b 345b ed3c f94e f3bc
000000f0: 9763 853b 4eaa 9fbc d1f4 983b fa0d a6bc
00000100: af55 413c 37ba 5cbc 3d13 ea3c 171c d4bc
00000110: 22e6 e5bc 7631 edbc 1253 fc3c fb65 333b
00000120: 5f71 153d da43 f2bc 7e0d 2bbd 9574 00bd
00000130: 0172 d3bc 40b7 6b3c 5c01 c73b 84c4 ac3c
00000140: 2563 a5bc 4b4e ddbc e46f 923c 9ad1 9abc
00000150: 73ff 983c a02e 90bc 59f0 c73c 73d2 0cbd
00000160: d0a6 1ebc 7079 133c 774d b63b 5730 69b9
00000170: 3aeb 8d3c dcd0 cf3c 7f83 47bc 4370 02bc
00000180: 9d26 e93c 1299 acba 7862 c6bc 004f b0bc
00000190: 9690 5fbc ce80 183c d126 13bb cda4 2ebc
000001a0: 74d2 973b 1f4e e1bc 31d2 08bd 9710 5cbc
000001b0: 038b ecbc 44c6 42bc 7f47 0a3d 6058 92bb
000001c0: acad 553c 9311 c1bc a553 89bc 612e dabb
000001d0: 23da 1d3c 808d aabc 8231 a9bc b32c 75bc
000001e0: a105 5d39 7764 1cbc 84cb 363b 33cc c6bc
000001f0: 90dc 03bd cca3 e3bc 90b8 a8bc c6e1 02bd
00000200: 4117 de3c c509 04bc a3c3 ac3c 3b2b 893a
00000210: 1fcf 1bbd c122 de3c a987 75bc 98f1 78bc
00000220: 2e5b 1fbd 4a11 2bbd 8963 88bb 7c41 57bc
00000230: 1952 953c a26f d0bc cc18 c53c 80e0 fcbc
00000240: 6d28 08bc 6168 2f3a 7a95 e23c 87ca 013d
00000250: 081e 0b3d b047 d7bc fff8 893c e071 b0bc
00000260: a9db 1ebc 0e0f ccbc 371c f43c c449 e6bc
00000270: f725 933c a497 8c3b 16e1 533b 62e9 cdbc
00000280: 18f4 bb3c f3ca a93b 6c2c 533b 1a5c 23bd
00000290: 7640 583c add4 10bc c1d9 99bc 3b40 c43c
000002a0: 2422 16bb b961 c7bc 033b b4bc e656 05bc
000002b0: 2661 823c c599 8cbc 7664 edbc 7847 fcbb
000002c0: 9f35 08bd 681e b93c 1bc0 e03c ed13 1cbd
000002d0: f86d 7c3c 98a3 8d3c a4d6 7b3b 8238 a6bb
000002e0: d12a 023d 4a89 8d3c 7841 cc3c fdc6 7abc
000002f0: 8fca dcba a022 383c 7783 4ebb 6d46 08bc
00000300: d2b6 183d 57e7 313d 38f4 b8bb fbbe 8abb
00000310: cc89 4b3c f80c 553a 8faa a23c 156f 043c
00000320: 38ab 34bd e447 02bc 207b 183d 914a 853c
00000330: b2c0 6c3b 72c7 60bc 7bb7 5abc 71df 14bd
00000340: ee4d 7f3a 6716 7e3c 21d2 cc3c ea6d ee3c
00000350: a916 fbbc 6428 f2bc 36b6 80bc f77b e23c
00000360: 239c 4a3b a409 84bc 33d4 7b3b 86b0 9abc
00000370: 5e19 f9bc ed82 933c 0cd1 46bc 0581 49bc
00000380: 5677 22bd 7c36 173b 7c6c c83c 09dd a03a
00000390: a79f 03bd d826 00bd 59c5 b9bc 4af4 db3c
000003a0: 16a6 8b3c e52c 053d 3a6c 7a3c 7962 9d3c
000003b0: 08fb 823b 9af3 cbbc ac64 d6bc 7880 d3bc
000003c0: b3ea 4b3c 8018 acbc b9ec a7ba 1db3 c0bc
000003d0: 3910 94bb 7579 d4bc 493e 10bd 78dc 673b
000003e0: 0e89 87bc 6355 2a3c c8d0 94bc 0128 01bd
000003f0: 0ca6 6abc 2611 aabc eb8b 86bc d4b3 19bd

net.0.bias f4 [64]
-0.015398507 -0.0016410322 -0.023155928 0.011661948 -0.009667191 -0.02071665 -0.007520925 -0.03288892
0.025597444 0.007304704 -0.00584474 0.048839215 0.02101308 0.031879388 -0.004572059 -0.012052246
0.052747246 0.024397153 -0.021503124 0.042268842 0.019676821 0.035017233 0.029979708 0.025887271
0.028017424 0.028909797 -0.017498571 0.020542778 0.050127015 0.013252801 0.044657752 0.0132575305
0.017066771 0.049238868 -0.01655093 0.01888911 -0.009153861 0.019505406 0.007896636 -0.032195315
-0.019464234 -0.007106549 0.009983253 -0.0053396095 0.0398355 -0.010038422 0.00097300846 -0.037809063
-0.012245459 0.035180192 0.03162867 0.054137677 0.038484335 0.041596938 0.036929615 -0.032826804
-0.007605848 -0.0042505288 -0.020490035 -0.0016657871 -0.012990741 -0.004291444 -0.010450764 0.011234338
00000000: 054a 7cbc e717 d7ba 80b1 bdbc c111 3f3c
00000010: 2363 1ebc f7b5 a9bc 1772 f6bb 88b6 06bd
00000020: bbb1 d13c 4c5c ef3b 3c85 bfbb a10b 483d
00000030: 9f23 ac3c f693 023d 36d1 95bb c976 45bc
00000040: 7f0d 583d 8adc c73c 5227 b0bc 1822 2d3d
00000050: 4931 a13c 3b6e 0f3d 0198 f53c 8b11 d43c
00000060: cc84 e53c 3dd4 ec3c 2a59 8fbc 5449 a83c
00000070: fc51 4d3d 4722 593c 0ceb 363d 1d36 593c
00000080: 9dcf 8b3c b2ae 493d d195 87bc 56bd 9a3c
00000090: 13fa 15bc cdc9 9f3c e460 013c 3cdf 03bd
000000a0: 7573 9fbc 0ede e8bb cc90 233c e4f7 aebb
000000b0: 8d2a 233d 3278 24bc 7e11 7f3a addd 1abd
000000c0: 2da1 48bc 1b19 103d 108d 013d 78bf 5d3d
000000d0: c0a1 1d3d 8d61 2a3d 8243 173d 6675 06bd
000000e0: 7a3a f9bb 0548 8bbb b8da a7bc 8a56 daba
000000f0: 1ed7 54bc 3e9f 8cbb ae39 2bbc 3b10 383c

net.2.weight f4 [64, 64]
-0.0040406925 0.111304015 0.05484783 -0.07941502 0.11542873 -0.09659316 -0.094257325 -0.028567372
0.056342255 -0.044511907 0.0069845263 -0.106200665 -0.099375606 0.018979909 0.02836418 0.06403927
-0.0064840973 -0.10686882 -0.13695534 -0.1480571 0.111437365 -0.0363393 0.07434308 -0.10009483
-0.11274298 0.07105665 -0.07031529 0.013546843 0.103003226 -0.0614685 0.057373468 -0.019344168
-0.06604936 0.026618926 -0.032251827 0.045020837 0.08188151 0.06702235 -0.06668652 0.02735899
0.10256564 -0.007933583 0.07050845 0.10738668 -0.10852304 -0.0055086454 -0.094523065 0.05192508
0.06530667 -0.10349207 -0.04945678 0.08111245 -0.051397398 0.06113011 0.044871856 -0.08054881
-0.10362636 -0.06999501 -0.048766028 -0.076702036 -0.038035605 0.026831407 0.08606697 0.0044424953
0.06544883 0.009794734 0.08761234 -0.116323315 0.044963427 0.00075447955 0.03397051 -0.11715236
-0.040730424 -0.01647406 0.0542942 -0.029403714 -0.013138012 -0.008858977 -0.031544823 -0.11289942
0.070730485 -0.1181597 -0.1318465 -0.1313641 -0.04661735 -0.113739364 -0.11736338 0.06802961
-0.040573224 -0.063521855 -0.065169975 0.0374951 -0.0015175812 0.065966025 0.00545604 -0.0058997655
0.032861475 0.06766734 -0.14117916 -0.108828224 -0.015771925 -0.04176646 -0.054866847 -0.018028928
-0.011475955 0.120301984 0.028390286 -0.055914447 -0.014053789 0.05509787 -0.13525392 -0.08839602
-0.12490347 -0.055755902 -0.106665105 0.0450041 0.010858254 -0.041126702 0.05249867 -0.097458266
-0.10195438 0.09128546 0.10820584 -0.07932832 0.012071109 -0.03019798 -0.044823714 0.01056063
0.015625393 -0.061511137 0.08304843 -0.049948484 0.108298086 -0.08969219 -0.05726459 0.060688674
-0.056026142 -0.06526335 0.015163347 0.11833463 0.08140482 0.02783693 -0.045580868 -0.07761715
-0.08776204 -0.094195835 8.1722006e-05 -0.1274972 0.029636564 -0.056453507 0.10576933 0.08794681
-0.016482579 0.11572085 0.07059362 -0.048255913 0.048570164 -0.107548915 0.018630426 -0.098010324
-0.07581768 0.12367382 0.025640862 0.09219488 -0.0053447355 -0.099187054 -0.06904398 0.039681617
0.1519679 0.037119757 0.08108071 -0.05384026 0.1376596 0.0078081726 -0.052371737 0.07511597
-0.0052662725 0.023254486 -0.092260286 0.016437124 0.03821347 0.008080806 0.03952503 -0.050270047
0.04422431 0.05923002 0.13124037 0.051402483 -0.06550616 0.018648887 -0.042675488 0.024433704
-0.13191946 0.021109793 -0.104896136 -0.072578415 -0.06502784 -0.10085484 -0.061678946 0.059540503
0.052251667 0.11095763 -0.09975593 -0.08595134 0.009036614 -0.015693597 -0.066584796 0.053291123
-0.056858372 0.09523073 -0.12324323 -0.041244533 -0.01929033 -0.068321496 -0.04505661 0.026688676
0.13922174 -0.0522292 -0.07607442 0.10851155 -0.0533863 0.00795368 -0.10970848 0.0724004
0.07618498 0.11485513 -0.039660085 -0.043618407 -0.023371741 -0.08619247 -0.13026382 -0.12486588
-0.035909414 -0.073043585 -0.01583133 -0.109260015 -0.0833699 -0.035813246 0.040958017 -0.09053551
0.05536757 0.018885387 -0.068290934 0.03735433 0.016034232 0.0779061 -0.0076097106 0.04992893
0.08810016 -0.078366436 0.108780295 -0.1080231 -0.09893897 0.12930946 -0.10971415 0.0526945
00000000: c967 84bb 5cf3 e33d 1ea8 603d 58a4 a2bd
00000010: e665 ec3d a2d2 c5bd fc09 c1bd 1f06 eabc
00000020: 23c7 663d 1e52 36bd 74de e43b bc7f d9bd
00000030: 7085 cbbd c17b 9b3c ff5b e83c 0527 833d
00000040: 8d78 d4bb 0ade dabd 053e 0cbe 489c 17be
00000050: 4639 e43d 85d8 14bd 2f41 983d 85fe ccbd
00000060: cbe5 e6bd 2686 913d 7601 90bd 94f3 5d3c
00000070: 5bf3 d23d 65c6 7bbd 7100 6b3d a977 9ebc
00000080: e344 87bd ef0f da3c 7e1a 04bd c567 383d
00000090: 7eb1 a73d 0443 893d f192 88bd f61f e03c
000000a0: ef0d d23d dcfb 01bc bc66 903d 8ced db3d
000000b0: 5441 debd de81 b4bb 4f95 c1bd 65af 543d
000000c0: 81bf 853d a7f3 d3bd 3193 4abd 491e a63d
000000d0: 1486 52bd 9163 7a3d 8dcb 373d c6f6 a4bd
000000e0: 0f3a d4bd 8b59 8fbd e3be 47bd f515 9dbd
000000f0: 39cb 1bbd 8acd db3c e143 b03d 5a92 913b
00000100: 090a 863d 187a 203c 196e b33d eb3a eebd
00000110: 922b 383d 44c8 453a a924 0b3d 94ed efbd
00000120: f2d4 26bd 9cf4 86bc 9863 5e3d 0fe0 f0bc
00000130: d140 57bc 3e25 11bc 2535 01bd d037 e7bd
00000140: 25db 903d b6fd f1bd c502 07be 5084 06be
00000150: d6f1 3ebd 2ff0 e8bd 365c f0bd 1c53 8b3d
00000160: 1c30 26bd bf17 82bd d677 85bd 7694 193d
00000170: 93e9 c6ba 3219 873d 95c8 b23b d252 c1bb
00000180: c199 063d 2d95 8a3d 4591 10be 55e1 debd
00000190: 2034 81bc 4f13 2bbd 0fbc 60bd 67b1 93bc
000001a0: a505 3cbc e360 f63d bf92 e83c 8c06 65bd
000001b0: dd41 66bc 4eae 613d 0180 0abe f908 b5bd
000001c0: 64cd ffbd 4d60 64bd 3c73 dabd 3856 383d
000001d0: d1e6 313c 7974 28bd d808 573d 3398 c7bd
000001e0: 75cd d0bd dff3 ba3d 069b dd3d e376 a2bd
000001f0: e7c5 453c c161 f7bc 1299 37bd 7e06 2d3c
00000200: d300 803c 1af3 7bbd 4c15 aa3d c896 4cbd
00000210: 63cb dd3d 8ab0 b7bd 468e 6abd b094 783d
00000220: ab7b 65bd cba8 85bd b06f 783c 6d59 f23d
00000230: 92b7 a63d 460a e43c 01b3 3abd bef5 9ebd
00000240: 96bc b3bd bfe9 c0bd 2b62 ab38 a08e 02be
00000250: 61c8 f23c cb3b 67bd 979d d83d 751d b43d
00000260: 7906 87bc 0eff ec3d 6393 903d fea7 45bd
00000270: 82f1 463d 9b42 dcbd d69e 983c a3b9 c8bd
00000280: 4d46 9bbd b348 fd3d c90c d23c abd0 bc3d
00000290: e422 afbb 9522 cbbd ee66 8dbd 3189 223d
000002a0: 799d 1b3e e30a 183d a50d a63d 9b87 5cbd
000002b0: a3f6 0c3e b3db ff3b bf83 56bd 67d6 993d
000002c0: b290 acbb 3180 be3c f6f2 bcbd 26a7 863c
000002d0: ba85 1c3d 5b65 043c ffe4 213d f7e7 4dbd
000002e0: 8d24 353d 2d9b 723d e063 063e 698b 523d
000002f0: 1828 86bd 8dc5 983c 7ecc 2ebd 3129 c83c
00000300: e515 07be 72ee ac3c c9d3 d6bd fea3 94bd
00000310: 512d 85bd fb8c cebd 10a3 7cbd bee0 733d
00000320: d805 563d c13d e33d d64c ccbd 4207 b0bd
00000330: 4e0e 143c dc8f 80bc 9c5d 88bd cb47 5a3d
00000340: 53e4 68bd 5408 c33d f266 fcbd 07f0 28bd
00000350: c106 9ebc 24ec 8bbd 488d 38bd 36a2 da3c
00000360: 2590 0e3e 49ee 55bd e8cc 9bbd 4e3b de3d
00000370: 98ab 5abd 2750 023c d7ae e0bd a946 943d
00000380: df06 9c3d 2b39 eb3d 9d72 22bd 37a9 32bd
00000390: 1876 bfbc ad85 b0bd e163 05be afb9 ffbd
000003a0: c015 13bd e097 95bd b5b0 81bc b7c3 dfbd
000003b0: d7bd aabd e9b0 12bd 98c3 273d ae6a b9bd
000003c0: 1bc9 623d 87b5 9a3c 1edc 8bbd db00 193d
000003d0: 395a 833c 3c8d 9f3d e15a f9bb 4782 4c3d
000003e0: db6d b43d 957e a0bd 34c8 de3d 373b ddbd
000003f0: 84a0 cabd b369 043e d0b1 e0bd 30d6 573d

net.2.bias f4 [64]
-0.116075404 -0.11809922 -0.08203751 -0.068532884 0.0793442 -0.023361797 0.061301388 0.048458394
0.04521113 0.016858323 -0.016365077 0.121937476 0.11099135 0.093365215 0.0034558955 0.12654494
0.12833977 0.005739828 0.09838868 0.032172717 0.07160139 -0.07175768 -0.0715902 0.05236153
-0.073072515 -0.10252906 0.11542084 0.026840018 0.10838212 0.032422043 0.017857974 0.04880046
0.013591773 0.037349366 0.0027352928 0.13728663 -0.06988105 -0.076699845 -0.04234201 -0.08047607
-0.021719676 -0.033872716 -0.055065908 -0.054493718 0.10288705 -0.005094694 -0.078697294 -0.064952224
0.11697687 0.11267342 0.037234757 -0.023084093 -0.030993326 -0.023636306 0.056299016 -0.057214443
0.12200857 -0.037796773 -0.040698588 0.016697407 0.040783416 0.017371748 0.06392864 0.09681374
00000000: f1b8 edbd 01de f1bd 4803 a8bd f85a 8cbd
00000010: 367f a23d 3d61 bfbc 2a17 7b3d 4f7c 463d
00000020: 4e2f 393d 771a 8a3c 0e10 86bc 5bba f93d
00000030: 6f4f e33d 4336 bf3d 4e7c 623b ff94 013e
00000040: 806b 033e 2b15 bc3b 0180 c93d 8ac7 033d
00000050: c0a3 923d b1f5 92bd e29d 92bd 0b79 563d
00000060: 0ba7 95bd c1fa d1bd c361 ec3d 99df db3c
00000070: 72f7 dd3d facc 043d e34a 923c fee2 473d
00000080: 07b0 5e3c a6fb 183d 9942 333b de94 0c3e
00000090: cc1d 8fbd cf14 9dbd d16e 2dbd a3d0 a4bd
000000a0: 76ed b1bc 1ebe 0abd ca8c 61bd ce34 5fbd
000000b0: 72b6 d23d 64f1 a6bb 0c2c a1bd ac05 85bd
000000c0: 9291 ef3d 52c1 e63d 7983 183d da1a bdbc
000000d0: b7e5 fdbc eda0 c1bc cc99 663d b159 6abd
000000e0: a1df f93d cad0 1abd 90b3 26bd 00c9 883c
000000f0: 830c 273d 324f 8e3c 05ed 823d 4846 c63d

net.4.weight f4 [4, 64]
0.024556808 -0.02482079 -0.13208248 -0.036241353 -0.0065970877 -0.0585404 0.10633603 0.011692219
-0.0457234 -0.11628016 0.09650711 0.032351412 0.14089234 -0.022889076 0.005945536 -0.1430385
0.023435984 -0.032520525 0.069467224 0.14955956 -0.13502774 0.060320772 -0.103407614 0.0065112873
0.09397897 0.045699235 -0.0009290571 -0.10835196 -0.007719575 0.047158394 0.020583628 -0.08301542
0.040478364 0.024843644 -0.03566437 0.021423146 0.029562665 -0.07893399 0.009559566 -0.018390043
-0.11202901 0.08388692 -0.10653774 -0.005914535 0.022077758 0.05024677 -0.06990632 0.06768753
0.15967579 -0.08155048 0.10071297 -0.13131338 0.08266106 0.013281524 -0.08731726 -0.054268267
0.10094513 0.03831302 0.080897845 0.12024422 -0.10069614 -0.0121300025 0.12377301 0.043644074
-0.10868327 0.09665213 -0.057925664 -0.076777056 -0.013444802 -0.13109988 0.046861812 0.0808626
-0.0893067 -0.102313325 -0.058172677 -0.11276653 0.07302146 -0.090779215 -0.11973942 -0.13726453
0.052217793 0.08800905 -0.08868736 0.14349568 0.0050656837 0.06877924 0.10926017 0.009932907
0.015134255 -0.12138797 -0.09100582 -0.08404498 -0.017697861 -0.0027699855 -0.012228005 0.15039642
0.029306175 0.069971465 -0.047000606 0.08881453 0.084655955 -0.08819703 -0.013962091 -0.04382722
-0.07116285 0.116157904 -0.01915705 0.011170794 0.013299772 0.12212942 0.031604208 -0.003414093
0.014186784 0.06874917 0.032118514 -0.044614695 0.07659313 -0.037422676 -0.008010621 -0.017844176
0.1292072 -0.07802927 0.033284824 0.10638191 -0.094790794 -0.026836598 0.07651333 0.03949452
-0.005175552 -0.008397834 0.015614777 -0.14208362 -0.09885955 0.008085479 0.09418628 -0.057056412
-0.05717068 -0.09155044 0.12853625 -0.011445034 0.0009305671 -0.015912501 -0.038034808 0.025435733
-0.018669967 0.10019683 0.10263651 0.1459605 0.1200821 0.06895636 0.09592406 0.118481174
-0.0736378 -0.04516327 -0.051919647 -0.13302974 -0.12346878 0.14769502 -0.12903552 0.059282415
0.095797785 0.11053333 -0.10725309 -0.022342104 0.047633402 -0.15738577 0.11747562 -0.011331652
-0.12300336 0.01551649 -0.047544893 -0.13887528 0.08853228 -0.022539949 -0.018266812 0.057300452
0.07008115 -0.098672636 0.04471033 -0.05002111 -0.011342599 0.078716554 0.06857534 -0.09429407
0.13432722 -0.028247887 0.03591976 0.10064283 -0.04446698 0.0040416853 -0.09718138 0.1285412
-0.02032595 -0.02837013 -0.02385099 -0.028319031 -0.05635162 0.013628785 0.11170957 0.1073282
-0.118976176 -0.14318828 -0.011745736 -0.14691801 -0.06697669 -0.10955838 0.028568598 -0.058990426
0.060862098 -0.0003969204 0.04338244 0.040682904 0.057055146 0.057882816 0.003917145 0.13673349
0.04879356 0.031636145 -0.10773067 -0.09021562 -0.01317982 0.17549568 -0.008284407 0.10551988
0.04019302 0.13782376 -0.09453071 0.14308485 0.05399188 -0.10868003 0.17443503 0.045113124
0.033042796 0.1478188 -0.09438758 -0.117498785 0.12702145 -0.004257509 -0.114542745 0.04617842
-0.07815853 0.11314583 -0.03244021 -0.10156694 0.08990486 0.14154255 0.036657993 0.09377098
-0.00012311578 -0.119371176 0.067702875 -0.01473365 -0.06166851 -0.13101503 0.019397136 -0.03691247
00000000: 5c2b c93c f854 cbbc a140 07be d071 14bd
00000010: 622c d8bb 0fc8 6fbd b4c6 d93d b990 3f3c
00000020: 7648 3bbd 4b24 eebd 85a5 c53d ea82 043d
00000030: 1546 103e df81 bbbc c5d2 c23b af78 12be
00000040: d2fc bf3c 3e34 05bd d544 8e3d 2426 193e
00000050: b644 0abe ea12 773d 5fc7 d3bd a35c d53b
00000060: 0c78 c03d 1f2f 3b3d f78b 73ba a2e7 ddbd
00000070: 7df4 fcbb 2929 413d ff9e a83c fd03 aabd
00000080: a4cc 253d e684 cb3c cd14 12bd 987f af3c
00000090: 672d f23c 25a8 a1bd ba9f 1c3c b7a6 96bc
000000a0: 776f e5bd e8cc ab3d 7530 dabd b7ce c1bb
000000b0: 6adc b43c 8fcf 4d3d 0b2b 8fbd c29f 8a3d
000000c0: 0d82 233e f003 a7bd 9a42 ce3d 0477 06be
000000d0: 344a a93d c09a 593c 64d3 b2bd 6748 5ebd
000000e0: 52bc ce3d 1dee 1c3d c5ad a53d 9a42 f63d
000000f0: c739 cebd ebbc 46bc b47c fd3d 21c4 323d
00000100: 5695 debd 8df1 c53d 7643 6dbd 4a3d 9dbd
00000110: 9647 5cbc 0c3f 06be 2cf2 3f3d 4a9b a53d
00000120: 6ee6 b6bd a689 d1bd 7946 6ebd 23f2 e6bd
00000130: 468c 953d 74ea b9bd f139 f5bd 138f 0cbe
00000140: 53e2 553d 173e b43d b8a1 b5bd 88f0 123e
00000150: 09fe a53b 21dc 8c3d ccc3 df3d a2bd 223c
00000160: abf5 773c 429a f8bd 4261 babd c61f acbd
00000170: 1bfb 90bc a588 35bb f857 48bc 8501 1a3e
00000180: 8113 f03c 334d 8f3d b583 40bd 64e4 b53d
00000190: 1a60 ad3d a5a0 b4bd 41c1 64bc 2c84 33bd
000001a0: d4bd 91bd 32e4 ed3d 3fef 9cbc b505 373c
000001b0: 49e7 593c fd1e fa3d 6a73 013d fabe 5fbb
000001c0: af6f 683c 5dcc 8c3d b48e 033d e6bd 36bd
000001d0: dcdc 9c3d 8548 19bd fb3e 03bc f32d 92bc
000001e0: e44e 043e cfcd 9fbd ab55 083d c2de d93d
000001f0: ad21 c2bd 6dd8 dbbc 05b3 9c3d 01c5 213d
00000200: ad97 a9bb 1297 09bc 1fd5 7f3c 5e7e 11be
00000210: e076 cabd f578 043c bde4 c03d fcb3 69bd
00000220: ce2b 6abd cc7e bbbd 029f 033e f483 3bbc
00000230: 4df1 733a ef5a 82bc 63ca 1bbd 995e d03c
00000240: c2f1 98bc ff33 cd3d 1733 d23d ab76 153e
00000250: 9bed f53d fe38 8d3d d573 c43d 42a6 f23d
00000260: 6acf 96bd 1ffd 38bd b2a9 54bd f338 08be
00000270: 33dd fcbd 5d3d 173e e321 04be 1ed2 723d
00000280: a131 c43d 4c5f e23d 82a7 dbbd ca06 b7bc
00000290: 3e1b 433d bc29 21be 0f97 f03d 65a8 39bc
000002a0: 30e9 fbbd e038 7e3c 6fbe 42bd 5235 0ebe
000002b0: 6950 b53d b3a5 b8bc 48a4 95bc e1b3 6a3d
000002c0: b586 8f3d e114 cabd 2e22 373d efe2 4cbd
000002d0: 4fd6 39bc 2536 a13d 3a71 8c3d 401d c1bd
000002e0: 138d 093e 1d68 e7bc 9920 133d d41d ce3d
000002f0: 0223 36bd 1d70 843b 0807 c7bd 4ea0 033e
00000300: 9b82 a6bc 7a68 e8bc 2763 c3bc 50fd e7bc
00000310: f5d0 66bd 444b 5f3c fdc7 e43d e3ce db3d
00000320: c8a9 f3bd f39f 12be 3071 40bc ad71 16be
00000330: 132b 89bd 2560 e0bd b108 ea3c f29f 71bd
00000340: 894a 793d c119 d0b9 c9b1 313d 1ea3 263d
00000350: a8b2 693d 8816 6d3d 655b 803b dd03 0c3e
00000360: c2db 473d e794 013d e6a1 dcbd f8c2 b8bd
00000370: 2cf0 57bc 24b5 333e 52bb 07bc cf1a d83d
00000380: 70a1 243d ac21 0d3e 5199 c1bd d684 123e
00000390: 9726 5d3d a393 debd 199f 323e 8ac8 383d
000003a0: e257 073d d05d 173e 474e c1bd 34a3 f0bd
000003b0: e911 023e 9382 8bbb 6395 eabd 9525 3d3d
000003c0: 9411 a0bd 00b9 e73d 07e0 04bd 5402 d0bd
000003d0: 0a20 b83d 88f0 103e b126 163d 000b c03d
000003e0: a418 01b9 e078 f4bd cea7 8a3d 6865 71bc
000003f0: 1f98 7cbd ce28 06be bee6 9e3c 8831 17bd

net.4.bias f4 [4]
-0.016245216 0.019873183 -0.07740607 0.07820647
00000000: b014 85bc 16cd a23c 1387 9ebd b72a a03d
