runs/4_hour_forecasting/159/best_model.pt (torch, 704633 bytes, 6 tensors)

net.0.weight f4 [64, 2670]
0.014564034 0.012666032 -0.0053779674 0.026878372 0.007034125 0.0032549 -0.009512443 0.0137971565
0.01841654 -0.01008548 0.01565664 0.007420191 0.019218571 0.006215967 0.011670637 0.0034459336
0.01946451 0.003982098 -0.0038423066 -0.0040195105 -0.011659398 0.005893732 -0.00674377 0.003002666
-0.017998854 -0.0132125765 -0.0004449865 -0.013929619 -0.0050249617 -0.016407872 0.009381661 -0.0092073595
0.011519927 -0.0010536109 0.001453303 0.009541091 0.0058719767 0.011048721 0.011479246 -0.012638604
0.0094387485 -0.0034050422 0.0029221529 0.013830051 0.007153101 -0.015787084 0.0060282936 -0.002522357
0.0064573097 -0.0069627934 -0.021304067 -0.012999123 -0.019484492 0.016167626 0.0047967313 0.006776732
0.008342438 -0.0076282723 0.01192702 -0.013356065 -0.0036462625 -0.020315109 0.005097866 -0.0043679806
0.004291194 -0.0044426117 0.014572362 -0.012869462 -0.01754937 -0.014579851 0.016546465 0.008425579
0.012420557 -0.01931705 -0.022926077 -0.01963049 -0.013146633 0.0037879033 0.0024826042 0.01836371
-0.014738094 -0.0135861365 0.0051913653 -0.010066003 0.008459947 0.0021612416 0.010318375 -0.018418385
-0.009897534 0.006480616 -0.0008070941 -0.005494909 0.017839517 0.023313427 -0.01725557 -0.008416819
0.021574082 -0.00456648 -0.005377132 -0.01566503 -0.0064244205 0.008278176 0.00078963215 -0.010240176
0.0051329406 -0.008479994 -0.016872149 -0.006898776 -0.023314686 -0.014270788 0.027129022 0.0074608433
0.0011715785 -0.01972575 -0.017130414 -0.0024673147 0.0047409455 -0.024158286 -0.005690507 -0.018079625
0.0038789862 -0.010748515 -0.005185386 -0.004756546 -0.016395723 -0.008319685 -0.010873896 -0.004919801
0.013004372 -0.003317183 0.016002128 0.0030821178 -0.01858536 0.008881787 -0.010097544 -0.009025968
-0.022171307 -0.023953356 0.0041126604 -0.0089438725 0.0021698591 -0.020484218 0.014860635 -0.014879047
-0.004464141 0.0064592785 0.0027810992 0.012534904 0.01820841 -0.020101052 -0.0022035276 -0.0092649385
0.0004133126 -0.016066317 0.017356072 -0.015416412 0.008976118 0.00052871933 0.0032941161 -0.01138592
0.01887685 -0.0017910097 -0.0006442268 -0.020178847 0.0036210846 -0.0033830656 -0.012961224 0.012635831
0.0067628035 -0.015307446 -0.010245425 -0.005340075 0.00836168 -0.007888407 -0.00421708 -0.007932359
-0.017839989 0.00677154 0.01455656 -0.023110721 0.004050182 0.014012943 0.009777364 -0.014019945
0.010503571 0.014898332 0.008686397 -0.004987098 -0.0050956416 0.0068846797 -0.0010831298 -0.0034958136
0.014378997 0.019483209 -0.00074989314 -0.0038293265 0.0033679123 -0.006451092 0.0034887507 0.012878347
-0.01148727 -0.011971155 0.0146259535 0.0018307277 0.0041766767 -0.008487532 -0.016444769 -0.013878057
-0.015181717 0.0072433585 0.007804609 0.0041650664 -0.01281445 -0.01991666 -0.0005124322 0.014448025
0.013319065 -0.004073147 0.008070096 -0.010292767 -0.011700721 0.01015855 -0.007258217 -0.006051442
-0.01864081 0.0066321925 0.0105584115 0.006282009 -0.012871102 -0.024345592 -0.020277515 0.015213869
0.008738989 0.015297076 0.012650528 -0.002236893 -0.0030756916 -0.013943184 -0.02118962 -0.025086667
0.0069916514 -0.0067621954 -0.005387702 -0.011261076 -0.0044317474 -0.014916279 -0.018983718 0.0036859296
-0.0068388884 0.012542268 -0.012306904 -0.01677524 -0.0062184106 -0.013880982 -0.0068608364 -0.02256805
00000000: fc9d 6e3c 3085 4f3c a939 b0bb 0830 dc3c
00000010: 847e e63b 2950 553b 14da 1bbc 780d 623c
00000020: 49de 963c 923d 25bc 5b42 803c 1325 f33b
00000030: 4470 9d3c 4faf cb3b 3336 3f3c 2cd5 613b
00000040: 0974 9f3c 427c 823b 35cf 7bbb 19b6 83bb
00000050: 0f07 3fbc 3520 c13b d8fa dcbb 60c8 443b
00000060: 5572 93bc 9079 58bc 144d e9b9 0f39 64bc
00000070: 6fa8 a4bb cd69 86bc 8ab5 193c 77da 16bc
00000080: 13be 3c3c 5119 8aba c27c be3a 3c52 1c3c
00000090: b669 c03b b205 353c 7313 3c3c 2612 4fbc
000000a0: fba4 1a3c 2127 5fbb 9781 3f3b 7097 623c
000000b0: 8f64 ea3b ea53 81bc fe88 c53b 214e 25bb
000000c0: d797 d33b 2528 e4bb de85 aebc 46fa 54bc
000000d0: f19d 9fbc f871 843c e62d 9d3b 590f de3b
000000e0: b9ae 083c 96f6 f9bb 8c69 433c 66d3 5abc
000000f0: 22f6 6ebb df6b a6bc 000c a73b 4721 8fbb
00000100: 259d 8c3b 5493 91bb ebc0 6e3c 70da 52bc
00000110: b2c3 8fbc 54e0 6ebc 748c 873c 710b 0a3c
00000120: 987f 4b3c ca3e 9ebc 78cf bbbc 1fd0 a0bc
00000130: fa64 57bc 793e 783b 30b3 223b 7e6f 963c
00000140: 0c78 71bc 6398 5ebc 541c aa3b e0eb 24bc
00000150: 979b 0a3c 9ea3 0d3b 670e 293c 27e2 96bc
00000160: 4429 22bc 595b d43b 2b93 53ba a30e b4bb
00000170: 2e24 923c cdfb be3c 8e5b 8dbc b3e6 09bc
00000180: 21bc b03c 69a2 95bb a732 b0bb f353 80bc
00000190: f283 d2bb 30a1 073c 51ff 4e3a 69c6 27bc
000001a0: 3a32 a83b acef 0abc 7637 8abc 210f e2bb
000001b0: 71fe bebc 06d0 69bc af3d de3c 177a f43b
000001c0: a78f 993a e597 a1bc 1555 8cbc acb2 21bb
000001d0: ef59 9b3b 99e7 c5bc 6f77 babb b91b 94bc
000001e0: 9736 7e3b 8a1a 30bc 2cea a9bb cddc 9bbb
000001f0: 5350 86bc 4a4f 08bc 6d28 32bc 4836 a1bb
00000200: 4a10 553c 1865 59bb e516 833c 5bfd 493b
00000210: 5340 98bc ea84 113c 2b70 25bc a7e1 13bc
00000220: 9aa0 b5bc d439 c4bc 7fc3 863b 5289 12bc
00000230: 3234 0e3b 85ce a7bc 057a 733c 3fc7 73bc
00000240: ee47 92bb 5ba8 d33b 1a43 363b 335f 4d3c
00000250: ce29 953c f6aa a4bc 0f69 10bb f8cb 17bc
00000260: e1b1 d839 829d 83bc 522e 8e3c 1e95 7cbc
00000270: 9110 133c c199 0a3a 19e2 573b 038c 3abc
00000280: a0a3 9a3c 50c0 eaba 54e1 28ba 1c4e a5bc
00000290: b84f 6d3b 6cb6 5dbb 505b 54bc 8406 4f3c
000002a0: 829a dd3b 15cc 7abc 6ddc 27bc ccfb aebb
000002b0: 6eff 083c 613e 01bc 6e2f 8abb baf6 01bc
000002c0: 2b25 92bc cbe3 dd3b a37e 6e3c b252 bdbc
000002d0: 64b7 843b 8b96 653c 3d31 203c e9b3 65bc
000002e0: 2b17 2c3c 2218 743c 6451 0e3c cf6a a3bb
000002f0: 57f9 a6bb e198 e13b cef7 8dba 051a 65bb
00000300: e295 6b3c 409b 9f3c 7a94 44ba 70f5 7abb
00000310: 31b8 5c3b af63 d3bb 86a3 643b b4ff 523c
00000320: 1a35 3cbc aa22 44bc b2a1 6f3c 07f5 ef3a
00000330: 81dc 883b 4a0f 0bbc 2eb7 86bc ca60 63bc
00000340: bdbc 78bc b259 ed3b cebd ff3b 1c7b 883b
00000350: b3f3 51bc 4328 a3bc be54 06ba 69b7 6c3c
00000360: 3538 5a3c 0978 85bb 7038 043c fea2 28bc
00000370: 62b4 3fbc 0c70 263c 56d6 edbb 2d4b c6bb
00000380: 9db4 98bc dd52 d93b 30fd 2c3c 50d9 cd3b
00000390: 51e1 52bc 6870 c7bc 081d a6bc 9743 793c
000003a0: fa2d 0f3c 96a0 7a3c 2944 4f3c d698 12bb
000003b0: 8b91 49bb f471 64bc db95 adbc 8e82 cdbc
000003c0: 391a e53b 6895 ddbb 528b b0bb 6080 38bc
000003d0: 3138 91bb 6963 74bc be83 9bbc a38f 713b
000003e0: c118 e0bb 167e 4d3c e6a2 49bc 3a6c 89bc
000003f0: cfc3 cbbb 0f6d 63bc ded0 e0bb a2e0 b8bc

net.0.bias f4 [64]
0.026765017 0.021215163 -0.0007935376 0.0141318925 -0.006820504 0.02356416 -0.017741902 0.0005141822
0.016174987 -0.021967635 0.005465716 -0.0054324567 0.014605449 0.01422484 0.015540357 -0.008103243
-0.014245843 -0.00014155402 -0.012604903 0.008249434 -0.0018354512 0.013549332 -0.0012514044 0.0038196146
0.019545348 0.022861121 0.010504799 0.008208219 -0.009007706 -0.012431506 -0.00462082 -0.0013340755
0.019010812 -0.009651375 0.02848873 -0.010537139 -0.019750142 0.0066702757 0.008760566 -0.014773689
0.0034419596 0.008847105 -0.015019755 -0.00022228279 0.013168779 0.0037647542 0.022074362 0.020018062
0.016094305 0.015097178 0.015418036 0.008366659 0.018999316 0.013688746 -0.0068722097 0.0016586146
-0.0018299154 0.01366069 0.0004152691 0.0025483726 0.004456176 0.0033227897 0.0069074603 -0.0054941215
00000000: 4f42 db3c 6ccb ad3c 6805 50ba 7489 673c
00000010: 897e dfbb a009 c13c 7757 91bc 2fca 063a
00000020: 6881 843c 78f5 b3bc c019 b33b c002 b2bb
00000030: b14b 6f3c 4e0f 693c fb9c 7e3c 77c3 04bc
00000040: 6567 69bc 1e6e 14b9 cc84 4ebc a228 073c
00000050: 8693 f0ba 04fe 5d3c 2a06 a4ba 8052 7a3b
00000060: 911d a03c 3f47 bb3c 521c 2c3c c47b 063c
00000070: 0f95 13bc 84ad 4bbc 3f6a 97bb 25dc aeba
00000080: 90bc 9b3c cd20 1ebc 3261 e93c f7a3 2cbc
00000090: 0dcb a1bc 5492 da3b 7a88 0f3c 580d 72bc
000000a0: 8092 613b 73f3 103c 6b15 76bc 9514 69b9
000000b0: ddc1 573c 18ba 763b 4bd5 b43c ebfc a33c
000000c0: 34d8 833c 275a 773c ee9b 7c3c 5014 093c
000000d0: 74a4 9b3c c346 603c 4630 e1bb df65 d93a
000000e0: c6d9 efba 16d1 5f3c 7ab8 d939 9902 273b
000000f0: 1d05 923b 29c3 593b fa57 e23b 0808 b4bb

net.2.weight f4 [64, 64]
-0.017534472 -0.054319203 0.030757904 0.041495547 -0.086239636 -0.06974407 -0.023578854 -0.045820534
0.04740647 0.051933095 0.027631698 -0.037811067 0.115576476 0.08771328 0.061923843 0.100427106
-0.04903443 -0.010756572 0.07649561 0.08584157 0.03841378 0.05310754 0.12539665 0.041224327
-0.09628682 -0.024935504 -0.1034976 0.10870397 -0.011732983 0.12906967 0.08942727 -0.018530294
0.07342327 0.08245255 -0.045519378 -0.05538927 0.12919748 -0.09084355 0.14317255 0.07610983
0.064747505 0.051960144 -0.026234472 -0.038098514 0.045278594 0.07884802 0.0081168115 -0.06682624
-0.0034419314 0.06061166 0.13540313 0.060191307 -0.060319755 -0.112824455 -0.044274293 0.09887014
-0.10061867 -0.009753614 0.025404979 -0.03195764 -0.0024580855 0.042336166 0.09734726 0.13478667
-0.080770954 0.024051728 -0.00839525 -0.059408814 0.10180895 0.08527301 0.11196609 -0.09095588
0.049253922 0.07058203 0.03870971 -0.028540762 -0.01980955 0.015199822 -0.12687002 -0.012839075
0.1362771 0.09800932 0.04856214 0.0070934575 -0.010058785 0.08935858 -0.04311249 -0.06874095
0.034957863 -0.035317693 -0.008916081 0.00718605 0.106084146 0.0037357744 0.15766059 -0.08833831
0.08060961 -0.01634113 0.027696138 0.067776814 -0.07915576 -0.059670825 0.0063251336 -0.061943676
-0.05455048 -0.043004043 0.015322584 0.077916235 -0.10396381 -0.030997796 0.11625786 -0.09783985
0.025571058 -0.014973973 -0.029338224 0.088091955 -0.08945833 -0.010140318 0.12023105 0.017303893
-0.010577562 -0.11882072 -0.10532306 0.087670684 -0.076914445 -0.026933733 0.072168745 0.020856004
0.044486277 -0.11126095 0.05602607 -0.09176709 0.06473606 -0.055476878 0.09901388 -0.115646325
0.01689911 -0.08479594 0.10596985 -0.01121628 -0.07377027 0.056605313 -0.029645411 -0.09420655
-0.103138715 0.057572015 0.019928379 0.0114114685 -0.020499868 -0.08861254 0.027135693 -0.10535092
-0.06354471 0.037494164 0.0919639 -0.021951122 0.09639816 0.042273473 0.015431718 -0.020248696
0.075515755 -0.10853232 -0.09353284 -0.023389418 0.09656235 0.1012135 0.019941075 -0.014269947
0.051064562 -0.0054073734 0.11020425 0.08836035 -0.056514446 0.057099238 -0.07075224 0.037472833
0.09932964 -0.009842481 -0.033066135 0.023916518 -0.037944444 0.06616463 -0.03326108 0.019140387
-0.01448835 -0.12582733 -0.121665 -0.07818751 -0.013290929 -0.0041328617 0.058401484 -0.091747776
0.049083546 -0.08370978 -0.0051082415 -0.0048839194 -0.093819566 0.13433552 0.079686 -0.07130955
0.08436727 -0.032402348 0.0761425 -0.07364542 -0.035939924 0.036410224 0.098039486 0.08377235
-0.02050325 0.0194106 -0.052215192 -0.08036193 0.045999866 0.07381669 0.09171922 0.0016170818
-0.06387174 0.08486659 -0.097307086 -0.008139115 -0.017614743 0.010354842 -0.09985275 0.118077606
0.06604622 0.02930971 0.12555121 -0.06482431 -0.13651398 0.10421522 -0.15504315 0.12167498
-0.11636672 -0.06437021 -0.030706648 -0.032159097 -0.053553615 -0.05207552 0.08142564 -0.027357625
-0.019695794 -0.0011251712 0.0019473828 0.015055424 -0.08502905 0.05050863 -0.017817384 -0.007623955
-0.07707912 0.026015801 -0.11117394 0.10457581 -0.097009666 -0.014491893 -0.050868206 -0.12217663
00000000: 74a4 8fbc d07d 5ebd 00f8 fb3c 3cf7 293d
00000010: 689e b0bd fbd5 8ebd 7128 c1bc 50ae 3bbd
00000020: 492d 423d ccb7 543d df5b e23c c7df 1abd
00000030: 5cb3 ec3d 05a3 b33d dba3 7d3d baac cd3d
00000040: 54d8 48bd 553c 30bc bba9 9c3d b4cd af3d
00000050: c557 1d3d 4b87 593d fb67 003e d7da 283d
00000060: 0632 c5bd 8b45 ccbc 8df6 d3bd 30a0 de3d
00000070: b33b 40bc d72a 043e a525 b73d d8cc 97bc
00000080: f05e 963d e2dc a83d 8772 3abd dcdf 62bd
00000090: 584c 043e 2f0c babd d39b 123e 78df 9b3d
000000a0: 579a 843d 29d4 543d ade9 d6bc 300d 1cbd
000000b0: 0c76 393d 127b a13d 60fc 043c 32dc 88bd
000000c0: 0792 61bb ef43 783d 1ea7 0a3e 298b 763d
000000d0: d911 77bd 8210 e7bd f658 35bd 6e7c ca3d
000000e0: 2911 cebd 9fcd 1fbc 1a1e d03c 04e6 02bd
000000f0: d517 21bb b068 2d3d 005e c73d 8405 0a3e
00000100: 3e6b a5bd 2108 c53c 3b8c 09bc a856 73bd
00000110: 3681 d03d 9ea3 ae3d 7a4e e53d 1447 babd
00000120: 7bbe 493d 508d 903d 138e 1e3d 51ce e9bc
00000130: a347 a2bc ad08 793c 37ea 01be fc5a 52bc
00000140: 398c 0b3e 1cb9 c83d 18e9 463d 3c70 e83b
00000150: 9acd 24bc a201 b73d b996 30bd 0ec8 8cbd
00000160: fa2f 0f3d 49a9 10bd c114 12bc f578 eb3b
00000170: a542 d93d e5d3 743b c771 213e b7ea b4bd
00000180: a716 a53d d5dd 85bc 03e3 e23c 92ce 8a3d
00000190: 6a1c a2bd 6569 74bd 1143 cf3b a7b8 7dbd
000001a0: 5370 5fbd 0225 30bd 930b 7b3c 8c92 9f3d
000001b0: faea d4bd 17ef fdbc 9a18 ee3d 4260 c8bd
000001c0: 657a d13c 6555 75bc b756 f0bc 8e69 b43d
000001d0: ee35 b7bd 9423 26bc b23b f63d e5c0 8d3c
000001e0: 834d 2dbc 4758 f3bd 9eb3 d7bd b08c b33d
000001f0: 5285 9dbd 22a4 dcbc 35cd 933d 36da aa3c
00000200: 3e37 363d c8dc e3bd 987b 653d 62f0 bbbd
00000210: 5794 843d b93b 63bd cac7 ca3d fbd7 ecbd
00000220: 0170 8a3c 7ea9 adbd b906 d93d 7dc4 37bc
00000230: de14 97bd f9da 673d efda f2bc 5def c0bd
00000240: 643a d3bd a2d0 6b3d d740 a33c 2bf7 3a3c
00000250: 57ef a7bc 7e7a b5bd ac4b de3c 39c2 d7bd
00000260: bb23 82bd 7b93 193d 9257 bc3d d7d2 b3bc
00000270: 666c c53d f326 2d3d 51d5 7c3c 98e0 a5bc
00000280: 01a8 9a3d 3146 debd 258e bfbd 2a9b bfbc
00000290: 7bc2 c53d 0649 cf3d 775b a33c 7fcc 69bc
000002a0: 1329 513d 5630 b1bb c4b2 e13d 45f6 b43d
000002b0: b17b 67bd e4e0 693d 8de6 90bd 1d7d 193d
000002c0: 576d cb3d 5c42 21bc 5b70 07bd 93ec c33c
000002d0: a26b 1bbd 5281 873d c53c 08bd 4dcc 9c3c
000002e0: 8b60 6dbc e1d8 00be 802b f9bd c620 a0bd
000002f0: 32c2 59bc f56c 87bb 6536 6f3d 42e6 bbbd
00000300: d40b 493d 0870 abbd 0963 a7bb 4909 a0bb
00000310: 7924 c0bd 408f 093e 6a32 a33d be0a 92bd
00000320: bfc8 ac3d 53b8 04bd 99f0 9b3d 69d3 96bd
00000330: be35 13bd e322 153d edc8 c83d d690 ab3d
00000340: 6ff6 a7bc fb02 9f3c 99df 55bd cc94 a4bd
00000350: 5b6a 3c3d 342d 973d 49d7 bb3d 43f4 d33a
00000360: 30cf 82bd 89ce ad3d f048 c7bd ec59 05bc
00000370: cb4c 90bc 5ba7 293c 997f ccbd acd2 f13d
00000380: 3e43 873d eb1a f03c 7f90 003e 9cc2 84bd
00000390: 52ca 0bbe ca6e d53d a2c3 1ebe bb30 f93d
000003a0: ad51 eebd 87d4 83bd 828c fbbc 42b9 03bd
000003b0: 095b 5bbd 244d 55bd 7cc2 a63d 191d e0bc
000003c0: 1359 a1bc 7b7a 93ba 533f ff3a 06ab 763c
000003d0: b623 aebd 23e2 4e3d c3f5 91bc 5fd2 f9bb
000003e0: a8db 9dbd 171f d53c 2aaf e3bd d82b d63d
000003f0: 01ad c6bd 686f 6dbc 2e5b 50bd be37 fabd

net.2.bias f4 [64]
-0.0111243045 0.1248749 0.04805333 0.11959968 0.07370377 0.06828802 -0.10098526 0.021297
0.047312226 -0.093807034 0.08806829 -0.056307223 0.095085025 0.02978155 0.12580362 0.081554905
0.016727118 0.09984359 0.108038165 0.12646557 0.031827755 -0.00939272 -0.056775764 -0.08002574
-0.09000775 -0.021415353 -0.06640659 -0.00353232 0.11927194 -0.062337026 0.08910518 0.077369526
0.05004664 0.07242641 0.09658864 0.10281211 0.04152601 0.016000565 -0.12655842 0.06877721
-0.082909144 0.043352947 -0.057655577 -0.08083357 -0.058882363 -0.0663891 -0.11655811 -0.049512055
0.05827014 0.113303006 0.048485033 0.072605096 0.10132261 0.1004973 0.11908174 0.08069035
0.017425833 -0.06508514 0.0031618082 0.10653444 0.12976737 0.0984994 0.02087605 0.026226072
00000000: b742 36bc 69be ff3d 92d3 443d adf0 f43d
00000010: 01f2 963d 97da 8b3d 5cd1 cebd 0c77 ae3c
00000020: 77ca 413d e71d c0bd 265d b43d 67a2 66bd
00000030: f0bb c23d 70f8 f33c aad2 003e 4206 a73d
00000040: 4f07 893c cc7a cc3d 1d43 dd3d 3180 013e
00000050: d25d 023d ece3 19bc b48d 68bd 89e4 a3bd
00000060: fc55 b8bd 406f afbc 2e00 88bd 7f7e 67bb
00000070: d944 f43d 1c55 7fbd c77c b63d ea73 9e3d
00000080: b5fd 4c3d 4c54 943d 44d0 c53d 288f d23d
00000090: 2d17 2a3d 9e13 833c 8898 01be 11db 8c3d
000000a0: 45cc a9bd dc92 313d 4128 6cbd 128c a5bd
000000b0: a22e 71bd 02f7 87bd 05b6 eebd 27cd 4abd
000000c0: acac 6e3d 680b e83d 3e98 463d fbb1 943d
000000d0: 3b82 cf3d 87d1 cd3d 21e1 f33d fb40 a53d
000000e0: 9fc0 8e3c 5c4b 85bd 5736 4f3b ba2e da3d
000000f0: bde1 043e 0eba c93d 4004 ab3c 0fd8 d63c

net.4.weight f4 [4, 64]
0.05310761 -0.11273718 -0.13054094 0.024215134 0.063493624 0.101938464 -0.085155345 -0.045005895
0.008301568 0.046860415 -0.030606635 0.080866866 0.07222851 -0.09381417 -0.11855936 -0.13079248
-0.011074885 -0.022055082 -0.033293627 -0.017836105 0.0027231525 0.14412355 0.09903528 -0.012849438
0.13343248 -0.061743878 -0.06862073 -0.08597812 0.10223598 -0.040056292 0.02361225 0.1042743
0.10052143 0.0057600443 0.069441035 0.11297296 -0.09060269 -0.12171046 0.08956234 0.022542536
-0.03816731 -0.115363196 -0.0799748 -0.12035363 -0.054037306 -0.053606957 -0.019514522 0.07769709
-0.087281846 0.046621095 0.029666837 0.024316186 0.022928368 0.1016616 -0.13448112 0.110863104
-0.050355557 0.110032134 0.07247027 0.09751612 0.07873138 -0.11572389 0.03345644 -0.009953449
-0.04862898 -0.077562325 -0.030961147 -0.07100277 -0.059413344 0.06745737 0.07713498 0.03388049
0.1416435 -0.108675405 -0.044600602 -0.010557343 0.024304586 0.027599955 -0.017446673 -0.1489043
0.084044285 -0.11963196 -0.054899726 -0.0997632 -0.052961744 0.037462275 0.05237872 -0.03666901
0.061228827 -0.0017709895 0.09441852 0.034841627 0.026777811 -0.067986876 -0.012041755 0.10693984
-0.0047443705 0.018976388 0.10704829 0.09504552 -0.0026276235 0.098947145 0.06427914 0.14076042
0.02056884 -0.03824435 -0.03832881 -0.0789422 0.0833142 0.09292328 0.11133198 -0.027396707
-0.12072524 -0.101033784 -0.02260503 0.004639758 0.11297444 -0.14411867 -0.03750303 0.005046295
0.065906376 -0.022587229 -0.026326973 0.06881651 -0.057129882 0.078234404 0.10706545 -0.014687708
0.085152976 0.08924122 -0.057185136 0.00841764 0.09173047 0.038700666 0.11274432 0.116245545
0.14844717 -0.13517031 0.07415386 0.09751412 -0.03986528 -0.0767256 -0.071909614 -0.16095616
-0.08151449 0.005081347 -0.002280249 -0.07061577 -0.11680853 0.13364933 -0.014804012 0.13296224
-0.037502754 -0.1078675 -0.057785608 0.04706572 0.11834301 -0.07502089 0.009961415 0.06945371
0.08442466 0.09836874 -0.051779225 -0.062044416 0.07679468 0.08831548 0.12631758 0.00045968854
0.09852697 -0.16110806 -0.056866277 -0.044983294 0.12074983 0.034140725 0.02724743 0.10470223
-0.13028811 0.014265156 0.049514007 0.022524541 -0.10487669 0.028580206 -0.12505965 0.050852805
-0.049606774 0.06408085 0.013759416 0.07344821 -0.09130896 -0.07132302 0.013389631 0.13444488
0.01502046 0.07241092 0.08827687 -0.03185111 0.10656063 0.0031457013 -0.04868676 0.01018759
0.1544238 0.07253833 0.07972943 -0.016022623 -0.14711817 0.0565488 -0.099335685 -0.07515944
-0.10132007 -0.13497737 0.07771065 -0.09196397 -0.068440914 -0.032776807 0.027182309 -0.03890654
0.06009706 -0.10955337 0.044169378 0.10961015 0.0055294307 -0.13022299 0.14355247 0.09388843
0.12740165 -0.090404265 0.122210376 0.13051985 -0.056441944 -0.0018891628 -0.052413274 -0.009045559
0.05923743 -0.15144843 0.04432532 0.07144268 -0.11614698 -0.059904777 0.10045997 -0.1061576
0.031678505 0.09867493 0.031869818 -0.11428761 0.103850454 -0.0820662 -0.016662411 0.10617979
-0.120915204 0.08504157 0.07228614 0.107057765 0.007918316 0.05316774 0.023768056 0.15495871
00000000: 5e87 593d c0e2 e6bd 86ac 05be d15e c63c
00000010: f208 823d 1dc5 d03d ed65 aebd 1a58 38bd
00000020: 4d03 083c b5f0 3f3d c4ba fabc 879d a53d
00000030: 8bec 933d a521 c0bd 40cf f2bd 77ee 05be
00000040: 6f73 35bc dcac b4bc e65e 08bd 061d 92bc
00000050: eb76 323b 2095 133e 02d3 ca3d 7386 52bc
00000060: 86a2 083e 26e7 7cbd 0689 8cbd 4c15 b0bd
00000070: 1961 d13d 1112 24bd 7a6e c13c c48d d53d
00000080: 2ede cd3d c1be bc3b 1a37 8e3d 5e5e e73d
00000090: e78d b9bd 5543 f9bd 766c b73d 20ab b83c
000000a0: 5355 1cbd 8a43 ecbd d4c9 a3bd f77b f6bd
000000b0: 3956 5dbd f892 5bbd ebdc 9fbc a71f 9f3d
000000c0: d3c0 b2bd c3f5 3e3d de07 f33c bd32 c73c
000000d0: 46d4 bb3c f533 d03d 6bb5 09be 320c e33d
000000e0: a141 4ebd 8758 e13d 4b6b 943d 88b6 c73d
000000f0: eb3d a13d a600 edbd 9f09 093d ca13 23bc
00000100: 2e2f 47bd ffd8 9ebd 3ba2 fdbc e669 91bd
00000110: 685b 73bd 1727 8a3d f2f8 9d3d 45c6 0a3d
00000120: fe0a 113e 3691 debd 1faf 36bd b5f8 2cbc
00000130: 691a c73c 4d19 e23c 53ec 8ebc 5e7a 18be
00000140: 691f ac3d 9a01 f5bd 89de 60bd a650 ccbd
00000150: 6aee 58bd 0b72 193d 128b 563d 3e32 16bd
00000160: 14cb 7a3d 8c20 e8ba 7f5e c13d 18b6 0e3d
00000170: 245d db3c b43c 8bbd c84a 45bc 4603 db3d
00000180: aa76 9bbb 5f74 9b3c 223c db3d 3aa7 c23d
00000190: 3534 2cbb cda4 ca3d c8a4 833d 8023 103e
000001a0: fc7f a83c 1ca6 1cbd acfe 1cbd 73ac a1bd
000001b0: a3a0 aa3d 904e be3d 0502 e43d 0f6f e0bc
000001c0: cb3e f7bd cdea cebd 2f2e b9bc 1c09 983b
000001d0: 255f e73d d893 13be c79c 19bd 645b a53b
000001e0: ecf9 863d da08 b9bc aaab d7bc acef 8c3d
000001f0: 0601 6abd 5c39 a03d 2145 db3d b6a4 70bc
00000200: af64 ae3d 1ac4 b63d f63a 6abd 24ea 093c
00000210: 2fdd bb3d 9784 1e3d 7ee6 e63d 2512 ee3d
00000220: 8902 183e 166a 0abe fbdd 973d 7cb5 c73d
00000230: c749 23bd 5022 9dbd 5945 93bd b1d1 24be
00000240: 12f1 a6bd 6e81 a63b 3b70 15bb 009f 90bd
00000250: 5039 efbd 5fdb 083e 878c 72bc 4127 083e
00000260: 7d9c 19bd a3e9 dcbd 9ab0 6cbd fcc7 403d
00000270: d25d f23d 8da4 99bd 3435 233c bf3d 8e3d
00000280: d6e6 ac3d 8d75 c93d 7416 54bd 4922 7ebd
00000290: 8746 9d3d bfde b43d 6559 013e 5a02 f139
000002a0: 82c8 c93d 83f9 24be 9dec 68bd 6740 38bd
000002b0: b04b f73d 25d7 0b3d 0136 df3c 1f6e d63d
000002c0: 3f6a 05be 67b8 693c 33cf 4a3d 6385 b83c
000002d0: 97c9 d6bd 0921 ea3c a30f 00be 084b 503d
000002e0: 7930 4bbd d23c 833d 2c6f 613c 046c 963d
000002f0: 3100 bbbd ce11 92bd 2f60 5b3c ebab 093e
00000300: 6018 763c 2d4c 943d 81ca b43d 4f76 02bd
00000310: 763c da3d 1c28 4e3b c56b 47bd d9e9 263c
00000320: 4621 1e3e fa8e 943d 2f49 a33d e041 83bc
00000330: 25a6 16be b79f 673d 8270 cbbd 31ed 99bd
00000340: e680 cfbd 8237 0abe c326 9f3d 9b57 bcbd
00000350: c02a 8cbd f940 06bd 6fad de3c 775c 1fbd
00000360: 5628 763d 845d e0bd f3ea 343d 497b e03d
00000370: 3a30 b53b 2d59 05be 6bff 123e 9448 c03d
00000380: 9475 023e df25 b9bd 6f49 fa3d ffa6 053e
00000390: ab2f 67bd c99d f7ba 4daf 56bd d333 14bc
000003a0: f3a2 723d 4c15 1bbe 778e 353d 8a50 923d
000003b0: 78de edbd b65e 75bd f5bd cd3d 2869 d9bd
000003c0: 52c1 013d 1516 ca3d ed89 023d 9f0f eabd
000003d0: 8caf d43d 5312 a8bd 9c7f 88bc ca74 d93d
000003e0: 64a2 f7bd 462a ae3d c10a 943d 1a41 db3d
000003f0: d3bb 013c 6bc6 593d 3ab5 c23c 7fad 1e3e

net.4.bias f4 [4]
0.051801465 0.019934505 0.07369996 -0.073499545
00000000: c62d 543d b04d a33c 01f0 963d ee86 96bd
