runs/4_hour_forecasting/296/best_model.pt (torch, 271737 bytes, 6 tensors)

net.0.weight f4 [64, 979]
0.021134153 0.025566224 -0.009596898 0.03054562 -0.008723922 0.0043368847 -0.021301303 0.017965293
0.026506763 -0.023144718 0.02147687 0.00974062 0.028697532 0.003277384 0.019377844 -0.008614277
0.017625574 0.0029001376 -0.016787874 -0.002622118 -0.02063544 -0.008914614 -0.0097596655 0.015033627
-0.02378333 -0.026249979 -0.020653708 -0.02341576 -7.840142e-05 -0.032105938 0.028773654 -0.03495048
0.009547698 0.0012713603 -0.00693952 0.01880459 0.01480106 0.022286555 0.0034604373 -0.005258466
0.011642668 -0.010679463 0.016490005 0.032044195 0.01857533 -0.0077479347 0.022898879 0.006071307
0.018955937 -0.015783487 -0.022362718 -0.013959584 -0.02343669 0.032762606 0.01513753 0.015988832
0.015379017 -0.0047702054 0.027363598 -0.016534371 0.0029506346 -0.02481506 0.01593881 -0.004515104
0.013941738 -0.0061523155 0.03399017 -0.018242622 -0.01834326 -0.015898043 0.028417341 0.009705663
0.038885117 -0.020444611 -0.023954922 -0.02455699 -0.014961852 0.01423026 0.014557959 0.02788369
-0.010916997 -0.022618547 0.0210258 -0.010703698 0.024299987 -0.019882789 0.026316466 -0.025943184
-0.014661699 0.004363774 0.004056631 -0.012137327 0.021387778 0.015702842 -0.022101242 -0.019462785
0.029448958 -0.0066445386 -0.019343978 -0.032609187 -0.016602486 0.01023662 -0.007990335 -0.022945156
-0.005763621 -0.025193999 -0.027710363 -0.019732013 -0.029580647 -0.0160933 0.031712912 0.007974581
0.0061357613 -0.030539379 -0.025682958 -0.016107734 -0.007101926 -0.023354266 -0.012936876 -0.018455954
0.0008816908 -0.022083469 -0.0075281877 -0.017096253 -0.020996233 -0.011479264 -0.01389422 -0.022680819
0.0249655 -0.0062637567 0.02564598 0.004513751 -0.017993951 0.026804866 -0.0089710755 -0.012023858
-0.023675282 -0.028445674 0.011515413 -0.00038092054 0.009721939 -0.02619248 0.02923364 -0.018386198
-0.00401323 0.010808335 0.01149137 0.026937183 0.034285486 -0.025240604 0.004157189 -0.008373092
0.0017286866 -0.020980248 0.027941821 -0.016669555 0.016481813 0.011696474 0.012679894 -0.018290777
0.028554417 0.013307 0.009252555 -0.021024184 0.013734109 -0.0005402172 -0.014923651 0.029854337
0.009980261 -0.013362313 -0.019055456 0.000913442 0.01796362 -0.0046462105 -0.029108584 0.00021751938
-0.02498743 0.012865369 0.020988047 -0.03150169 0.0054783537 0.016934622 -0.0020399578 -0.009903419
0.015209748 0.012758015 0.012127318 -0.019792687 -0.0116108265 0.0061077992 -0.0040263697 -0.010126485
0.01915155 0.028817717 -0.011840699 -0.012731339 -0.0009818748 -0.0006625849 0.0105814645 0.007337243
-0.03417669 -0.009977111 0.023807164 0.008177444 -0.0055932626 -0.03330557 -0.013841409 -0.029386714
-0.009756129 0.011139228 0.019148992 0.009928214 -0.023039652 -0.02058139 0.0030049821 0.027168538
0.0028768326 -0.009447237 0.003299553 -0.010897472 -0.016106416 0.030372838 -0.008753911 -0.0077386317
-0.036084846 0.02521509 0.02465941 0.008604351 -0.013161788 -0.035222955 -0.026808254 0.028237885
0.019591315 0.027274009 0.019694889 0.0025119847 -0.0003986721 -0.019889519 -0.028214348 -0.034526188
0.017797116 -0.011464576 -0.0044293096 -0.021204023 -0.00020994866 -0.024294872 -0.021203354 0.011381601
-0.010789991 0.02093347 -0.006159811 -0.019422539 0.00033869923 -0.014058831 -0.007745625 -0.031827915
00000000: 8821 ad3c 4270 d13c 4f3c 1dbc cf3a fa3c
00000010: c8ee 0ebc 6d1c 8e3b 1280 aebc f32b 933c
00000020: b624 d93c fe99 bdbc 43f0 af3c 1f97 1f3c
00000030: 1617 eb3c 61c9 563b 49be 9e3c e522 0dbc
00000040: 8263 903c 3c10 3e3b b986 89bc d7d7 2bbb
00000050: a70b a9bc 9a0e 12bc 01e7 1fbc 9a4f 763c
00000060: 42d5 c2bc 320a d7bc f731 a9bc 68d2 bfbc
00000070: 716b a4b8 8481 03bd bab6 eb3c 3c28 0fbd
00000080: f36d 1c3c c6a3 a63a ea64 e3bb 150c 9a3c
00000090: 2580 723c 4b92 b63c 81c8 623b 364f acbb
000000a0: e4c0 3e3c eaf8 2ebc 0c16 873c c640 033d
000000b0: 4a2b 983c 63e2 fdbb 6e96 bb3c d1f1 c63b
000000c0: 7b49 9b3c 5f4c 81bc 0532 b7bc bdb6 64bc
000000d0: 4dfe bfbc 1532 063d 6703 783c 03fb 823c
000000e0: 46f8 7b3c 624f 9cbb a029 e03c 1773 87bc
000000f0: 6f5f 413b f448 cbbc 1b92 823c 70f3 93bb
00000100: e36b 643c 5d99 c9bb 4739 0b3d 8d71 95bc
00000110: 9b44 96bc 9d3c 82bc 7ccb e83c 8004 1f3c
00000120: 0046 1f3d 757b a7bc 1d3d c4bc be2b c9bc
00000130: 8e22 75bc 0926 693c 8184 6e3c 566c e43c
00000140: 34dd 32bc 884a b9bc 4c3e ac3c 905e 2fbc
00000150: c410 c73c 3be1 a2bc a195 d73c cd86 d4bc
00000160: 9f37 70bc fdfd 8e3b 7ded 843b a4db 46bc
00000170: 6c35 af3c 3fa3 803c aa0d b5bc 6b70 9fbc
00000180: f13e f13c 6eba d9bb 4377 9ebc 3691 05bd
00000190: f001 88bc 7fb7 273c e5e9 02bc 7bf7 bbbc
000001a0: c2dc bcbb a563 cebc d800 e3bc 08a5 a1bc
000001b0: 1d53 f2bc 19d6 83bc 66e5 013d d1a7 023c
000001c0: 7f0e c93b b82d fabc 1165 d2bc 5ef4 83bc
000001d0: 46b7 e8bb 7251 bfbc 31f5 53bc f130 97bc
000001e0: 4521 673a 64e8 b4bc 04af f6bb 710d 8cbc
000001f0: 4b00 acbc 8613 3cbc 95a4 63bc 20cd b9bc
00000200: 7384 cc3c 3340 cdbb 8517 d23c 16e8 933b
00000210: 0d68 93bc e195 db3c 6bfb 12bc b7ff 44bc
00000220: aaf2 c1bc e706 e9bc 25ab 3c3c 4ab6 c7b9
00000230: c548 1f3c 9d91 d6bc 637b ef3c a79e 96bc
00000240: 6a81 83bb 7115 313c 4d46 3c3c 5eab dc3c
00000250: f06e 0c3d 62c5 cebc 0739 883b 4b2f 09bc
00000260: 1995 e23a c5de abbc 3fe6 e43c 978e 88bc
00000270: de04 873c 91a2 3f3c 55bf 4f3c 8ad6 95bc
00000280: f4ea e93c 9a05 5a3c 0798 173c e93a acbc
00000290: 0705 613c 5d9d 0dba 5482 74bc 1591 f43c
000002a0: 4084 233c 9aed 5abc 301a 9cbc 0e74 6f3a
000002b0: 7128 933c 3d3f 98bb 2075 eebc ea15 6439
000002c0: 70b2 ccbc 45c9 523c 20ef ab3c eb07 01bd
000002d0: c383 b33b 7aba 8a3c d0b0 05bb f341 22bc
000002e0: 4f32 793c fe06 513c a9b1 463c 4624 a2bc
000002f0: 563b 3ebc ef23 c83b a3ef 83bb 8ee9 25bc
00000300: b6e3 9c3c 2213 ec3c 7eff 41bc 1b97 50bc
00000310: 40b2 80ba 52b1 2dba e15d 2d3c 416d f03b
00000320: dbfc 0bbd 0977 23bc 3e07 c33c b0fa 053c
00000330: b047 b7bb 6c6b 08bd 14c7 62bc 68bc f0bc
00000340: 2cd8 1fbc 4f81 363c 59de 9c3c f3a9 223c
00000350: a7bd bcbc 4e9a a8bc 3cef 443b 8e90 de3c
00000360: 3e89 3c3b 95c8 1abc 503d 583b 4f8b 32bc
00000370: 9af1 83bc 75d0 f83c 906c 0fbc 5994 fdbb
00000380: b4cd 13bd e08f ce3c 8802 ca3c 44f9 0c3c
00000390: 8aa4 57bc f245 10bd fc9c dbbc 2353 e73c
000003a0: f77d a03c be6d df3c 2d57 a13c 1ca0 243b
000003b0: dd04 d1b9 58ef a2bc c721 e7bc 556b 0dbd
000003c0: 42cb 913c ebd5 3bbc be23 91bb 0fb4 adbc
000003d0: aa25 5cb9 0a06 c7bc a8b2 adbc e579 3a3c
000003e0: 81c8 30bc ab7c ab3c 3dd8 c9bb 041c 9fbc
000003f0: 7193 b139 0357 66bc 03cf fdbb fd5d 02bd

net.0.bias f4 [64]
-0.004829748 0.0059721447 0.029980158 0.0126452455 -0.01758411 0.010466172 0.008320443 0.030666526
-0.008840305 0.03407679 -0.00811234 -0.004080287 0.0037895634 -0.0009766152 0.0094123585 0.008768472
0.03828413 0.02087436 0.000928647 0.018058488 -0.0049857427 -0.009746316 -0.0124920085 -0.00012731402
0.024852542 -0.017781928 0.027898515 0.027236367 0.0027962793 0.03411983 0.031441025 0.01602986
0.024290118 -0.019693451 -0.024207022 0.0051420066 0.039047815 0.034252055 -0.01732048 0.009243825
0.025345378 0.031396948 0.019602025 -0.013560609 0.014893948 -0.009929447 0.002195744 0.008596973
0.0056367447 0.019485816 0.034020167 -0.0042585423 0.02299148 -0.014970784 -0.021112368 0.0066731824
0.0320199 0.017122043 0.013455156 -0.012090779 0.022154724 -0.009489583 0.004006218 0.039672796
00000000: dd42 9ebb fbb1 c33b f398 f53c 012e 4f3c
00000010: 8d0c 90bc 4f7a 2b3c 7852 083c 5e38 fb3c
00000020: edd6 10bc 1b94 0b3d 9fe9 04bc eeb3 85bb
00000030: 535a 783b c501 80ba 4b36 1a3c a3a9 0f3c
00000040: d2cf 1c3d b500 ab3c 7270 733a 65ef 933c
00000050: 715f a3bb 03af 1fbc 48ab 4cbc 997f 05b9
00000060: 8f97 cb3c 68ab 91bc 6d8b e43c cd1e df3c
00000070: c841 373b 3cc1 0b3d 4ec8 003d 0e51 833c
00000080: 12fc c63c 2954 a1bc ce4d c6bc 477e a83b
00000090: 9af0 1f3d e24b 0c3d aee3 8dbc 6a73 173c
000000a0: 1ca1 cf3c 169a 003d 6d94 a03c 512d 5ebc
000000b0: bf05 743c 1faf 22bc 79e6 0f3b 51da 0c3c
000000c0: 71b4 b83b b8a0 9f3c bb58 0b3d 3e8b 8bbb
000000d0: a158 bc3c 0548 75bc d8f3 acbc b6aa da3b
000000e0: 4c27 033d 8743 8c3c 0473 5c3c 6718 46bc
000000f0: d37d b53c 327a 1bbc 9846 833b f17f 223d

net.2.weight f4 [64, 64]
0.013973596 0.13003936 0.11828083 0.13555981 0.107999 0.117927365 0.06924724 0.03230822
0.11945572 0.011447881 0.040172968 -0.050801437 0.030252427 0.062422074 0.0761748 0.07000834
-0.10768412 0.03674331 -0.014817515 0.10299479 0.12652376 -0.08963204 0.12652932 0.015268033
-0.06105899 0.041742366 0.043907646 -0.024149403 -0.08126912 0.07614875 0.0898708 0.07520209
0.018868918 -0.07323263 0.09424323 0.052599855 -0.02771823 0.10727902 0.00555585 -0.10045049
-0.015637623 -0.03742864 0.054203436 -0.10207374 0.103527635 0.037379738 -0.081230044 -0.06405318
0.0711692 0.07132442 -0.1136271 -0.05904645 -0.06066015 -0.102037504 -0.05752827 -0.051235616
0.049400326 -0.054941293 0.0042711524 -0.09900508 -0.08214454 0.059411876 -0.1328398 -0.080637604
-0.04123239 -0.031718206 0.10330448 0.1478178 0.031760365 0.06586911 0.050436478 -0.1209166
-0.05012988 0.107899 0.08184909 0.032846473 -0.08890688 0.12995104 0.0003894626 0.0075662234
-0.041590396 -0.07132037 -0.077251665 0.03130499 0.0587228 -0.038959213 0.0025239585 -0.06590313
-0.09037204 0.07187194 -0.034843113 -0.046496704 -0.08102874 0.039938617 0.045868687 -0.008657721
-0.01173405 0.022613568 0.11324718 -0.041891813 0.025897698 -0.05278408 -0.05187406 -0.0572492
0.09937905 -0.018277362 -0.005933587 0.09325643 -0.08395048 0.11838323 -0.079714246 0.020025324
0.0192662 0.031118503 -0.012299398 -0.08268011 0.0031815756 -0.08000965 -0.064718224 0.12907128
0.024071556 0.0839789 -0.07847677 -0.033194583 0.026839612 -0.10728811 -0.06649311 0.0017260349
0.01615147 0.103495136 0.058865223 -0.16368896 -0.12737927 0.034081288 -0.058347143 0.11644134
-0.0025962535 -0.05589742 -0.113756835 0.03308355 0.13362917 -0.012718013 -0.09633558 0.10722409
0.13399594 -0.12927207 -0.05090774 -0.09348906 0.11957691 0.066609584 -0.11172555 -0.08083408
0.010659101 -0.022434948 0.103321485 0.108250976 -0.097067855 0.006719037 0.102168866 0.02741642
0.031955376 -0.10828565 -0.030577153 0.09980983 0.10041531 0.14213927 0.13004509 -0.0815428
0.092112124 -0.00540577 -0.049753115 0.08187826 0.1237244 -0.039337456 0.14014214 -0.10144735
0.10638995 0.041675065 -0.0742967 0.059868507 0.058591794 0.046130393 0.0487977 0.028011708
-0.08684506 0.13402238 -0.073002174 0.09692084 0.059298538 0.03243469 -0.040934116 0.13531952
-0.031938482 -0.0036655443 0.117113635 0.021261016 0.004853636 0.03701809 -0.02360994 -0.086165406
-0.0517436 -0.1342427 -0.0582668 -0.035937984 0.097483814 0.045612708 0.10041169 0.10777257
0.087683424 0.083512194 -0.06093147 -0.0889436 0.04333524 -0.061511416 0.04447569 -0.007834978
0.059331823 0.009486241 -0.0006577328 -0.019158967 -0.13763139 -0.056099232 0.048361886 0.10868025
0.02173738 0.1427206 -0.012717175 -0.04854353 0.123067364 0.11452912 0.047066484 -0.01790692
0.054462545 -0.12950724 -0.08653289 0.009841331 0.033690874 0.082573034 0.08231181 0.03106543
-0.06413916 -0.038038343 0.13070826 0.012216991 0.08746861 0.08874281 0.017454427 0.057659697
-0.032149173 -0.062430248 -0.016362434 0.012587549 -0.08526066 0.13187417 0.05776883 0.08014243
00000000: 82f1 643c 0a29 053e 383d f23d 31d0 0a3e
00000010: 942e dd3d e783 f13d 7fd1 8d3d a055 043d
00000020: 33a5 f43d e58f 3b3c 698c 243d 2b15 50bd
00000030: f0d3 f73c 4aae 7f3d 8901 9c3d 8860 8f3d
00000040: 7e89 dcbd 2780 163d 2ac5 72bc efee d23d
00000050: 728f 013e 0191 b7bd e790 013e c626 7a3c
00000060: fe18 7abd 0bfa 2a3d 81d8 333d f8d4 c5bc
00000070: 6d70 a6bd e0f3 9b3d 2f0e b83d 8e03 9a3d
00000080: fd92 9a3c fdfa 95bd 9802 c13d f272 573d
00000090: 5711 e3bc 1ab5 db3d d90d b63b fdb8 cdbd
000000a0: 791a 80bc c64e 19bd 6c04 5e3d 090c d1bd
000000b0: 4c06 d43d 7f1b 193d f05b a6bd 502e 83bd
000000c0: 28c1 913d 8a12 923d 53b5 e8bd b1da 71bd
000000d0: c776 78bd 0af9 d0bd c3a2 6bbd 70dc 51bd
000000e0: ff57 4a3d 1f0a 61bd 06f5 8b3b 2dc3 cabd
000000f0: 663b a8bd de59 733d 2807 08be 5425 a5bd
00000100: 4be3 28bd f3ea 01bd 4d91 d33d 8d5d 173e
00000110: 2817 023d 62e6 863d 7b96 4e3d 1fa3 f7bd
00000120: fd54 4dbd 27fa dc3d 7fa0 a73d 068a 063d
00000130: cf14 b6bd e311 053e c930 cc39 15ee f73b
00000140: b15a 2abd 6a10 92bd 1f36 9ebd a939 003d
00000150: 5287 703d b293 1fbd ff68 253b 38f8 86bd
00000160: fa14 b9bd 9831 933d a7b7 0ebd 5473 3ebd
00000170: 65f2 a5bd ad96 233d cee0 3b3d 1dd9 0dbc
00000180: 2c40 40bc 1740 b93c 23ee e73d c096 2bbd
00000190: 6927 d43c 1f34 58bd e579 54bd 237e 6abd
000001a0: 3e87 cb3d 68ba 95bc 896e c2bb 3afd be3d
000001b0: 3bee abbd e872 f23d 3941 a3bd 260c a43c
000001c0: 26d4 9d3c 3bec fe3c 6a83 49bc 3154 a9bd
000001d0: fb81 503b 19dc a3bd fd8a 84bd 432b 043e
000001e0: b631 c53c 21fd ab3d 6eb8 a0bd 0bf7 07bd
000001f0: bfde db3c deb9 dbbd 8a2d 88bd 1f3c e23a
00000200: 1650 843c 42f5 d33d a91c 713d 149e 27be
00000210: b66f 02be d298 0b3d 6afd 6ebd cc78 ee3d
00000220: e825 2abb b1f4 64bd 58f9 e8bd 9e82 073d
00000230: 16d6 083e 365f 50bc 974b c5bd 4e98 db3d
00000240: 3b36 093e e65f 04be a284 50bd 3177 bfbd
00000250: bde4 f43d 9b6a 883d 5dd0 e4bd 578c a5bd
00000260: 83a3 2e3c 7fc9 b7bc 379a d33d b0b2 dd3d
00000270: 83cb c6bd 5e2b dc3b e93d d13d 6698 e03c
00000280: a4e3 023d dec4 ddbd f07c fabc 1969 cc3d
00000290: 8ba6 cd3d f58c 113e 8a2a 053e e9ff a6bd
000002a0: 48a5 bc3d e322 b1bb ecc9 4bbd caaf a73d
000002b0: 3863 fd3d 5020 21bd 6c81 0f3e a1c3 cfbd
000002c0: f9e2 d93d 79b3 2a3d de28 98bd ae38 753d
000002d0: f3fd 6f3d 39f3 3c3d 19e0 473d cf78 e53c
000002e0: d3db b1bd 2a3d 093e 2a82 95bd 6f7e c63d
000002f0: 06e3 723d 3dda 043d 88aa 27bd 3391 0a3e
00000300: edd1 02bd a139 70bb 46d9 ef3d 952b ae3c
00000310: 400b 9f3b 48a0 173d a269 c1bc 7d77 b0bd
00000320: 19f1 53bd eb76 09be 2ba9 6ebd b533 13bd
00000330: 98a5 c73d 64d4 3a3d a5a4 cd3d ddb7 dc3d
00000340: 5e93 b33d 7108 ab3d 4793 79bd 1028 b6bd
00000350: 4b80 313d 65f3 7bbd 242c 363d 485e 00bc
00000360: ed05 733d 2e6c 1b3c b36b 2cba 44f3 9cbc
00000370: 3eef 0cbe 4fc8 65bd 1d17 463d c093 de3d
00000380: 9712 b23c 5925 123e b35b 50bc 95d5 46bd
00000390: be0a fc3d 3e8e ea3d c9c8 403d 88b1 92bc
000003a0: 1e14 5f3d 8c9d 04be 2838 b1bd 893d 213c
000003b0: 71ff 093d 0d1c a93d 1893 a83d ee7c fe3c
000003c0: 645b 83bd 18ce 1bbd 63d8 053e c629 483c
000003d0: be22 b33d cabe b53d 96fc 8e3c 932c 6c3d
000003e0: daae 03bd dcb6 7fbd 830a 86bc 023c 4e3c
000003f0: 249d aebd 060a 073e 029f 6c3d b721 a43d

net.2.bias f4 [64]
0.06617032 0.11877371 -0.06528538 -0.11540103 -0.09073678 -0.03398201 -0.11651936 0.003705798
0.032763332 0.1268653 0.04949079 0.104112945 -0.017634511 -0.025053045 0.122547634 -0.068435274
0.12390421 -0.0846171 -0.0478207 -0.096916705 -0.005172914 -0.088393904 -0.038547803 -0.10358607
0.1185313 -0.12399365 -0.07839024 0.07010294 0.0799313 -0.055648744 -0.023609063 -0.015720185
0.06190183 -0.013536037 -0.022068614 -0.06747015 -0.08734837 0.076516606 0.079982184 -0.09423454
0.011904283 0.10892022 0.012329038 0.059087425 0.019141586 0.07217591 -0.020950356 0.05116302
0.028029466 -0.06546551 -0.06577394 0.09315866 0.053020127 -0.09751672 -0.08638899 0.123019315
0.11854525 -0.11231569 -0.0816772 0.025947245 -0.075632304 0.007067596 0.02670625 0.11163496
00000000: 4e84 873d a23f f33d 57b4 85bd 6057 ecbd
00000010: 34d4 b9bd b830 0bbd b4a1 eebd f9dc 723b
00000020: d832 063d fae8 013e dbb6 4a3d 2b39 d53d
00000030: 4076 90bc 0b3c cdbc 41fa fa3d cb27 8cbd
00000040: 7ec1 fd3d bb4b adbd a3df 43bd 447c c6bd
00000050: 8c81 a9bb dd07 b5bd 4de4 1dbd ef24 d4bd
00000060: 8ac0 f23d 62f0 fdbd 108b a0bd 2192 8f3d
00000070: 05b3 a33d f0ef 63bd cb67 c1bc 9ec7 80bc
00000080: c68c 7d3d 41c6 5dbc 3dc9 b4bc ca2d 8abd
00000090: b4e3 b2bd bdb4 9c3d b3cd a33d 0afe c0bd
000000a0: 2f0a 433c 9011 df3d bcff 493c a805 723d
000000b0: d1ce 9c3c f7d0 933d 15a0 abbc 5190 513d
000000c0: 0d9e e53c c812 86bd 7db4 86bd f8c9 be3d
000000d0: a22b 593d d9b6 c7bd b6ec b0bd 8df1 fb3d
000000e0: dac7 f23d c505 e6bd 6046 a7bd 518f d43c
000000f0: 1ce5 9abd 4b97 e73b 11c7 da3c dfa0 e43d

net.4.weight f4 [4, 64]
-0.052689716 0.024010833 0.035507135 0.15201563 0.024885403 -0.114722155 0.0721505 -0.14821196
-0.017062215 0.052635293 0.056843944 0.08142047 0.040025845 -0.12478972 0.104653135 -0.06921819
-0.047158156 0.09106814 -0.15224811 -0.057624616 -0.007586418 0.13060918 -0.08482933 -0.037909623
-0.019036971 -0.045162007 0.023023864 -0.092213534 -0.023645233 0.14008562 0.04994392 0.04652509
-0.10082567 0.13185884 0.016305352 0.052922703 0.026882723 -0.072304 -0.029183079 0.0684246
0.13663295 0.1199283 0.027687106 -0.044184923 -0.06890803 0.017670887 -0.13355121 0.08084476
0.07705725 -0.013077381 0.042491607 0.005556558 -0.10585786 0.041379992 -0.036300972 0.06861143
0.113266155 0.09113734 -0.1140455 -0.017009493 0.0047382186 -0.06966013 0.05804609 0.12175026
-0.096258104 -0.08183372 0.08589656 -0.0525945 0.06496256 0.0947416 -0.04406117 -0.109888636
0.034287486 -0.11772186 -0.02222458 -0.048155624 0.07595699 -0.041022897 0.06344126 0.090892486
0.047110084 0.061199293 -0.051981058 -0.09121936 0.090983026 -0.04870047 -0.13357408 0.083775386
0.033290535 0.021376947 -0.09738626 -0.087064944 0.017357199 -0.02266628 0.040770583 0.1423091
-0.05187567 0.1448199 -0.033613287 0.110811785 -0.07348375 -0.0057435078 0.0017858244 0.11429788
0.045388665 -0.03952759 0.058320064 -0.1557307 -0.12796001 -0.09834965 -0.011046357 0.10396187
0.01396227 0.13453367 0.08501947 -0.10987469 0.087976515 0.049752187 0.07005226 0.05541842
-0.0019947102 -0.015694745 -0.11375261 -0.06033411 -0.09825464 -0.035938736 0.13439868 -0.05096639
-0.05571185 0.014728179 0.1080007 0.049162205 0.07202338 0.009712577 0.1454118 -0.06292561
-0.06867909 0.033223536 -0.006015947 -0.10669308 -0.10917484 -0.07956257 0.056418423 -0.11412859
0.07824464 0.12339533 -0.13859138 0.123716794 -0.018564668 0.12910777 -0.03939952 0.13496874
0.06424834 0.13775015 0.0031158517 -0.1508353 0.10256226 -0.086399764 0.05862991 0.06094097
-0.11401922 0.0073780315 0.12459436 0.09127986 -0.023281772 0.03694769 0.036681645 -0.058676045
-0.09301887 0.14231825 -0.010349697 -0.11805885 -0.106853455 -0.12060249 -0.065988846 0.029152956
-0.11926784 0.051885564 -0.0013717789 -0.033074185 0.053568806 -0.12666157 0.10504572 0.0414975
0.03601881 0.056055054 -0.14383665 0.10206751 -0.09938371 0.07573903 0.025972331 0.0696519
-6.9094785e-05 -0.065745555 0.054289464 -0.012699479 0.08219523 -0.058848247 0.11209119 0.0019280256
-0.15722379 -0.089411095 -0.053331155 -0.12144679 -0.14586714 0.029686391 0.010066572 -0.12615252
-0.059967667 0.15466142 0.0789794 0.025715893 0.12406791 0.15865508 -0.042189233 0.10634958
0.14265472 0.16888292 0.065774314 -0.1373768 0.0045387405 -0.083215356 0.11067341 0.06796063
-0.08642928 0.12551117 0.04010951 0.041130386 -0.07604966 -0.06463812 0.08784149 -0.006090268
0.07081871 0.058581583 0.07093325 0.07007072 -0.038287062 -0.011337346 -0.01716249 0.08362933
-0.042752463 0.052760206 0.00012270913 -0.025767507 -0.052929867 -0.1239451 0.13613895 -0.08719339
0.06952941 0.11939618 -0.12786265 -0.052766573 0.01827392 -0.04991663 0.13976316 0.123064026
00000000: 2cd1 57bd 5eb2 c43c ee6f 113d fca9 1b3e
00000010: 79dc cb3c 73f3 eabd a4c3 933d e0c4 17be
00000020: 0fc6 8bbc 1b98 573d 32d5 683d c6bf a63d
00000030: 24f2 233d c191 ffbd 6254 d63d 44c2 8dbd
00000040: e928 41bd ef81 ba3d eee6 1bbe ca07 6cbd
00000050: 7d97 f8bb 6abe 053e 00bb adbd 1f47 1bbd
00000060: 6cf3 9bbc ccfb 38bd 8b9c bc3c 73da bcbd
00000070: a6b3 c1bc 9b72 0f3e ff91 4c3d 1891 3e3d
00000080: b07d cebd 0106 073e cd92 853c 7ac5 583d
00000090: 2839 dc3c 1f14 94bd 5a11 efbc 3222 8c3d
000000a0: 82e9 0b3e f89c f53d 12d0 e23c 40fb 34bd
000000b0: a71f 8dbd 89c2 903c a6c1 08be f091 a53d
000000c0: 31d0 9d3d 8342 56bc ae0b 2e3d c913 b63b
000000d0: 01cc d8bd 117e 293d 54b0 14bd 2684 8c3d
000000e0: 16f8 e73d 37a6 ba3d b090 e9bd 7e57 8bbc
000000f0: 0f43 9b3b f8a9 8ebd bdc1 6d3d 3358 f93d
00000100: f822 c5bd 7098 a7bd 89ea af3d 556d 57bd
00000110: 170b 853d e207 c23d 7c79 34bd 4b0d e1bd
00000120: 0971 0c3d 2918 f1bd 5310 b6bc d53e 45bd
00000130: 578f 9b3d a007 28bd 7eed 813d d725 ba3d
00000140: 81f6 403d 1cac 7a3d 17ea 54bd 37d1 babd
00000150: 4f55 ba3d 257a 47bd a5c7 08be 6e92 ab3d
00000160: a85b 083d b51e af3c 7372 c7bd 1b4f b2bd
00000170: af30 8e3c a2ae b9bc 0eff 263d 7ab9 113e
00000180: 957b 54bd ab4b 143e 16ae 09bd 4af1 e23d
00000190: a67e 96bd 0934 bcbb 5312 ea3a 0215 ea3d
000001a0: 77e9 393d afe7 21bd 05e1 6e3d de77 1fbe
000001b0: f307 03be 8b6b c9bd c8fb 34bc f6e9 d43d
000001c0: 01c2 643c 32c3 093e b01e ae3d fb05 e1bd
000001d0: 082d b43d f3c8 4b3d 8f77 8f3d 6dfe 623d
000001e0: afb9 02bb 4492 80bc 21f7 e8bd e620 77bd
000001f0: bb39 c9bd 7f34 13bd cf9f 093e 22c2 50bd
00000200: 1c32 64bd 764e 713c 792f dd3d 4f5e 493d
00000210: fe80 933d 8021 1f3c d5e6 143e 24df 80bd
00000220: 9fa7 8cbd 6715 083d 6c21 c5bb e781 dabd
00000230: 0f97 dfbd b3f1 a2bd 0117 673d 40bc e9bd
00000240: ba3e a03d b1b6 fc3d e6ea 0dbe 3b5f fd3d
00000250: ee14 98bc d434 043e 6461 21bd 3f35 0a3e
00000260: a294 833d 600e 0d3e 5133 4c3b 9274 1abe
00000270: 2a0c d23d 5cf2 b0bd eb25 703d 3d9d 793d
00000280: e982 e9bd 6ac3 f13b 542b ff3d eff0 ba3d
00000290: 6ab9 bebc 7656 173d 7e3f 163d 4b56 70bd
000002a0: ad80 bebd e0bb 113e c791 29bc d7c8 f1bd
000002b0: fcd5 dabd 70fe f6bd 2925 87bd 2ed2 ee3c
000002c0: b342 f4bd f585 543d 43cd b3ba cc78 07bd
000002d0: f76a 5b3d 92b3 01be 3622 d73d 48f9 293d
000002e0: 7688 133d fc99 653d ea49 13be c508 d13d
000002f0: b089 cbbd 111d 9b3d edc3 d43c a8a5 8e3d
00000300: fbe6 90b8 9ba5 86bd a15e 5e3d 7a11 50bc
00000310: f955 a83d dc0a 71bd 1190 e53d ceb5 fc3a
00000320: 46ff 20be 2a1d b7bd c571 5abd 18b9 f8bd
00000330: 325e 15be e030 f33c 43ee 243c 202e 01be
00000340: a8a0 75bd 905f 1e3e f4bf a13d 23aa d23c
00000350: 5117 fe3d 7a76 223e 9ece 2cbd cfcd d93d
00000360: 1414 123e a5ef 2c3e afb4 863d 81ac 0cbe
00000370: b7b9 943b d06c aabd bea8 e23d f12e 8b3d
00000380: d601 b1bd 0086 003e df49 243d 5678 283d
00000390: edbf 9bbd fe60 84bd 3de6 b33d df90 c7bb
000003a0: 6609 913d 3ef3 6f3d 7445 913d 3d81 8f3d
000003b0: e5d2 1cbd 47c0 39bc 5a98 8cbc db45 ab3d
000003c0: 351d 2fbd 161b 583d 7bab 0039 6116 d3bc
000003d0: fdcc 58bd eed6 fdbd 0268 0b3e 7392 b2bd
000003e0: 6f65 8e3d fc85 f43d 6dee 02be c321 58bd
000003f0: 30b3 953c 6175 4cbd 131e 0f3e fe08 fc3d

net.4.bias f4 [4]
0.024146115 -0.07854425 -0.09470763 0.0788699
00000000: 13ce c53c cfdb a0bd 13f6 c1bd 8b86 a13d
