runs/1_hour_forecasting/411/best_model.pt (torch, 375224 bytes, 9 tensors)

lstm.weight_ih_l0 f4 [512, 27]
0	0x3d8b76aa	0.06809743
1	0x3db58acb	0.08864363
2	0x3b907ee9	0.00440966
3	0x3dd6ae56	0.10482471
4	0x3c269103	0.010166409
5	0xbb2a7ba4	-0.0026013637
6	0xbd6f7787	-0.0584636
7	0x3cf68798	0.030093953
8	0x3d825745	0.063643016
9	0xbda3d57a	-0.07999702
10	0x3d21fed5	0.039549667
11	0x3bbf49b0	0.0058376417
12	0x3d1f5aa8	0.038904816
13	0x3b5b7718	0.0033487733
14	0x3ccd08c9	0.025028603
15	0xbd06a0b5	-0.032868106
16	0x3d45a844	0.048256174
17	0x3b447085	0.0029974293
18	0xbd613cca	-0.054989614
19	0x3bf63eba	0.007514802
20	0xbd27674d	-0.04087
21	0xbc72590b	-0.014791737
22	0xbd434814	-0.04767616
23	0x3d688021	0.05676282
24	0xbd9bfcf0	-0.076166034
25	0xbd43f452	-0.047840424
26	0xbd069224	-0.032854214
27	0xbdb4b9a8	-0.088244736
28	0xbc04f65c	-0.008115377
29	0xbdc76c3b	-0.0973744
30	0x3d752d5f	0.059857722
31	0xbd9e7bf4	-0.07738486
32	0x3d924b97	0.07143324
33	0x3d08aed9	0.033369873
34	0xbcb266b5	-0.02177749
35	0x3d748af4	0.05970283
36	0x3cc64eff	0.02420759
37	0x3d574961	0.052560214
38	0x39c6cb94	0.0003791718
39	0xbd4fa2d5	-0.050692398
40	0x3c0c3da9	0.008559623
41	0xbd126b26	-0.035746716
42	0x3c82f9b8	0.015988216
43	0x3d741da0	0.059598565
44	0x3d1dc780	0.038520336
45	0xbd609d27	-0.054837372
46	0x3d04ad01	0.032391552
47	0x3ba820af	0.0051308493
48	0x3d1ed5d2	0.038778134
49	0xbd86055e	-0.065439925
50	0xbdcb0063	-0.09912183
51	0xbd285083	-0.041092407
52	0xbd60f655	-0.05492242
53	0x3d775b36	0.06038972
54	0x3ce15fd6	0.027511518
55	0x3d5e5026	0.054275654
56	0x3d8410c6	0.06448512
57	0x3cd4dbbd	0.025983686
58	0x3dc44e43	0.0958524
59	0xbd828104	-0.06372264
60	0xbb36de82	-0.002790362
61	0xbd7be46f	-0.061497148
62	0x3d1a26d7	0.037634697
63	0xbcd547f1	-0.02603528
64	0x3ca54547	0.020174636
65	0xbc59df4c	-0.013297867
66	0x3d9aa7ce	0.075515375
67	0xbd4df593	-0.050283026
68	0xbd4d1458	-0.05006823
69	0xbd94b938	-0.0726189
70	0x3d7be75c	0.06149994
71	0x3ce0c3db	0.027437141
72	0x3da67569	0.08127863
73	0xbd9cd497	-0.07657736
74	0xbdaa6014	-0.08319107
75	0xbd82272e	-0.06355129
76	0xbd6f44e7	-0.05841532
77	0x3d11961e	0.035543554
78	0x3d00782c	0.031364605
79	0x3da871cc	0.0822483
80	0xbd725a01	-0.059167866
81	0xbd56b9f9	-0.05242345
82	0x3dd3c04e	0.103394136
83	0x3b310ca6	0.0027015596
84	0x3da85ed7	0.08221214
85	0x3c67b11f	0.01414135
86	0x3d27f52c	0.0410053
87	0xbdaba9f7	-0.083820276
88	0xbd398ebc	-0.045302138
89	0x3ca45ab5	0.020062784
90	0x3c5c45f5	0.013444413
91	0xbcc6efc5	-0.024284253
92	0x3d04e00e	0.032440238
93	0x3cd1896a	0.02557822
94	0xbda0bf6b	-0.0784901
95	0xbd7e0177	-0.062013116
96	0x3d3d7b86	0.04626038
97	0xbd86c173	-0.06579866
98	0xbd45b97c	-0.048272595
99	0xbdd7e863	-0.10542371
100	0xbd8c0b6f	-0.06838118
101	0xbbc5e01d	-0.0060386793
102	0xbc427b77	-0.011870257
103	0xbd81f3a4	-0.06345299
104	0xbc0773c7	-0.00826735
105	0xbd8ee844	-0.06977895
106	0xbd9ea717	-0.077467136
107	0xbd0194cc	-0.031636044
108	0xbe00c708	-0.12575924
109	0xbd67267e	-0.056433193
110	0x3dd382b8	0.10327667
111	0x3c2b12e0	0.010441512
112	0x3ca5a656	0.020220917
113	0xbdb87948	-0.090075076
114	0xbd85187c	-0.06498811
115	0xbd165940	-0.03670621
116	0xbacb2c27	-0.0015500829
117	0xbda457ed	-0.08024583
118	0xbd3e7b55	-0.046504337
119	0xbd6728a3	-0.05643524
120	0xbb2bd9a1	-0.0026222246
121	0xbcc7e561	-0.024401369
122	0x3ac515cd	0.0015036404
123	0xbd784cb4	-0.060620025
124	0xbd55bbbd	-0.052180994
125	0xbd099267	-0.033586886
126	0xbc5f182d	-0.013616604
127	0xbd66a7fa	-0.05631254
128	0x3d840465	0.06446151
129	0xbc020042	-0.007934632
130	0x3daac7ff	0.083389275
131	0x3cdbff9f	0.026855288
132	0xbd87b9cd	-0.066272356
133	0x3d37ce45	0.04487445
134	0xbd130bc0	-0.035899878
135	0xbd2179a6	-0.039422654
136	0xbdadacdf	-0.08480238
137	0xbda9373d	-0.08262489
138	0x3ce6b4cf	0.028162388
139	0xbc8520ab	-0.016250929
140	0x3cf0e778	0.029407248
141	0xbdb30f00	-0.087430954
142	0x3d7b5344	0.061358705
143	0xbd9b1247	-0.075718455
144	0xbc85c0c5	-0.016327271
145	0x3c0f7978	0.008756988
146	0x3d3b3ef3	0.04571433
147	0x3d7de2b7	0.06198379
148	0x3d960966	0.07326011
149	0xbd89f28d	-0.06735716
150	0x393c374b	0.00017949675
151	0xbd430d71	-0.04762024
152	0x39c4689a	0.00037461967
153	0xbd762c13	-0.060100626
154	0x3dab6514	0.083688885
155	0xbd81a753	-0.06330743
156	0x3d564ede	0.052321307
157	0x3d0d5729	0.03450695
158	0x3cfb2bb3	0.030660486
159	0xbd2f90ef	-0.04286283
160	0x3d96c6de	0.0736215
161	0x3cb11565	0.021616647
162	0xbca10ee1	-0.019660415
163	0xbdc26c7c	-0.09493348
164	0x3c2c803d	0.010528621
165	0xbd026c06	-0.0318413
166	0xbd440ab4	-0.04786177
167	0x3d9f9b17	0.07793253
168	0x3cc4426c	0.023957454
169	0xbd3b131c	-0.04567252
170	0xbd48981a	-0.04897318
171	0xb9b0f879	-0.00033754462
172	0x3d35ed4a	0.04441575
173	0xbcd9a916	-0.026569884
174	0xbd7952e4	-0.060870066
175	0xbd1cabd1	-0.038249794
176	0xbd88903b	-0.06668135
177	0x3cb5a1d4	0.022171892
178	0x3d89cd74	0.0672864
179	0xbd941289	-0.07230098
180	0x3cea3cd3	0.028593456
181	0x3d567729	0.052359734
182	0xbc1bbd93	-0.009505647
183	0xbd620ca0	-0.05518782
184	0x3c8e8b65	0.017400453
185	0x3ca99310	0.020700008
186	0x3c10f9e2	0.008848639
187	0xbca4df01	-0.020125868
188	0xbbebe9ca	-0.0071995007
189	0x3ab02bd5	0.0013440797
190	0x3c232b8e	0.009959115
191	0xba8aedd4	-0.0010599443
192	0x3d94ab39	0.07259221
193	0x3dc34eef	0.0953654
194	0x3a980a84	0.0011599814
195	0xbc899612	-0.016795192
196	0x3be36e23	0.0069406196
197	0x3a5d9cc6	0.0008453842
198	0x3cf72c9b	0.030172637
199	0x3cba716e	0.022759166
200	0xbd52b06e	-0.051437788
201	0xbcd5418a	-0.026032228
202	0x3d92eb2a	0.0717376
203	0x3d1d6842	0.038429506
204	0xbc025d9c	-0.0079568885
205	0xbd75fdbf	-0.060056444
206	0xbd2f1f57	-0.042754497
207	0xbd864511	-0.06556142
208	0xbc56de2d	-0.013114494
209	0x3bbef9bd	0.005828111
210	0x3d45c793	0.048286032
211	0x3d21c0be	0.039490454
212	0xbdb5137e	-0.088416085
213	0xbd7c27fe	-0.061561577
214	0xbaa8ff35	-0.001289344
215	0x3db90444	0.09034017
216	0xbc233490	-0.009961262
217	0xbb333933	-0.0027347326
218	0x3da8f2a1	0.08249403
219	0xbd09fa4e	-0.033685975
220	0xbd4a39ff	-0.049371716
221	0x3dabc980	0.083880424
222	0xbd365026	-0.04451003
223	0xbc7e5aa6	-0.015524542
224	0xbda0bc1e	-0.078483805
225	0x3da64d36	0.081201956
226	0x3d2b2a3c	0.041788325
227	0x3d622c47	0.055218007
228	0xbd4d6b23	-0.050151
229	0xbda1e125	-0.07904271
230	0xbd7d5e41	-0.061857466
231	0x3d5d268a	0.05399183
232	0x3d084b71	0.03327507
233	0x3da006cf	0.07813799
234	0x3d4f5dd9	0.05062661
235	0x3cdbb2a9	0.02681859
236	0xbc2cd72c	-0.010549348
237	0xbd80da9c	-0.062916964
238	0xbd8beedb	-0.068326674
239	0xbdab7e32	-0.08373679
240	0x3d239acb	0.039942544
241	0xbd0c8380	-0.034305096
242	0xbc791069	-0.015201666
243	0xbd400804	-0.046882644
244	0xbba56e0e	-0.00504852
245	0xbd722a95	-0.05912264
246	0xbd4eeb42	-0.050517328
247	0x3d416900	0.047219276
248	0xbcfb321b	-0.03066354
249	0x3d0cba79	0.03435752
250	0xbd0ec35f	-0.03485429
251	0xbd9c7ccb	-0.0764099
252	0xbc459c6c	-0.01206122
253	0xbd41db77	-0.04732844
254	0xbd1617a2	-0.03664363
255	0xbdb27f2d	-0.08715663

lstm.weight_hh_l0 f4 [512, 128]
0	0xbd27a31c	-0.040927038
1	0xbc8c7903	-0.017147547
2	0xbd3ec8fb	-0.04657839
3	0xbd8dbb71	-0.06920517
4	0x3d1b557e	0.03792333
5	0xbd4b3b75	-0.04961725
6	0xbd451569	-0.04811612
7	0xbc98f5f2	-0.018671963
8	0xbd8d6814	-0.06904617
9	0xbda3ca10	-0.07997525
10	0xbdb2a862	-0.08723523
11	0x3db98803	0.09059145
12	0xb93ba6dc	-0.0001789587
13	0xbd2267a4	-0.03964962
14	0xbc79e19e	-0.015251545
15	0x3dc2bfbe	0.09509228
16	0xbce1a31c	-0.027543597
17	0x3d339a91	0.043848578
18	0x3991d8c4	0.00027818058
19	0xbd991ddf	-0.074764006
20	0x3d7b832f	0.061404403
21	0x3cfacb94	0.030614652
22	0x3dc210e5	0.094758786
23	0x3d347a1b	0.04406176
24	0x3d0cacf4	0.03434463
25	0x3cf0026f	0.029298035
26	0xbd8970d1	-0.06710971
27	0x3d87ed01	0.06637002
28	0xbd4c8eb9	-0.0499408
29	0x3d2c8bbc	0.04212545
30	0xbd8ff0e3	-0.07028367
31	0xbd8f59a8	-0.069995224
32	0x3ce6b987	0.028164638
33	0x3d3936a0	0.04521811
34	0xbbe58213	-0.0070040314
35	0x3d3c2f61	0.04594362
36	0xbd9760fe	-0.07391547
37	0xbc008739	-0.00784474
38	0x3d6bd65b	0.057577472
39	0x3d759ed4	0.059965923
40	0xbc60a225	-0.013710533
41	0x3ca2484c	0.019809864
42	0x3d9d54d9	0.07682199
43	0x3d2d4b5e	0.042308204
44	0x3d055662	0.032553084
45	0xbd64d77b	-0.05586956
46	0x3d585037	0.052810874
47	0x3d125155	0.035722096
48	0xbd5e48cf	-0.054268654
49	0x3d2bf1be	0.04197859
50	0xbd26ec34	-0.040752605
51	0x3d9314f0	0.07181728
52	0x3bbfc0e1	0.0058518504
53	0x3d4b8a73	0.049692582
54	0xbcf80027	-0.03027351
55	0xbcb3b62f	-0.021937458
56	0x3d5a54f3	0.05330367
57	0x3d04526a	0.03230516
58	0x3de0d844	0.109787494
59	0x3badad9d	0.0053002373
60	0xbc66d08b	-0.014087806
61	0xbd3b3a68	-0.045709997
62	0xbdbe1826	-0.0928195
63	0x3bdaee3e	0.0066812327
64	0x3db25df6	0.08709328
65	0xbc5ba2d6	-0.013405522
66	0xbcc73e15	-0.024321595
67	0x3d9b5c07	0.07585912
68	0x3dab850c	0.08374986
69	0xbb4a5a56	-0.0030876598
70	0x3cbc4efe	0.022986885
71	0x3d8415c2	0.064494625
72	0x3d812a1b	0.06306859
73	0xbd1bfcb1	-0.038082782
74	0xbda5859f	-0.08082127
75	0xbd041973	-0.032250833
76	0x3d3ff81d	0.04686748
77	0xbd69d418	-0.057087034
78	0xbd19bd91	-0.0375343
79	0x3cdf726f	0.027276246
80	0xbd1777a6	-0.03697934
81	0x3d3451e3	0.044023406
82	0x3da5db91	0.080985196
83	0x3d6f1d1f	0.05837738
84	0x3d2e523e	0.0425589
85	0xbd592946	-0.053017877
86	0xbd9da072	-0.07696618
87	0xbd86c789	-0.06581027
88	0xbc19d582	-0.009389283
89	0x3d73fb71	0.059565965
90	0xbcee17a4	-0.029064007
91	0x3dc89534	0.09794083
92	0x3dc00503	0.09375956
93	0xbd94cfe6	-0.07266216
94	0x3d238805	0.03992464
95	0xbd249111	-0.04017741
96	0xbdcebfe3	-0.10095193
97	0x3d2b78d4	0.041863278
98	0xbcd984a0	-0.026552498
99	0xbd99c21e	-0.07507728
100	0xbda3a587	-0.07990556
101	0x3d8d2a11	0.06892789
102	0xbcc382fe	-0.023866173
103	0x3d896f07	0.0671063
104	0xbd19ad4a	-0.037518777
105	0x3ddec031	0.10876501
106	0xbc6976f4	-0.014249552
107	0x3db7c58f	0.08973228
108	0x3c1009f1	0.008791433
109	0xbd9ea97a	-0.07747169
110	0x3d6a8f15	0.05726536
111	0x3d065f48	0.03280571
112	0xbd91b9c8	-0.07115513
113	0xbd77b473	-0.060474824
114	0x3ca7f73e	0.020503636
115	0x3d3fffaf	0.0468747
116	0x3d779396	0.060443483
117	0xbcccb739	-0.024989711
118	0xbdc363cb	-0.095405184
119	0x3d8855a5	0.066569604
120	0xbbb79d29	-0.0056034517
121	0x3cec1958	0.028820679
122	0x3d2d50d6	0.04231342
123	0x3cd6370a	0.026149292
124	0x3da743bb	0.081672154
125	0x3d772783	0.060340416
126	0x3cd0f3c7	0.025506867
127	0x3d8bae41	0.06820346
128	0x3c5f01e1	0.013611288
129	0xbd6e99de	-0.058252208
130	0x3db226e8	0.08698827
131	0xbbb20b32	-0.0054334635
132	0xbca2a97d	-0.019856209
133	0x3db7e11a	0.089784816
134	0x3dc3d92d	0.09562907
135	0xbd9279ac	-0.07152113
136	0x3cd5bcbc	0.026090972
137	0xbd886f63	-0.0666187
138	0xbd4c0710	-0.049811423
139	0x3cc82b44	0.024434693
140	0xbc881770	-0.016612738
141	0xbd609087	-0.054825332
142	0x3cd2fb53	0.025754606
143	0x3a51006e	0.00079727813
144	0x3d1aa741	0.037757162
145	0x3dd8b5a7	0.105815224
146	0x3cefd3fd	0.029275889
147	0x3cf2de7a	0.0296471
148	0x3dc59126	0.096468255
149	0xbd1c297d	-0.038125504
150	0xbc48e16b	-0.012260775
151	0xbd6f8406	-0.058475517
152	0xbc480dfb	-0.012210364
153	0xbc0c134b	-0.008549522
154	0x3d5241e0	0.051332355
155	0x3d3c3fbc	0.04595922
156	0xb9906d3b	-0.00027547203
157	0xbd403f42	-0.046935327
158	0x3c9dbba4	0.019254513
159	0xbce54833	-0.027988529
160	0xbb222171	-0.002473917
161	0x3d0c5204	0.034257904
162	0xbd48eb11	-0.0490523
163	0x3db695f3	0.08915319
164	0x3c359357	0.011082492
165	0x3c9b78d7	0.01897852
166	0xbd069391	-0.032855574
167	0xbbd0f07c	-0.006376324
168	0x3d8dd98f	0.06926262
169	0x3bb54b84	0.005532684
170	0xbcb6bf76	-0.022308093
171	0x3d65784a	0.05602292
172	0x3b094180	0.0020943582
173	0xbd3cc64f	-0.04608756
174	0xbd9443c7	-0.0723949
175	0x3c7ce0df	0.015434473
176	0x3db4501a	0.08804341
177	0xbd4f7bee	-0.050655298
178	0x3dab0abf	0.08351659
179	0xbd2bc58e	-0.04193645
180	0x3d2a71ab	0.04161231
181	0x3a8e0210	0.0010834355
182	0xbcbd30e8	-0.02309461
183	0x3cc6bc0b	0.024259588
184	0x3d01d8a2	0.031700738
185	0xbda6d1d9	-0.08145494
186	0x3b4db5b2	0.0031388816
187	0xb99ce3da	-0.000299244
188	0x3c9f6eb5	0.019461969
189	0x3da25b4e	0.07927571
190	0xbdaea036	-0.085266516
191	0x3dba70ab	0.09103521
192	0x3ce98daf	0.028509943
193	0xbdbd6c54	-0.092491776
194	0xbd3de179	-0.046357606
195	0x3c998d7e	0.018744227
196	0xbdb7b0fd	-0.08969305
197	0x3d9d36d6	0.07676475
198	0xbcdb282f	-0.02675256
199	0x3cff6785	0.031177292
200	0x3d1ff110	0.039048254
201	0xbc33bd82	-0.010970475
202	0xbda1e8f7	-0.07905763
203	0xbc0d5242	-0.008625569
204	0xbd5b84ea	-0.053593554
205	0xbcb0fb16	-0.021604102
206	0x3b9355db	0.0044963188
207	0xbc92f1af	-0.01793751
208	0x3d6290a4	0.05531372
209	0xbd8f7cea	-0.07006247
210	0xbd857477	-0.065163545
211	0x3c8abb93	0.016935145
212	0xbd19213f	-0.03738522
213	0x3d572bab	0.05253188
214	0xbd1e4d3a	-0.038647868
215	0xbce09f12	-0.0274196
216	0x3dc6fa08	0.097156584
217	0xbc6e487f	-0.014543652
218	0xbdb44ab7	-0.08803313
219	0xbd02c6f1	-0.031928007
220	0x3cd8001a	0.026367236
221	0x3d3a3c75	0.045467813
222	0x3da15722	0.078779474
223	0xbca338ae	-0.019924488
224	0x3b40b695	0.0029405702
225	0x3dac1e38	0.08404201
226	0xbcacfaed	-0.021115744
227	0x3bd6d434	0.0065560583
228	0xbd82b7a1	-0.06382681
229	0x3cc172f3	0.023614382
230	0x3da3a474	0.07990351
231	0x3d467fed	0.048461843
232	0xbd9700b8	-0.07373184
233	0x3d808f43	0.06277325
234	0x3d9f3622	0.07773997
235	0xbcedbf1a	-0.029021788
236	0x3ce89853	0.028392946
237	0xbdda10a6	-0.10647707
238	0x3dab217a	0.083559945
239	0xbd113355	-0.035449345
240	0x3dc486cc	0.09596023
241	0x3daf46d7	0.085584335
242	0xbd6af696	-0.05736407
243	0xbcd06ed7	-0.025443478
244	0xbd9ef164	-0.07760885
245	0xbd96baa4	-0.073598176
246	0xbdcff500	-0.10154152
247	0x3d50c71f	0.050971147
248	0x3d8397af	0.06425416
249	0xbd5ece76	-0.054396115
250	0x3d649719	0.05580816
251	0xbd14e609	-0.03635219
252	0x3d14a723	0.036292206
253	0x3da8b426	0.082374856
254	0x3da6c99a	0.08143921
255	0xbd7d5ca6	-0.061855935

lstm.bias_ih_l0 f4 [512]
0	0x3d6a2f1a	0.057173826
1	0xbc926424	-0.017870016
2	0xbd41b811	-0.04729468
3	0xbc7d465c	-0.0154586695
4	0x3cd20dbe	0.025641318
5	0xbc651c34	-0.013983775
6	0xbcccebc5	-0.025014767
7	0xbd5aa16b	-0.053376596
8	0x3d30e107	0.043183353
9	0xbca70956	-0.020390194
10	0xbba545fe	-0.005043744
11	0xbc33182e	-0.010931058
12	0xbd80be5c	-0.06286308
13	0x3d109232	0.035295673
14	0x3cdf9112	0.027290855
15	0x3cb3c479	0.021944271
16	0x3b5137cd	0.003192413
17	0x3db9a251	0.090641625
18	0x3d992c6d	0.07479177
19	0x3dace3ed	0.08441911
20	0xbd2b71ce	-0.04185658
21	0xbd8a915c	-0.06766006
22	0x3e034283	0.12818341
23	0x3b5695a0	0.0032742992
24	0x3d1bc72e	0.03803175
25	0x3db0fb41	0.08641673
26	0x3ca060dd	0.019577438
27	0xbd94df41	-0.07269145
28	0xbb1c5091	-0.0023851732
29	0xbc9e1ff3	-0.019302344
30	0x3d949532	0.07255019
31	0x3d161902	0.036644943
32	0xbd42fadc	-0.04760252
33	0x3dc0e0e7	0.09417897
34	0xbd3f4785	-0.046699066
35	0xbd53e4bf	-0.05173182
36	0xbcbb94e5	-0.022898147
37	0x3daab406	0.08335118
38	0x3cd12ba5	0.025533507
39	0x3dacb9ad	0.08433852
40	0x3d37e0c0	0.044892073
41	0x3dc3cbb9	0.095603414
42	0xbd64deda	-0.05587659
43	0x3d428140	0.047486544
44	0xbd5ee8fa	-0.054421403
45	0xbc83f40b	-0.01610758
46	0xbd52e560	-0.05148828
47	0xbd50431a	-0.050845243
48	0x3d503684	0.05083324
49	0x3da6f4ce	0.081521615
50	0xbcce9388	-0.025216833
51	0x3d2e5348	0.042559892
52	0x3dbe036f	0.09277999
53	0x3d809dfe	0.062801346
54	0x3b5f3727	0.0034059973
55	0xbd4c2825	-0.049842972
56	0x3c9aabc6	0.018880736
57	0x3d9a8cb2	0.07546367
58	0x3d0fbe1c	0.03509341
59	0x3a8f37e0	0.0010926686
60	0xbcf232fc	-0.029565327
61	0x3dabf37e	0.08396052
62	0x3db49bf0	0.08818805
63	0xbc1cf18e	-0.0095790755
64	0x3d6e57b6	0.058189116
65	0xbb87f149	-0.0041486365
66	0xbc65f3f7	-0.0140352165
67	0x3d3b1829	0.045677338
68	0x3aedd8b6	0.001814625
69	0x3d94e3ec	0.07270035
70	0x3d5ba572	0.053624578
71	0x3cba18c7	0.022716893
72	0x3d29de4a	0.041471757
73	0x3d0d0d61	0.034436587
74	0x3de1eebd	0.11031864
75	0xbd3a35cf	-0.045461472
76	0x3dd3728c	0.103245825
77	0xbd070035	-0.03295918
78	0x3dc5252c	0.096262306
79	0x3dc3bae4	0.09557131
80	0x3bee58ef	0.0072737853
81	0x3dca0032	0.098633185
82	0x3d7e72af	0.06212109
83	0x3d130e5e	0.035902373
84	0xbd22f2bb	-0.039782267
85	0xbd1c4ca1	-0.038159017
86	0x3c894f54	0.01676146
87	0x3d75fc3f	0.060055014
88	0xbd194c41	-0.037426237
89	0xbce74141	-0.028229358
90	0x3be9f3d5	0.0071396627
91	0x3d44d195	0.048051436
92	0xbc5606f6	-0.013063183
93	0x3d38b606	0.045095466
94	0x3d763782	0.06011153
95	0xbd800852	-0.06251587
96	0x3de7dde5	0.1132162
97	0x3c52ca2c	0.012865584
98	0xbcd44a11	-0.025914224
99	0xbd32cc6f	-0.043651994
100	0x3d453ae6	0.048151873
101	0xbd3cb83d	-0.04607414
102	0x3dea26f8	0.11433214
103	0xbc87cc20	-0.016576827
104	0xbbffcbbc	-0.0078062695
105	0xbc81582b	-0.015789112
106	0xbd02c2aa	-0.031923927
107	0x3d2ed831	0.042686645
108	0xbbdc26d0	-0.006718494
109	0x3dd0f6e7	0.10203343
110	0x3d422341	0.047396902
111	0xbcfe2b24	-0.03102643
112	0x3dc360b6	0.095399305
113	0x3dccb780	0.09995937
114	0x3d41a4b6	0.04727622
115	0x3cd8aaaa	0.026448566
116	0xbd91df9b	-0.071227275
117	0x3d544023	0.051818978
118	0x3d2882cf	0.041140374
119	0xbd865068	-0.06558305
120	0x3d012f2f	0.03153914
121	0x3ba37afd	0.0049890266
122	0xbd2be30f	-0.041964587
123	0xbd652e98	-0.05595264
124	0x3c181928	0.0092833415
125	0xbc4c0082	-0.012451293
126	0xbd364c85	-0.04450657
127	0xbd38796d	-0.045037676
128	0x3cf7c8d1	0.030247124
129	0x3d7e004e	0.06201201
130	0x3d22ce45	0.039747495
131	0xbc0628fb	-0.008188481
132	0x3da4f37b	0.08054253
133	0x3dda86da	0.10670252
134	0x3d8297ef	0.06376635
135	0xbce0e348	-0.027452126
136	0xbc72b4b4	-0.014813591
137	0xbc867a39	-0.016415702
138	0x3d7fe2b9	0.06247208
139	0x3d9d3c22	0.07677485
140	0xbbb64437	-0.005562331
141	0x3cc18f07	0.023627771
142	0x3daa3cc4	0.083123714
143	0x3d8f2f7c	0.06991479
144	0xbd7889f0	-0.060678422
145	0x3dbb5540	0.091471195
146	0x3d9fbb18	0.07799357
147	0x3d8bd750	0.06828177
148	0x3dad59c0	0.08464384
149	0xbd8dd66a	-0.06925662
150	0x3d5f853c	0.05457042
151	0x3d73c3c9	0.059512887
152	0xbc0189ef	-0.007906421
153	0xbda58383	-0.080817245
154	0x3d2ce178	0.04220721
155	0xbcc38c84	-0.023870714
156	0x3d681d02	0.05666829
157	0xbd076bd2	-0.03306181
158	0x3d632ad3	0.055460762
159	0xbb355462	-0.0027668704
160	0x3d9b1116	0.07571618
161	0x3db047b7	0.086074285
162	0x3d95d798	0.07316512
163	0x3daab2a9	0.08334858
164	0xbd7a4700	-0.061102867
165	0xbd1fd60b	-0.039022487
166	0x3ba2e64e	0.004971302
167	0x3dae8233	0.08520927
168	0x3b990dcd	0.0046708346
169	0xbd166e12	-0.036726065
170	0xbd93de5e	-0.072201476
171	0x3d18b8de	0.037285678
172	0xbdaae622	-0.083446756
173	0x3ba3ecf6	0.005002613
174	0xbcab1840	-0.020885587
175	0x3da6cd9b	0.08144685
176	0xbd923046	-0.07138114
177	0x3da6ec48	0.08150536
178	0xbd839289	-0.06424434
179	0xbd6e7b6b	-0.05822317
180	0x3d71477a	0.058906056
181	0x3d3b52bf	0.04573321
182	0x3d2cf8c9	0.042229448
183	0xbc6a05fa	-0.0142836515
184	0x3d1d976f	0.038474496
185	0x3cd8eedf	0.02648109
186	0x3b57e206	0.0032941117
187	0x3d91c1fb	0.07117077
188	0xbdc320e4	-0.09527758
189	0xbd9420ac	-0.07232794
190	0x3d99452d	0.07483897
191	0x3cca1000	0.024665833
192	0xbd0ae50f	-0.033909854
193	0x3d88ccef	0.06679713
194	0xbd8cc188	-0.06872851
195	0x3cc1590b	0.02360203
196	0xbccd4386	-0.025056612
197	0xbc0a4ddc	-0.008441415
198	0x3d633458	0.05546984
199	0xbc549e53	-0.012977201
200	0x3dae42d9	0.08508844
201	0xbcccbecc	-0.024993323
202	0x3dbebac9	0.0931297
203	0x3d9052ed	0.07047067
204	0x3d8f8936	0.07008593
205	0xbd078634	-0.03308697
206	0x3d5e1155	0.054215748
207	0x3d1880db	0.03723226
208	0xbd91b185	-0.07113937
209	0xbd378e93	-0.044813704
210	0x3d41b448	0.04729107
211	0xba782d5d	-0.0009467209
212	0x3d3e98dd	0.0465325
213	0x3d9ab60f	0.07554256
214	0xbc309cdf	-0.0107795885
215	0x3ce4f8a6	0.027950596
216	0xbd9bbc1b	-0.07604238
217	0x3d06a6df	0.032873984
218	0x3c90e3f7	0.017686827
219	0xbd42e700	-0.04758358
220	0x3d50887c	0.05091141
221	0xbd36d80d	-0.044639636
222	0x3d2567ff	0.04038238
223	0x3d0ca592	0.034337588
224	0x3d4f780d	0.0506516
225	0x3c50fd2d	0.012755674
226	0x3a95d13f	0.0011430158
227	0xbd2435d6	-0.040090404
228	0x3da89b89	0.08232791
229	0x3d990ebb	0.07473513
230	0xbdb32d27	-0.087488465
231	0xbd2ab694	-0.041678026
232	0x3db2722b	0.08713182
233	0xbbffb281	-0.0078032617
234	0xbc6a7b6e	-0.0143116545
235	0xbcc3594c	-0.023846291
236	0xbd47c611	-0.048772875
237	0xbc2e7365	-0.010647629
238	0x3bf70d75	0.007539446
239	0x3d0ecee8	0.03486529
240	0xbca61ecc	-0.020278357
241	0xbb86b98f	-0.004111476
242	0x3d514f2d	0.0511009
243	0x3a90613b	0.0011015305
244	0xbce34a63	-0.027745431
245	0x3d861417	0.065468006
246	0x3d9b0952	0.07570137
247	0x3c04cc3b	0.008105333
248	0xbd528eae	-0.0514056
249	0x3c9476f5	0.01812313
250	0xbcbcd83f	-0.023052333
251	0xbd135109	-0.035965953
252	0xbcaa9475	-0.020822743
253	0xbd275d12	-0.040860243
254	0x3d2691fd	0.04066657
255	0x3d5e7444	0.0543101

lstm.bias_hh_l0 f4 [512]
0	0xbd851244	-0.064976245
1	0xbd444d65	-0.04792537
2	0x3d6597b4	0.05605288
3	0x3d81ea41	0.063435085
4	0x3da4d207	0.08047872
5	0x3dc237e2	0.09483315
6	0xbd65ecb2	-0.056133933
7	0xbd5b79b7	-0.053582873
8	0x3d9e94c1	0.07743216
9	0xbad104b2	-0.0015946834
10	0xbcd69b57	-0.026197119
11	0x3d7502ad	0.059817005
12	0x3d885863	0.066574834
13	0x3db1b07e	0.08676241
14	0x3dd21561	0.10257984
15	0xbd8d914a	-0.06912477
16	0xbbe202bd	-0.006897299
17	0x3d486302	0.048922546
18	0xbcb89eb6	-0.022536617
19	0x3c8c3a4a	0.017117638
20	0x3da95c8b	0.08269604
21	0x3d1fdab1	0.03902692
22	0xbcbd37c0	-0.023097873
23	0x3d7f19a3	0.06228031
24	0xbcc6be70	-0.02426073
25	0x3ccfe4ab	0.025377592
26	0x3dc95e69	0.098324604
27	0x3d6fd62a	0.058553852
28	0x3db33beb	0.08751663
29	0x3d98c631	0.07459677
30	0x3dcf3765	0.101179875
31	0xbbc7d0ee	-0.0060979044
32	0x3c1eabee	0.009684546
33	0xbd55850c	-0.052128837
34	0xbd88d297	-0.06680792
35	0xbd8111a2	-0.06302191
36	0x3d31d62a	0.043417133
37	0x3d67a364	0.056552306
38	0xbd2db56d	-0.04240935
39	0x3dd62305	0.10455898
40	0x3d8d48d8	0.068986595
41	0xbd4390ef	-0.04774564
42	0xbd43bbfa	-0.04778669
43	0xbc1489b0	-0.00906603
44	0x3c8cedc2	0.017203216
45	0x3c2a361f	0.01038888
46	0x3b8fed3d	0.0043922947
47	0x3d6a22e2	0.057162173
48	0xbc4ea4fd	-0.012612578
49	0xbbc535a9	-0.0060183597
50	0xbc13c49a	-0.009019041
51	0x3d95d8ad	0.07316718
52	0x3db32df5	0.08749
53	0xbc48ee85	-0.012263899
54	0xbd867cb1	-0.06566752
55	0x3dceaa2d	0.10091052
56	0x3d1e623f	0.038667914
57	0x3d9ebb62	0.07750584
58	0x3d31d713	0.043418
59	0x3cc79087	0.024360908
60	0x3cee1d0a	0.029066581
61	0xbd4fa8a7	-0.05069795
62	0x3d462dbf	0.04838347
63	0x3db46092	0.08807482
64	0x3dab27a4	0.0835717
65	0x3bea8263	0.0071566566
66	0xbd2bb6fe	-0.04192256
67	0xbd5e0449	-0.054203305
68	0xbb1bb81a	-0.0023760856
69	0x3d9475c2	0.07249023
70	0x3d248850	0.04016906
71	0x3dd0bad5	0.101918854
72	0x3d9e99b7	0.077441625
73	0xbd678f7a	-0.056533314
74	0xbcd09adb	-0.025464466
75	0x3bc4c76b	0.006005218
76	0x3cf7f013	0.030265843
77	0x3d5c2b5d	0.053752292
78	0xbd4b8e21	-0.04969609
79	0xbd1a8360	-0.037722945
80	0x3e1ce6c9	0.15322413
81	0x3d8e14d6	0.06937568
82	0xbd153480	-0.03642702
83	0xbb959e0f	-0.004565961
84	0x3d858931	0.06520308
85	0x3d4fd589	0.050740752
86	0xbcf8b8c9	-0.03036155
87	0xbd73c07c	-0.05950974
88	0x3d6fc935	0.058541495
89	0xbd865d9c	-0.06560823
90	0x3db281f1	0.087161906
91	0xbd95a3b9	-0.07306618
92	0xbd24f478	-0.040272206
93	0xbcac7ae7	-0.021054698
94	0xbd82954b	-0.063761316
95	0x3d743187	0.059617545
96	0x3da4e421	0.08051325
97	0x3c8b1aeb	0.016980609
98	0x3db935cd	0.09043465
99	0x3ccd9418	0.02509503
100	0xbd60b045	-0.054855604
101	0xbc972ca3	-0.018453902
102	0xbd1c39c0	-0.038141012
103	0xbcd345e5	-0.025790164
104	0xbc97e258	-0.018540546
105	0xbd1060b9	-0.035248492
106	0xbd36e4b8	-0.044651717
107	0xbc9aceba	-0.018897403
108	0xbc3b72a2	-0.011440905
109	0xbcd1e4d4	-0.025621809
110	0x3d98c88d	0.07460127
111	0x3d1f15da	0.0388392
112	0xbd43244e	-0.047642045
113	0x3d4444f4	0.04791732
114	0x3db2da07	0.08732992
115	0x3b9873be	0.0046524694
116	0x3d67a35c	0.056552276
117	0x3d829865	0.06376723
118	0xbd7139d9	-0.05889306
119	0xbd4e0123	-0.050294053
120	0x3d609d9e	0.054837815
121	0xbb5a0745	-0.0033268493
122	0xbd8ca440	-0.06867266
123	0x3cd589b8	0.026066646
124	0xbd2737e3	-0.040824782
125	0x3db5730d	0.08859835
126	0x3d97576e	0.07389723
127	0x3dbf5a30	0.09343374
128	0x3b932ff5	0.004491801
129	0x3d95dfe5	0.07318095
130	0xbcd59393	-0.026071345
131	0xbd5ffa04	-0.054681793
132	0xbca568e7	-0.020191623
133	0x3c6d2201	0.014473439
134	0xbccab7a7	-0.024745775
135	0x3da9abae	0.082846984
136	0xbd6e564d	-0.05818777
137	0x3d0404a8	0.032231003
138	0xbd8e3f0b	-0.06945618
139	0xbd8168de	-0.0631883
140	0x3ad9283a	0.0016567775
141	0x3cf1a39b	0.029496958
142	0x3d59549e	0.053059213
143	0x3dc02924	0.09382847
144	0x3afcd5b4	0.0019289763
145	0xbd474785	-0.04865219
146	0xbd74b1e1	-0.05973995
147	0x3ca03ccd	0.019560242
148	0xbc9551ab	-0.018227419
149	0x3d373d75	0.044736344
150	0x3c2deac7	0.010615057
151	0x3da1b5b5	0.07895986
152	0x3d31fa4a	0.043451585
153	0xbdcbd0a8	-0.099519074
154	0x3c0f4180	0.008743644
155	0x3d83382b	0.064071976
156	0x3d53dbea	0.0517234
157	0xbb9ade79	-0.004726228
158	0x3c9614e1	0.018320503
159	0x3d835b7e	0.06413935
160	0x3d82cb5c	0.06386444
161	0xbd3de601	-0.046361927
162	0x3d648687	0.055792358
163	0x3d95c348	0.073126376
164	0xbc9a5311	-0.018838437
165	0x3cdd0649	0.026980536
166	0x3da3baec	0.07994637
167	0x3d90e414	0.070747524
168	0x3d140743	0.036139738
169	0xbd6690f4	-0.05629058
170	0x3d86e025	0.06585721
171	0xbda30ffe	-0.07962035
172	0x3d89ab82	0.06722166
173	0x3a829581	0.0009962769
174	0xba3c9160	-0.00071932934
175	0x3d56b22d	0.052416015
176	0x3c9cd2a4	0.01914341
177	0x3c5dfd74	0.013549197
178	0x3dce1efe	0.10064505
179	0x3da039c9	0.07823522
180	0x3d7b46b6	0.061346732
181	0x3a308022	0.00067329605
182	0x3d15ddda	0.036588527
183	0x3d055b1d	0.032557596
184	0x3bf49b06	0.0074647693
185	0xbc05e8e0	-0.0081731975
186	0xbb5fa171	-0.0034123326
187	0x3cb60da9	0.02222331
188	0xbd1220dc	-0.03567587
189	0x3cc5b57a	0.024134386
190	0x3d6c7086	0.0577245
191	0x3c6f84d5	0.014619072
192	0x3bce7199	0.006300163
193	0x3d939307	0.072057776
194	0xbd0a7fa8	-0.03381315
195	0xbd6033ca	-0.05473689
196	0xbdab0d64	-0.083521634
197	0xbd07fa8a	-0.033197917
198	0x3d8f5ad8	0.06999749
199	0xbd11db9f	-0.035609838
200	0xbbddb002	-0.0067653665
201	0x3d8a0af2	0.06740369
202	0xbc04e9a2	-0.008112343
203	0xbc40bfd4	-0.011764485
204	0xbd480a86	-0.04883816
205	0x3ca46252	0.020066414
206	0x3d82b478	0.06382078
207	0x3d0a2d9e	0.03373491
208	0xbc3dd5ed	-0.011586648
209	0x3c814c1e	0.015783366
210	0xbd5b5c4a	-0.05355481
211	0xbda73ae0	-0.081655264
212	0xbd9d8099	-0.07690544
213	0x3ba2630b	0.0049556545
214	0xbd72555c	-0.059163436
215	0x3dc48406	0.09595494
216	0xbcf1d8cb	-0.02952232
217	0x3d8c2340	0.06842661
218	0xbd91c2d6	-0.0711724
219	0xbd1c5216	-0.03816422
220	0x3d8f31d2	0.06991924
221	0xbd1b7c0a	-0.03796009
222	0x3ba3ba69	0.004996587
223	0x3d0e8c6b	0.03480188
224	0xbdb13c9c	-0.086541384
225	0x3c24c082	0.010055663
226	0x3db431ab	0.08798536
227	0x3d919aa0	0.071095705
228	0x3d4724f9	0.048619244
229	0x3ce47e56	0.027892273
230	0xbc1217a6	-0.008916771
231	0x3d40f765	0.047110934
232	0xbbf5848a	-0.0074926065
233	0x3d43284f	0.047645863
234	0x3da3c7e8	0.079971135
235	0x3d1ec2e1	0.03876007
236	0xbd307600	-0.043081284
237	0x3d36b10c	0.04460244
238	0xbce68266	-0.02813835
239	0xbd6e880f	-0.058235224
240	0xbcc77776	-0.024348956
241	0x3c40642d	0.011742634
242	0xbda7ad50	-0.081873536
243	0x3c2ceea3	0.010554942
244	0x3d92ca53	0.071674965
245	0xbd691081	-0.056900505
246	0x3d74eae0	0.059794307
247	0xbc372cb4	-0.011180092
248	0x3d98aed5	0.074552216
249	0xbd515f57	-0.051116314
250	0xbc93df23	-0.018050736
251	0xbd87275c	-0.06599304
252	0xbc1f3b35	-0.009718706
253	0xbafcd843	-0.0019290525
254	0x3d88df45	0.0668321
255	0xbd98012d	-0.07422099

mlp_head.0.weight f4 [64, 128]
0	0x3d7b1797	0.061301794
1	0x3db19c0a	0.0867234
2	0xbd8fe2f0	-0.07025707
3	0xbcaee6d4	-0.021350302
4	0x3d754ca3	0.05988754
5	0x3d5ea421	0.054355744
6	0x3db89abb	0.090138875
7	0xbd95ff03	-0.0732403
8	0xbd994c06	-0.074852034
9	0xbd95c5f7	-0.073131494
10	0xbc016144	-0.007896725
11	0x3c956aa3	0.018239325
12	0x3d25cfdc	0.040481433
13	0x3d4731e1	0.048631553
14	0xbd04b1ac	-0.032396004
15	0x3d7ac52f	0.061223205
16	0x3ce9d50d	0.028543973
17	0x3d93305d	0.07186959
18	0x3d0a1c5b	0.033718448
19	0x3c128d03	0.008944753
20	0x3d82da70	0.0638932
21	0x3d78d0bc	0.06074594
22	0x3d02518c	0.03181605
23	0xbd93ba02	-0.072132125
24	0x3d8a8a0b	0.06764611
25	0xbd2bf56c	-0.0419821
26	0xbd7799fe	-0.060449593
27	0x3d18ae61	0.037275676
28	0xbcf1456b	-0.029452046
29	0xbd73d484	-0.059528843
30	0xbab7a48f	-0.0014010834
31	0x3be96094	0.0071221087
32	0x3d2b3f31	0.04180831
33	0x3c997ee5	0.018737266
34	0xbd2a4718	-0.041571707
35	0xbc8296f9	-0.01594113
36	0xbd088725	-0.03333201
37	0xbacca234	-0.0015612305
38	0x3c898e2a	0.016791422
39	0x3c3049b8	0.010759763
40	0x3cb8b29f	0.02254611
41	0x3cb56a38	0.022145376
42	0x3dc6c43b	0.09705397
43	0x3ce6e1f1	0.02818391
44	0xbc28c820	-0.01030162
45	0xbce790e6	-0.028267335
46	0x3c9a65df	0.018847404
47	0xbcbf0138	-0.02331601
48	0x3d137a68	0.036005408
49	0xbda3fd34	-0.08007279
50	0x3d903152	0.07040657
51	0xbd0de0ec	-0.03463833
52	0xbb686401	-0.0035459998
53	0x3d3608bf	0.044441935
54	0x3dbbfaf8	0.09178728
55	0x3c8dc364	0.017305084
56	0x3d230c0d	0.039806414
57	0x3c77c076	0.01512157
58	0xbd63d925	-0.055627007
59	0x3d5aa925	0.053383965
60	0x3d5b08a7	0.05347505
61	0xbda333bb	-0.07968851
62	0xbca96791	-0.020679267
63	0x3dc5e5f0	0.09662998
64	0xbdcb8ea0	-0.09939313
65	0x3c2c815a	0.010528887
66	0x3cd63c87	0.026151909
67	0xbdb39b6c	-0.08769879
68	0xbdb9b918	-0.09068507
69	0xbd557911	-0.05211741
70	0xbd88a0c5	-0.06671289
71	0xbd4fdcff	-0.050747868
72	0x3d70b1e9	0.05876342
73	0x3d9048cd	0.07045136
74	0xbd852560	-0.06501269
75	0xbdb017e8	-0.0859831
76	0x3d3cba3e	0.046076052
77	0x3b0501a3	0.0020295165
78	0xbd82e85a	-0.06391974
79	0x3c722837	0.014780096
80	0x3db8a033	0.090149306
81	0x3dc1e372	0.0946721
82	0x3d80da03	0.062915824
83	0x3d0221f4	0.03177066
84	0xbd95e4ad	-0.07319007
85	0xbd143c86	-0.036190532
86	0xbd524d1b	-0.051343065
87	0xbd4ecad2	-0.050486393
88	0xbd2ab7b6	-0.041679107
89	0x3c8cf227	0.017205311
90	0xbd60dd16	-0.054898344
91	0xbd9471c0	-0.072482586
92	0xbd515fdf	-0.05111682
93	0x3b62cd95	0.00346074
94	0x3d842f9d	0.06454394
95	0x3d70b82f	0.0587694
96	0xbd2d8ac9	-0.042368684
97	0xbd3fe904	-0.04685308
98	0xbd728eb5	-0.059218127
99	0x3d95ebae	0.07320343
100	0xbb397979	-0.0028301163
101	0x3d6076fb	0.05480097
102	0xbc251221	-0.010075123
103	0xbd39188f	-0.045189437
104	0xbd65ffae	-0.05615204
105	0xbd100e26	-0.035169743
106	0xbd41d35d	-0.047320712
107	0x3c5d4dda	0.013507331
108	0xbdbab126	-0.0911582
109	0xbcbb9151	-0.02289644
110	0x3dd6868f	0.10474884
111	0x3cf56b01	0.02995825
112	0x3d18bfdd	0.03729235
113	0xbd09771a	-0.03356085
114	0xbd64566a	-0.055746473
115	0x3d68f392	0.05687291
116	0xbc8e63be	-0.017381545
117	0x3dcac0a4	0.099000245
118	0xbd8a7a4b	-0.06761607
119	0xbcc64bfe	-0.024206158
120	0xbd226c87	-0.03965428
121	0x3cab135d	0.020883257
122	0xbbbd220d	-0.0057718814
123	0x3c9738b5	0.018459657
124	0x3c423cce	0.011855317
125	0xbd2196a9	-0.03945032
126	0x3d6c347a	0.057667233
127	0xbbcc4181	-0.0062333946
128	0x3d9e0ee2	0.077176824
129	0x3b4fdd0c	0.0031717448
130	0xbd1ec8d7	-0.038765755
131	0xbc4636d3	-0.012098032
132	0xbc0fc417	-0.008774779
133	0xbd1655cb	-0.036702912
134	0xbd117357	-0.035510387
135	0x3d822e16	0.063564464
136	0xbd288538	-0.041142672
137	0x3d763b74	0.060115293
138	0x3c8c0269	0.017090993
139	0x3b7899ea	0.0037933537
140	0xbcd05f2b	-0.025436005
141	0xbd7559db	-0.059900146
142	0x3c38cbd0	0.011279061
143	0xbd842418	-0.06452197
144	0x3a35caab	0.0006934802
145	0xbd05afbc	-0.032638296
146	0xbb736cb2	-0.0037143645
147	0xbd151d15	-0.036404688
148	0x3cc35f5b	0.02384918
149	0xbd11a72e	-0.035559826
150	0xbd45a946	-0.048257135
151	0x3d9d4c6a	0.076805905
152	0x3d185233	0.037187766
153	0x3d08f099	0.033432577
154	0xbdc01a86	-0.09380059
155	0x3ce04bc7	0.027379883
156	0x3dcb71e2	0.09933831
157	0x3cc327e2	0.023822729
158	0xbd53afcb	-0.05168132
159	0x3da83ce7	0.08214741
160	0x3b8caff0	0.0042934343
161	0xbd2a0434	-0.041507915
162	0xbd49a5c6	-0.04923036
163	0x3d832210	0.06402981
164	0x3a97adfa	0.0011572235
165	0x3de839dc	0.11339161
166	0xbd8eb845	-0.069687404
167	0xbd4ea027	-0.050445702
168	0x3b57e0a4	0.0032940293
169	0x3c89573b	0.016765228
170	0x3d9722d9	0.073796935
171	0x3db08a42	0.086201206
172	0x3da953d4	0.08267942
173	0xbc34c021	-0.011032135
174	0xbc537887	-0.012907154
175	0x3d8c52a6	0.068517014
176	0x3d8c816c	0.06860623
177	0xbdb4dfe7	-0.088317685
178	0x3c946bae	0.018117752
179	0x3d86871a	0.06568737
180	0xbd8c12ee	-0.06839548
181	0x3d123c2b	0.035701912
182	0xbcc54596	-0.024081033
183	0xbd0fa35b	-0.035067897
184	0xbd5e3faa	-0.054259934
185	0xbd800b51	-0.062521584
186	0x3d10e5f6	0.035375558
187	0xbdc0d268	-0.09415132
188	0xbd9e5a3d	-0.07732055
189	0xbd1b6839	-0.03794119
190	0xbb41da65	-0.0029579636
191	0xbb38e4f8	-0.0028212648
192	0xbc87f42e	-0.016595926
193	0x3c5c3bb0	0.013441965
194	0xbdceea66	-0.10103302
195	0x3da402fc	0.08008382
196	0xbc19855c	-0.009370174
197	0xbd3586e9	-0.044318113
198	0xbd913666	-0.07090454
199	0x3cb2a4cd	0.021807099
200	0xbd739242	-0.059465654
201	0x3dbe26eb	0.09284767
202	0x3d97c010	0.0740968
203	0xbd9f588c	-0.07780561
204	0xbd2b083c	-0.0417559
205	0x3c210bd4	0.00982948
206	0x3cad1b4d	0.021131182
207	0xbc8c1c9d	-0.017103488
208	0x3d72ba12	0.05925948
209	0x3c28cf66	0.010303354
210	0xbd35fb2e	-0.044428997
211	0xbd6e7e94	-0.058226183
212	0x3da1f634	0.07908288
213	0xbae034ee	-0.0017105618
214	0xbc290c12	-0.010317819
215	0x3d01bc41	0.031673674
216	0xbd6b4cca	-0.05744628
217	0x3d44ff4c	0.048095033
218	0x3d41cba4	0.047313347
219	0x3a93eea7	0.0011286334
220	0xbd9d057e	-0.07667063
221	0xbc82f460	-0.015985668
222	0xbd0313da	-0.032001354
223	0x3da7f1c9	0.08200414
224	0xbd0bf8e1	-0.034172896
225	0x3d82b2fa	0.06381793
226	0x3cdf8eef	0.027289836
227	0x3ce15a56	0.027508896
228	0xbad9e097	-0.0016622719
229	0xbd046daa	-0.032331146
230	0xbc834e93	-0.016028678
231	0xbd914a61	-0.07094265
232	0x3d7fa10a	0.06240944
233	0x3d93b120	0.07211518
234	0x3d3d83da	0.04626832
235	0xbd39e11a	-0.04538069
236	0xbd0a27f4	-0.03372951
237	0x3cd72de0	0.026266992
238	0x3dd15070	0.1022042
239	0xbbb98875	-0.005662019
240	0x3d3ea364	0.04654254
241	0x3de66136	0.1124901
242	0x3bc7b091	0.0060940464
243	0x3d34680a	0.044044532
244	0xbbb7987f	-0.0056028957
245	0x3d368796	0.0445629
246	0xbdcb0989	-0.09913928
247	0x3c823ee5	0.015899131
248	0x3da8a5d8	0.08234757
249	0x3d4bf8c8	0.049797803
250	0x3cd3c858	0.025852367
251	0x3c22cd78	0.009936683
252	0xbcd7832c	-0.026307665
253	0x3cf1e338	0.029527292
254	0xbcfc7a66	-0.030820083
255	0x3d10ec71	0.035381738

mlp_head.0.bias f4 [64]
0	0x3d9d147e	0.07669924
1	0x3d036eb9	0.032088015
2	0x3d83f1bc	0.064425915
3	0xbd33ad4b	-0.043866437
4	0x3da9965f	0.08280634
5	0x3d19aa30	0.03751582
6	0x3c0a52e5	0.008442615
7	0x3db1d6f5	0.08683578
8	0x3db33132	0.08749618
9	0xbc25ffe2	-0.010131808
10	0xbd8322ce	-0.06403123
11	0x3c96a3f9	0.018388735
12	0x3d916596	0.07099454
13	0xba5c6575	-0.0008407452
14	0xbd01b1d0	-0.031663716
15	0xbd8c9369	-0.06864054
16	0xbd2a8df8	-0.0416393
17	0xbab6667d	-0.0013916042
18	0x3da306e0	0.07960296
19	0xbd3ef34b	-0.04661874
20	0xbcb606b0	-0.022219986
21	0x3c828114	0.01593069
22	0x3d9062ec	0.07050118
23	0xbd13fda6	-0.03613057
24	0x3d313b98	0.043269724
25	0xbd8d96fc	-0.069135636
26	0x3d9b743c	0.07590529
27	0xbd55b77e	-0.052176945
28	0x3da87e2c	0.082271904
29	0xbcc261ee	-0.023728337
30	0x3b8f11df	0.004366144
31	0xbd9f6cec	-0.07784447
32	0x3d6bcc2e	0.057567768
33	0x3c5e7e30	0.01357989
34	0xbd526864	-0.051369086
35	0x3db5ee94	0.08883396
36	0xbd052df6	-0.032514535
37	0xbdb6c1c0	-0.08923674
38	0xbcf433ce	-0.029809859
39	0xbc9717a7	-0.018443896
40	0xbdaf6a1b	-0.0856516
41	0xbd34af1b	-0.044112306
42	0x3d307b7a	0.043086506
43	0x3d257363	0.040393244
44	0x3c4803e6	0.012207961
45	0x3d2b04d0	0.041752636
46	0x3b89179a	0.0041837217
47	0x3cff04e8	0.03113027
48	0x3d11a91c	0.035561666
49	0x3d3edc69	0.04659692
50	0x3d8270a2	0.06369139
51	0x3d88a958	0.06672925
52	0xbd1b0319	-0.03784475
53	0xbd5ab497	-0.05339488
54	0xbc8263d2	-0.015916739
55	0xbd8c63e7	-0.06854992
56	0x3d9e8fa0	0.07742238
57	0x3d17cfb4	0.037063316
58	0x3d9224fa	0.07135959
59	0x3dc0a46f	0.09406363
60	0x3bcff624	0.006346481
61	0x3d07678d	0.033057738
62	0x3d535211	0.051591936
63	0xbcd5b69e	-0.026088055

mlp_head.2.weight f4 [64, 64]
0	0xbcf1d032	-0.02951822
1	0x3d39f8a8	0.045403153
2	0xbdc2a9b1	-0.09505022
3	0x3ac0cfc2	0.0014710354
4	0x3c547427	0.012967146
5	0xbe13e040	-0.14441013
6	0xbdb9c70e	-0.0907117
7	0xbd9441cb	-0.072391115
8	0x3d149f20	0.036284566
9	0x3de499b8	0.11162132
10	0x3e142527	0.14467297
11	0xbc27f17f	-0.010250448
12	0xbe2a5bf3	-0.16636638
13	0x3db9b232	0.09067191
14	0x3cb3550a	0.021891136
15	0x3dfa1b50	0.12212241
16	0xbda929a3	-0.08259895
17	0x3d42c03b	0.047546607
18	0x3dff611b	0.12469693
19	0x3df9b2a4	0.12192276
20	0x3dc5eeea	0.0966471
21	0x3d47bcfe	0.04876422
22	0x3ce8d874	0.028423525
23	0x3d064f5d	0.03279053
24	0xbc5d124d	-0.013493133
25	0xbdb482ea	-0.088140324
26	0xbdca8a40	-0.0988965
27	0x3e207682	0.15670207
28	0xbd74fe13	-0.059812617
29	0xbbbd2f10	-0.0057734326
30	0x3c85d4db	0.016336849
31	0xbd867a1f	-0.065662615
32	0xbd6acd2d	-0.057324577
33	0xbd9111cc	-0.070834726
34	0x3d249f3d	0.040190924
35	0xbd864572	-0.065562144
36	0x3d56b5f0	0.052419603
37	0xbd89ef5e	-0.06735109
38	0x3d899526	0.06717901
39	0xbd832b19	-0.064047046
40	0xbd441c3b	-0.047878485
41	0xbd12c670	-0.035833776
42	0x3bafd9de	0.005366548
43	0x3dcec968	0.10097009
44	0xbdfcc0d4	-0.123414665
45	0x3d8124a2	0.06305815
46	0xbcddb8e7	-0.027065707
47	0x3dd1d3c0	0.10245466
48	0xbcfa5abf	-0.03056085
49	0x3c707fc1	0.014678896
50	0x3d7b91a2	0.061418183
51	0xbd0cabf7	-0.034343686
52	0xbac3f4f9	-0.0014950327
53	0x3d08b104	0.03337194
54	0x3d876e39	0.0661282
55	0x3d4e25f3	0.05032916
56	0xbcff6a56	-0.031178635
57	0xbe0af7a5	-0.13571031
58	0xbd9fd24e	-0.07803784
59	0x3de80a67	0.11330109
60	0x3de2b08e	0.110688314
61	0x3e04bf4d	0.129636
62	0x3c0bde48	0.008536883
63	0x3d756cbb	0.059918147
64	0x3def2501	0.1167698
65	0xbb90a5ac	-0.004414281
66	0xbdf64586	-0.12024979
67	0xbddfdaaa	-0.10930379
68	0x3d4d0dc8	0.05006197
69	0x3d77c65c	0.060491905
70	0x3d24f38b	0.040271323
71	0xbd87f2aa	-0.06638081
72	0x3e136ebe	0.14397714
73	0x3e01216e	0.12610409
74	0x3cfaa67b	0.030596962
75	0xbc77ed00	-0.015132189
76	0x3c98f5b8	0.018671855
77	0x3dc65291	0.09683717
78	0x3dd9d9c4	0.106372386
79	0x3d6c71ed	0.057725836
80	0xbdb9b497	-0.09067648
81	0xbd4375d7	-0.047719803
82	0x3de2c3f0	0.11072528
83	0x3e0d9de8	0.13829768
84	0xbd210800	-0.03931427
85	0xbc8c7bf8	-0.017148957
86	0xbb96e59c	-0.0046050083
87	0xbe054c83	-0.13017468
88	0xbd44bf87	-0.048034217
89	0x3d738802	0.05945588
90	0xbe007a45	-0.12546642
91	0xbd7a2a5b	-0.06107555
92	0xbd72ab1a	-0.059245206
93	0x3d873f9a	0.06603928
94	0x3dfd5cd1	0.12371219
95	0x3de64fee	0.11245714
96	0xbd915d46	-0.070978686
97	0xbc4d8de8	-0.01254604
98	0xbd4a4079	-0.049377892
99	0xbd5cacde	-0.053875796
100	0xbdfb8917	-0.12282007
101	0xbdb792df	-0.0896356
102	0xbcc9556a	-0.024576861
103	0x3c4bd441	0.012440742
104	0xbdc8a73f	-0.09797525
105	0xbd9d2d7f	-0.07674693
106	0xbd059c3f	-0.03261971
107	0x3d6fabd2	0.05851347
108	0xbda687e0	-0.08131385
109	0x3da1ce87	0.0790072
110	0x3caa177b	0.02076315
111	0xbd93d696	-0.072186634
112	0xbd8aac67	-0.067711644
113	0xbc25eb8e	-0.010126961
114	0x3d0bace6	0.034100436
115	0x3e1df744	0.15426356
116	0x3da17815	0.07884232
117	0xbce4f7cb	-0.027950188
118	0xbcec4365	-0.02884073
119	0x3caba816	0.020954173
120	0xbba056d9	-0.0048931655
121	0x3dda2dd8	0.10653275
122	0xbd3512ee	-0.044207506
123	0xbdac9435	-0.08426706
124	0xbd49bda6	-0.04925313
125	0x3dd58d26	0.104273126
126	0xbda2750e	-0.07932483
127	0xbd8fd008	-0.07022101
128	0x3e0d79fd	0.13816066
129	0x3d88f941	0.066881664
130	0xbca09dfd	-0.019606585
131	0x3e0c14ad	0.13679762
132	0xbd13c3b1	-0.036075298
133	0x3e16b8fb	0.14719002
134	0x3d0178aa	0.031609215
135	0x3df50730	0.119642615
136	0x3cb7792b	0.022396645
137	0xbe02c164	-0.12769085
138	0xbe0ffbdb	-0.14060919
139	0xbc66fd4d	-0.014098478
140	0xbd9311d0	-0.07181132
141	0x3c618082	0.013763549
142	0x3db40e95	0.08791844
143	0xbd5b2285	-0.053499717
144	0x3da40684	0.08009055
145	0xbd6415e9	-0.055684958
146	0xbe007e53	-0.12548189
147	0xbca89260	-0.02057761
148	0xbe012644	-0.12612253
149	0xbcb64f0c	-0.02225449
150	0xbc192ff4	-0.009349812
151	0xbc427218	-0.011868022
152	0x3d213958	0.039361328
153	0xbd3c4c9d	-0.0459715
154	0xbdb7bbef	-0.08971392
155	0x3e00f361	0.12592842
156	0xbdb3a14f	-0.087710015
157	0xbd2cb3e8	-0.04216376
158	0xbd5cad39	-0.053876135
159	0xbe09c721	-0.13454868
160	0xbd7364a4	-0.05942215
161	0xbdb41b25	-0.0879424
162	0x3e01017f	0.12598227
163	0xbd15f006	-0.036605857
164	0x3d7090ef	0.05873197
165	0xbdaa53e2	-0.083167806
166	0xbc9539d1	-0.018216046
167	0x3d69248d	0.056919623
168	0xbcd337e8	-0.025783494
169	0xbd0bdb09	-0.034144435
170	0xbdd0eea9	-0.10201771
171	0x3bed29c2	0.007237644
172	0x3dbfc566	0.09363823
173	0x3ddc8e6f	0.107693546
174	0xbddd7479	-0.10813231
175	0x3dc8c7b6	0.09803717
176	0xbd7cbaae	-0.06170147
177	0x3e0f333e	0.13984391
178	0xbd9bc1e9	-0.07605345
179	0xbcbe9c7a	-0.023267973
180	0x3db5ac55	0.0887076
181	0x3e03e1e2	0.12879136
182	0xbd9b794c	-0.07591495
183	0x3d7b0ed9	0.061293457
184	0x3e05ac9b	0.13054125
185	0xbd77387f	-0.060356613
186	0x3ca08730	0.019595712
187	0xbd5b2e03	-0.053510677
188	0x3dc07d5e	0.09398912
189	0xbd886cfd	-0.06661413
190	0x3dc7fecf	0.09765398
191	0xbce7cfa9	-0.028297262
192	0x3d5a31e4	0.053270236
193	0xbca5357c	-0.020167105
194	0x3dccc758	0.09998959
195	0x3c872865	0.016498754
196	0xbd0e0490	-0.03467232
197	0x3d11669e	0.035498254
198	0xbcfd5b79	-0.030927407
199	0xbddda773	-0.10822954
200	0x3d8afb7b	0.06786247
201	0x3d748236	0.05969449
202	0xbdc1a5d0	-0.09455454
203	0xbd7457d9	-0.05965409
204	0x3db205f8	0.08692545
205	0xbd1d71b7	-0.038438525
206	0xbdf81953	-0.12114205
207	0xbdb9c20e	-0.09070216
208	0x3df88bd2	0.121360436
209	0xbdd9fb40	-0.10643625
210	0x3bca529c	0.0061743986
211	0xbcf4b97d	-0.029873604
212	0xbdbdf596	-0.092753574
213	0xbdbaf7b0	-0.09129274
214	0x3de707d1	0.11280788
215	0x3d890500	0.06690407
216	0xbd60029a	-0.05468998
217	0x3d9433d2	0.072364464
218	0xbdfb12fe	-0.12259482
219	0xbd36b9dc	-0.044610843
220	0xbc65d68d	-0.014028204
221	0xbdfd2907	-0.12361341
222	0xbdbe34f4	-0.09287444
223	0xbda8dc71	-0.08245171
224	0x3db3d0fc	0.08780095
225	0x3d869760	0.06571841
226	0xbde0d31f	-0.10977768
227	0x3d2e57a5	0.042564053
228	0xbdda947a	-0.10672851
229	0xbc383390	-0.011242762
230	0xbdcca981	-0.09993268
231	0xbb870c41	-0.004121334
232	0x3dc55c68	0.09636766
233	0xbd93ae36	-0.072109625
234	0xbc82d3f1	-0.015970202
235	0xbd08f56d	-0.03343718
236	0xbd19d516	-0.03755673
237	0xbdbd4acc	-0.09242782
238	0x3d8ea121	0.06964327
239	0x3c4d7e33	0.012542295
240	0x3cd9a011	0.026565583
241	0x3d8cf1a3	0.06882026
242	0xbd349459	-0.044086788
243	0x3d92de79	0.071713395
244	0x3da8d96c	0.08244595
245	0x3dc48bcc	0.09596977
246	0x3dc52615	0.09626404
247	0x3d556548	0.052098542
248	0xbd837125	-0.06418065
249	0x3bf2739d	0.007399036
250	0xbdb35110	-0.08755696
251	0xbb3507c1	-0.002762303
252	0xbdc1c8ab	-0.094621025
253	0x3c92b104	0.017906673
254	0xbd9deaac	-0.07710776
255	0xbd33821a	-0.043825246

mlp_head.2.bias f4 [64]
0	0xbd8beb58	-0.06831998
1	0x3d5af3f1	0.053455297
2	0x3d6ee531	0.058324043
3	0xbd499570	-0.04921478
4	0x3d8fbcba	0.070184186
5	0xbdca18f3	-0.0986804
6	0xbd724751	-0.059150044
7	0xbcff5546	-0.031168591
8	0x3c2b141b	0.010441805
9	0x3d8d8730	0.069105506
10	0x3d66e87f	0.05637407
11	0x3d343dbc	0.044004187
12	0xbcbe8627	-0.023257328
13	0x3d8da993	0.06917109
14	0x3dd0b8a9	0.10191471
15	0x3d98f615	0.074688114
16	0x3c706bd9	0.01467415
17	0x3de7870e	0.113050565
18	0x3dd5aec4	0.104337245
19	0xbd14a693	-0.03629167
20	0xbdd240c6	-0.10266261
21	0x3a12400f	0.00055790035
22	0x3cf48749	0.029849665
23	0xbd51da34	-0.051233485
24	0x3d9b463e	0.07581757
25	0x3c6e9892	0.014562743
26	0xbd926dc4	-0.071498424
27	0xbe0530b6	-0.13006863
28	0xbddd8634	-0.10816613
29	0xbdaed518	-0.08536738
30	0xbd431fd1	-0.047637764
31	0xbde0cae0	-0.10976195
32	0x3d95eaa5	0.073201455
33	0x3d8ad69c	0.06779215
34	0xbd4d57ba	-0.05013249
35	0x3df33ead	0.11877189
36	0x3e0b5804	0.13607794
37	0xbd1b5ac7	-0.03792837
38	0x3a055dcf	0.0005087526
39	0xbddc709b	-0.10763665
40	0x3d249185	0.04017784
41	0xbc648ae7	-0.0139491325
42	0xbdf8abb8	-0.12142128
43	0x3d031f21	0.03201211
44	0xba31222a	-0.0006757105
45	0xbdc0976a	-0.0940388
46	0xbdc14bde	-0.09438299
47	0x3debb848	0.11509758
48	0xbc63fbd1	-0.013915018
49	0xbd691694	-0.056906298
50	0x3da5271c	0.080641
51	0xbdb0d434	-0.086342245
52	0x3d9d3941	0.07676936
53	0x3dd6e54c	0.10492954
54	0xbdbd5396	-0.092444584
55	0x3d64efb3	0.055892657
56	0xbdd37550	-0.1032511
57	0x3cd9f3f5	0.026605586
58	0x3babc490	0.005241938
59	0x3bdaf79a	0.0066823484
60	0xbcc000c2	-0.023437861
61	0xbd87ed42	-0.0663705
62	0xbcae7e0c	-0.021300338
63	0xbd241eff	-0.040068623

mlp_head.4.weight f4 [1, 64]
0	0x3d70de46	0.058805726
1	0x3db5b561	0.08872486
2	0xbdf20c7a	-0.11818786
3	0x3bd54980	0.006509006
4	0xbe0b12f7	-0.13581453
5	0xbe132e11	-0.14373042
6	0x3cf99447	0.030466212
7	0x3de847df	0.11341833
8	0x3e0be3c6	0.13661107
9	0x3dce0619	0.10059757
10	0x3d2cf85d	0.042229045
11	0xbdbbc7f0	-0.091689944
12	0x3dde6f8e	0.10861121
13	0x3cd5bc23	0.026090687
14	0xbd968865	-0.07350234
15	0xbcbe4318	-0.023225352
16	0xbdf06b1a	-0.11739178
17	0x3e1dcbf0	0.15409827
18	0xbdfc48ef	-0.123185985
19	0x3dd95b2b	0.10613092
20	0xbd44e81a	-0.04807291
21	0x3e083809	0.13302626
22	0x3e228ac7	0.15873252
23	0x3dc3afa4	0.09554985
24	0xbdefa4db	-0.117013656
25	0x3e203df1	0.15648629
26	0xbd4a87e4	-0.049446
27	0xbcdc76e1	-0.026912155
28	0xbdcf7d03	-0.10131266
29	0x3d310947	0.04322174
30	0x3d05fb2f	0.03271025
31	0xbd18f4b0	-0.037342727
32	0x3d617a79	0.05504844
33	0xbd5ac39e	-0.05340921
34	0xbd1b7c8b	-0.03796057
35	0x3dd1813b	0.10229727
36	0x3d1c54f6	0.038166963
37	0xbd9970ca	-0.07492216
38	0xbdbc2eb6	-0.09188597
39	0xbdb692c6	-0.089147136
40	0xbe1221db	-0.14270727
41	0xbcd67b4a	-0.026181836
42	0xbd6639c8	-0.05620745
43	0x3e05382b	0.13009708
44	0x3e0491ff	0.12946318
45	0xbd5e1f8d	-0.054229308
46	0xbe0e9059	-0.13922252
47	0x3e0ae99f	0.13565682
48	0xbcc81f1a	-0.024428893
49	0xbdebc56c	-0.115122646
50	0x3dc28a99	0.09499092
51	0x3d9328f2	0.07185544
52	0xbe0d36cd	-0.13790436
53	0xbc74442c	-0.014908832
54	0xbdad9c79	-0.084771104
55	0x3d75001f	0.05981457
56	0x3e086ba1	0.13322307
57	0xbddc984d	-0.107712366
58	0xbdd3e385	-0.1034613
59	0x3db91b52	0.09038414
60	0xbcff5a91	-0.031171115
61	0x3d508eed	0.050917555
62	0x3d96f4f5	0.073709406
63	0xbdf0dab6	-0.11760466
