runs/1_hour_forecasting/141/best_model.pt (torch, 274869 bytes, 9 tensors)

station_embedding.weight f4 [128, 5]
0.35250026 0.36473015 -0.10708999 0.4128031 -0.097049505 0.096144095 -0.22121127 0.26829016
0.39199126 -0.32201713 0.39267018 0.08349313 0.33120975 0.06196311 0.22042942 -0.033627186
0.33248344 0.06759934 -0.20099778 0.12103358 -0.2111616 -0.050808202 -0.18365033 0.30142325
-0.3523486 -0.22311887 -0.11687689 -0.26311362 0.039129727 -0.45154908 0.42409593 -0.38964146
0.34281957 0.07555036 -0.14122157 0.2827087 0.06915934 0.36321303 0.056080975 -0.13143991
0.12507486 -0.12267853 0.18762408 0.40582395 0.2644069 -0.20440657 0.26321402 0.08338687
0.2274084 -0.2799814 -0.42722222 -0.17728324 -0.34021154 0.37193763 0.13022074 0.19671187
0.13703983 -0.009029164 0.35337913 -0.3427587 0.008219271 -0.29921842 0.13788457 -0.16052434
0.14972572 -0.095840685 0.37846157 -0.2600964 -0.26940057 -0.27415946 0.401927 0.15069045
0.4286514 -0.3718574 -0.441548 -0.34809452 -0.29803407 0.18751742 0.15780935 0.37093326
-0.23176844 -0.30075526 0.23922978 -0.18273953 0.26675016 -0.107589886 0.25395212 -0.34525922
-0.22671624 0.12294754 0.09957237 -0.11559824 0.2647879 0.30807415 -0.31210312 -0.2699163
0.41584507 -0.15133794 -0.1667951 -0.4273516 -0.257347 0.11195585 -0.052862514 -0.32443482
0.007537031 -0.3260732 -0.3768279 -0.24332546 -0.39660677 -0.2996577 0.46020445 0.080865376
0.13323903 -0.40703914 -0.29126033 -0.17319387 0.07720316 -0.39809972 -0.207919 -0.2738477
-0.005442485 -0.16481258 -0.029584832 -0.30238366 -0.32213488 -0.26613307 -0.15054773 -0.3489585
0.37679592 -0.100030966 0.38175446 0.13821745 -0.38362265 0.31174153 -0.11257317 -0.18882476
-0.36628386 -0.44410825 0.1264475 -0.11912124 0.18097726 -0.3741201 0.32990372 -0.32824177
-0.0800085 0.08844337 0.2321135 0.36255762 0.40537938 -0.3637146 0.11885064 -0.19231352
-0.05227 -0.3318318 0.42283046 -0.34189522 0.24395666 0.15856613 0.14011924 -0.24830565
0.42540398 0.08980788 0.054220166 -0.39300975 0.19591142 -0.06472365 -0.20387991 0.38796568
0.09811696 -0.24592544 -0.23129806 -0.020325016 0.24788363 -0.119745255 -0.25382704 -0.15461935
-0.332239 0.1552644 0.3478369 -0.42473578 0.104448356 0.23358344 0.078670874 -0.16306049
0.2506982 0.24531241 0.1638511 -0.08340387 -0.11680244 0.05899782 -0.093777716 -0.12783173
0.28221467 0.38312367 -0.03617446 -0.096938565 0.0036793558 -0.026678527 0.10983951 0.11938181
-0.4120588 -0.16771296 0.3759193 0.16461495 -0.037946686 -0.28158507 -0.268334 -0.3957489
-0.1438861 0.14124966 0.3001577 0.19785112 -0.39741206 -0.26807436 -0.071762115 0.438332
0.062693596 -0.12058259 0.1851709 -0.16494815 -0.29901838 0.3268756 -0.1993298 -0.09595528
-0.4659547 0.3048139 0.3341376 0.15906544 -0.31313175 -0.44528326 -0.3652839 0.33543843
0.21617597 0.37563202 0.22514135 0.12541822 -0.007700201 -0.3385224 -0.38712847 -0.4301395
0.18758634 -0.2203617 -0.09220586 -0.25550756 -0.067811355 -0.30104694 -0.29784265 0.15332365
-0.13299085 0.26657757 -0.13413098 -0.3394568 -0.07985128 -0.21797262 -0.14153123 -0.4462833
00000000: ea7a b43e e9bd ba3e ff51 dbbd ee5a d33e
00000010: e4c1 c6bd 32e7 c43d 3585 62be 545d 893e
00000020: 14b3 c83e 6edf a4be 110c c93e 72fe aa3d
00000030: 5394 a93e 08cd 7d3d 40b8 613e a9bc 09bd
00000040: 453b aa3e 8671 8a3d 5dd2 4dbe 74e0 f73d
00000050: bf3a 58be 431c 50bd d50e 3cbe 2654 9a3e
00000060: 0967 b4be 4679 64be 275d efbd d4b6 86be
00000070: 7e46 203d 7131 e7be 1a23 d93e 167f c7be
00000080: 0c86 af3e 26ba 9a3d 639c 10be 32bf 903e
00000090: 69a3 8d3d 0ff7 b93e 2ab5 653d 2f98 06be
000000a0: a013 003e e23e fbbd 8720 403e 28c8 cf3e
000000b0: 5760 873e f54f 51be fdc3 863e bcc6 aa3d
000000c0: bfdd 683e b959 8fbe dfbc dabe bd89 35be
000000d0: 3530 aebe 9c6e be3e 9658 053e d66e 493e
000000e0: 2b54 0c3e 0fef 13bc 1cee b43e 117e afbe
000000f0: 1faa 063c 2833 99be 9d31 0d3e 7e60 24be
00000100: b351 193e 1f48 c4bd b7c5 c13e 5b2b 85be
00000110: dfee 89be a15e 8cbe 60c9 cd3e 994e 1a3e
00000120: 3278 db3e 1864 bebe 9412 e2be 7239 b2be
00000130: ec97 98be 9104 403e c698 213e f7ea bd3e
00000140: b554 6dbe 98fc 99be a7f8 743e 1220 3bbe
00000150: 7a93 883e 1658 dcbd 0306 823e d1c5 b0be
00000160: 4d28 68be ebcb fb3d 99ec cb3d c5be ecbd
00000170: 4892 873e e5bb 9d3e fbcb 9fbe 7832 8abe
00000180: a5e9 d43e 55f8 1abe 56cc 2abe d4cd dabe
00000190: fcc2 83be 1c49 e53d 5d86 58bd 521c a6be
000001a0: 33f9 f63b 11f3 a6be 96ef c0be 4f2a 79be
000001b0: 0b10 cbbe bc6c 99be eb9f eb3e bf9c a53d
000001c0: d06f 083e 6f67 d0be 1320 95be bc59 31be
000001d0: b11c 9e3d bad3 cbbe b8e8 54be c435 8cbe
000001e0: e056 b2bb a1c4 28be e45b f2bc 08d2 9abe
000001f0: ddee a4be 9842 88be 2f29 1abe b0aa b2be
00000200: 65eb c03e 09dd ccbd 5275 c33e e088 0d3e
00000210: 306a c4be 969c 9f3e c38c e6bd 475b 41be
00000220: 8f89 bbbe 2862 e3be 747b 013e d6f5 f3bd
00000230: 1a52 393e ab8c bfbe 24e9 a83e 4e0f a8be
00000240: 7fdb a3bd cc21 b53d 29af 6d3e 27a1 b93e
00000250: e38d cf3e cd38 babe f767 f33d d6ed 44be
00000260: 1119 56bd dce5 a9be 3c7d d83e e40c afbe
00000270: c6cf 793e 295f 223e 6b7b 0f3e d643 7ebe
00000280: 8dce d93e 32ed b73d f715 5e3d 9338 c9be
00000290: 019d 483e d58d 84bd e5c5 50be 70a3 c63e
000002a0: 8bf1 c83d e1d3 7bbe 66d9 6cbe a680 a6bc
000002b0: 35d5 7d3e 003d f5bd 9ef5 81be 8954 1ebe
000002c0: 3b1b aabe a2fd 1e3e ae17 b23e f876 d9be
000002d0: 05e9 d53d 7f30 6f3e 321e a13d 54f9 26be
000002e0: 845b 803e 2d33 7b3e 95c8 273e a6cf aabd
000002f0: 1e36 efbd b3a7 713d 880e c0bd 52e6 02be
00000300: 717e 903e c928 c43e ac2b 14bd ba87 c6bd
00000310: 5921 713b ed8c dabc 89f3 e03d 737e f43d
00000320: 5ff9 d2be f2bc 2bbe 7f78 c03e d290 283e
00000330: fc6d 1bbd eb2b 90be 1363 89be 9a9f cabe
00000340: e156 13be c0a3 103e 45ae 993e 7c99 4a3e
00000350: 9879 cbbe 0b41 89be 04f8 92bd 0d6d e03e
00000360: 8065 803d 01f4 f6bd 719d 3d3e 2be8 28be
00000370: f018 99be 3d5c a73e 1c1d 4cbe 3484 c4bd
00000380: 9d91 eebe 9110 9c3e 1514 ab3e 0de2 223e
00000390: ce52 a0be 2bfc e3be 7e06 bbbe 96be ab3e
000003a0: 3c5d 5d3e d752 c03e 748b 663e a26d 003e
000003b0: f851 fcbb cf52 adbe b435 c6be 3f3b dcbe
000003c0: a216 403e 7fa6 61be 6dd6 bcbd e3d1 82be
000003d0: aee0 8abd d322 9abe d57e 98be e000 1d3e
000003e0: c12e 08be db7c 883e a259 09be 48cd adbe
000003f0: 1189 a3bd 3734 5fbe 90ed 10be 3f7f e4be

station_embedding.bias f4 [128]
0.09638151 -0.4289039 0.39453414 0.2775174 -0.44567248 -0.22046497 0.15185168 -0.09629842
-0.047296647 -0.2030591 0.367257 -0.2599178 0.38150263 0.023063134 0.0917305 0.35254735
-0.078839846 -0.2554814 -0.07396556 0.36906677 -0.33626842 0.10668194 -0.4407448 0.24562381
0.16749568 0.012793813 0.19419883 -0.00082352717 0.24371076 -0.3531534 -0.059018813 0.2045447
0.44887608 0.23069358 -0.33240223 0.34532353 -0.1034814 -0.09545676 -0.41192853 -0.072603144
0.32622117 0.060334153 -0.2565043 0.14418991 -0.14422745 0.41338438 -0.39191657 -0.13663085
-0.4287413 -0.1811667 0.14893174 0.43903828 0.08518834 0.4483638 0.08737143 0.2656217
0.3686052 0.37635392 -0.26061964 0.41127497 0.27522516 -0.21287309 -0.21914062 -0.37565798
0.11119971 -0.3657542 0.19450454 0.13539638 -0.3882892 0.11711995 -0.028590297 0.20747666
0.26073214 -0.4500474 0.41690636 0.38012633 0.18345194 -0.40685004 -0.16052906 -0.1338909
-0.11077975 0.2566152 0.1617936 0.35254434 -0.17463592 0.15733111 0.15114196 -0.3772271
-0.43491262 -0.23017412 0.31191328 -0.4275374 -0.38530445 0.25665238 0.24293593 0.3764681
-0.3468588 -0.32623625 0.23600742 0.39708796 0.276431 0.070251435 0.14904258 0.429915
-0.28301933 -0.21055757 0.31933346 -0.31390458 -0.25599155 0.3287372 0.13903958 0.14014077
-0.18503064 -0.0074332324 0.41991335 -0.26801452 0.00144171 0.2200262 -0.3119231 0.43922588
-0.22489472 -0.11334336 -0.11572447 -0.28732166 -0.43998522 0.25246897 0.1272171 -0.42778155
00000000: ab63 c53d 4b99 dbbe 6100 ca3e c316 8e3e
00000010: 2f2f e4be 92c1 61be 027f 1b3e 1b38 c5bd
00000020: 21ba 41bd baee 4fbe 1c09 bc3e f213 85be
00000030: 5054 c33e e6ee bc3c 33dd bb3d 1681 b43e
00000040: c976 a1bd 75ce 82be 417b 97bd 52f6 bc3e
00000050: 602b acbe 107c da3d 4da9 e1be cf84 7b3e
00000060: fd83 2b3e 249d 513c 0fdc 463e f9e1 57ba
00000070: 508f 793e 86d0 b4be b6bd 71bd 2a74 513e
00000080: 16d3 e53e f03a 6c3e a030 aabe 3fce b03e
00000090: 0eee d3bd d57e c3bd 4ce8 d2be f5b0 94bd
000000a0: 7606 a73e f220 773d 8854 83be 85a6 133e
000000b0: 5cb0 13be 1ea7 d33e 4aa9 c8be f5e8 0bbe
000000c0: fb83 dbbe c383 39be 9081 183e a0c9 e03e
000000d0: 3977 ae3d f18f e53e cbef b23d 91ff 873e
000000e0: d2b9 bc3e 76b1 c03e f06f 85be a292 d23e
000000f0: 50ea 8c3e 67fb 59be 6666 60be 3e56 c0be
00000100: acbc e33d 2244 bbbe 332c 473e 59a5 0a3e
00000110: d8cd c6be 96dc ef3d 3336 eabc c374 543e
00000120: af7e 853e 9d6c e6be c074 d53e eb9f c23e
00000130: d3da 3b3e a64e d0be bb61 24be b21a 09be
00000140: 7ee0 e2bd 1163 833e 39ad 253e b180 b43e
00000150: c2d3 32be 681b 213e f5c4 1a3e e923 c1be
00000160: deac debe c4b2 6bbe 19b3 9f3e 2fe6 dabe
00000170: a046 c5be f167 833e 32c4 783e 6dc0 c03e
00000180: 7a97 b1be 7008 a7be eeab 713e 1d4f cb3e
00000190: 5d88 8d3e fcdf 8f3d 9e9e 183e d21d dc3e
000001a0: e9e7 90be 679c 57be ad7f a33e 1ab8 a0be
000001b0: 5311 83be 3e50 a83e 6460 0e3e 1081 0f3e
000001c0: ac78 3dbe 7992 f3bb e2fe d63e 3339 89be
000001d0: c3f7 bc3a 8c4e 613e 62b4 9fbe 37e2 e03e
000001e0: cd4a 66be 9020 e8bd f300 edbd d31b 93be
000001f0: be45 e1be 9d43 813e 3345 023e 2f06 dbbe

gcn.convs.0.bias f4 [128]
0.0020201367 -0.002353981 0.0033372277 -0.0042681927 -0.005709298 9.704614e-05 0.0075248843 0.0018367507
0.0004089242 -0.0028095567 0.0060575493 -0.009827717 0.012578112 -0.0017805852 0.0033753437 -0.0065300106
-0.0018876833 -0.005479053 -0.0018671954 0.008256227 0.0031747124 0.0040223887 -0.0041825376 0.0075076194
0.008901588 -0.0068624746 0.0022429032 -0.0068726176 -0.0041645695 0.000722772 0.006661541 -0.003565958
0.003181981 0.0009425385 -0.009589129 -0.004397952 0.00068800873 0.0014017307 0.004410436 -0.008940647
0.0005139458 -0.00388971 0.003918412 0.002126721 -0.0036175416 0.006709427 -0.002712732 0.004966545
0.0009816402 -0.0054816683 0.0068426803 0.003989517 0.0066549676 0.0042457464 0.004349018 0.005196555
0.009767705 -0.00090713496 -0.0103572095 0.00504186 0.0077622007 -0.0044967476 -0.008975289 -0.00013983436
-0.0009262799 0.00049308105 0.002231229 0.0073874188 -0.0018422661 -0.0074421107 0.009063823 0.005078965
0.00089888484 0.004857375 0.007651249 -0.0014136968 0.0013361224 -0.0013330197 0.00084614084 0.0027334008
-0.0030545343 0.002709608 -0.008337722 0.0062791565 -0.0046719573 0.00426165 -0.0021839251 -0.0071495483
-0.00011509976 -1.6719347e-05 0.008599662 -0.003766619 -0.004575613 0.008158457 0.0018916546 -0.00025361712
-0.007024411 0.0010706073 0.004204321 0.007853492 0.0076468065 -0.0024624544 -0.001045502 0.008842558
0.008332586 -0.003679163 0.0011154456 -0.0047706314 0.0055090343 -0.002714613 -0.003301137 -0.0041677947
0.004644264 0.0015530279 0.0076411185 0.0068370225 -0.00629361 0.0056401887 0.0029850036 -0.001653139
-0.010492912 -0.004630502 -0.0014033609 0.003614639 0.004309465 -0.0007017606 0.003214504 -0.006430969
00000000: 4564 043b 3f45 1abb 64b5 5a3b 32dc 8bbb
00000010: 1015 bbbb 4085 cb38 4e93 f63b 20bf f03a
00000020: e164 d639 8a20 38bb 687e c63b 6f04 21bc
00000030: 6d14 4e3c 8662 e9ba df34 5d3b b3f9 d5bb
00000040: 246c f7ba a189 b3bb aebc f4ba 2045 073c
00000050: d60e 503b 3ece 833b ab0d 89bb 7a02 f63b
00000060: f7d7 113c 9cde e0bb acfd 123b b233 e1bb
00000070: f176 88bb 6878 3d3a 0e49 da3b d9b2 69bb
00000080: c888 503b b014 773a b91b 1dbc b21c 90bb
00000090: 7c5b 343a 47ba b73a 6b85 903b cb7b 12bc
000000a0: 52ba 063a 81ea 7ebb 0666 803b 7560 0b3b
000000b0: 4714 6dbb c1da db3b 17c8 31bb 66be a23b
000000c0: 61aa 803a 919f b3bb 9038 e03b 7fba 823b
000000d0: ea11 da3b e71f 8b3b 3582 8e3b dd47 aa3b
000000e0: b908 203c cccc 6dba 49b1 29bc 3036 a53b
000000f0: 0f5a fe3b 7459 93bb 170d 13bc 80a0 12b9
00000100: 98d1 72ba 1c42 013a d039 123b 2912 f23b
00000110: 3178 f1ba f3dc f3bb 6e80 143c 726d a63b
00000120: 24a3 6b3a 9d2a 9f3b 54b7 fa3b cb4b b9ba
00000130: d420 af3a b8b8 aeba 8dcf 5d3a db22 333b
00000140: 952e 48bb ae93 313b f19a 08bc 62c1 cd3b
00000150: 3817 99bb 50a5 8b3b 2f20 0fbb c246 eabb
00000160: b761 f1b8 8640 8cb7 99e5 0c3c 61d9 76bb
00000170: 06ef 95bb 0dab 053c 65f1 f73a eaf7 84b9
00000180: 082d e6bb 9f53 8c3a 67c4 893b efab 003c
00000190: 1092 fa3b 2161 21bb 3a09 89ba 60e0 103c
000001a0: 6685 083c 1d1e 71bb 2534 923a f552 9cbb
000001b0: 2185 b43b a6e7 31bb e357 58bb ff91 88bb
000001c0: e92e 983b f88e cb3a 5962 fa3b 1a09 e03b
000001d0: a13a cebb 55d1 b83b 0da0 433b 24ae d8ba
000001e0: 76ea 2bbc 77bb 97bb faf0 b7ba 94e3 6c3b
000001f0: 6a36 8d3b 5bf6 37ba 6eaa 523b e1ba d2bb

gcn.convs.0.lin.weight f4 [128, 128]
0.0019264163 -0.09985069 -0.064989485 0.08179449 -0.1029785 -0.09085821 0.088770896 -0.071854204
-0.10162241 0.022398248 0.06484683 -0.1393621 0.026504206 -0.13340095 0.061484676 0.08665471
0.05023803 0.14249003 -0.029778853 -0.07698409 0.025983704 0.031405527 -0.06856925 -0.11306407
-0.057022024 0.059842136 0.07772551 -0.07112731 0.13284738 -0.11776196 -0.0076159653 0.023614077
-0.10247831 0.13430229 -0.09121813 0.086018145 0.012861452 -0.077819794 0.14356673 -0.014737162
0.019655919 0.13996756 -0.14225814 0.13547722 -0.09363767 -0.129254 0.08150068 -0.055240937
-0.119008236 -0.07809043 0.091247484 0.06167149 0.0038882128 0.081969395 0.04831628 -0.12056538
0.022148082 0.11153745 -0.014891637 -0.027215898 0.14186375 -0.032751627 0.16004741 0.13380343
0.113293774 0.028216548 0.049703337 0.021132497 -0.15271677 -0.07269024 -0.09198649 -0.015990993
-0.07260863 -0.051372573 -0.10172044 -0.12039271 0.06587123 0.16345747 -0.057997424 -0.11022846
-0.06576641 -0.06356839 -0.14243339 0.119699374 0.117171176 0.11974413 -0.07551047 -0.09068281
0.15005793 -0.098298706 -0.11968583 -0.130478 0.04261815 -0.009806941 -0.09070501 0.13958865
-0.080235936 0.01148045 0.08260935 0.0657394 0.14094828 -0.010592789 0.07435313 -0.018870838
0.025241867 -0.099814475 0.1139933 0.041985814 0.03199848 -0.012710657 0.05459861 -0.14744923
0.11869429 0.10449309 0.09032513 -0.02162969 -0.12459035 -0.027914336 -0.12743367 -0.075838126
0.10719683 -0.013998635 0.17261654 -0.06944232 -0.078741275 -0.13567539 0.053653866 0.049189273
0.07838041 0.13203737 0.09790614 -0.14363956 -0.00022317572 0.12611155 0.11100758 0.06029265
-0.063737705 -0.13738824 0.14637524 -0.052458767 0.055428702 -0.0496647 -0.055154264 0.05661404
0.14465375 -0.035837 0.06314872 0.0511445 -0.027952565 0.02417724 0.050895333 0.1292078
-0.06407058 0.114558 -0.0062428806 0.061004296 -0.122219 0.09849308 0.13780764 0.027218182
0.010041995 0.03437818 -0.12857829 -0.13774966 0.11916184 -0.13263823 -0.033966783 -0.09079716
-0.14695682 -0.063058734 0.0005014476 -0.11943808 -0.12827538 -0.12978019 -0.006970881 -0.044459306
0.115509264 -0.14411336 -0.13673866 -0.049123652 0.1605344 0.1384774 -0.010369307 -0.04755982
0.016442705 0.005019751 0.018328127 -0.07204547 -0.013840184 0.03554346 0.101701684 -0.095992014
-0.03846285 0.075158045 0.10656922 0.07522683 -0.040456392 0.030204853 -0.059757173 0.13372593
0.09006946 -0.13609903 0.07278131 0.14267318 0.04697291 -0.11603913 0.10120085 0.0032786233
-0.04938098 0.06580855 0.1219187 0.059979077 -0.1107174 0.06856935 -0.09705162 -0.1370854
-0.07248124 0.07585538 0.122658916 0.044230863 0.0969585 -0.14144748 -0.07650889 -0.08203683
-0.12935346 -0.093214065 -0.11122084 -0.13465776 0.02705123 -0.067304686 0.0037642207 -0.029133106
0.014535151 -0.14399633 -0.118757725 -0.1303954 0.11089663 0.0004498533 -0.13657582 -0.057177246
-0.0046944353 -0.108039245 0.12756039 0.10461496 0.045135543 -0.019225806 0.08731773 0.037749987
0.008355309 0.022697765 -0.12360149 0.05116979 0.05678856 0.09086176 0.068376124 0.1309789
00000000: ce7f fc3a 857e ccbd 3519 85bd df83 a73d
00000010: 64e6 d2bd df13 babd 84cd b53d 4c28 93bd
00000020: 691f d0bd 887c b73c 6ace 843d f0b4 0ebe
00000030: 591f d93c 429a 08be 5bd7 7b3d 0678 b13d
00000040: 64c6 4d3d e8e8 113e c8f2 f3bc d6a9 9dbd
00000050: c7db d43c 15a3 003d 096e 8cbd 238e e7bd
00000060: ed8f 69bd 071d 753d 8d2e 9f3d 32ab 91bd
00000070: 2509 083e 2f2d f1bd 598f f9bb 4f72 c13c
00000080: 26e0 d1bd 8a86 093e 92d0 babd 482a b03d
00000090: d7b8 523c fc5f 9fbd 2803 133e 2374 71bc
000000a0: 7305 a13c a853 0f3e 1eac 11be 8aba 0a3e
000000b0: 1bc5 bfbd 295b 04be d4e9 a63d 5244 62bd
000000c0: 97ba f3bd e0ed 9fbd f6df ba3d 3f9b 7c3d
000000d0: 63d1 7e3b 92df a73d 4be7 453d fbea f6bd
000000e0: e56f b53c bf6d e43d 0dfc 73bc e0f3 debc
000000f0: bb44 113e 9226 06bd 78e3 233e c403 093e
00000100: 9106 e83d 6426 e73c ba95 4b3d 0f1e ad3c
00000110: c961 1cbe 9fde 94bd 6a63 bcbd 8bff 82bc
00000120: d5b3 94bd 0c6c 52bd ce52 d0bd 7490 f6bd
00000130: 7fe7 863d 6561 273e b58e 6dbd 75bf e1bd
00000140: 8ab0 86bd 2530 82bd 0fda 11be f224 f53d
00000150: 71f7 ef3d 693c f53d 3ca5 9abd e9b7 b9bd
00000160: c9a8 193e d550 c9bd d81d f5bd 069c 05be
00000170: 5f90 2e3d 4bad 20bc 8cc3 b9bd 54f0 0e3e
00000180: bd52 a4bd 7f18 3c3c 172f a93d 61a2 863d
00000190: bf54 103e 618d 2dbc 7446 983d 0497 9abc
000001a0: 08c8 ce3c 886b ccbd 5275 e93d 51f9 2b3d
000001b0: d710 033d 5c40 50bc cba2 5f3d eefc 16be
000001c0: fe15 f33d 7900 d63d 62fc b83d bf30 b1bc
000001d0: 3a29 ffbd 9bac e4bc f97d 02be 0551 9bbd
000001e0: 038a db3d 885a 65bc 64c2 303e c637 8ebd
000001f0: 1b43 a1bd 7dee 0abe 28c4 5b3d b17a 493d
00000200: e985 a03d ce34 073e 0483 c83d 4016 13be
00000210: 4704 6ab9 6323 013e f157 e33d 6df5 763d
00000220: ea88 82bd 81af 0cbe 64e3 153e 01df 56bd
00000230: 3509 633d 366d 4bbd 70e9 61bd 20e4 673d
00000240: 1d20 143e d1c9 12bd 1e54 813d e57c 513d
00000250: c7fc e4bc 590f c63c a077 503d 0d4f 043e
00000260: 7037 83bd 629d ea3d 1491 ccbb a4df 793d
00000270: f44d fabd bdb6 c93d 721d 0d3e aaf8 de3c
00000280: 2e87 243c 22d0 0c3d 07aa 03be 3f0e 0dbe
00000290: 1f0b f43d 51d2 07be c120 0bbd ddf3 b9bd
000002a0: d97b 16be f024 81bd 9473 033a f49b f4bd
000002b0: 9f5a 03be 19e5 04be fd6b e4bb f61a 36bd
000002c0: 1f90 ec3d 7492 13be 3805 0cbe e235 49bd
000002d0: 2163 243e 05cd 0d3e 07e4 29bc 16ce 42bd
000002e0: dab2 863c b97c a43b de24 963c 938c 93bd
000002f0: f0c1 62bc 0596 113d f948 d03d 7697 c4bd
00000300: 398b 1dbd 76ec 993d f740 da3d 8610 9a3d
00000310: 9ab5 25bd 2b70 f73c f0c3 74bd 73ef 083e
00000320: 5676 b83d 8b5d 0bbe 5e0e 953d eb18 123e
00000330: ab66 403d eca5 edbd 6442 cf3d 2cde 563b
00000340: b643 4abd a2c6 863d 83b0 f93d 9fac 753d
00000350: cebf e2bd 166e 8c3d 00c3 c6bd 1d60 0cbe
00000360: 0b71 94bd 115a 9b3d 9934 fb3d 6c2b 353d
00000370: 2e92 c63d 9cd7 10be b1b0 9cbd ed02 a8bd
00000380: 3c75 04be 04e7 bebd c0c7 e3bd b9e3 09be
00000390: 8b9a dd3c 0ad7 89bd 25b1 763b 8da8 eebc
000003a0: d824 6e3c c673 13be 4037 f3bd 5f86 05be
000003b0: c61d e33d 4ada eb39 88da 0bbe b032 6abd
000003c0: c7d3 99bb ae43 ddbd 319f 023e 5e40 d63d
000003d0: 0ce0 383d 707f 9dbc a3d3 b23d bb9f 1a3d
000003e0: b5e4 083c aaf0 b93c c722 fdbd 6a97 513d
000003f0: 1f9b 683d bb15 ba3d c808 8c3d 551f 063e

mlp_head.0.weight f4 [32, 1536]
0.0009916332 0.0148489345 -0.001150614 -0.002385054 -0.020668276 -0.0004615882 -0.022427382 0.017393969
-0.024761485 -0.0070134015 0.01104335 -0.0069887587 0.010375083 0.007770792 -0.00027384568 -0.009630749
0.020094052 0.0014501036 -0.001967066 0.01153714 0.007320333 0.0128715 -0.0027621188 0.002617445
0.0019472498 -0.022452774 -0.003978969 -0.021103917 0.014413885 0.011781669 0.00797598 -0.022696555
0.00434382 0.002647384 0.0020528517 0.023863832 0.02134743 0.008255494 0.020193825 -0.0030223029
0.019585427 0.0037942827 0.006021884 0.007851012 -0.006186993 0.02853926 0.018877061 -0.010623799
-0.022176377 0.018226968 0.014149439 -0.008376266 -0.021668259 0.0007862035 0.008991585 0.024088666
0.017675495 0.00022847224 0.017581295 0.010691206 0.012153507 -0.005153104 0.017169446 0.006972168
-0.005027657 0.008980111 -0.013120878 -0.015893757 0.024062453 0.012507604 0.0064944234 -0.015658708
0.021223534 -0.0018703664 0.010616172 -0.017750295 -0.0054346733 0.0036270008 -0.00883561 -0.0011132148
-0.01749303 -0.0092014745 -0.021883259 0.024916146 -0.0035240585 0.008443577 0.0116276685 0.019820362
0.017773021 0.010689285 0.0007258601 0.008424017 0.010517321 0.017792188 -0.015087419 -0.019778602
-0.026986437 0.014717931 0.023234693 0.023108492 0.0071204295 0.00065877754 -0.01062637 0.024812
0.019765744 0.00045464767 -0.023779554 0.018110551 -0.010509961 -0.003544957 0.017811608 -0.0138465185
0.017230056 0.014267736 -0.010965438 -0.021978177 -0.011413293 -0.019822665 -0.026044957 0.022126906
-0.011282167 -0.012272787 0.013245237 -0.009013679 -0.0014109458 -0.016187277 -0.0045353733 -0.02102722
0.016717153 -0.029084384 0.009389062 -0.020698087 0.017205158 0.0140742 0.006830325 0.00025431637
0.0046632905 0.025068207 -0.020402469 0.011158805 0.0056655114 -0.0023360336 0.027437128 0.006949168
-0.024460252 -0.009906838 0.00788052 -0.014527764 -0.023077222 -0.01710626 0.008915626 -0.004093609
-0.011230726 0.009993308 0.0085812695 0.016930643 -0.007632916 -0.015351248 0.00599922 0.0025740846
0.022287486 0.011700651 -0.017358508 0.014108172 0.009621655 -0.010684556 -0.0072634006 -0.011512758
0.023303386 0.012710728 -0.002262573 0.023510866 0.014949196 0.024506126 -0.0031781173 0.00055199664
-0.029708741 -0.019793827 0.019779805 -0.0039492943 0.012531625 -0.0124224285 0.019318897 0.02606465
-0.010653033 0.023783663 0.014687277 -0.006840437 0.016730852 -0.025888685 -0.007894702 -0.0008403801
0.023052322 0.022029227 -0.016474774 0.0037664191 -0.01733481 -0.00021022673 -0.02027099 0.00854631
0.0074025677 0.009062255 0.016099602 0.024054874 0.006431147 0.0129053155 0.011923318 -0.02387422
-0.020021103 0.010795725 -0.009731474 0.008191567 -0.010381849 0.01045934 -0.025169343 -0.008164333
-0.009097445 0.022310825 0.013742303 0.0014839816 -0.019528436 -0.018804543 -0.014785578 -0.01258812
-0.025214044 0.016178036 0.029100653 -0.0023169916 -0.0025163437 0.016383149 -0.0076394975 0.010206564
-0.01650447 0.020303652 -0.005648392 -0.0005553971 -0.021074547 0.006897719 -0.0027684327 -0.013914259
-0.021835573 -0.010090903 0.0219567 -0.0042442144 -0.003197243 0.019835915 0.020565385 0.022123212
0.019845178 -0.00324792 -0.0023850852 0.019605663 -0.00844468 0.0011990202 -0.0044128774 0.0021753134
00000000: b0f9 813a f248 733c 33d0 96ba 914e 1cbb
00000010: 8450 a9bc 5201 f2b9 a1b9 b7bc cc7d 8e3c
00000020: 99d8 cabc add0 e5bb 2bef 343c f501 e5bb
00000030: 41fc 293c 21a2 fe3b f292 8fb9 4aca 1dbc
00000040: 489c a43c 6711 be3a e4e9 00bb 4606 3d3c
00000050: 67df ef3b fce2 523c aa04 35bb 7189 2b3b
00000060: dc3a ff3a e1ee b7bc 0362 82bb 1fe2 acbc
00000070: 3728 6c3c e707 413c afad 023c 20ee b9bc
00000080: 9a56 8e3b bc7f 2d3b 2389 063b 157e c33c
00000090: cee0 ae3c 0d42 073c 856d a53c d411 46bb
000000a0: 9e71 a03c 80a9 783b 3953 c53b 88a1 003c
000000b0: 42bc cabb 2bcb e93c 11a4 9a3c 710f 2ebc
000000c0: 3cab b5bc b950 953c 0cd3 673c 9b3c 09bc
000000d0: a281 b1bc 3919 4e3a 7151 133c 9855 c53c
000000e0: 33cc 903c 0d92 6f39 a606 903c 2b2a 2f3c
000000f0: 811f 473c 5fdb a8bb f0a6 8c3c c976 e43b
00000100: 0bbf a4bb 5121 133c f3f8 56bc a033 82bc
00000110: 9f1e c53c b2ec 4c3c 2ccf d43b b146 80bc
00000120: fadc ad3c 1527 f5ba 74ef 2d3c 1169 91bc
00000130: 5815 b2bb fab2 6d3b 3cc3 10bc 4ae9 91ba
00000140: 8b4d 8fbc c8c1 16bc 8544 b3bc f21c cc3c
00000150: e4f3 66bb ee56 0a3c fa81 3e3c 505e a23c
00000160: ba98 913c 1c22 2f3c a647 3e3a e304 0a3c
00000170: d750 2c3c ecc0 913c 3931 77bc bc06 a2bc
00000180: a912 ddbc 7a23 713c af56 be3c 054e bd3c
00000190: 7e52 e93b d0b1 2c3a 3a1a 2ebc 8942 cb3c
000001a0: c5eb a13c c75d ee39 57cd c2bc 945c 943c
000001b0: f931 2cbc 8252 68bb a6e9 913c 82dc 62bc
000001c0: 0c26 8d3c 39c3 693c 61a8 33bc 940b b4bc
000001d0: d2fe 3abc 2463 a2bc 3c5c d5bc 7c43 b53c
000001e0: d7d8 38bc cd13 49bc 8d02 593c 1cae 13bc
000001f0: 7cef b8ba 2e9b 84bc 789d 94bb 4741 acbc
00000200: 69f2 883c 6042 eebc 95d4 193c 098f a9bc
00000210: d5f1 8c3c 7997 663c ebd0 df3b c455 8539
00000220: 84ce 983b d75b cd3c 1423 a7bc 6cd3 363c
00000230: c1a5 b93b 2418 19bb d4c3 e03c d9b5 e33b
00000240: de60 c8bc 4a50 22bc 4c1d 013c dc05 6ebc
00000250: 710c bdbc 6d22 8cbc d912 123c ae23 86bb
00000260: 1401 38bc f9ba 233c 7498 0c3c 22b2 8a3c
00000270: 8a1d fabb cd83 7bbc 1b95 c43b f9b1 283b
00000280: 3f94 b63c 16b4 3f3c 6e33 8ebc f625 673c
00000290: 25a4 1d3c 470e 2fbc d201 eebb 02a0 3cbc
000002a0: bee6 be3c a840 503c ad47 14bb dc99 c03c
000002b0: 79ed 743c 12c1 c83c f647 50bb deb3 103a
000002c0: bf5f f3bc aa26 a2bc 4209 a23c 1569 81bb
000002d0: 7251 4d3c 7187 4bbc aa42 9e3c 8885 d53c
000002e0: 0f8a 2ebc f5d5 c23c e8a2 703c bf25 e0bb
000002f0: 240f 893c 8214 d4bc c858 01bc f44c 5cba
00000300: 39d8 bc3c a376 b43c 1bf6 86bc 07d6 763b
00000310: bb01 8ebc 4f70 5cb9 590f a6bc d205 0c3c
00000320: 3d91 f23b da79 143c 50e3 833c ba0e c53c
00000330: 5fbc d23b d170 533c 055a 433c de93 c3bc
00000340: 4c03 a4bc 8de0 303c c370 1fbc ec35 063c
00000350: a118 2abc a75d 2b3c f02f cebc b2c3 05bc
00000360: 730d 15bc 31c5 b63c 6527 613c 2982 c23a
00000370: 19fa 9fbc fc0b 9abc 353f 72bc 673e 4ebc
00000380: af8d cebc cd87 843c 7e64 ee3c abd8 17bb
00000390: 3ee9 24bb f435 863c c054 fabb 6f39 273c
000003a0: 6234 87bc d853 a63c 2516 b9bb 1298 11ba
000003b0: 87a4 acbc 4306 e23b 986e 35bb a2f8 63bc
000003c0: 84e0 b2bc 5154 25bc 8ade b33c 0d13 8bbb
000003d0: d688 51bb ee7e a23c bd78 a83c bd3b b53c
000003e0: 5b92 a23c 0edb 54bb 174f 1cbb 0e9c a03c
000003f0: 8e5b 0abc 7128 9d3a e699 90bb b48f 0e3b

mlp_head.0.bias f4 [32]
-0.0090999445 -0.004848901 -0.010996507 0.010269178 -0.007975154 0.030474247 -0.00785169 0.027895717
0.0150759425 -0.020404695 -0.019511748 0.02040706 0.0057056607 0.0047191307 0.026015164 0.012583551
0.016735265 -0.017636653 0.011898361 -0.007807754 0.0039624 0.01868627 0.027576696 0.030423779
-0.0021175798 -0.021327548 0.026658637 0.013028628 -0.012034398 0.0064580757 0.004188047 -0.007530835
00000000: ef17 15bc 88e3 9ebb b12a 34bc 0e40 283c
00000010: 38aa 02bc 21a5 f93c 60a4 00bc 8f85 e43c
00000020: 1601 773c bf27 a7bc 1ad7 9fbc b52c a73c
00000030: 8df6 ba3b f0a2 9a3b c11d d53c 3d2b 4e3c
00000040: 6518 893c be7a 90bc 58f1 423c 30d8 ffbb
00000050: 05d7 813b f313 993c 86e8 e13c 4a3b f93c
00000060: 18c7 0abb 1cb7 aebc 3763 da3c 0776 553c
00000070: ec2b 45bc 449e d33b e23b 893b 39c5 f6bb

mlp_head.2.weight f4 [32, 32]
0.17468128 -0.094612695 -0.15586384 0.034526784 -0.036909644 0.031637378 0.049865 -0.16427456
0.112908475 -0.10815803 0.18083727 -0.14395685 -0.10028935 0.050593827 0.04299075 -0.08669459
0.15504053 0.11933546 -0.028492259 -0.07866729 0.16601054 -0.0377974 -0.07679314 -0.02251157
-0.06557076 -0.13965456 -0.028303763 -0.052108593 -0.15233357 0.16294779 0.16101448 0.06878216
-0.05198152 0.07692282 0.014582421 0.10925162 -0.08813691 0.038036056 0.008406267 0.10173954
-0.116140924 0.09423487 0.11394094 0.12634307 0.0018538437 -0.08047711 0.03925321 0.065117195
-0.10314861 -0.08050924 0.119756654 -0.15299962 0.16577353 0.16407587 -0.026775315 0.11579392
0.11650138 0.03853638 0.028640138 0.10566587 0.11111799 0.13845012 -0.012812312 0.011327359
0.028267628 -0.021368936 -0.10300287 0.10822831 -0.11834007 0.083075084 -0.086592525 0.11918547
-0.00052332104 -0.033466265 0.17153475 0.0077691018 -0.010184374 -0.081894174 0.16372253 0.040340506
0.11934763 -0.12523706 0.05907451 -0.011685683 0.08423243 -0.091059916 -0.05175412 -0.068818524
-0.032182597 -0.123041205 -0.034859233 -0.14005552 -0.07984717 0.09884791 -0.026399383 -0.042524558
-0.06276936 -0.07373384 0.09568228 0.07233699 -0.00026384837 -0.020594291 0.14040655 0.06355769
0.039899457 0.095621146 0.09536284 -0.1458294 -0.12752911 0.14968912 0.096638404 0.013411904
0.180083 0.16503124 0.03800764 0.079911344 0.062006887 -0.122630715 0.13858561 0.075832926
-0.16188817 -0.06929765 -0.017505081 -0.12260628 0.13811438 0.043758325 0.15766326 -0.14855649
-0.14458574 -0.16917826 -0.005127083 -0.10446452 0.16031605 0.13918021 0.16174151 -0.10184843
0.17508882 -0.07682056 0.15036571 0.069968164 -0.13721992 0.004801547 -0.043515492 0.09790039
0.18907805 0.16161157 -0.12429807 -0.025070379 0.10168715 -0.09996872 0.06552695 -0.042771403
-0.0058848285 0.08492859 0.04677802 -0.15552868 0.14102434 0.06031713 -0.14165741 0.12576072
0.12835588 0.07724542 -0.06905178 -0.052980132 0.008764272 -0.13470249 -0.0026532537 -0.07526799
0.030227046 0.07622674 -0.12731327 -0.060794733 0.003665424 -0.16392127 0.17624521 0.11662984
-0.022789923 -0.109705694 0.12874405 0.05145145 -0.09761231 -0.07606077 0.07705519 0.119019136
0.12076391 -0.13343747 0.01595763 0.059790123 0.120468594 -0.066261515 0.07993275 0.05348281
-0.11787902 -0.044520833 -0.08193314 0.03170452 -0.08789921 0.16152737 0.06490433 0.048486847
-0.0661245 0.0047798976 0.025826497 0.054641247 -0.0371031 -0.043076582 -0.048627116 0.17991629
-0.04711173 -0.004047507 0.028873019 -0.08186354 0.15318026 0.06549982 -0.02583457 0.13766666
-0.06532555 0.17499757 0.096378155 0.13959436 -0.052199822 0.04093848 -0.15252626 -0.07187866
-0.022792222 0.068892024 -0.1119135 0.1171819 0.14059931 0.0521997 0.046797056 0.13682352
-0.069505125 0.017733235 -0.08294961 -0.024901943 0.1238932 -0.14726669 -0.10102244 0.13598765
-0.10590648 0.0639176 0.1357587 -0.023085313 -0.11732639 0.016240478 0.15890294 -0.08021654
0.120136775 0.15686871 0.09279356 -0.01799527 -0.1600424 -0.13005427 0.007945593 0.04941222
00000000: a6df 323e 4dc4 c1bd c59a 1fbe f56b 0d3d
00000010: 912e 17bd 3296 013d 3e3f 4c3d 9737 28be
00000020: 8f3c e73d f581 ddbd 682d 393e 6d69 13be
00000030: 8164 cdbd 793b 4f3d 1217 303d ef8c b1bd
00000040: f2c2 1e3e 2666 f43d 9968 e9bc 511c a1bd
00000050: abfe 293e 72d1 1abd b945 9dbd 2f6a b8bc
00000060: f649 86bd 9b01 0fbe 4bdd e7bc d26f 55bd
00000070: 55fd 1bbe c9db 263e fbe0 243e a9dd 8c3d
00000080: 93ea 54bd b689 9d3d 1beb 6e3c 50bf df3d
00000090: 2081 b4bd b2cb 1b3d 70ba 093c d25c d03d
000000a0: 4bdb edbd 36fe c03d de59 e93d 1460 013e
000000b0: acfc f23a 2fd1 a4bd f9c7 203d 2a5c 853d
000000c0: 943f d3bd 07e2 a4bd fa42 f53d efab 1cbe
000000d0: 89c0 293e 8103 283e e857 dbbc 5d25 ed3d
000000e0: 4798 ee3d 53d8 1d3d b99e ea3c 5967 d83d
000000f0: d491 e33d dec5 0d3e bbea 51bc 6396 393c
00000100: 8391 e73c e80d afbc 2bf3 d2bd cea6 dd3d
00000110: 475c f2bd 4523 aa3d 6c57 b1bd 8317 f43d
00000120: 7b2f 09ba ec13 09bd cea6 2f3e f393 fe3b
00000130: 5cdc 26bc 22b8 a7bd e1a6 273e 163c 253d
00000140: 886c f43d 253e 00be 1df8 713d 4f75 3fbc
00000150: 0d82 ac3d 9f7d babd 21fc 53bd baf0 8cbd
00000160: e6d1 03bd 07fd fbbd 8ec8 0ebd b76a 0fbe
00000170: ea86 a3bd c670 ca3d 8543 d8bc 3b2e 2ebd
00000180: 398d 80bd c401 97bd 12f5 c33d 6a25 943d
00000190: 2155 8ab9 5cb5 a8bc bcc6 0f3e 892a 823d
000001a0: 9d6d 233d 05d5 c33d 984d c33d 4d54 15be
000001b0: fe96 02be 1b48 193e 5bea c53d 9abd 5b3c
000001c0: ae67 383e f3fd 283e e6ad 1b3d 8fa8 a33d
000001d0: effa 7d3d d025 fbbd 63e9 0d3e 4b4e 9b3d
000001e0: 03c6 25be edeb 8dbd d166 8fbc 0019 fbbd
000001f0: db6d 0d3e ee3b 333d 7a72 213e 311f 18be
00000200: 490e 14be 113d 2dbe 1701 a8bb 7ff1 d5bd
00000210: e429 243e 4285 0e3e 919f 253e e995 d0bd
00000220: 7c4a 333e 1954 9dbd 78f9 193e 784b 8f3d
00000230: 6183 0cbe 4c56 9d3b 4d3d 32bd 0080 c83d
00000240: ad9d 413e 817d 253e fd8f febd 6560 cdbc
00000250: 5a41 d03d 66bc ccbd fe32 863d 1131 2fbd
00000260: 85d5 c0bb 0aef ad3d 4f9a 3f3d e942 1fbe
00000270: af68 103e 180f 773d a40e 11be 6bc7 003e
00000280: b96f 033e d932 9e3d 056b 8dbd b201 59bd
00000290: 0598 0f3c 73ef 09be 36e2 2dbb 1b26 9abd
000002a0: b69e f73c c41c 9c3d 695e 02be e603 79bd
000002b0: 9c37 703b fada 27be a079 343e a0db ee3d
000002c0: efb1 babc 61ad e0bd 7bd5 033e c1be 523d
000002d0: f6e8 c7bd c0c5 9bbd 1dcf 9d3d 4ec0 f33d
000002e0: 1253 f73d d5a3 08be 93b9 823c 7de6 743d
000002f0: 3db8 f63d 1eb4 87bd c8b3 a33d ca10 5b3d
00000300: 8e6a f1bd 7a5b 36bd 90cc a7bd 99dc 013d
00000310: 8004 b4bd 6e67 253e 90ec 843d 259a 463d
00000320: 486c 87bd b0a0 9c3b 1792 d33c 80cf 5f3d
00000330: 6cf9 17bd 1271 30bd 3a2d 47bd fa3b 383e
00000340: 3bf8 40bd f3a0 84bb 1c87 ec3c 12a8 a7bd
00000350: 49db 1c3e c524 863d 05a3 d3bc 7df8 0c3e
00000360: 67c9 85bd 9032 333e e961 c53d d3f1 0e3e
00000370: 7bcf 55bd 1caf 273d d82f 1cbe 1e35 93bd
00000380: c1b6 babc 4317 8d3d e832 e5bd 10fd ef3d
00000390: 44f9 0f3e 5acf 553d 45ae 3f3d 771b 0c3e
000003a0: b458 8ebd 4a45 913c 7ce1 a9bd 29ff cbbc
000003b0: b8bb fd3d 14cd 16be dae4 cebd 5940 0b3e
000003c0: 7fe5 d8bd 3be7 823d 5404 0b3e 691d bdbc
000003d0: d248 f0bd c00a 853c 74b7 223e 9248 a4bd
000003e0: 450a f63d 31a2 203e 8d0a be3d d16a 93bc
000003f0: 28e2 23be f22c 05be 3c2e 023c 7864 4a3d

mlp_head.2.bias f4 [32]
0.03260039 0.09563697 -0.07345202 0.009756309 0.16262183 0.11013268 -0.101981685 0.027081084
-0.10620163 0.14220776 0.14876668 -0.060696702 0.003332789 0.110018976 0.10501308 -0.08945812
-0.06893078 -0.14721355 -0.16878946 -0.044769578 -0.13664946 -0.08156429 -0.16868472 0.02653337
-0.0020191073 0.10395784 -0.153293 0.031629317 -0.0049314164 0.046126798 0.14693478 0.054203276
00000000: fd87 053d 51dd c33d 036e 96bd edd8 1f3c
00000010: 5686 263e 3e8d e13d c6db d0bd 26d9 dd3c
00000020: 3d80 d9bd e99e 113e 4b56 183e 1b9d 78bd
00000030: ec6a 5a3b a151 e13d 1911 d73d d235 b7bd
00000040: 952b 8dbd 26bf 16be 25d7 2cbe 4e60 37bd
00000050: d6ed 0bbe 2e0b a7bd b0bb 2cbe 835c d93c
00000060: 0053 04bb d9e7 d43d d7f8 1cbe be8d 013d
00000070: b897 a1bb 74ef 3c3d 1276 163e 4104 5e3d

mlp_head.4.weight f4 [1, 32]
0.14152941 -0.035385173 0.104542606 0.13626933 0.14417778 -0.013550637 -0.1660202 -0.08841797
-0.053434268 -0.07385586 0.17054275 -0.028841242 -0.18532409 -0.1552944 0.100448616 0.05899277
0.0956468 0.016375858 -0.11686337 0.07128462 -0.022123111 0.09950234 -0.18354301 0.17435144
0.026960611 -0.007360331 0.09724604 0.065708384 -0.00891606 0.17624925 -0.15858531 -0.094576456
00000000: 16ed 103e 0bf0 10bd 6f1a d63d 308a 0b3e
00000010: 57a3 133e 7e03 5ebc 3301 2abe 7b14 b5bd
00000020: e4dd 5abd be41 97bd c2a2 2e3e 7844 ecbc
00000030: 99c5 3dbe 7f05 1fbe 01b8 cd3d 67a2 713d
00000040: 78e2 c33d aa26 863c 1056 efbd acfd 913d
00000050: 873b b5bc e2c7 cb3d b3f2 3bbe 2f89 323e
00000060: 80dc dc3c ee2e f1bb ef28 c73d 1e92 863d
00000070: ab14 12bc af7a 343e 3064 22be 4db1 c1bd
