runs/4_hour_forecasting/223/best_model.pt (torch, 502968 bytes, 10 tensors)

lstm.weight_ih_l0 f4 [512, 89]
0	0x3d759455	0.059955914
1	0x3d645738	0.05574724
2	0xbcb0e5d7	-0.021593971
3	0x3d99ed52	0.075159684
4	0xbce53f22	-0.027984206
5	0x3c639bc5	0.013892119
6	0xbd31d82f	-0.04341906
7	0x3cf3cf5d	0.029761964
8	0x3d6b14fb	0.057393055
9	0xbda91361	-0.08255649
10	0x3d84505d	0.064606406
11	0x3c33f9ff	0.010984897
12	0x3d7fc3c4	0.062442556
13	0x3b5a4703	0.0033306486
14	0x3d24df2e	0.040251903
15	0xbc2e2795	-0.010629554
16	0x3d810434	0.0629963
17	0x3c6ff37f	0.014645456
18	0xbd2dddd0	-0.042447865
19	0x3c803c4c	0.015653752
20	0xbd3e752e	-0.04649847
21	0xbc183e25	-0.00929216
22	0xbd3344c9	-0.04376677
23	0x3d92e570	0.07172668
24	0xbd97a6e4	-0.07404879
25	0xbd4f17d9	-0.050559852
26	0xbd0bb0f7	-0.034104314
27	0xbd2f4bf2	-0.042797036
28	0x3b84fbab	0.0040583215
29	0xbdaff450	-0.08591521
30	0x3d86e69d	0.06586955
31	0xbd89ce94	-0.06728855
32	0x3d8ec50c	0.069711775
33	0x3cb349ba	0.021885742
34	0xbcfea9fa	-0.03108691
35	0x3d0113d4	0.03151305
36	0x3b374a29	0.0027967787
37	0x3d829147	0.06375366
38	0x3bc5b9e4	0.006034123
39	0xbd23784d	-0.03990965
40	0x3bf90a0d	0.007600075
41	0xbcd8873e	-0.026431676
42	0x3cd655c2	0.02616394
43	0x3d8fb3e8	0.07016736
44	0x3d1a3573	0.03764863
45	0xbd4d7248	-0.050157815
46	0x3d21cc9b	0.039501768
47	0x3c3d4f53	0.011554557
48	0x3d4c86a3	0.049933087
49	0xbd7c0afa	-0.061533906
50	0xbdca018f	-0.098635785
51	0xbd5d8a32	-0.05408687
52	0xbdb10b74	-0.08644763
53	0x3d8c36ca	0.06846388
54	0x3ca8b409	0.02059366
55	0x3cdb3d6c	0.026762687
56	0x3ccc9616	0.02497391
57	0xbcb11900	-0.021618366
58	0x3d604031	0.054748718
59	0xbd8bc4bf	-0.06824636
60	0xbc40abb5	-0.011759688
61	0xbda517fe	-0.08061217
62	0x3ccd2570	0.025042266
63	0xbd056eaf	-0.03257626
64	0x3c822c97	0.015890403
65	0xbcfaa284	-0.030595072
66	0x3d892e8f	0.066983335
67	0xbd862ffc	-0.06552121
68	0xbd6248a5	-0.05524506
69	0xbd6b389f	-0.057427045
70	0x3da40e1b	0.08010503
71	0x3d07711e	0.03306686
72	0x3da1e198	0.07904357
73	0xbd998800	-0.07496643
74	0xbdbb4c62	-0.09145428
75	0xbd954ff7	-0.07290643
76	0xbd8641c5	-0.06555513
77	0x3cafd2b6	0.02146278
78	0x3d05fac5	0.032709856
79	0x3d85f1b1	0.065402396
80	0xbd4d51ec	-0.050126955
81	0xbd81d687	-0.06339746
82	0x3d1b7369	0.03795186
83	0xbd06fad4	-0.032954052
84	0x3d4adf1d	0.049529184
85	0xbccb6dd0	-0.024832636
86	0x3d798a91	0.060923163
87	0xbd7f723f	-0.062364813
88	0xbd4118bd	-0.047142733
89	0x3d151b55	0.03640302
90	0x3d344566	0.044011496
91	0xbaf6f4f2	-0.001884131
92	0x3d833b21	0.06407762
93	0x3db07cad	0.0861753
94	0xbd4673a5	-0.04845013
95	0xbcf1ecc3	-0.029531842
96	0x3dd56220	0.104191065
97	0xbc7d8b7f	-0.015475153
98	0xbba724b3	-0.0051008104
99	0xbd9c2683	-0.07624533
100	0xbd380ff3	-0.044937085
101	0x3d3740e0	0.044739604
102	0x3c661f52	0.014045553
103	0xbd541e79	-0.051786873
104	0x3cdc4edc	0.026893072
105	0xbd43ae2e	-0.047773533
106	0xbd8187c1	-0.06324721
107	0xbd4f28e7	-0.050576117
108	0xbda8cce9	-0.082422085
109	0xbd7180be	-0.05896067
110	0x3dc98a4b	0.098408304
111	0x3cdb2684	0.026751764
112	0x3d3916c2	0.04518772
113	0xbda8646e	-0.082222804
114	0xbd296ac5	-0.04136159
115	0xbd10962a	-0.035299458
116	0x3cbc096b	0.02295371
117	0xbd758469	-0.05994073
118	0xbd01ab38	-0.031657428
119	0xbd1f329e	-0.03886663
120	0x3c9f17bd	0.019420499
121	0xbcbeacf2	-0.023275826
122	0x3c979b95	0.018506804
123	0xbd6a570e	-0.057211928
124	0xbd784d1f	-0.060620423
125	0xbd92b0f2	-0.07162656
126	0xbd14cf59	-0.036330555
127	0xbd977532	-0.073954
128	0x3d882f95	0.066497006
129	0xbc333162	-0.010937067
130	0x3d8f0535	0.06983415
131	0x3cae0d2d	0.021246517
132	0xbdad230b	-0.084539495
133	0x3d7f8352	0.062381096
134	0xbcaaba14	-0.020840682
135	0xbd35365e	-0.0442413
136	0xbd94acc6	-0.072595164
137	0xbda21995	-0.07915036
138	0x3cb9e7ae	0.022693481
139	0xbc4c7d8e	-0.012481106
140	0x3ce0b549	0.027430193
141	0xbd917773	-0.07102861
142	0x3daf930a	0.08572967
143	0xbd394862	-0.045235045
144	0xba692287	-0.00088933896
145	0x3d1fbfc5	0.039001245
146	0x3ced8161	0.028992357
147	0x3da5fed4	0.08105245
148	0x3dcf3e77	0.10119336
149	0xbd88d77b	-0.06681725
150	0x3c0fed7a	0.008784646
151	0xbc8b0cfb	-0.016973963
152	0x3c45d234	0.012074042
153	0xbd53703a	-0.0516207
154	0x3dbb80d6	0.09155433
155	0xbd388d31	-0.045056526
156	0x3d6aa7d4	0.05728896
157	0x3d3351f3	0.043779325
158	0x3d32c761	0.043647174
159	0xbcaaa4f8	-0.020830616
160	0x3dd13c71	0.102166064
161	0x3d0be826	0.03415694
162	0x3d07b42f	0.03313082
163	0xbd89d4ea	-0.06730063
164	0x3d6004e0	0.05469215
165	0x3bf2bff8	0.0074081384
166	0xbcda0e53	-0.026618158
167	0x3dba6a8e	0.09102355
168	0x3ce5303a	0.027977098
169	0xbcd28683	-0.025698906
170	0xbcb6886f	-0.022281853
171	0x3c4a3a75	0.012343039
172	0x3d9dfe7d	0.077145554
173	0xbbb1b05e	-0.005422636
174	0xbdc13a72	-0.09434976
175	0xbd5bfb6c	-0.05370657
176	0xbd90c4c3	-0.07068779
177	0x3d13d53e	0.036092035
178	0x3d9010ad	0.07034431
179	0xbda3926f	-0.07986914
180	0x3d209ca2	0.039211877
181	0x3da6de3f	0.08147859
182	0x3cf71b7d	0.030164475
183	0xbc9f676c	-0.019458495
184	0x3cce3646	0.025172364
185	0x3d714b96	0.058909975
186	0x3bbaff92	0.005706736
187	0x3b88a313	0.0041698306
188	0xbd23eee0	-0.04002273
189	0x3d174c79	0.036938164
190	0x3b81c9b8	0.0039608143
191	0xbd359537	-0.044331755
192	0x3d40f9a5	0.04711308
193	0x3d83bab6	0.06432097
194	0x3b251e60	0.0025195107
195	0xbd056784	-0.032569423
196	0xbc6631c9	-0.014049956
197	0xbbb6f584	-0.005583467
198	0x3cfbd283	0.030740028
199	0x3b6e8934	0.0036397697
200	0xbdc58540	-0.09644556
201	0xbcf8c367	-0.030366613
202	0x3d89a977	0.06721776
203	0x3c66579e	0.0140589755
204	0xbbf6bbbf	-0.0075297053
205	0xbd85563e	-0.0651059
206	0xbd7be409	-0.06149677
207	0xbd9cd981	-0.07658673
208	0xbd2e79f6	-0.04259678
209	0x3c23c7e4	0.009996388
210	0x3d840811	0.06446851
211	0x3ce3380a	0.027736682
212	0xbdb0684a	-0.086136416
213	0xbd83662d	-0.06415973
214	0xbc8aa28f	-0.016923217
215	0x3dba4f75	0.090971865
216	0x3b802937	0.003911163
217	0xbca57b3a	-0.02020036
218	0x3c26dee6	0.010184979
219	0xbd7cf20b	-0.061754268
220	0xbd95b20b	-0.073093496
221	0x3d36917f	0.04457235
222	0xbd3860ef	-0.045014318
223	0x3c220a55	0.009890159
224	0xbda37635	-0.079815306
225	0x3cd8a93e	0.026447888
226	0x3d7ebb18	0.062190145
227	0x3cb5fc62	0.022215072
228	0xbd7f8057	-0.062378254
229	0xbdbf95cf	-0.093547456
230	0xbda04a13	-0.078266285
231	0x3daa8983	0.083270095
232	0x3d69f1d1	0.05711538
233	0x3db81099	0.08987541
234	0x3d950fb9	0.072783895
235	0x3b508e01	0.0031822922
236	0x3b296ebf	0.0025853363
237	0xbd57833c	-0.05261539
238	0xbdae0803	-0.08497622
239	0xbdcdb74d	-0.100447275
240	0x3d5ada7f	0.05343103
241	0xbca0ea05	-0.01964284
242	0xbc59547a	-0.01326477
243	0xbcd494a8	-0.025949791
244	0xbb7a0d9d	-0.0038155087
245	0xbd3021f5	-0.043001134
246	0xbd65cd61	-0.056104068
247	0x3d0dc85d	0.03461491
248	0xbcd36afb	-0.025807848
249	0x3d5f627e	0.05453729
250	0xbce832c5	-0.028344521
251	0xbd864035	-0.06555215
252	0xbc7cc05b	-0.0154267205
253	0xbd143b59	-0.03618941
254	0xbd0390f0	-0.032120645
255	0xbda0300a	-0.07821663

lstm.weight_hh_l0 f4 [512, 128]
0	0x39bbe833	0.0003584042
1	0xbd8852fc	-0.06656453
2	0xbddbbdcf	-0.107295625
3	0x3c3b87ce	0.011445953
4	0xbcb18bb9	-0.02167307
5	0xbd9bacac	-0.07601294
6	0x3a4b476f	0.000775448
7	0xbdba4c6d	-0.09096608
8	0xbbd1cc38	-0.0064025186
9	0xbc484451	-0.012223319
10	0xbd3dff98	-0.04638633
11	0x3d9edd2e	0.077570304
12	0x3cea26fb	0.02858304
13	0x3cc5fa33	0.024167156
14	0xbd26871b	-0.04065619
15	0xbd1fa6b8	-0.038977355
16	0x3db34bf6	0.08754723
17	0x3dbb7ca9	0.091546364
18	0xbd774c51	-0.060375515
19	0x3d11f6ae	0.035635643
20	0x3cab9eac	0.020949684
21	0x3db48372	0.08814134
22	0x3d1844d3	0.03717501
23	0x3cf05234	0.029336073
24	0x3d2a9112	0.041642256
25	0x3dd36a92	0.10323061
26	0xbd16bc0c	-0.03680043
27	0xbc7553d8	-0.014973603
28	0x3d6f9c0b	0.058498424
29	0xbc67fab1	-0.014158891
30	0x3dba021a	0.09082432
31	0x3b56e586	0.0032790615
32	0x3a14389d	0.0005654188
33	0x3d7e8269	0.062136088
34	0xbdb746b7	-0.08949035
35	0x3bc229d2	0.0059253955
36	0x3c8f7db5	0.017515996
37	0x3caf2b6a	0.021383006
38	0x3bc23dca	0.005927776
39	0xbd8acf2a	-0.06777795
40	0xbd6b2ecb	-0.057417672
41	0xbb476787	-0.0030426697
42	0x3b80bb73	0.0039285957
43	0xbda89ab9	-0.08232636
44	0x3da17f03	0.07885554
45	0xbd5f6f0f	-0.054549273
46	0xbc4caac7	-0.012491888
47	0xbdc08a0e	-0.09401332
48	0xbda0720a	-0.07834251
49	0x3d5e381c	0.05425273
50	0x3dab8e97	0.08376806
51	0x3da4d66f	0.080487125
52	0x3d90a798	0.07063216
53	0x3dc7aeb7	0.09750121
54	0x3db1a6a5	0.08674363
55	0xbd652d9a	-0.055951692
56	0xbd6a15a5	-0.057149548
57	0xbd757404	-0.059925094
58	0xbdbadbe0	-0.09123969
59	0xbd286f81	-0.041121963
60	0xbdacd586	-0.08439164
61	0xbb6c3dae	-0.0036047506
62	0xbd42b6c4	-0.04753758
63	0xbb229c56	-0.0024812422
64	0x3ca46f30	0.02007255
65	0x3dcbc2fe	0.09949301
66	0x3d3b4eb5	0.045729358
67	0xbceadc39	-0.028669463
68	0x3ddfc3da	0.109260276
69	0xbcdd6378	-0.02702497
70	0xbd5b8c0c	-0.053600356
71	0xbc5a0b67	-0.013308383
72	0x3d9b2f5a	0.07577391
73	0xbd23617d	-0.039887894
74	0x3ce562aa	0.028001148
75	0xbd66f1df	-0.05638301
76	0xbdc8ead2	-0.098104134
77	0x3d0ad06e	0.03389018
78	0x3ca7f279	0.020501362
79	0x3d8b525b	0.068028174
80	0x3c8e0e63	0.017340844
81	0xbd99790d	-0.07493792
82	0xbda1ec55	-0.07906405
83	0xbdbacd08	-0.09121138
84	0x3dc5280f	0.09626781
85	0xbb3201a7	-0.002716163
86	0x3d5304a6	0.051518105
87	0xbd75c727	-0.06000438
88	0xbd9a1a69	-0.075245686
89	0x3d8fd7c6	0.070235774
90	0xbd7857ed	-0.060630728
91	0x3ce12dd3	0.027487671
92	0x3d883909	0.066515036
93	0xbcdf58e1	-0.02726406
94	0x3d01e6da	0.031714298
95	0xbce8abb5	-0.028402189
96	0xbc02b2d8	-0.00797721
97	0xbba1aba5	-0.0049337917
98	0xbce18dff	-0.02753353
99	0x3d51c9a0	0.051217675
100	0x3d851c58	0.06499547
101	0x3d963350	0.07334006
102	0xbd4dbc46	-0.05022838
103	0x3d10ebbb	0.03538106
104	0x3dcff1f0	0.10153568
105	0xbc67a0e6	-0.014137482
106	0x3d5299ef	0.051416334
107	0x3dd0940b	0.10184487
108	0xbd9d1b44	-0.07671216
109	0x3c1f4913	0.009722012
110	0xbd554f65	-0.05207767
111	0x3ced45c3	0.028963929
112	0x3d5eddc6	0.05441072
113	0xbd625298	-0.05525455
114	0xbd2bca03	-0.0419407
115	0x3db6a005	0.0891724
116	0xbced9e6a	-0.029006202
117	0x3d20fe86	0.039305232
118	0x3d343b6e	0.04400199
119	0xbd9bd903	-0.07609751
120	0xbd89a3f8	-0.06720728
121	0xbd6b74dd	-0.057484496
122	0xbcb857c2	-0.022502784
123	0xbd955174	-0.072909266
124	0xbc4c4bf1	-0.012469278
125	0x3c742973	0.01490246
126	0x3d528c37	0.05140325
127	0x3a475e5d	0.0007605309
128	0x3dadc0ab	0.08484014
129	0xbc914ef6	-0.017737847
130	0x3dd4bdb0	0.103877425
131	0xbd815463	-0.063149236
132	0x3d87d64f	0.06632673
133	0x3b1f7787	0.0024332718
134	0x3cc9a4ca	0.02461471
135	0xbdc49710	-0.095991254
136	0xbd2ac09b	-0.04168759
137	0xbd0170b2	-0.031601615
138	0x3d30ce09	0.04316524
139	0xbcf6a7f5	-0.030109385
140	0x3b25b0e8	0.0025282446
141	0xbd19e1cc	-0.037568852
142	0xbc64b882	-0.013960006
143	0xbdc67249	-0.09689767
144	0x3d158486	0.036503337
145	0xbd5cdcdb	-0.05392156
146	0xbdc9f16e	-0.09860502
147	0xbde0b778	-0.10972494
148	0xbd26f9c4	-0.04076554
149	0xbd33efeb	-0.043929975
150	0xbdb59e5c	-0.08868095
151	0x3da78c1f	0.08181023
152	0xbd0e7ee4	-0.03478898
153	0xbceb1159	-0.028694795
154	0xbc47b3a0	-0.012188822
155	0x3bd91083	0.006624283
156	0xbc2fd10c	-0.010730993
157	0x3d40b9e4	0.04705228
158	0x3c8be3fd	0.017076487
159	0x3c94a644	0.018145688
160	0xbab61d74	-0.0013894276
161	0x3d22e2e9	0.03976718
162	0xbdd81976	-0.10551731
163	0xbd675f5a	-0.05648742
164	0x3cf883ad	0.030336225
165	0xbcf891be	-0.030342933
166	0xbd0ea3c6	-0.034824155
167	0xbb40c271	-0.002941277
168	0xbc3a20ca	-0.011360357
169	0x3dd6e90c	0.10493669
170	0x3c83079c	0.01599484
171	0xbd100641	-0.035162214
172	0xbca826b6	-0.020526271
173	0x3d872be0	0.06600165
174	0xbda91305	-0.08255581
175	0xbd7d5ac9	-0.061854158
176	0xbd915ac5	-0.07097391
177	0xbd0e39eb	-0.034723204
178	0xbd9653f1	-0.07340229
179	0x3d5eb05b	0.054367404
180	0x3c3a1e58	0.011359774
181	0x3c11025b	0.008850659
182	0x3d86ac8c	0.065758795
183	0xbd3186aa	-0.043341316
184	0xbd829ab0	-0.063771605
185	0x3da77ed9	0.08178491
186	0x3d9f5654	0.07780138
187	0xbd8c762f	-0.06858479
188	0x3c075043	0.008258882
189	0xbcb5747b	-0.022150269
190	0xbcf353ef	-0.029703109
191	0xbc0872d6	-0.00832816
192	0x3c07d672	0.008290874
193	0xbcb04fd5	-0.021522442
194	0x3d6d5d5d	0.057950366
195	0xbd0d7224	-0.03453268
196	0x3d86af9d	0.06576464
197	0xbd95f8f9	-0.073228784
198	0xbd07d636	-0.03316327
199	0x3d5eda74	0.054407552
200	0xbccb7bf4	-0.024839379
201	0xbd6da76e	-0.058021
202	0xbd15f59c	-0.036611184
203	0x3d91b926	0.071153924
204	0x3cf4350c	0.029810451
205	0x3ceaa214	0.028641738
206	0xbd936fcb	-0.07199057
207	0xbccca1a8	-0.024979427
208	0xbd887c25	-0.06664304
209	0xbd91eef7	-0.07125657
210	0xbd07875d	-0.033088077
211	0xbd7c82b4	-0.061648086
212	0xbb9907e5	-0.0046701306
213	0xbd0c8a58	-0.034311622
214	0x3d4ec64e	0.050482087
215	0x3d3e0c07	0.04639819
216	0xbc805620	-0.015666068
217	0x3ddace2a	0.10683854
218	0x3c3c0ff6	0.011478415
219	0xbd2fe97f	-0.04294729
220	0x3d221121	0.039567117
221	0xbd438bac	-0.047740623
222	0xbc07ea8c	-0.008295666
223	0xbda84004	-0.08215335
224	0xbd665b56	-0.05623945
225	0x3d2fac48	0.04288891
226	0xbd228e5d	-0.03968655
227	0x3d31914d	0.04335146
228	0xbd2508bf	-0.040291544
229	0xbd758d7b	-0.05994938
230	0xbdb20c74	-0.086937815
231	0x3d4d7a1c	0.05016528
232	0x3de47bb0	0.11156404
233	0x3c337008	0.010952003
234	0x3d611794	0.054954126
235	0xbd051628	-0.032491833
236	0x3da67621	0.08128
237	0x38eeed65	0.000113929425
238	0xbdd458d2	-0.10368504
239	0x3d72d3d4	0.059284046
240	0xbcf3c3d5	-0.029756466
241	0x3cc41cd8	0.023939535
242	0xbd3c71da	-0.046007015
243	0x3c34ab06	0.011027103
244	0xbc0fc20a	-0.00877429
245	0xbca053c3	-0.01957119
246	0x3c3beded	0.0114703
247	0xbd6180e1	-0.05505455
248	0x3ae4e2aa	0.0017462571
249	0x3c805efd	0.015670294
250	0x3d5cbecd	0.0538929
251	0x3d150646	0.036382936
252	0xbd7d1215	-0.061784822
253	0x3c644c2d	0.013934177
254	0xbc46dee5	-0.012138103
255	0xbc6d84f9	-0.014497035

lstm.bias_ih_l0 f4 [512]
0	0x3d02eba7	0.031963017
1	0x3d1be879	0.0380635
2	0xbc9a2136	-0.018814664
3	0x3d841dee	0.06451021
4	0x3d1e3837	0.03862783
5	0x3d86ce03	0.06582262
6	0x3c5686cf	0.013093664
7	0xbc6f845e	-0.014618961
8	0xbcac5cac	-0.021040283
9	0xbd414477	-0.047184434
10	0xbd17ab5a	-0.037028648
11	0xbcedade3	-0.02901358
12	0x3d881db4	0.066462904
13	0x3d82761a	0.06370182
14	0x3cb4c966	0.02206869
15	0x3da7710c	0.08175859
16	0x3c5040ef	0.012710794
17	0x3d260541	0.040532354
18	0x3cd53d41	0.026030185
19	0xbc68b512	-0.014203327
20	0xbd4a0c51	-0.049328152
21	0xbc22abbf	-0.009928643
22	0x3d5336a3	0.051565778
23	0xbcfdf48a	-0.031000394
24	0xbd6f66a7	-0.058447506
25	0x3ceca08b	0.028885147
26	0x3d2c771e	0.042105787
27	0x3cac05a5	0.020998785
28	0xbd55f810	-0.052238524
29	0x3d42a9d7	0.047525253
30	0xbd02bd31	-0.03191871
31	0x3cfa850c	0.03058102
32	0xbc820be4	-0.01587481
33	0x3dd66910	0.10469258
34	0x3cec85ea	0.028872449
35	0xbcdef5a6	-0.027216744
36	0x3dd190c0	0.10232687
37	0xbd40405b	-0.046936374
38	0x3d2160f6	0.03939911
39	0xbce3cdc7	-0.027808083
40	0x3d0d36ce	0.034476094
41	0x3df1ced3	0.11807027
42	0x3aedf10a	0.00181535
43	0x3d253e5b	0.04034267
44	0x3db58544	0.08863309
45	0xbce22922	-0.027607504
46	0x3da9999b	0.08281251
47	0xbc25dae7	-0.010122991
48	0xbcd5a33c	-0.026078813
49	0x3cd5fb23	0.026120728
50	0x3c85ae3c	0.016318433
51	0xbd8267d7	-0.06367462
52	0x3b74bf91	0.0037345628
53	0x3a207106	0.00061203574
54	0xbc041bee	-0.0080633
55	0x3df071f5	0.117404856
56	0xbcc6da5a	-0.02427404
57	0xbd1ab374	-0.037768796
58	0x3daa5702	0.08317377
59	0x3d227661	0.039663676
60	0x3dca3fa2	0.09875418
61	0xbbaef362	-0.005339072
62	0xbca4ad3a	-0.020102132
63	0xbd52e57e	-0.051488392
64	0x3d0827a4	0.03324093
65	0x3dcfcc01	0.101463325
66	0x3cde6bb8	0.027150974
67	0xbd6fbe43	-0.058531057
68	0xba4590bf	-0.00075365225
69	0x3dcbbc7c	0.0994806
70	0xbb2294f9	-0.0024808033
71	0x3dd793be	0.105262265
72	0x3d38aeed	0.045088697
73	0xbd29a5c8	-0.041417867
74	0xbd4baee2	-0.049727328
75	0x3d6ad5f5	0.05733295
76	0x3cb81b95	0.02247409
77	0x3b2b94fd	0.0026181333
78	0x3b0ceaac	0.002150218
79	0xbbe5ecc5	-0.0070167505
80	0x3e048016	0.12939486
81	0xbd8dff22	-0.06933428
82	0x3d6a9a25	0.05727591
83	0xbd396562	-0.0452627
84	0xbc20aef8	-0.009807341
85	0x3d9ec93e	0.07753228
86	0xbc04e039	-0.0081100995
87	0xbc53c8d5	-0.0129263
88	0xbc8b64fe	-0.01701593
89	0x3c94d907	0.018169893
90	0xbcafca04	-0.021458633
91	0x3da1061b	0.07862493
92	0x3d62ad12	0.055340834
93	0x3c429d61	0.011878342
94	0xbd81c12b	-0.06335672
95	0xbd826783	-0.063673995
96	0x3ddb15a9	0.10697491
97	0x3d54652c	0.051854298
98	0x3d986d7b	0.07442757
99	0x3d8269ab	0.06367811
100	0xbd65da58	-0.056116432
101	0xbcdaef75	-0.02672551
102	0xbc6cca50	-0.014452532
103	0x3dad5daf	0.08465134
104	0x3cd6d546	0.026224744
105	0xbadb7138	-0.0016742116
106	0x3dd90656	0.105969116
107	0xbc8c055b	-0.017092397
108	0xbc1bf045	-0.009517734
109	0xbc21b01f	-0.009868651
110	0x3daf2a8c	0.08553037
111	0x3db88b3e	0.09010933
112	0xbd467f9e	-0.04846155
113	0xbd1550d7	-0.036454048
114	0x3dd0ead6	0.102010414
115	0x3da31272	0.079625025
116	0x3cb3df7c	0.021957152
117	0xbd4328bb	-0.047646265
118	0xbd5d7836	-0.05406972
119	0x3da2ce22	0.07949473
120	0xbd8a9123	-0.06765964
121	0xbc6ecd41	-0.0145753035
122	0x3dc82df9	0.097743936
123	0xbd29451f	-0.041325685
124	0x3de533ab	0.111914955
125	0xbcd27de5	-0.025694797
126	0x3d079d83	0.0331092
127	0x3d97ede0	0.07418418
128	0xbc306cd8	-0.010768138
129	0xbd4b1f41	-0.049590353
130	0x3d7e54f4	0.062092736
131	0x3d303e9e	0.043028466
132	0x3d42b8e3	0.047539603
133	0x3d434ed6	0.047682606
134	0x3d29eacd	0.04148369
135	0x3b0b17dd	0.002122394
136	0xbcf72964	-0.030171104
137	0xbd63e45e	-0.05563771
138	0xbd8d1ee3	-0.06890657
139	0xbd6d54ef	-0.057942327
140	0x3c15d02e	0.009143872
141	0x3da99862	0.08281018
142	0x3c9cc584	0.019137152
143	0x3d1c3ad3	0.038142037
144	0xbb1b6871	-0.0023713375
145	0x3ccadc6d	0.02476331
146	0x3d71c6f7	0.05902764
147	0xbd6d42fe	-0.057925217
148	0x3d9c727e	0.07639025
149	0x3d90f11b	0.07077237
150	0xbd15a772	-0.03653664
151	0x3d9a8619	0.07545108
152	0x3c17173e	0.00922185
153	0x3d85ede2	0.06539513
154	0xbd95fc19	-0.073234744
155	0x3d68a90c	0.05680184
156	0x3db8cebf	0.09023809
157	0x3d27f0a6	0.041000985
158	0xbd88e7e2	-0.06684853
159	0x3d628441	0.05530191
160	0x3d881a2a	0.066456154
161	0x3d47c834	0.048774913
162	0x3d5bab2e	0.053630047
163	0xbd4c33f5	-0.049854238
164	0x3db70f41	0.08938456
165	0x3db51106	0.088411376
166	0xbb9fd555	-0.004877726
167	0x3c96c3ee	0.018403973
168	0x3a0469e1	0.00050511776
169	0x3d9d55ef	0.07682406
170	0x3c6e03e4	0.014527295
171	0xbc094bf0	-0.008379921
172	0x3da0a2f6	0.07843582
173	0x3d49a787	0.049232032
174	0x3d11b1da	0.035570003
175	0xbd9483b0	-0.0725168
176	0x3d5b801f	0.053588983
177	0xbaeb2742	-0.0017940777
178	0xbc96802a	-0.01837166
179	0x3d9d3333	0.07675781
180	0xbc9fe7c7	-0.0195197
181	0x3dbe8d25	0.09304265
182	0xbd18be23	-0.037290704
183	0x3d295796	0.041343294
184	0x3c19fa70	0.009398088
185	0x3dbab9ab	0.091174446
186	0xbd47f477	-0.048817124
187	0xbd3e3140	-0.046433687
188	0x3d4dd1a2	0.05024875
189	0x3be679c6	0.0070335595
190	0x3dba99bf	0.09111356
191	0x3d0e7f76	0.034789525
192	0x39b35f16	0.00034212385
193	0xbc8b743d	-0.0170232
194	0xbd1ab05b	-0.037765842
195	0x3ccdec6a	0.025137145
196	0xbd6df07c	-0.058090672
197	0x3d8e5d3f	0.06951379
198	0x3db34cd0	0.08754885
199	0x3c800291	0.015626224
200	0x3d743497	0.059620466
201	0xbd1e62cc	-0.03866844
202	0x3dad2ed6	0.08456199
203	0xbd2fc939	-0.04291651
204	0x3de0246f	0.10944449
205	0x3c0fff3c	0.00878888
206	0x3dab6f0e	0.083707914
207	0xbd9d4068	-0.076783
208	0xbd76c72a	-0.06024853
209	0x3c654785	0.013994102
210	0x3d2a5e55	0.04159387
211	0x3d5617dd	0.05226885
212	0xba1dbd23	-0.0006017258
213	0x3d7fd293	0.06245668
214	0xbbbac95e	-0.0057002744
215	0xbd993d80	-0.07482433
216	0xbb07e92d	-0.0020738349
217	0xbd0f0774	-0.034919217
218	0xbd4371a5	-0.0477158
219	0xbc906143	-0.017624503
220	0xbda888cb	-0.08229216
221	0x3cad4515	0.021151105
222	0xbd88ac15	-0.06673447
223	0xbca962a5	-0.02067692
224	0x3d867fe3	0.06567361
225	0x3d6f8c17	0.05848321
226	0xbb0d04c0	-0.0021517724
227	0x3d5bb937	0.05364343
228	0x3d37db99	0.04488716
229	0x3cf6ea2a	0.030140955
230	0xbcafbbfd	-0.021451944
231	0xbcc9e950	-0.024647385
232	0x3d775a66	0.060388945
233	0xbcce5544	-0.025187142
234	0xbd996ff1	-0.07492054
235	0x3da6eae4	0.081502706
236	0xbce573c9	-0.028009312
237	0xbd0332d2	-0.032030888
238	0x3c30c1d7	0.0107884025
239	0xbb71f57a	-0.0036919997
240	0xbd37f7d7	-0.044914093
241	0xbd6c8a99	-0.057749365
242	0xbcc7bd6a	-0.024382312
243	0xbc9882ce	-0.01861706
244	0x3d4f611f	0.05062973
245	0xbd80c2f4	-0.06287184
246	0xbd20ac1f	-0.039226647
247	0x3bec06ef	0.007202975
248	0x3cd96ef8	0.026542172
249	0xbd0f729f	-0.03502142
250	0x3d8e9372	0.06961717
251	0x3db1026f	0.08643042
252	0x3d6b7992	0.057488985
253	0x3d025618	0.031820387
254	0xba393cf0	-0.00070662703
255	0x3ceb8b67	0.028752996

lstm.bias_hh_l0 f4 [512]
0	0x3d55270a	0.052039184
1	0x3daa029b	0.08301278
2	0x3d687f8a	0.056762256
3	0x3d97a757	0.074049644
4	0x3d0b64b1	0.034031574
5	0xbc98abbf	-0.018636582
6	0x3d7ced60	0.061749816
7	0x3d81412e	0.0631126
8	0x3c74a68c	0.014932286
9	0x3d596b1a	0.053080656
10	0x3ae497be	0.0017440242
11	0x3d13b73b	0.036063414
12	0xbd29843b	-0.04138587
13	0x3dd37057	0.103241615
14	0xbd328373	-0.04358239
15	0x3d804a7e	0.06264208
16	0xbd7440e2	-0.05963219
17	0x3d424dbe	0.047437422
18	0x3a70d1a2	0.0009186511
19	0xbd192df8	-0.037397355
20	0x3db166d0	0.08662188
21	0xbd2493b4	-0.040179923
22	0xbbf92ce7	-0.0076042297
23	0x3d9cd13c	0.07657096
24	0x3dceb560	0.10093188
25	0xbc1bd502	-0.009511234
26	0xbd447624	-0.04796423
27	0xbcb32a70	-0.021870822
28	0xbce1dbde	-0.027570661
29	0xbd3896a4	-0.045065537
30	0x3da0dcad	0.078545906
31	0x3da6eec4	0.0815101
32	0xbd4d8088	-0.050171405
33	0x3d941588	0.07230669
34	0xbc45202d	-0.012031597
35	0xbb3d0ce2	-0.002884679
36	0xbcdd8847	-0.027042521
37	0x3d8edf38	0.06976169
38	0x3b50cafd	0.0031859272
39	0x3d96b910	0.073595166
40	0x3cf0c3c0	0.029390216
41	0x3d9d4db4	0.07680836
42	0x3dc15d9d	0.094416834
43	0xbc8ceb21	-0.017201962
44	0xbd0bcb52	-0.03412945
45	0x3dceda07	0.10100179
46	0x3d90594f	0.07048284
47	0xbd89fae7	-0.06737309
48	0x3d8f3f71	0.06994522
49	0x3d3cfacc	0.046137616
50	0xbbd5f2ca	-0.006529187
51	0x3c820436	0.015871149
52	0xbca4f9e8	-0.020138696
53	0x3d00fcad	0.03149097
54	0x3db8ec91	0.090294965
55	0x3c21622d	0.009850067
56	0x3c37c62e	0.011216683
57	0xb82888e1	-4.01818e-05
58	0x3d974976	0.073870584
59	0x3c3290c7	0.010898775
60	0x3d2ba715	0.04190739
61	0xbd1ffd2c	-0.039059803
62	0x3dadc5f6	0.08485024
63	0x3a78c49f	0.0009489748
64	0xbbb2ebe0	-0.0054602474
65	0x3d63b093	0.055588316
66	0x3de235fe	0.110454544
67	0xbcafd584	-0.021464117
68	0x3d8f8f04	0.070097
69	0x3ba850cc	0.005136585
70	0x3c420148	0.011841126
71	0xbcdf896e	-0.027287211
72	0x3d7ad42f	0.06123751
73	0x3dd77ada	0.10521479
74	0xbd61ee44	-0.05515887
75	0x3d49c713	0.049262118
76	0x3db51b23	0.088430665
77	0xbd091868	-0.03347054
78	0xbd0b049f	-0.033939954
79	0xbd9648f1	-0.07338131
80	0x3d78b408	0.060718566
81	0x3a254b45	0.00063054665
82	0xbcff8875	-0.031192997
83	0x3dd6a66a	0.1048096
84	0x3d8e866c	0.06959233
85	0x3da9414c	0.082644075
86	0xbd181de3	-0.037137877
87	0xbd935900	-0.0719471
88	0x3db2c14b	0.08728274
89	0xbd2278b4	-0.039665893
90	0x3c553007	0.013011939
91	0xbd54bcac	-0.051937744
92	0x3d885e46	0.06658606
93	0x3dc35a75	0.09538738
94	0xbd492d78	-0.049115628
95	0xbd13d983	-0.036096107
96	0xbc74e1df	-0.01494643
97	0xbd3d0625	-0.046148438
98	0x3d994420	0.07483697
99	0x3dde8044	0.108643085
100	0x3d9d444e	0.07679044
101	0x3bdacc4f	0.0066771875
102	0xbd8c681a	-0.06855793
103	0x3d29d03e	0.04145836
104	0x3db93744	0.09043744
105	0x3ddfc1e8	0.109256566
106	0x3d8dbb17	0.0692045
107	0xbb9e1c14	-0.0048251245
108	0x3d601eb3	0.054716777
109	0xbd5ced3a	-0.053937174
110	0xbd008557	-0.031377163
111	0xbd1cb7a4	-0.03826107
112	0xbcb9739f	-0.02263814
113	0xba389a7e	-0.0007042064
114	0xbd26fb6a	-0.04076711
115	0x3cb8c498	0.02255468
116	0x3cd58002	0.026062015
117	0x3d92ba68	0.071644604
118	0xbd05ddab	-0.032682102
119	0x3c181f3a	0.009284789
120	0x3bd20b46	0.0064100353
121	0xbd3a2f33	-0.04545517
122	0xbd4edb11	-0.050501887
123	0xbcbb0176	-0.022827845
124	0x3d25bb77	0.040461984
125	0x3d003e83	0.031309616
126	0xbd7c03d6	-0.061527096
127	0xbd2498d7	-0.040184822
128	0x3d339d69	0.04385129
129	0x3ccf74d5	0.025324265
130	0x3cc6a9e6	0.024250936
131	0x3cd34adb	0.02579253
132	0x3db3643a	0.08759351
133	0x3d64042f	0.055668052
134	0xbd81ff25	-0.06347493
135	0xbccbfb99	-0.024900245
136	0xbb74c968	-0.0037351493
137	0x3c489c42	0.012244286
138	0x3c070488	0.008240826
139	0xbd032268	-0.032015234
140	0xbd9a6742	-0.07539226
141	0x3d4ed3b8	0.05049488
142	0xbd8dbd7d	-0.06920908
143	0xbd30c5bc	-0.043157324
144	0xbd52a7bd	-0.0514295
145	0x3c87f62b	0.016596874
146	0x3cc67213	0.024224317
147	0xbd54a58c	-0.05191569
148	0xbc9583f1	-0.018251391
149	0x3d720e50	0.05909568
150	0x3ddcbe81	0.10778523
151	0x3bca5cd1	0.0061756154
152	0xbd7e8f8e	-0.062148623
153	0xbd0952c0	-0.033526182
154	0x3c85a6f9	0.01631497
155	0x3db39c41	0.087700374
156	0xbcececc0	-0.028921485
157	0xbd5c6633	-0.053808402
158	0xbcb79ebb	-0.022414556
159	0x3da2494e	0.07924138
160	0x3dbebdf5	0.09313575
161	0xbd3a0672	-0.045416303
162	0xbd7dc0c4	-0.061951414
163	0x3d6b3aea	0.05742923
164	0x3dbfbd77	0.093623094
165	0xbc6acfcc	-0.014331769
166	0x3d167564	0.036733046
167	0x3d26c6c6	0.04071691
168	0x3d15b7cf	0.036552247
169	0x3d50e2ff	0.05099773
170	0xbc1c9a60	-0.00955829
171	0x3d68914b	0.056779187
172	0xbd8040ce	-0.062623605
173	0xbd716a46	-0.05893924
174	0x3cf71330	0.030160517
175	0xb8aed389	-8.336368e-05
176	0xbcc2fb19	-0.023801373
177	0x3d75b77b	0.059989434
178	0xbc620ee2	-0.013797494
179	0x3d005f47	0.031340864
180	0xbd032fc0	-0.03202796
181	0x3dc1fd83	0.09472182
182	0x3d80b5ad	0.06284652
183	0x3ddd0679	0.1079225
184	0x3b913c7a	0.004432258
185	0x3da9ae3b	0.08285185
186	0xbd251c96	-0.040310465
187	0x3d480c80	0.048840046
188	0xbc8272fa	-0.015923966
189	0x3da96ec2	0.082730785
190	0xbd38d2c1	-0.045122866
191	0x3d4a4671	0.049383584
192	0x3caf7c90	0.0214217
193	0xbcd97cba	-0.026548732
194	0x3db701a9	0.089358635
195	0x3c42120e	0.011845125
196	0xbd220607	-0.03955653
197	0x3bc23679	0.005926904
198	0x3d1fc7f1	0.03900904
199	0x3d04f2ea	0.032458223
200	0x3d575ec1	0.0525806
201	0x3d536948	0.051614076
202	0x3da71596	0.08158414
203	0x3db95640	0.09049654
204	0x3dbdb6df	0.092633955
205	0xbd5c243d	-0.053745497
206	0x3cb04fc7	0.021522416
207	0xbd8f5af0	-0.06999767
208	0x3d83cf51	0.06436027
209	0x3db84043	0.08996632
210	0xbd6c39e7	-0.057672407
211	0xbcf88be2	-0.030340139
212	0x3d4cd2b9	0.05000565
213	0x3db9e47b	0.09076782
214	0x3da86fa7	0.08224421
215	0x3d7c6812	0.061622687
216	0x3c11d79c	0.008901503
217	0x3d810ce9	0.063012905
218	0xbd6f634c	-0.058444306
219	0xbd45e6f5	-0.04831596
220	0xbcb7dc58	-0.022443935
221	0xbd770c91	-0.06031472
222	0x3c0a0ad6	0.008425435
223	0xbd2ccfed	-0.04219048
224	0x3db2cc75	0.08730403
225	0x3d7e11ef	0.06202882
226	0x3ddeed6f	0.108851306
227	0xbca8a712	-0.020587478
228	0x3d8924f7	0.066965036
229	0x3d9acc6b	0.07558521
230	0xbd60e8f9	-0.05490968
231	0x3dbda56d	0.09260068
232	0xbc1759e9	-0.009237745
233	0xbb27e49f	-0.0025618447
234	0x3da910ea	0.08255179
235	0x3dad9537	0.08475726
236	0xbd58d3f9	-0.052936528
237	0x3c7fe6f8	0.015619032
238	0xbc3048f6	-0.010759583
239	0xbd738156	-0.059449516
240	0xbdac6887	-0.084183745
241	0xbd47168a	-0.04860548
242	0x3d785b4f	0.060633954
243	0xbd496393	-0.049167227
244	0x3ca649ae	0.020298805
245	0xbd4c01aa	-0.049806274
246	0xbc465ffb	-0.012107844
247	0xbc244301	-0.010025741
248	0x3d9687d7	0.07350128
249	0xbd23c901	-0.039986614
250	0xbc26c657	-0.010179124
251	0x3d373030	0.04472369
252	0x3da46b05	0.08028225
253	0xbd5fce43	-0.054640066
254	0xbd13730e	-0.035998397
255	0x3d6b5ee3	0.057463538

mlp_head.0.weight f4 [64, 128]
0	0xbd398b7a	-0.04529903
1	0xbdb7d4b5	-0.089761175
2	0xbde673cc	-0.11252555
3	0x3d05a35c	0.032626495
4	0x3d66b940	0.056329012
5	0x3b567936	0.0032726056
6	0x3dd0b896	0.10191457
7	0xbcca22d3	-0.024674809
8	0x3d95b7f4	0.07310477
9	0xbcdabf40	-0.026702523
10	0xbda424b5	-0.08014814
11	0xbdc1d41c	-0.09464285
12	0xbbcee8b7	-0.006314363
13	0x3d9e979d	0.07743762
14	0xbd622436	-0.055210315
15	0x3d88fc94	0.066888005
16	0x3da483e7	0.08032971
17	0xbcfae806	-0.030628216
18	0x3a49713d	0.00076844153
19	0x3dd49c59	0.103813834
20	0xbd8987ab	-0.0671533
21	0x3d8cc939	0.06874318
22	0xbd55849c	-0.05212842
23	0xbd24c071	-0.04022259
24	0x3db980a1	0.09057737
25	0x3d7e048b	0.06201605
26	0xbd5b005c	-0.05346714
27	0x3ca7d44c	0.020486973
28	0xbd831ead	-0.06402335
29	0x3d7dfb17	0.062007036
30	0xbd968b7d	-0.07350824
31	0x3d0ee877	0.034889665
32	0xbdb83a59	-0.08995504
33	0xbda81826	-0.08207731
34	0xbae2b51c	-0.0017296406
35	0xbd38dde3	-0.045133483
36	0xbc76f98d	-0.015074146
37	0xbd9dd30d	-0.0770627
38	0xbd1441cb	-0.036195558
39	0x3c86380a	0.016384143
40	0x3aa02524	0.00122181
41	0xbcfd8d24	-0.03095109
42	0xbd094294	-0.03351076
43	0xbd8029d8	-0.06257981
44	0xbd1203a9	-0.03564802
45	0x3d77fcc4	0.06054379
46	0x3d0329dd	0.032022346
47	0x3bcdf949	0.0062858206
48	0xbc355880	-0.011068463
49	0x3d48ee6e	0.04905551
50	0x3d253d99	0.040341947
51	0x3cb6d136	0.022316556
52	0xbc479f00	-0.012183905
53	0x3c00f828	0.007871665
54	0xbc9f83d2	-0.019472037
55	0x3d577e05	0.052610416
56	0xbd44b0e3	-0.048020255
57	0xbc899f2e	-0.016799536
58	0xbdc182c3	-0.09448769
59	0x3ced431d	0.028962666
60	0xbd66572d	-0.05623548
61	0x3c413de3	0.01179454
62	0xbdab7773	-0.083723925
63	0x3d8ee9c1	0.06978179
64	0x3d3508bb	0.04419778
65	0x3c015d17	0.0078957295
66	0x3b3cf395	0.002883171
67	0xbd8796d8	-0.06620568
68	0x3caded56	0.021231335
69	0x3d8a2512	0.06745352
70	0x3d81d125	0.06338719
71	0x3cb03a1d	0.021512086
72	0xbc2dcd67	-0.010608054
73	0x3d8a6408	0.06757361
74	0x3d152f57	0.0364221
75	0x3d72a4ea	0.059239306
76	0x3d272775	0.040809114
77	0xbbde3996	-0.006781767
78	0xbd71016f	-0.058839258
79	0xbd8cae30	-0.06869161
80	0xbd5c763e	-0.053823702
81	0x3d30994d	0.04311495
82	0x3d837820	0.064193964
83	0x3dabf6e8	0.08396703
84	0xbd8c9357	-0.0686404
85	0xbcd5bcf1	-0.02609107
86	0x3c8146a6	0.015780758
87	0x3d5170f7	0.051133122
88	0x3d8548c2	0.06508018
89	0x3d4e4e28	0.050367504
90	0xbd4b3bfe	-0.04961776
91	0xbd5fb45e	-0.05461537
92	0x3be02b91	0.006841131
93	0xbd87e25c	-0.066349715
94	0xbd9bc42e	-0.07605778
95	0xbcd004f8	-0.025392994
96	0x3dc31546	0.09525542
97	0xbdb25b3f	-0.0870881
98	0x3cf7699d	0.030201728
99	0x3ca74301	0.020417692
100	0xbc59919c	-0.013279345
101	0xbd333364	-0.04375018
102	0xbd6ad950	-0.05733615
103	0xbd8290cc	-0.06375274
104	0x3c275dcf	0.010215237
105	0xbdac3a67	-0.08409577
106	0xbd82d153	-0.06387582
107	0xbd2c4ce3	-0.042065512
108	0x3b8633ae	0.004095516
109	0x3daba91f	0.08381867
110	0x3c258ba5	0.010104095
111	0x3d51a764	0.051185027
112	0x3d8ae817	0.06782549
113	0xbd8b8459	-0.06812353
114	0xbdc6211d	-0.096742846
115	0x3d8af23d	0.067844845
116	0xbcd01b8a	-0.025403757
117	0xbd430bbd	-0.047618616
118	0x3cec3bf6	0.028837185
119	0x3dc280b4	0.094972044
120	0xbdb14bf8	-0.08657068
121	0xbdae1298	-0.0849964
122	0xbd179b0b	-0.037013095
123	0xbd11cbed	-0.03559487
124	0x3da824e3	0.082101606
125	0xbd3d9731	-0.046286765
126	0xbda809ce	-0.08204995
127	0x3db06104	0.08612254
128	0xbd9301fa	-0.071781114
129	0x3b8bedc2	0.0042702863
130	0x3c7c36f8	0.015393965
131	0xba061a71	-0.00051156344
132	0xbd0c2abf	-0.034220453
133	0x3d8f4aa3	0.06996658
134	0x3c72459a	0.014787102
135	0xbd09bd96	-0.03362807
136	0xbd008acb	-0.031382363
137	0xbce0b991	-0.027432235
138	0x3d993594	0.07480922
139	0x3d961419	0.07328052
140	0x3c98b8b2	0.018642757
141	0x3d355a78	0.04427573
142	0x3d78561b	0.06062899
143	0x3ce396e6	0.027781915
144	0x3d3516a3	0.04421104
145	0xbd4d4e8e	-0.050123744
146	0x3d84dc81	0.0648737
147	0xbc1c80fd	-0.009552238
148	0xbc11b8c6	-0.008894151
149	0xbbf4228e	-0.0074504083
150	0x3d9c379f	0.076277964
151	0x3dd83856	0.1055762
152	0x3dc73f07	0.097288184
153	0xbd82a2e1	-0.06378723
154	0x3da8ab4c	0.08235797
155	0xbd852736	-0.065016195
156	0xbc19232e	-0.009346766
157	0xbd994359	-0.07483549
158	0x3d0490ce	0.03236466
159	0xbda71368	-0.08157998
160	0xbd48d669	-0.049032602
161	0x3c8fcf3f	0.017554877
162	0x3d39ccd5	0.04536136
163	0x3d4d017d	0.050050247
164	0x3d9b744a	0.0759054
165	0x3d3f8461	0.046757106
166	0xbcf4c837	-0.029880626
167	0xbd3c3c54	-0.04595597
168	0xbdcc5ae1	-0.09978271
169	0xbca65569	-0.020304399
170	0xbd85b15d	-0.0652797
171	0x3c961483	0.018320328
172	0x3d8023b6	0.06256811
173	0x3c483bf3	0.012221324
174	0xbdc04f59	-0.09390134
175	0xbc7ca882	-0.015421035
176	0xbcf8ee5e	-0.0303871
177	0xbc7e98ea	-0.015539387
178	0x3c7975c3	0.0152258305
179	0x3d05b1ef	0.032640394
180	0xbd311f36	-0.043242656
181	0x3d262af7	0.04056832
182	0xbca546c1	-0.02017534
183	0xbcc4adb2	-0.024008606
184	0x3b98b3f0	0.004660122
185	0x3cf6f6ae	0.030146923
186	0x3d798ddc	0.060926303
187	0x3d2eb70b	0.042655032
188	0xbdb4b4d3	-0.08823552
189	0xbd04adc3	-0.032392275
190	0xbca5f926	-0.020260405
191	0xbd8404fd	-0.06446264
192	0xbd61cb47	-0.0551255
193	0x3d114f7b	0.03547619
194	0x3d134320	0.035952687
195	0xba858f22	-0.0010189752
196	0x3bc9391d	0.0061408416
197	0x3c1f3795	0.009717842
198	0xbd865668	-0.065594494
199	0xbda394fc	-0.07987401
200	0x3c09d088	0.008411534
201	0xbd158113	-0.036500048
202	0x3dd21d9f	0.10259556
203	0xbd272c71	-0.040813867
204	0xbbc62519	-0.006046903
205	0xbd1f9687	-0.038961913
206	0xbd61095c	-0.054940566
207	0xbcf6f902	-0.030148033
208	0xbc5c57fb	-0.013448711
209	0x3d9b1d0d	0.075739
210	0x3db0557e	0.08610056
211	0xbd7cf880	-0.061760426
212	0x3d8b9434	0.06815377
213	0xbd1af85b	-0.037834506
214	0xbd78d73f	-0.06075215
215	0x3d86d9d6	0.06584518
216	0x3cb50247	0.022095812
217	0xbbc06f46	-0.00587264
218	0x3d6a5778	0.057212323
219	0xbdc00a21	-0.09376932
220	0xbd0b2918	-0.033974737
221	0x3c3d09d2	0.011537986
222	0xbd579b79	-0.052638505
223	0xbd2f9d50	-0.042874634
224	0x3d08f864	0.03344001
225	0xbdae80ce	-0.08520661
226	0x3d11ee97	0.035627928
227	0xbbb475c9	-0.005507205
228	0xbc290271	-0.0103155235
229	0xbd844658	-0.064587295
230	0xbcb33c62	-0.021879379
231	0x3d820dac	0.06350264
232	0xbc8b25b4	-0.016985752
233	0xbd1e9c5d	-0.03872334
234	0x3c08cee9	0.0083501125
235	0xbc3eaf9f	-0.011638551
236	0xbd5877e2	-0.052848704
237	0x3cbfa09b	0.023392012
238	0x3cc6ef89	0.024284141
239	0x3d2d549b	0.042317014
240	0xbcb583a9	-0.022157507
241	0xbd005d44	-0.031338945
242	0x3d83ddd6	0.06438796
243	0x3bfa706c	0.0076427963
244	0xbcbf5e99	-0.023360537
245	0xbc872eb6	-0.016501766
246	0xbd5a53f9	-0.05330274
247	0xbcc59914	-0.024120845
248	0x3d5c5fa2	0.05380214
249	0x3d10e506	0.035374664
250	0x3d46e27a	0.04855583
251	0xbc3dd2e0	-0.011585921
252	0x3b4b6f8b	0.0031041827
253	0x3d3fb93b	0.04680751
254	0x3d8b5c91	0.06804765
255	0x3d979c10	0.074028134

mlp_head.0.bias f4 [64]
0	0xbd827229	-0.063694306
1	0x3d00427b	0.0313134
2	0x3b249006	0.0025110259
3	0x3dafbe58	0.08581227
4	0xbd27df8b	-0.04098467
5	0xbd223155	-0.039597828
6	0x3cdaabe1	0.026693286
7	0x3dc26251	0.094914086
8	0x3dc06bdb	0.09395572
9	0xbaf24e18	-0.0018486409
10	0xbd2e8ea1	-0.04261649
11	0x3d955790	0.07292092
12	0xbc93dbd6	-0.018049162
13	0x3dd29df2	0.10284032
14	0x3ca4b914	0.020107783
15	0x3d7307a4	0.05933346
16	0x3d78b358	0.06071791
17	0x3d14c7d8	0.0363234
18	0x3c8ac792	0.016940866
19	0x3d397795	0.045280058
20	0x3dc79160	0.09744525
21	0x3d59fede	0.053221576
22	0x3d271162	0.040788062
23	0x3d7d7f7a	0.06188915
24	0x3db7780d	0.08958445
25	0xbd9437c6	-0.072372004
26	0x3d61904e	0.05506926
27	0xbd555dd8	-0.05209145
28	0x3db984ee	0.090585575
29	0xbd6fe6d3	-0.05856974
30	0xbd16aa7f	-0.03678369
31	0x3da94156	0.08264415
32	0x3d12acc5	0.035809297
33	0xbd75e3f5	-0.06003185
34	0x3db16d78	0.08663458
35	0x3dc5711f	0.09640717
36	0x3d4f0f70	0.05055183
37	0xbd43876a	-0.047736563
38	0xbd38eeb9	-0.04514954
39	0xbc2c4ac2	-0.0105158705
40	0x3bd48f85	0.0064868354
41	0xbc9a1ed9	-0.018813537
42	0x3b8ab394	0.004232833
43	0x3d735279	0.059404824
44	0x3d2c2d68	0.04203549
45	0x3dc1015f	0.0942409
46	0x3d8ca03c	0.068665
47	0xbbc04142	-0.0058671543
48	0x3ce2a790	0.02766779
49	0x3cd4d2bb	0.02597939
50	0x3dc65465	0.09684066
51	0xbce755a2	-0.028239075
52	0x3bfb11ed	0.007662049
53	0x3d804b9c	0.06264421
54	0x3d308555	0.043095905
55	0xbb96bcd9	-0.004600149
56	0xbd8e80d5	-0.069581665
57	0xbd63fb0b	-0.055659335
58	0x3d76d5cb	0.060262483
59	0x3d4f5014	0.050613478
60	0x3dcc89b8	0.09987205
61	0xbd7679f0	-0.060174882
62	0x3d97e75e	0.07417177
63	0x3daf28a0	0.085526705

mlp_head.2.weight f4 [64, 64]
0	0xbd93b5e0	-0.07212424
1	0xbdec31f9	-0.11532969
2	0x3dd16166	0.102236554
3	0x3d8a0267	0.067387395
4	0x3dad3fa3	0.08459403
5	0x3da728d6	0.08162086
6	0x3e033201	0.12812044
7	0x3d6579dc	0.056024417
8	0x3d6055fb	0.054769497
9	0xbdde8b36	-0.10866396
10	0xbd377b01	-0.04479504
11	0x3cb25cc2	0.021772746
12	0x3d267b23	0.040644776
13	0x3de6a31f	0.11261582
14	0xbd957472	-0.07297601
15	0x3df208f1	0.11818112
16	0xbd4b466b	-0.049627703
17	0x3e079652	0.13240936
18	0xbd9ecd41	-0.07753993
19	0xbd93df88	-0.072203696
20	0x3dd0a859	0.1018836
21	0x3ddb0eef	0.10696208
22	0x3dbc544f	0.09195768
23	0x3e053a65	0.13010557
24	0x3e01debf	0.12682627
25	0x3defaf40	0.11703348
26	0xbe0d6f8d	-0.13812084
27	0x3e1bcc5e	0.15214679
28	0xbdbcd714	-0.092207104
29	0xbd9e7c60	-0.077385664
30	0x3d6a0b94	0.057139948
31	0xbdfda3d8	-0.12384766
32	0x3d0a3d9f	0.033750173
33	0x3d9d4a95	0.07680241
34	0xbdcd83cc	-0.10034904
35	0x3c9b541a	0.018961001
36	0xbd5cbbc6	-0.053890012
37	0xbc31083e	-0.010805188
38	0xbba6520c	-0.0050756987
39	0x3da95d24	0.08269718
40	0xbdd962ae	-0.10614525
41	0xbd445d34	-0.047940448
42	0xbd7833dc	-0.060596332
43	0x3d304225	0.04303183
44	0x3dca733f	0.09885263
45	0x3da45f5d	0.080260016
46	0xbd89bd3a	-0.06725545
47	0xbdef917c	-0.11697671
48	0x3aa345d9	0.0012456729
49	0xbd8b760f	-0.06809627
50	0x3cb42375	0.021989563
51	0x3de54bb5	0.111960806
52	0xbde7582a	-0.11296113
53	0xbcf2ed55	-0.029654184
54	0x3cb3b994	0.021939076
55	0xbca35ec4	-0.019942649
56	0x3dd5284b	0.10408076
57	0xbc9cf161	-0.019158067
58	0x3d09d8f5	0.033654172
59	0xbd1645d5	-0.03668769
60	0xbc725f46	-0.014793223
61	0x3d48b69d	0.04900228
62	0x3dba6067	0.091004185
63	0x3c6022c3	0.013680163
64	0xbd7d28dc	-0.061806545
65	0x3dac1083	0.08401587
66	0x3d662389	0.056186233
67	0xbd12c4f8	-0.035832375
68	0xbcc1b6af	-0.02364668
69	0x3d064632	0.032781787
70	0xbdbcd214	-0.09219757
71	0xbdd704e7	-0.10498982
72	0xbd1bc7ac	-0.03803222
73	0x3d8c5761	0.06852604
74	0x3dfc6dec	0.123256534
75	0x3cb05806	0.021526348
76	0xbd741677	-0.059591737
77	0x3d985c75	0.0743951
78	0xbcfd8e4b	-0.03095164
79	0x3d7cbc98	0.061703295
80	0x3e1b183c	0.15145963
81	0xbd389315	-0.045062143
82	0x3dbb3c5b	0.09142371
83	0xbd39edc9	-0.045392785
84	0xbdc321db	-0.09527942
85	0xbd81ae5a	-0.06332083
86	0xbc8debb4	-0.017324306
87	0x3cecd1f5	0.028908709
88	0x3d63ab92	0.055583544
89	0xbd7b1c13	-0.06130607
90	0x3dd6e7bc	0.104934186
91	0xbdce487d	-0.1007242
92	0x3c9e1d6f	0.019301144
93	0xbbbb6822	-0.0057192007
94	0xbd975799	-0.07389755
95	0x3d741e28	0.05959907
96	0xbcefd310	-0.029275447
97	0x3d71b4fd	0.059010495
98	0x3dca8ecc	0.098905176
99	0x3b74b42a	0.0037338831
100	0x3df819c2	0.12114288
101	0x3d35fc6d	0.044430185
102	0xbcd5afc4	-0.026084788
103	0xbd1e8f65	-0.03871097
104	0x3e16d509	0.14729704
105	0x3d535e14	0.05160339
106	0x3da5a909	0.080888815
107	0xbd8b2559	-0.06794233
108	0xbd1a9960	-0.037743926
109	0xbba197b1	-0.004931413
110	0x3d30ba27	0.04314628
111	0xbd00624f	-0.031343754
112	0xbd846a6b	-0.0646561
113	0xbc9adf62	-0.018905345
114	0x3e002341	0.12513448
115	0x3d8a3f29	0.06750328
116	0x3d34f362	0.04417742
117	0x3d115530	0.03548163
118	0x3e052d3a	0.13005534
119	0xbd98636c	-0.07440838
120	0x3d82c16e	0.0638455
121	0xbd8990b6	-0.067170545
122	0xbdf0fad8	-0.11766595
123	0xbde1cc0c	-0.11025247
124	0xbc89a020	-0.016799986
125	0xbd826190	-0.06366265
126	0x3cb4221f	0.021988926
127	0x3d9bf2fc	0.07614705
128	0xbcd2f90d	-0.025753522
129	0x3e03da77	0.12876306
130	0xbdb1ede6	-0.08687954
131	0xbbbad73e	-0.0057019284
132	0xbda0c71d	-0.07850478
133	0xbde90b46	-0.11379103
134	0x3cd9ced4	0.026587881
135	0xbdbc3e14	-0.09191528
136	0xbdb008dc	-0.0859544
137	0x3de70ed8	0.11282128
138	0x3d85d662	0.06535031
139	0x3d6939be	0.056939833
140	0x3ded1c5f	0.11577677
141	0x3d40fd71	0.0471167
142	0x3bdfc79c	0.006829215
143	0x3d73377e	0.059379093
144	0xbd3a3b80	-0.0454669
145	0xbd92a065	-0.07159499
146	0xbd326e69	-0.043562327
147	0x3b75b0f0	0.0037489496
148	0x3dbb5a65	0.09148101
149	0xbe071e72	-0.13195208
150	0x3ce5dd69	0.028059678
151	0xbd0a7cc1	-0.03381038
152	0x3d57b7c3	0.052665483
153	0xbe09441e	-0.13404891
154	0xbdd48fab	-0.10378965
155	0xbd25065f	-0.04028928
156	0xbd7943de	-0.06085574
157	0x3d9b9645	0.07597021
158	0xbd1f5376	-0.038897954
159	0x3de771b3	0.11300983
160	0x3916b91c	0.00014374073
161	0x3dc9120b	0.098178945
162	0x3deed3fa	0.11661525
163	0xbc96c215	-0.018403092
164	0xbdf1e8f0	-0.118120074
165	0x3dd54d15	0.10415093
166	0xbddf80a4	-0.10913208
167	0x3d446e8f	0.047957
168	0x3d8af22b	0.06784471
169	0x3d840482	0.06446172
170	0xbcfae2fd	-0.030625815
171	0xbdaecd54	-0.08535257
172	0xbdc86209	-0.09784324
173	0x3bf53c7d	0.0074840174
174	0x3dab8453	0.08374848
175	0xbdcd19ae	-0.10014664
176	0xbdcf00ac	-0.1010755
177	0xbdca0286	-0.098637626
178	0xbdbdbaf6	-0.092641756
179	0x3df5bf26	0.11999349
180	0x3d844ea0	0.06460309
181	0x3cd7309c	0.026268296
182	0xbd314ff3	-0.043289136
183	0xbd5f263e	-0.05447983
184	0x3d632922	0.05545915
185	0x3dbc7bc9	0.09203298
186	0x3d5a27d0	0.053260624
187	0xbdae3d42	-0.08507778
188	0x3ddcd275	0.10782329
189	0x3c016223	0.007896933
190	0x3da0b16e	0.07846342
191	0x3cd61ae6	0.026135873
192	0x3defb6a5	0.117047586
193	0x3d7316e6	0.05934801
194	0x3cf593ec	0.029977761
195	0xbd4b76c5	-0.049673814
196	0xbdd5d7eb	-0.10441574
197	0x3d6e0e3c	0.058119044
198	0x3c921c9d	0.01783591
199	0xbcd92204	-0.026505478
200	0xbdc579b6	-0.09642355
201	0xbd342aba	-0.04398606
202	0xbd5b37fb	-0.053520184
203	0xbd666e23	-0.05625738
204	0xbd902d26	-0.070398614
205	0x3d728fb1	0.059219066
206	0x3da8087d	0.08204744
207	0xbd08e65c	-0.033422813
208	0xbcaeea9e	-0.021352109
209	0x3d3c02fb	0.04590128
210	0x3d059ad5	0.032618362
211	0xbdc00ee1	-0.09377838
212	0x3d8b5704	0.06803706
213	0x3d94867b	0.072522126
214	0xbdb9d7c0	-0.09074354
215	0xbdb519ac	-0.08842787
216	0xbd8b7a24	-0.06810406
217	0x3c70748d	0.014676225
218	0x3dbd2116	0.09234826
219	0xbcc3796c	-0.02386161
220	0xbd9d98e3	-0.076951765
221	0xbce8a00c	-0.028396629
222	0xbdddec81	-0.10836125
223	0xbbad775f	-0.005293771
224	0x3d8537e9	0.06504805
225	0xbdfab926	-0.122423455
226	0x3db1d65b	0.08683463
227	0xbc41bff0	-0.011825547
228	0x3d5876f8	0.052847832
229	0xbd9580f9	-0.0729999
230	0x3d551168	0.052018553
231	0xbd5f458c	-0.054509684
232	0xbde63484	-0.11240485
233	0xbc34230c	-0.010994684
234	0x3ccf01c6	0.0252694
235	0x3c1aba25	0.009443794
236	0x3d2eea1e	0.04270374
237	0xbd86c543	-0.065805934
238	0xbd856779	-0.065138765
239	0x3cac5a5f	0.021039186
240	0xbdcff624	-0.101543695
241	0xbbb61df7	-0.0055577713
242	0x3d50963e	0.050924532
243	0x3d107c36	0.035274707
244	0x3d86c8f8	0.065813005
245	0xbd47a8cd	-0.048744965
246	0x3c8f419a	0.017487336
247	0x3d9b3373	0.075781725
248	0x3d83fe05	0.06444935
249	0x3d310e59	0.043226574
250	0xbddf8806	-0.10914616
251	0xbda0135e	-0.07816194
252	0xbdeea52f	-0.116526
253	0x3d08ab8c	0.033366725
254	0x3b9ab8f5	0.0047217556
255	0x3dbc557b	0.091959916

mlp_head.2.bias f4 [64]
0	0x3e088043	0.13330178
1	0x3b57c13e	0.0032921578
2	0xbd301072	-0.042984433
3	0xbd801a58	-0.06255025
4	0x3d1ec25a	0.038759567
5	0x3dcbdeca	0.09954603
6	0xbdfbb082	-0.122895256
7	0x3c04b04e	0.008098675
8	0xbc2fb371	-0.0107239345
9	0x3cc31680	0.02381444
10	0x3be2e572	0.0069243247
11	0xbca8f6d1	-0.020625504
12	0x3c13b054	0.009014208
13	0x3c965347	0.018350257
14	0x3d0a8b6d	0.033824373
15	0x3db20c0b	0.08693703
16	0xbc8c3b1b	-0.017118027
17	0xbda33db8	-0.07970756
18	0xbc940d38	-0.01807271
19	0xbd83866d	-0.06422124
20	0x3c20b8a1	0.009809644
21	0x3d14ec44	0.036358133
22	0xbd80e325	-0.062933244
23	0x3ca12d0f	0.019674806
24	0x3e06c673	0.1316164
25	0x3cdc8d4f	0.02692285
26	0xbc9f8b7a	-0.019475687
27	0xbbf267f9	-0.0073976484
28	0xbd994886	-0.07484536
29	0xbd76844c	-0.060184762
30	0xbcb3c764	-0.021945663
31	0xbd9ae432	-0.07563056
32	0xbcd63952	-0.02615038
33	0xbde898c9	-0.113572665
34	0xbcb988da	-0.022648264
35	0x3df8cf60	0.12148929
36	0xbdae0cac	-0.08498511
37	0x3de26950	0.11055243
38	0x3df90481	0.12159062
39	0x3da37035	0.07980386
40	0xbd8ab53c	-0.06772849
41	0x377ea16f	1.51771665e-05
42	0x3dcc548e	0.09977065
43	0x3cbbc17e	0.022919413
44	0xbcbc19c0	-0.022961497
45	0x3cb2b95c	0.021816902
46	0xbd5af688	-0.053457767
47	0x3e0fbf41	0.14037801
48	0x3dc78c96	0.097436115
49	0x3dde55d7	0.108562164
50	0x3dead60c	0.114666075
51	0x3db85aad	0.0900167
52	0xbd8b8e68	-0.06814271
53	0x3c036f0f	0.008022084
54	0x3d5c6e68	0.05381623
55	0x3d892dfa	0.066982225
56	0xbd0ce8da	-0.034401752
57	0x3d5c9973	0.053857278
58	0x3dfa3c15	0.12218491
59	0x3d83ab9a	0.06429215
60	0xbdc27168	-0.09494287
61	0x3c92addc	0.017905168
62	0x3df83c3b	0.12120863
63	0x3ddb505b	0.10708686
