runs/1_hour_forecasting/137/best_model.pt (torch, 220793 bytes, 5 tensors)

net.0.weight f4 [64, 783]
000000 4f 53 eb 3c c1 f4 eb 3c 3a bf 1d bc bf b8 12 3d
       0.028726248 0.028803231 -0.0096281115 0.03582072
000010 c9 94 e6 3a 10 fb 6d 3b a7 99 84 bc 9a a1 f2 3c
       0.0017591949 0.0036312975 -0.016186548 0.029618073
000020 a3 5c 08 3d aa 2b a5 bc 43 07 f6 3c e2 a5 ba 3b
       0.03329147 -0.020162422 0.03003276 0.0056960443
000030 57 05 0f 3d eb c5 34 3c 6e 8a 7a 3c f3 03 35 3b
       0.0349172 0.011033515 0.015291793 0.0027620762
000040 99 45 0d 3d 38 9f 2a b8 6f c4 6c bc 6e 8a 42 3b
       0.0344902 -4.0679442e-05 -0.01445113 0.0029684561
000050 d2 19 c5 bc e1 39 a7 bb a9 75 2e bc 33 d5 bd 3c
       -0.024060164 -0.0051033353 -0.01064817 0.02317295
000060 c0 f8 ef bc 5e 91 15 bc ae d1 1c bc 43 06 c5 bc
       -0.029293418 -0.0091288965 -0.009571476 -0.024050837
000070 93 a5 85 bb b5 84 06 bd 17 d6 15 3d 8d ef 0f bd
       -0.004078576 -0.032841403 0.036581125 -0.035140563
000080 89 c3 c2 3c 66 35 4f bc 84 c9 e0 bb d4 cd b2 3c
       0.023774879 -0.0126470085 -0.00685996 0.021826662
000090 58 46 ca 3b 08 65 a6 3c d8 0f 20 3c e1 37 03 bc
       0.0061729364 0.020311847 0.009769402 -0.008008928
0000a0 08 e9 05 3c 2f b8 ec bb 01 ff 69 3c 82 63 fb 3c
       0.008173235 -0.007224105 0.014281989 0.030687097
0000b0 87 56 07 3d 45 f0 c4 bc b7 fc ec 3c a9 2d d2 ba
       0.033041503 -0.02404035 0.028929098 -0.0016035336
0000c0 9a 48 ab 3c 56 31 ac bc d6 13 07 bd 2b 61 1b bc
       0.020908643 -0.021019619 -0.0329779 -0.009483616
0000d0 e4 1d d1 bc 9c d6 f6 3c 08 61 29 3c ab 62 94 3c
       -0.025526948 0.03013163 0.010338075 0.018113455
0000e0 b1 0c 60 3c 01 6c 26 3b 5c a0 fa 3c 4c 3a d1 bc
       0.013674901 0.0025393965 0.030594043 -0.025540493
0000f0 9a 68 8d 3b b6 46 ae bc 54 22 34 3c 69 c1 2e bc
       0.004315448 -0.021273952 0.010994513 -0.01066623
000100 91 68 38 3c 14 06 d5 ba 3d 3c ef 3c ae 69 87 bc
       0.011255399 -0.0016252422 0.029203529 -0.016529884
000110 44 8d 8f bc 4f 33 89 bc d1 27 14 3d b5 15 97 3c
       -0.017523415 -0.016748099 0.036170784 0.018442968
000120 70 32 1b 3d 1e 5a bf bc 28 a4 ff bc fc 51 dd bc
       0.037889898 -0.0233584 -0.031206205 -0.027016632
000130 e5 a9 b3 bc 62 81 92 3c 5a 28 aa 3c f1 0b fb 3c
       -0.021931598 0.01788396 0.020771194 0.030645343
000140 de fb 82 bc 0c 0f a3 bc 44 dc bf 3c 2c f0 09 bc
       -0.01598924 -0.019904636 0.02342046 -0.008419078
000150 f9 25 f6 3c 0c 4e a4 3b 81 83 90 3c 70 1e d3 bc
       0.030047404 0.0050141867 0.017640831 -0.02577135
000160 40 14 9b bc cf 92 56 3c c9 a1 2f 3c 81 5f f4 ba
       -0.018930554 0.013096525 0.010719725 -0.0018644185
000170 db ff cb 3c 81 eb f7 3c 24 ff a4 bc 0d 6a 51 bc
       0.024902275 0.030263664 -0.020141192 -0.012781632
000180 d8 2a 34 3d 0f 03 ba bb 12 9d 82 bc f2 78 dd bc
       0.04398617 -0.005676634 -0.015944038 -0.02703521
000190 5e a7 3b bc 8c b0 f7 3b 46 02 bf 39 ce 84 8f bc
       -0.011453478 0.007558888 0.00036432053 -0.01751938
0001a0 22 e0 3d bb ea 8d b0 bc 04 02 13 bd 9e aa e1 bc
       -0.0028972705 -0.021552045 -0.035890594 -0.027547177
0001b0 d0 d7 0e bd e0 3c 91 bc 89 89 03 3d 65 bc 5e 3b
       -0.034873784 -0.017729223 0.032113586 0.0033986804
0001c0 97 98 67 3c 46 fb 0d bd df 01 f3 bc dc 21 94 bc
       0.014135501 -0.03466346 -0.029663978 -0.018082552
0001d0 73 39 0f 3c 29 59 ed bc 67 d6 ae bc 46 46 d5 bc
       0.008741724 -0.028973179 -0.02134247 -0.026034486
0001e0 14 67 39 bc b1 f4 c1 bb bd 82 91 ba 19 7e d1 bc
       -0.01131608 -0.005919062 -0.0011101585 -0.025572823
0001f0 5a 99 ca bc 03 8a 95 bc ac 1e f3 bb 39 ac 08 bd
       -0.024731327 -0.018254286 -0.007419428 -0.03336737
000200 cc 8a 0d 3d 04 7f 21 bc 0d f7 07 3d ad 28 83 3c
       0.034556195 -0.009856943 0.03319459 0.016010607
000210 79 97 14 bd 5c be e9 3c 2d 6e 7e bc 9d b5 85 bc
       -0.036277268 0.028533153 -0.015529198 -0.016321952
000220 f8 f3 01 bd 9d 98 e5 bc e2 cc 5d 3c 52 65 d8 bb
       -0.031726807 -0.028026873 0.013537617 -0.006603875
000230 cc 47 5e 3c 25 d0 f8 bc 50 8e e9 3c ae e5 cc bc
       0.013566922 -0.030372689 0.028510243 -0.025011864
000240 69 b3 62 bb 22 7c 15 3c 52 ec 86 3c 4a c2 f5 3c
       -0.00345918 0.009123834 0.016470108 0.02999987
000250 60 67 0f 3d c6 2d ef bc 52 e2 16 3c 2f 7f 84 bc
       0.035010695 -0.029196631 0.009209232 -0.016173927
000260 aa b0 be 39 97 d8 e6 bc 78 93 12 3d 19 e4 a9 bc
       0.0003637125 -0.02817945 0.03578517 -0.020738648
000270 7c 30 a5 3c 23 15 7d 3c 6d 5d 72 3c cf fe 4f bc
       0.02016472 0.015446934 0.014792782 -0.012695028
000280 53 d1 1e 3d 1f 78 3f 3c c8 4d 42 3b da 13 f3 bc
       0.038773846 0.011686354 0.0029648412 -0.029672552
000290 c1 73 8c 3c 30 6a 20 3b f2 17 80 bc cc bd 05 3d
       0.01714504 0.0024477355 -0.015636418 0.032651708
0002a0 58 57 3c 3c 5e f8 7d bc 9d 89 76 bc e0 32 ea 3b
       0.011495434 -0.01550111 -0.015047458 0.007147178
0002b0 4f 00 09 3d 23 b3 43 bc 5b c5 88 bc 7e c7 53 bc
       0.03344756 -0.011944565 -0.016695669 -0.012925981
0002c0 05 08 08 bd 38 16 8c 3c be 04 0b 3d f3 8b 09 bd
       -0.033210773 0.017100438 0.03394007 -0.03358073
0002d0 df 3a 69 3c 7f c3 9b 3c 79 9a 45 3c f2 fd 16 bb
       0.014235227 0.019014118 0.012060755 -0.0023039547
0002e0 06 d7 a6 3c 9e 5f 7d 3c 49 3a b0 3c ad d8 71 3b
       0.020366203 0.015464691 0.021512168 0.003690283
0002f0 87 4d 89 bc fc 1c fa 3b ba c4 02 bb 9c 41 21 bc
       -0.0167606 0.0076328497 -0.0019953684 -0.009842303
000300 1e ee d5 3c ac 15 cc 3c 04 7d d6 bb 16 bd 31 bc
       0.02611452 0.024912678 -0.0065456647 -0.010848304
000310 d9 9e 7e 3b f2 f8 45 bc 79 63 a2 3b 0e 11 22 3c
       0.0038852005 -0.012083279 0.0049557057 0.0098917615
000320 3a 84 1b bd 92 ec b3 bc e5 79 c2 3c b3 7d 8e 3c
       -0.037967898 -0.021963391 0.023739764 0.017393922
000330 85 33 b8 bb f8 58 e4 bc 55 53 c1 bc e4 f9 1b bd
       -0.005621376 -0.027874455 -0.023599306 -0.03808011
000340 53 ca 53 bc 19 2d 48 3c ec 38 ab 3c 05 d4 9d 3c
       -0.012926656 0.012217783 0.020901166 0.019266138
000350 df 54 b8 bc 5d 83 64 bc 3d 56 af bb 9a 87 19 3d
       -0.022501407 -0.013947335 -0.0053508566 0.037482835
000360 c9 75 3b 3b 89 97 e2 ba a7 b4 36 3c 8a 58 6d bc
       0.002860414 -0.0017287593 0.011151469 -0.014486441
000370 6b 4b ac bc cb a5 a5 3c b5 80 97 bc ae 52 0f bc
       -0.021032056 0.020220658 -0.01849399 -0.00874774
000380 c5 1e f6 bc 0b 93 d2 3c 18 99 dc 3c 9c e6 38 3c
       -0.030043969 0.025704881 0.02692847 0.01128545
000390 63 10 df bc bf 79 10 bd 36 2f ef bc 6a c5 eb 3c
       -0.027229493 -0.035272356 -0.029197317 0.028780658
0003a0 e6 38 8e 3c 37 3f db 3c 75 0e 9a 3c fc 79 2c 3c
       0.017361116 0.026763542 0.018805722 0.01052713
0003b0 ce a2 2c bb 16 cb e8 bc 0d ef 04 bd 4a fa fa bc
       -0.0026342156 -0.028417151 -0.03245454 -0.030636925
0003c0 f6 08 45 3c 3d c6 81 bc c3 ea 90 ba 3e 54 ad bc
       0.012026062 -0.015841598 -0.0011056293 -0.021158334
0003d0 18 a3 a3 bb 31 19 d0 bc 12 8c 84 bc d8 a1 82 3c
       -0.0049938075 -0.025402637 -0.016180072 0.015946314
0003e0 f7 b4 00 bc 31 9d a6 3c 21 00 3d bc 94 17 d0 bc
       -0.007855645 0.020338627 -0.011535675 -0.025401868
0003f0 00 c4 c8 38 07 2e 85 bc ab b6 1a bc 99 24 06 bd
       9.573251e-05 -0.0162573 -0.0094429655 -0.032749746

net.0.bias f4 [64]
000000 fd af 40 bc f6 3f 11 3c 02 22 6e 3c 4f 6c ed bb
       -0.011760709 0.008865347 0.014534475 -0.0072455774
000010 d6 ef 90 bb 28 19 92 bc 56 66 f9 3c 53 00 99 3b
       -0.004423122 -0.017834261 0.030444305 0.004669228
000020 26 21 8e bc 5b f6 8f 3b 3d 2f 24 3d 19 ba 63 bc
       -0.01734979 0.0043933815 0.040084112 -0.01389935
000030 d4 75 01 3d 95 b9 1c 3c c5 fe 3b 3d c5 42 f2 bc
       0.03160651 0.009565731 0.045897264 -0.029572854
000040 60 ab 1a 3d 03 b1 f6 3b 86 a8 22 bb 55 b4 21 3c
       0.037761092 0.0075284257 -0.0024819686 0.009869655
000050 58 16 fa 3b 64 b1 6e 3c db 8b ac bc af 77 85 3a
       0.007632058 0.01456866 -0.021062782 0.0010182763
000060 82 9e d5 bc 89 a3 29 3d a5 70 b6 bc 52 bb ca bc
       -0.026076559 0.041415725 -0.02227051 -0.024747524
000070 d8 ae 01 3d 60 d3 00 3d c6 16 1d 3c 37 47 b7 3a
       0.031660885 0.031451583 0.009587949 0.0013983016
000080 bd 3c e4 bb e1 03 2a 3b d8 0a 15 3d c0 b1 07 3d
       -0.0069652484 0.0025942253 0.036387295 0.0331285
000090 8d 91 19 3d 71 09 13 bc da 9f c1 3a 08 05 a7 bc
       0.037492324 -0.008974419 0.0014772371 -0.020388141
0000a0 c3 5f 27 bc 79 22 1a 3d 33 a6 88 bc 2b af d5 3b
       -0.0102157025 0.037630532 -0.016680812 0.006521126
0000b0 a3 cf 3c 3d 09 02 ed 3c 6c be c1 bc fb 59 44 bb
       0.046096455 0.028931635 -0.02365037 -0.002996086
0000c0 c4 08 cc bc 7f 97 7f bc c7 a5 37 3d 2b fa d7 3b
       -0.024906524 -0.015600084 0.044835832 0.0065911016
0000d0 08 14 01 bd 1d 2b 18 3d 60 6b 6e bc bd 2c e1 bc
       -0.031513244 0.03715049 -0.014551967 -0.027487153
0000e0 1f 4c 67 bc 45 0e e1 3a 9b fa 13 3c 76 15 14 3c
       -0.01411727 0.001717039 0.009031917 0.00903832
0000f0 d8 fa a6 bc 74 46 04 3d 68 98 9f 3b 8b 0b c3 3c
       -0.020383283 0.03229375 0.004870463 0.023809215

net.2.weight f4 [64, 64]
000000 90 b9 1b 3d ba 79 fc bd 38 2d 86 bb 87 a0 f1 3d
       0.038018763 -0.12327905 -0.004094746 0.11798196
000010 e6 e6 07 3e 1b cc 8b 3c 5d 48 a3 3d 13 3d 87 bd
       0.13271675 0.017065099 0.079727866 -0.06603446
000020 7c 7d 03 be bb 04 a9 bd f4 a3 86 bd c4 91 e2 bd
       -0.12840837 -0.082528554 -0.0657424 -0.11062959
000030 83 fe 88 3d 52 fb 0c 3c 75 71 a2 bd 62 6d b1 bd
       0.06689169 0.008604841 -0.079317965 -0.08663441
000040 1e d0 90 3c bb 7b 71 bd 23 99 4d bd 9d c1 01 3b
       0.017677363 -0.05895589 -0.05019487 0.001979924
000050 7f 23 d2 bd ad b8 16 bc e6 eb 03 3e 8c f2 d9 3d
       -0.102606766 -0.009199304 0.12882957 0.10641965
000060 e1 71 48 3c 49 a6 8c bd 1a 5f 2e 3d 31 1a 8e bd
       0.012234182 -0.06867654 0.042571165 -0.06938589
000070 33 5e b5 bd 62 b7 ac bd 38 c3 ae bd b8 55 4f 3d
       -0.08855858 -0.08433415 -0.08533329 0.050618857
000080 b2 1b dc bd 9b d7 a8 bc 6f a5 64 bb 7a 6d 9e bd
       -0.1074747 -0.020610621 -0.0034888645 -0.07735725
000090 db f3 36 bd 17 6f 20 3d fb 69 b0 bd dc 40 91 3d
       -0.044666152 0.039168444 -0.08613964 0.07092449
0000a0 4b 2e 22 bd 61 e5 ef bd 48 90 36 bc 40 90 2d bd
       -0.03959493 -0.117136724 -0.011142798 -0.042373896
0000b0 3f 8d 95 3b 62 bb 25 bd cf b5 c8 3c 86 83 12 3d
       0.004563957 -0.040461905 0.024500756 0.03576996
0000c0 35 41 d8 3d 8c 5b 29 bd 6c 27 ce 3c ee 2d c3 3d
       0.10559312 -0.04134707 0.025165282 0.09530245
0000d0 b2 ed c3 bc ad 99 3e ba 7b ce 62 3d 53 11 0c be
       -0.023917053 -0.0007270824 0.055372696 -0.13678484
0000e0 96 49 cc bd a5 fe 04 3e fb e6 5c 3c 55 dc 04 b9
       -0.09974973 0.12987764 0.013482804 -0.00012670581
0000f0 b1 85 f9 bd 3e 28 b3 bd a0 04 44 bc e9 42 ae bc
       -0.12183703 -0.0874791 -0.011963993 -0.02127214
000100 c2 ff 81 3d 69 b6 a8 bd 2b 40 9a 3d 51 34 3f bd
       0.0634761 -0.08237917 0.0753177 -0.046680752
000110 25 2c 66 bd 25 b8 eb 3d bc 59 63 3d 9d fe d8 bd
       -0.056194443 0.11509732 0.0555055 -0.10595439
000120 4b 41 a5 3d 2d 02 bc 3c a7 e9 4e bc c7 ec 0a be
       0.08069094 0.022950256 -0.012628949 -0.13566886
000130 7b cc 50 3d f6 9b c9 3d a7 5d a1 3d 2a f3 94 3d
       0.050976258 0.098442 0.07879191 0.07272942
000140 c1 fe da 3c 5e 2b 98 bd c0 0a c4 bd e9 dd 88 bc
       0.026732804 -0.07430147 -0.09572363 -0.016707378
000150 bf b6 8c 3c 8e 8c b6 bc 67 f4 4f bd b3 6b 43 3d
       0.017176984 -0.022283819 -0.05077019 0.04771013
000160 d8 91 1e 3d d0 f9 c6 bd 1e da c4 3d ce 7d 2d 3d
       0.038713306 -0.09715617 0.09611915 0.042356305
000170 90 54 fe 3d b4 21 cc bc 13 66 80 3d af 16 36 3d
       0.12418473 -0.024918415 0.06269469 0.044455227
000180 1a 07 ee 3d f0 98 d6 3d 97 ae dc 3c b5 81 b1 3d
       0.11622448 0.10478389 0.02693872 0.08667318
000190 0a 22 1c bd 96 d5 09 bd 28 09 1e 3d 5d 48 7d 3d
       -0.0381184 -0.033650957 0.03858295 0.06183659
0001a0 b2 bb b3 3d b4 b1 8d 3d 88 a2 ff 3d 22 be cc 3d
       0.087760344 0.0691866 0.12482172 0.099972025
0001b0 f7 5f 5b 3d 79 ae b5 bd ac 65 9a bd b1 4b 7f 3d
       0.053558316 -0.08871169 -0.075389236 0.062328044
0001c0 04 89 91 3d 0d 52 ab 3c 1e 3d 45 3d 2d 36 25 3d
       0.07106212 0.020913148 0.04815399 0.04033487
0001d0 b4 16 9e bd 7b 11 bf bc 5b b9 42 bd c4 f7 19 bd
       -0.07719174 -0.023323765 -0.04754005 -0.037589803
0001e0 d8 cf 3f bc b1 37 9b bd 2b 45 34 ba 7c 6a f6 bd
       -0.011707269 -0.07578982 -0.0006876762 -0.12032029
0001f0 32 b2 90 3d b1 f9 a7 bd e2 56 ff bc 90 80 04 bd
       0.07065238 -0.08201922 -0.031169359 -0.03234917
000200 43 2d c4 bd c4 6c 41 bd c0 25 b4 3d e8 52 f0 bd
       -0.095789455 -0.047222868 0.08796263 -0.11734563
000210 2d 6d d5 3d 09 af b4 bd fc 07 e6 bd 8e f5 98 3d
       0.10421214 -0.08822448 -0.11231992 0.07468711
000220 03 74 08 3d 75 ff c6 3d b3 5e 29 3d 3e cb be 3d
       0.033313762 0.09716693 0.041350078 0.09316109
000230 cc 40 6d 3d 7c e1 cb bc ec 2c bc 3d ac 0e e2 bd
       0.057923123 -0.024887793 0.09188256 -0.11037955
000240 e6 7f e3 bd f2 c7 78 bd e2 51 9c bd c8 8e dc 3d
       -0.11108379 -0.060737558 -0.076328054 0.10769421
000250 bf 5f 9f 3d 71 24 11 3e 98 a1 7f bd d3 22 f0 3d
       0.07781934 0.14174058 -0.062409967 0.11725392
000260 61 88 e6 bd 31 87 93 bd f0 19 02 3e ab 25 cf 3c
       -0.11256481 -0.0720352 0.12705207 0.025286516
000270 40 4b 93 ba 6d ba 29 bd 82 94 3c 3d bc 5e 27 bd
       -0.0011237636 -0.041437555 0.046040066 -0.04086183
000280 52 b8 ce 3d e8 30 72 3d ee a7 60 bc 9c 9a 42 bd
       0.1009375 0.059128672 -0.013711913 -0.04751073
000290 7e ec 93 bd 98 37 43 3d 31 69 df 3c 36 18 b3 bd
       -0.07222842 0.04766044 0.027271839 -0.08744852
0002a0 d7 16 2c bd 59 3a f7 3b 1c de cd 3d 00 24 b5 bd
       -0.04201397 0.0075447974 0.100521296 -0.08844757
0002b0 f5 d9 af 3c 35 09 ad bd da 31 c8 3d dd d3 7c bd
       0.021466235 -0.08449022 0.097751334 -0.061725486
0002c0 91 d6 7a bc 30 40 cc 3d 46 c8 bf 3d 13 69 a7 3d
       -0.015309946 0.0997318 0.09364371 0.08174338
0002d0 a6 5a 09 3e 06 f0 8f bd fa 11 8f bd dd e3 f0 3d
       0.13413486 -0.07028203 -0.06985851 0.117622115
0002e0 b4 d3 d0 3d 34 02 07 3e 35 56 a4 bd 93 ea 7f 3d
       0.10196629 0.13184434 -0.08024255 0.062479567
0002f0 4c ca 0e 3e 40 00 57 3d 0c 4c 65 3c fc f3 f0 3d
       0.13944358 0.052490473 0.013995182 0.11765286
000300 51 6a d2 3d 1b da 87 3d bc ee 1b 3d 1a f6 fc bd
       0.102741845 0.06633397 0.03806947 -0.12351628
000310 eb 39 da bd 2c cb c3 3c e7 f9 da bd dc 51 35 bc
       -0.10655578 0.02390059 -0.10692196 -0.01106688
000320 c5 95 62 bd fb 2c d6 3b ea a9 8e bd b0 37 94 3d
       -0.055318613 0.006536124 -0.06966002 0.07237184
000330 39 0c ed 3d 4f 56 fd bd 80 d0 e2 3d 21 27 b5 bd
       0.11574597 -0.12369978 0.110749245 -0.08845354
000340 95 b7 ba bd a9 21 21 3d 1e ca 08 bd 02 95 a9 bd
       -0.09117047 0.03933874 -0.03339588 -0.08280374
000350 0e 9f 84 bd 7d fb f5 3d d3 e7 b7 bd ca d7 10 bd
       -0.0647565 0.12010858 -0.08979764 -0.035362042
000360 40 d9 a9 bd d0 04 87 3d e1 50 9d 3d 1b 99 6a bd
       -0.0829339 0.06592715 0.07681442 -0.05727492
000370 04 f5 33 3c 02 e9 b9 bc 20 25 b5 bd 6e bb 8f 3c
       0.010983709 -0.022694115 -0.08844972 0.017545428
000380 ad e9 fd 3c 03 fd c5 3d 8e 3f ec 3d 92 51 9c bd
       0.030995214 0.09667399 0.115355596 -0.07632746
000390 e2 9b 00 bd 2b 09 d8 bc 06 61 9d bd 29 a2 90 3d
       -0.03139866 -0.02637156 -0.076845214 0.070621796
0003a0 a9 5e 11 3d a7 2a 17 bd a9 d5 96 3d 98 f9 5a bc
       0.035490666 -0.03690591 0.07364971 -0.013365172
0003b0 88 42 82 3d 70 54 6b 3d 23 01 f5 bd 15 d1 c4 bb
       0.06360346 0.057453573 -0.119631074 -0.00600637
0003c0 2e 6c 9c 3d 53 72 1b bd d1 80 fd bc 2b 00 95 3d
       0.07637821 -0.037950825 -0.030945214 0.07275423
0003d0 33 dc da bb 0f 91 5d bd 33 fd bb 3d 1b 76 88 3d
       -0.006679082 -0.054093417 0.09179153 0.06663152
0003e0 44 cc 9e 3c b8 21 9f bd 34 11 dd bd 42 22 c1 bb
       0.01938451 -0.07770103 -0.10794297 -0.0058939764
0003f0 f7 e0 b3 3a 22 4c dd 3d da c4 44 3c 14 3c 3b 3b
       0.0013723661 0.10805537 0.012009824 0.0028569745

net.2.bias f4 [64]
000000 59 eb 1d 3c da 03 c5 3d bf 5c dd 3d 41 c7 ae bd
       0.009638631 0.09619875 0.108087055 -0.085340984
000010 27 80 18 3d e6 1a e2 3d 47 f3 7d bc 51 46 8c bd
       0.03723159 0.11040287 -0.015499896 -0.06849349
000020 34 89 3c bd c4 98 5e 3d bb 0a d0 3d 06 d4 bd bd
       -0.046029285 0.054344907 0.10158297 -0.09268956
000030 58 96 b6 bc c0 c6 75 bc 21 cf 5d 3c 1f c5 6b 3d
       -0.022288486 -0.015000999 0.013538153 0.057561036
000040 ef 39 bd 3d 25 b3 5e 3d 7d 08 df 3a 9b 14 a6 3c
       0.092395656 0.054370064 0.001701608 0.020273497
000050 07 f0 d7 bd d2 04 b3 bd ff a3 ed 3d ad 4e 70 3c
       -0.105438285 -0.08741154 0.116035454 0.014667195
000060 81 97 8c bd ee 1e 01 bd 21 00 aa bc 8a ec 8b bd
       -0.068648346 -0.031523637 -0.020752015 -0.068322256
000070 72 00 f2 3b 03 2d 5c 3d cc e9 c5 3d 98 e4 7f bd
       0.007385307 0.053753864 0.09663734 -0.062473863
000080 23 04 c1 bd 0b 4d 46 bd 5d 8d de bc 20 0d d5 bd
       -0.09424617 -0.048413318 -0.027167017 -0.10402894
000090 e5 0f 20 bd 0a 9d bc 3c 4e f4 e0 3b d5 6d 80 bd
       -0.03907766 0.0230241 0.006865061 -0.06270949
0000a0 d3 a0 cb bd 8c a8 ee 3d 24 eb cf 3d 8c 46 a4 3d
       -0.09942784 0.116532415 0.101522714 0.08021268
0000b0 21 24 dc 3d a7 bb ca 3d e3 83 9b 3d 1f 73 3c 3d
       0.107490785 0.09899073 0.07593515 0.046008226
0000c0 07 7b cc bd 9a 42 1b bd 65 a6 71 bd 36 f2 c8 3d
       -0.09984403 -0.037905313 -0.058996577 0.09811823
0000d0 ae 4d 8f bd 03 02 f8 3d e1 9c 16 bd 2f ee e9 3d
       -0.06997238 0.12109759 -0.036770705 0.11422383
0000e0 c3 49 2c bd 49 88 a6 bd ab 16 00 3e 78 c2 29 bc
       -0.042062532 -0.08131463 0.12508647 -0.010361306
0000f0 3b 57 c9 bd 47 f5 e7 3d 70 c9 dc bd 7a 05 02 3e
       -0.09831091 0.1132608 -0.10780609 0.12697402

net.4.weight f4 [1, 64]
000000 01 0c 94 bd cd d9 de 3c a2 7c d5 bd 48 2f 69 bd
       -0.07228852 0.027203465 -0.104241624 -0.056929857
000010 73 81 b2 3c 9f 2b fd bc ef a5 9d 3d cc 66 b3 3c
       0.021790242 -0.03090459 0.07697665 0.021899603
000020 e8 0a fb bd 73 56 49 bd fc 2e 71 bd 5b d8 8f bc
       -0.122579396 -0.04915471 -0.0588827 -0.017559221
000030 63 5c e1 bd a1 8d de 3d e5 7f 04 bd 42 58 a8 bd
       -0.110039495 0.10866857 -0.032348532 -0.08219959
000040 13 9c d3 bd e9 89 f8 3d c6 17 cb 3d 5a 39 ca 3d
       -0.10332503 0.12135679 0.09916644 0.0987422
000050 d3 de a3 3d 3d ce 0c bd 88 f4 c7 3b f0 45 8a bc
       0.08001485 -0.03437637 0.0061021484 -0.016879052
000060 d7 e1 2a 3d 94 66 e2 bd f4 d5 fb bd 05 f9 06 3e
       0.041719284 -0.110547215 -0.12296668 0.13180931
000070 53 25 04 be c2 76 9d bd d8 79 b6 3d 87 b7 3f bd
       -0.12904863 -0.07688667 0.089099586 -0.046805885
000080 68 54 ff 3d be c6 9c bd 5c 91 81 bd 7b 50 05 3e
       0.12467271 -0.076550946 -0.06326553 0.13018982
000090 f2 d1 11 be 18 0e 84 3a af 58 a5 bd 47 15 03 3e
       -0.14240244 0.0010075001 -0.08073556 0.12801085
0000a0 45 af 05 3d f9 e4 f3 3d 9f 9a 16 be 7e 32 1a 3e
       0.032637853 0.119089074 -0.14707421 0.15058324
0000b0 fd 00 fa 3c 55 ea bb bd a8 1b ba bd 04 40 75 3d
       0.03051805 -0.09175555 -0.09087306 0.059875503
0000c0 72 65 17 bd 8a 3c ac 3c 4d 1c 9e 3c 11 13 8e 3d
       -0.03696198 0.021024961 0.019300604 0.069372304
0000d0 7b db f6 bd 66 88 78 bd 99 a4 d2 bc 70 11 61 3d
       -0.12053581 -0.060676955 -0.025713252 0.05494827
0000e0 23 00 d9 bd 29 82 e6 bd aa 97 fe bd c8 74 c9 bc
       -0.10595729 -0.11255295 -0.124312714 -0.024591818
0000f0 00 82 06 3e d5 b6 17 3d 4f 7b f9 3d 83 de 9d bd
       0.13135529 0.037039597 0.121817224 -0.07708456
