runs/1_hour_forecasting/225/best_model.pt (torch, 497701 bytes, 9 tensors)

lstm.weight_ih_l0 f4 [512, 87]
0	0x3d9de440	0.07709551
1	0x3d9d559c	0.07682344
2	0x3c8209ec	0.015873872
3	0x3dd1e2ca	0.10248335
4	0xbc613ec5	-0.013747876
5	0x3ccbd4f1	0.024881812
6	0xbd0ad24c	-0.03389196
7	0x3d88e287	0.06683832
8	0x3db53882	0.08848669
9	0xbd3d4936	-0.046212398
10	0x3d86c2a4	0.065800935
11	0x3ca4d8ae	0.020122852
12	0x3ddf4f7a	0.10903831
13	0x3ce0740e	0.02739909
14	0x3d061229	0.032732163
15	0x3bd06b2f	0.0063604335
16	0x3da3d81e	0.080002055
17	0xbba4dc83	-0.00503117
18	0xbd820dd5	-0.063502945
19	0xbc10e77b	-0.008844252
20	0xbd6839f5	-0.056695897
21	0xbd29cea4	-0.041456833
22	0xbd591d14	-0.053006247
23	0x3d29837b	0.041385155
24	0xbdd459a2	-0.103686586
25	0xbcec9beb	-0.028882941
26	0xbd97e835	-0.07417337
27	0xbd99c2fe	-0.07507895
28	0xbbc9e863	-0.006161736
29	0xbdef7857	-0.11692875
30	0x3da1f407	0.07907873
31	0xbdc594d4	-0.09647527
32	0x3d4513e5	0.048114676
33	0xbcc18ff7	-0.023628218
34	0xbc7e5e1a	-0.015525365
35	0x3d747b28	0.059687763
36	0x3cc76572	0.024340365
37	0x3db69156	0.089144394
38	0x3cd4d5e7	0.025980903
39	0xbcd1eefa	-0.025626648
40	0x3cb74ae5	0.02237458
41	0xbc04e91f	-0.008112221
42	0x3d14a4a3	0.036289822
43	0x3db6c7aa	0.08924802
44	0x3d5e415f	0.05426156
45	0xbb7b1584	-0.0038312385
46	0x3d5e2f1d	0.05424415
47	0x3c3d1834	0.011541415
48	0x3d42884d	0.047493268
49	0xbd11fc9d	-0.0356413
50	0xbd9e1988	-0.077197134
51	0xbd24301b	-0.04008494
52	0xbda11f22	-0.07867266
53	0x3d8c5ebb	0.06854006
54	0x3cb4500c	0.022010826
55	0x3d144459	0.036197994
56	0x3ceff4c5	0.02929152
57	0xbc4b1b94	-0.012396712
58	0x3d7b0448	0.06128338
59	0xbd99456b	-0.074839436
60	0xbba7cd64	-0.00512092
61	0xbd91e2b0	-0.07123315
62	0x3cd71049	0.026252883
63	0xbcfcc22c	-0.030854307
64	0x3c816561	0.015795412
65	0xbc85abb0	-0.016317219
66	0x3d843dc3	0.064570926
67	0xbd564aaa	-0.0523173
68	0xbd83cba2	-0.06435324
69	0xbd810311	-0.06299413
70	0x3d873613	0.06602111
71	0x3cbc8154	0.023010887
72	0x3d8ed37c	0.06973931
73	0xbdbd27e6	-0.09236126
74	0xbdc308c3	-0.095231555
75	0xbd990345	-0.07471327
76	0xbd892f28	-0.066984475
77	0x3d073685	0.03301098
78	0x3cdbf5d2	0.026850615
79	0x3d948aa9	0.0725301
80	0xbd815332	-0.06314696
81	0xbd9689f0	-0.07350528
82	0x3cdda090	0.027054101
83	0xbd3ef265	-0.046617884
84	0x3d2cf874	0.04222913
85	0xbca47058	-0.0200731
86	0x3d9b7c35	0.0759205
87	0xbd63ebf6	-0.05564495
88	0xbcf76552	-0.03019968
89	0x3d6ff40d	0.058582354
90	0x3d1789e6	0.036996745
91	0xbc0b6414	-0.008507747
92	0x3d861285	0.06546501
93	0x3d91a8cb	0.07112273
94	0xbd4caff6	-0.049972497
95	0xbcf8dc10	-0.030378371
96	0x3d954a15	0.07289521
97	0xbcdeba7f	-0.027188538
98	0xbc24b931	-0.010053919
99	0xbd8ee808	-0.0697785
100	0xbd481b2b	-0.048854034
101	0x3cd92e71	0.026511403
102	0x3c8bc311	0.017060788
103	0xbd715809	-0.058921847
104	0xbb2e38a9	-0.0026584065
105	0xbd8efd43	-0.069818996
106	0xbdad53b9	-0.084632345
107	0xbd6e6df7	-0.05821034
108	0xbdab6fff	-0.08370971
109	0xbd5cf393	-0.053943228
110	0x3dc0ef94	0.09420696
111	0x3bd18f75	0.0063952752
112	0x3cc45e69	0.0239708
113	0xbd9d5b0d	-0.07683382
114	0xbd444f99	-0.047927473
115	0xbd355b5f	-0.04427659
116	0x3c0f466d	0.008744818
117	0xbd9e87df	-0.07740759
118	0xbd1d9fa1	-0.038482312
119	0xbd6de16b	-0.058076303
120	0xbc18d933	-0.009329128
121	0xbd0e4623	-0.034734856
122	0xbcedccbf	-0.029028295
123	0xbda817a0	-0.08207631
124	0xbd8e7800	-0.06956482
125	0xbd1b9132	-0.037980266
126	0xbd256843	-0.040382635
127	0xbdb57dc4	-0.088618785
128	0x3d9f25c4	0.07770875
129	0xbc96256a	-0.018328387
130	0x3dcd35df	0.10020041
131	0x3c3b7ca6	0.011443293
132	0xbd8b224d	-0.06793652
133	0x3d6f4116	0.05841168
134	0xbd0fdd8b	-0.03512339
135	0xbd0e0e10	-0.03468138
136	0xbdb4df1e	-0.08831619
137	0xbd9cc17c	-0.07654092
138	0xb89b35e5	-7.4010146e-05
139	0xbd2ab934	-0.04168053
140	0x3d0e4bd7	0.034740295
141	0xbd98108a	-0.074250296
142	0x3d55fe36	0.052244388
143	0xbd7e34e5	-0.062062163
144	0xbd315c55	-0.043300945
145	0xba97fea7	-0.0011596278
146	0x3d32bab0	0.04363507
147	0x3d5087da	0.05091081
148	0x3d59d522	0.053181775
149	0xbd8e85ed	-0.06959138
150	0x3cdfa82b	0.027301868
151	0xbd4fac7f	-0.050701614
152	0xbccf14a1	-0.025278391
153	0xbd8c4584	-0.068491966
154	0x3d817d2d	0.063227035
155	0xbd5f6971	-0.054543916
156	0x3d7b9fd8	0.061431736
157	0x3d0deabb	0.034647685
158	0x3d2e5692	0.04256303
159	0xbd2ee311	-0.042697016
160	0x3dad2979	0.08455176
161	0x3cbb56a2	0.022868458
162	0x3ce95805	0.028484354
163	0xbd9b5408	-0.07584387
164	0x3d22e961	0.03977335
165	0x3a8749bb	0.0010321656
166	0xbcbc6d2e	-0.02300128
167	0x3d9f3f96	0.077758
168	0x3cb6bcff	0.022306917
169	0xbd333ed7	-0.0437611
170	0xbd21a5cb	-0.039464753
171	0x3bcef011	0.0063152392
172	0x3d3cf371	0.0461306
173	0xbcec991d	-0.028881604
174	0xbd4cf4ee	-0.05003827
175	0xbcd28701	-0.02569914
176	0xbd8c000f	-0.06835949
177	0x3d0cbc23	0.03435911
178	0x3d7aec78	0.06126067
179	0xbd9f7e2d	-0.07787738
180	0x3d1c0fb6	0.03810092
181	0x3d6e8419	0.058231447
182	0x3cdbec85	0.02684618
183	0xbc6d855e	-0.014497129
184	0x3d45d38d	0.048297454
185	0x3d84c149	0.06482179
186	0x3cda8b68	0.026677802
187	0xbc534abf	-0.012896239
188	0xbc6b5914	-0.0143645
189	0x3cc6d4dc	0.024271421
190	0xbc30fbac	-0.010802191
191	0xb9742f19	-0.00023287199
192	0x3d8b7ade	0.068105444
193	0x3dd1ebac	0.10250029
194	0x3c64ff83	0.013976934
195	0x3be358d1	0.006938078
196	0x3ceabb11	0.028653653
197	0x3c7bb305	0.015362506
198	0x3d545722	0.05184091
199	0x3cfba34d	0.030717516
200	0xbd3c6bd5	-0.046001274
201	0xbc746325	-0.014916216
202	0x3dbf83e5	0.09351329
203	0x3d8e3be8	0.0694502
204	0x3af5308e	0.0018706487
205	0xbce183c1	-0.027528645
206	0xbceb64a9	-0.028734522
207	0xbd7d88d1	-0.061898056
208	0xbcf33b30	-0.029691309
209	0x3ccda226	0.025101732
210	0x3d1e10f1	0.038590375
211	0x3c906a1d	0.017628724
212	0xbd94c2ef	-0.07263743
213	0xbd5d7da0	-0.054074883
214	0xbce26dfe	-0.027640339
215	0x3daa8f10	0.08328068
216	0x3cba0263	0.022706216
217	0xbc1639bd	-0.009169039
218	0x3d1b0c03	0.037853252
219	0xbd4f3631	-0.05058879
220	0xbd900b9e	-0.07033466
221	0x3d7bea1f	0.061502572
222	0xbca2773c	-0.019832246
223	0xbca3106a	-0.019905288
224	0xbd9a4cfa	-0.07534213
225	0x3d149971	0.036279146
226	0x3d59415c	0.053040847
227	0x3d0a3c9a	0.0337492
228	0xbd7df690	-0.06200272
229	0xbdc37d5a	-0.09545393
230	0xbd93e831	-0.07222021
231	0x3d28aae2	0.04117859
232	0x3d0a0a60	0.0337013
233	0x3d9cde5c	0.07659599
234	0x3d0f4384	0.034976497
235	0xba9c0f55	-0.0011906425
236	0xbab19dba	-0.0013551034
237	0xbd86808a	-0.06567486
238	0xbda3e66c	-0.08002934
239	0xbdc2a894	-0.0950481
240	0x3d1edf78	0.038787335
241	0xbd668e20	-0.056287885
242	0xbd47d343	-0.04878546
243	0xbda0f970	-0.078600764
244	0xbd6325bb	-0.055455904
245	0xbdc6b91c	-0.097032756
246	0xbdb418a8	-0.08793765
247	0xbc341aea	-0.010992745
248	0xbd54db6c	-0.05196707
249	0x3c8a92a9	0.016915636
250	0xbd60f7f0	-0.05492395
251	0xbdd59cf1	-0.10430325
252	0xbd4097e8	-0.04701987
253	0xbd9be993	-0.0761291
254	0xbd85ec84	-0.065392524
255	0xbddf5eea	-0.10906775

lstm.weight_hh_l0 f4 [512, 128]
0	0xbc38bb88	-0.01127518
1	0xbd29cca1	-0.041454915
2	0x3db6e9b5	0.08931295
3	0xbdb02755	-0.08601252
4	0xbc9659bd	-0.018353337
5	0x3bb3f04d	0.0054912926
6	0x3c72ce1d	0.014819649
7	0x3db5ca31	0.088764556
8	0xbd08993e	-0.03334927
9	0x3d91c842	0.07118274
10	0xbd163b54	-0.036677673
11	0x3d9ded04	0.07711223
12	0xbd18d2cd	-0.03731041
13	0xbc1a13b5	-0.009404113
14	0xbc2ccef6	-0.01054739
15	0x3db2a397	0.087226085
16	0xbc0dc07d	-0.00865185
17	0x3d441989	0.047875915
18	0xbd04f29c	-0.032457933
19	0x3d592d0c	0.053021476
20	0xbcdcb92d	-0.026943767
21	0x3d91a73d	0.07111976
22	0x3b066527	0.002050707
23	0xbd85c8fb	-0.065324746
24	0x3d5778cf	0.052605446
25	0xbd85ba4e	-0.065296754
26	0xbda98d63	-0.082789205
27	0xbd7eefe2	-0.06224049
28	0xbe0b7254	-0.13617831
29	0x3d33cfa5	0.043899197
30	0x3d2675ab	0.04063956
31	0xbda272ee	-0.07932077
32	0x3d6da7d1	0.05802137
33	0xbd8c94cd	-0.06864319
34	0xbd16d370	-0.036822736
35	0xbd85c59d	-0.06531832
36	0xbcf05082	-0.029335264
37	0xbcf7550f	-0.030191926
38	0x3d24395c	0.040093765
39	0xbd691926	-0.05690875
40	0x3d03d3cb	0.032184403
41	0xbdbd8cc8	-0.092553675
42	0x3ced2bc9	0.028951542
43	0xbdc4e2bc	-0.09613559
44	0xbc1634a4	-0.009167824
45	0x3d52dffd	0.051483143
46	0x3d58253d	0.05276989
47	0xbd122d52	-0.035687752
48	0xbd80fbcd	-0.06298027
49	0x3c5fc1b6	0.013657024
50	0x3da74717	0.08167856
51	0x3baafdc3	0.005218239
52	0xbd4b256a	-0.049596228
53	0x3c5405c8	0.0129408315
54	0x3da21ff2	0.07916249
55	0x3da41afa	0.08012958
56	0xbdaaff7f	-0.08349513
57	0x3ca8a887	0.020588173
58	0xbdb2dc41	-0.08733416
59	0xbd42c9e2	-0.04755581
60	0xbd961461	-0.07328106
61	0xbc80baf2	-0.015714142
62	0xbd85dc69	-0.065361805
63	0xbbb983a5	-0.005661445
64	0x3ca10510	0.019655734
65	0x3dc8143f	0.09769487
66	0x3de4cecb	0.11172255
67	0xbd6a4b64	-0.057200804
68	0x3c1aeb7a	0.009455556
69	0x3d0ed12d	0.034867454
70	0xbdaaa909	-0.08333022
71	0x3da61a90	0.08110535
72	0x3d2bfa89	0.041986976
73	0xb9909604	-0.0002757759
74	0x3deb6107	0.11493116
75	0xba9b46a2	-0.0011846612
76	0x3d9e6e21	0.07735849
77	0xbdbf599a	-0.09343262
78	0x3cef002e	0.02917489
79	0xbd808b90	-0.062766194
80	0xbb6c5087	-0.003605874
81	0xbcba70ed	-0.022758925
82	0xbca205d2	-0.019778166
83	0xbc26a387	-0.010170824
84	0xbd6b6184	-0.057466045
85	0x3b70ca6b	0.0036741744
86	0xbd55bae5	-0.05218019
87	0xbc85ebb4	-0.016347744
88	0x3dc1cd15	0.094629444
89	0x3d8ed6cc	0.06974563
90	0xbc3a4bf0	-0.011370644
91	0xbd928d8a	-0.07155903
92	0xbd83acb6	-0.06429426
93	0xbdabc164	-0.08386496
94	0xbb8fa910	-0.0043841675
95	0x3d57c479	0.052677605
96	0x3b5dc355	0.003383835
97	0xbdd753ca	-0.10514028
98	0x3db10217	0.08642977
99	0x3d1637b1	0.036674205
100	0x3d87a7b5	0.066237845
101	0x3c833d2a	0.016020376
102	0x3dcd0123	0.100099824
103	0x3a9ada5e	0.0011814346
104	0x3c7997fe	0.015233992
105	0x3d3bd016	0.045852743
106	0x3d63514d	0.055497456
107	0xbad12492	-0.0015956333
108	0x3c9d1cdd	0.019178802
109	0xbc95095a	-0.018192936
110	0x3d5854d0	0.05281526
111	0xbd0c42d6	-0.034243427
112	0xbd07ed68	-0.033185393
113	0xbd1ed6e2	-0.038779147
114	0x3c80fd4e	0.015745785
115	0x3d0832d0	0.033251584
116	0x3d014323	0.031558167
117	0xbc9e927c	-0.019356959
118	0x3cb21d96	0.021742623
119	0xbd065192	-0.032792635
120	0x3cffaefc	0.031211369
121	0xbcdaf70c	-0.02672913
122	0xbd3cca93	-0.046091627
123	0xbd2b7c86	-0.0418668
124	0x3dc09498	0.09403342
125	0xbda9dccc	-0.08294067
126	0xbd0c6a50	-0.034281075
127	0x3d928b0f	0.071554296
128	0xbd7aa923	-0.061196458
129	0x3d2062e1	0.0391568
130	0x3cb66fbf	0.022270082
131	0xbcf7d734	-0.030253984
132	0xbd75bb8a	-0.059993304
133	0xbd25f194	-0.04051359
134	0x3dd2f157	0.10299938
135	0x3d42e755	0.047583897
136	0xbb2c51db	-0.0026293907
137	0x3b4da352	0.0031377864
138	0x3e00872c	0.12551564
139	0x3ba11b62	0.0049165944
140	0x3c828a9c	0.015935235
141	0x3cc8ca7c	0.024510615
142	0x3d6a6355	0.057223637
143	0x3c23b8be	0.009992776
144	0x3d61cebf	0.05512881
145	0xbd843bee	-0.06456743
146	0x3d7ac0f8	0.061219186
147	0x3c8a20e9	0.016861396
148	0xbd44fe15	-0.048093874
149	0x3df30528	0.11866218
150	0x3d1ce7da	0.03830705
151	0x3dc16a07	0.09444051
152	0xbdb50769	-0.08839304
153	0xbbb5c554	-0.005547205
154	0x3c414dd6	0.011798343
155	0xbd8ff0da	-0.07028361
156	0xbd827ec4	-0.06371835
157	0xbb664a55	-0.003513952
158	0x3dc27fc7	0.09497028
159	0x3dac39dc	0.08409473
160	0xbcc0a8d8	-0.023518011
161	0x3d2a88fe	0.041634552
162	0x3d9ea932	0.07747115
163	0x3d83b269	0.064305134
164	0xbc87bc8c	-0.016569398
165	0xbd6018d6	-0.054711185
166	0xbce8b3eb	-0.028406104
167	0xbce449d7	-0.02786724
168	0xbd2686fa	-0.040656067
169	0xbced5de0	-0.028975427
170	0xb9d65e97	-0.00040887736
171	0xbd4fc4e3	-0.050724875
172	0x3d3d3fcf	0.04620343
173	0x3cdcf977	0.026974423
174	0xbd6c44e8	-0.0576829
175	0xbd069720	-0.032858968
176	0x3d1d298c	0.0383697
177	0xbd85f7b4	-0.06541386
178	0x3c73970e	0.014867557
179	0x3d5b1443	0.05348612
180	0x3c61c487	0.013779766
181	0xbcdbe2dc	-0.026841573
182	0xbcb132a8	-0.0216306
183	0x3bcdcff3	0.006280893
184	0x3ce822c4	0.02833689
185	0x3c9099ae	0.017651405
186	0xbcb5ca93	-0.022191321
187	0xbda8652c	-0.08222422
188	0x3d820c31	0.063499816
189	0xbc843337	-0.016137702
190	0xbdce7fba	-0.10082956
191	0x3d5d372f	0.054007705
192	0xbc8b0a17	-0.016972585
193	0xb96ac430	-0.00022389065
194	0xbcb94fd5	-0.022621075
195	0xbcfb449c	-0.030672364
196	0xbc8225a0	-0.015887082
197	0xbc2fc88b	-0.0107289655
198	0xbd2a222a	-0.041536488
199	0x3d7f38e0	0.0623101
200	0xbc9193f1	-0.01777074
201	0x3e073dd6	0.13207182
202	0xbc1fe0c2	-0.009758176
203	0xbcbc3301	-0.02297354
204	0xbb4f86a3	-0.0031665943
205	0xbdb6da5c	-0.089283675
206	0x3ca3f36f	0.02001354
207	0xbd82503a	-0.06362958
208	0x3d83df62	0.06439091
209	0x3db93b59	0.09044523
210	0xbd477719	-0.048697565
211	0xbc7ad0b1	-0.015308545
212	0xbd517dae	-0.051145248
213	0x3d4f8069	0.05065957
214	0xbdcf0ab4	-0.10109463
215	0xbd4cced2	-0.050001927
216	0xbcae6b7b	-0.021291485
217	0x3d0aa584	0.033849254
218	0x3d4abfa5	0.049499173
219	0x3d581e33	0.052763175
220	0x3dab1a3e	0.08354615
221	0x3dcf0668	0.10108644
222	0x3cfbd698	0.030741975
223	0xbd9b1695	-0.075726666
224	0x3cdb3d4a	0.026762623
225	0xbbdad58e	-0.0066782897
226	0x3d912a4b	0.07088145
227	0xbd428de8	-0.047498614
228	0xbd89c150	-0.067263246
229	0x3c571560	0.013127655
230	0xbd1894f4	-0.037251428
231	0xbc60f275	-0.013729681
232	0xbc22128c	-0.009892117
233	0x3d95a020	0.07305932
234	0x3d9ce6b8	0.076611936
235	0x3d141c13	0.036159586
236	0x3c7c69dc	0.015406098
237	0xbd8a3d01	-0.06749917
238	0xbc8a0958	-0.016850159
239	0xbd0c6855	-0.034279186
240	0x3d8cc931	0.06874312
241	0x3d442aac	0.047892258
242	0x3da1ba4d	0.07896862
243	0xbd93254d	-0.07184849
244	0x3b0bd962	0.0021339287
245	0xbcc620d2	-0.024185572
246	0xbcab1c35	-0.020887474
247	0x3d3d89d7	0.046274032
248	0x3d1065b9	0.03525326
249	0xbd875b35	-0.06609193
250	0xbcf149d2	-0.029454146
251	0xbc46bd08	-0.0121300295
252	0x3dc412ca	0.09573896
253	0x3b489567	0.003060663
254	0x3cbd13eb	0.023080787
255	0xbd5ec6ca	-0.0543888

lstm.bias_ih_l0 f4 [512]
0	0xbc982144	-0.01857055
1	0x3c1fb054	0.00974663
2	0x3d916a08	0.07100302
3	0xbd6a5fc6	-0.057220243
4	0xbc4e4128	-0.012588777
5	0x3d3468f1	0.044045392
6	0x3d3be6bc	0.045874342
7	0x3de76800	0.11299133
8	0x3d7f6dc1	0.06236053
9	0xbd122ce5	-0.035687346
10	0xbd0ad418	-0.033893675
11	0xbcf8efce	-0.030387785
12	0xbd63cc59	-0.055614803
13	0x3c742d82	0.014903428
14	0x3deb8730	0.11500394
15	0x3da424ce	0.080148324
16	0x3db4022d	0.087894775
17	0x3d75d9a3	0.060022008
18	0xbb5178f1	-0.0031962956
19	0x3d7e1f70	0.0620417
20	0xbd9f60be	-0.07782124
21	0x3dd2505e	0.10269235
22	0x3da734fc	0.08164403
23	0x3c9fa74d	0.019488955
24	0x3c8eb721	0.017421307
25	0xbd11fe02	-0.03564263
26	0xbc0e6fe8	-0.008693673
27	0x3dc64aa9	0.09682209
28	0x3dbec3c9	0.09314687
29	0xbd2d3e39	-0.04229567
30	0xbd1c80c4	-0.038208738
31	0xbcaf186d	-0.021373952
32	0x3d99b859	0.07505865
33	0xbb7e2238	-0.003877772
34	0x3d54151f	0.051777955
35	0xbd89bfe7	-0.067260556
36	0x3c8ee758	0.017444298
37	0x3c3b5527	0.011433876
38	0x3d0bb931	0.03411216
39	0xbd692425	-0.056919236
40	0xbd90442c	-0.07044253
41	0x3d879ea8	0.06622058
42	0x3dac00a9	0.083985634
43	0x3b9b7ce3	0.0047451123
44	0x3d28d460	0.04121816
45	0xbd8182cf	-0.06323778
46	0x3affd348	0.0019517923
47	0x3de9a248	0.11407906
48	0xbcb7111c	-0.022347026
49	0x3cadfe36	0.021239381
50	0xbd67114d	-0.056412984
51	0xbc6df7c5	-0.014524405
52	0xbc30e343	-0.010796371
53	0x3da22f37	0.07919162
54	0x3cf9ffb2	0.030517433
55	0xbcb41a88	-0.021985307
56	0x3d5216ff	0.051291462
57	0xbcd6ddd9	-0.026228832
58	0xbd304cf7	-0.04304215
59	0x3dc7db45	0.09758619
60	0x3d258df3	0.040418576
61	0x3dd39caf	0.103326194
62	0x3d1275ca	0.035756864
63	0xbc4f7342	-0.012661757
64	0x3dbb3a7b	0.09142014
65	0xbd8d6516	-0.06904046
66	0x3d045ad1	0.03231317
67	0xbbd303bf	-0.0064396556
68	0x3ca6651b	0.020311883
69	0x3db7d11f	0.089754336
70	0x3b958f80	0.0045642257
71	0x3df3bf02	0.11901666
72	0x3d9e3926	0.07725744
73	0x3da58e9a	0.0808384
74	0x3dc8d31a	0.098058894
75	0xbc048e19	-0.008090519
76	0xbcbee777	-0.02330373
77	0x3db0a731	0.08625639
78	0x3af014b9	0.0018316723
79	0xbcb0fbd7	-0.021604462
80	0x3c89fd19	0.01684432
81	0x3c6770c2	0.014126005
82	0x3c6e6a0b	0.01455165
83	0x3d0d0e45	0.034437437
84	0xbd31ffc7	-0.04345682
85	0x3dbe4c16	0.09291856
86	0xbd02297b	-0.03177784
87	0x3ddb8cdb	0.107202254
88	0x3bbc4870	0.00574594
89	0xbc6cabe8	-0.0144452825
90	0x3dd541f0	0.10412967
91	0xbca12357	-0.019670172
92	0xbd1e27a6	-0.03861203
93	0xbc91a8bc	-0.017780654
94	0x3ddf4e9a	0.10903664
95	0xbd41bdae	-0.047300033
96	0x3db9390f	0.09044086
97	0xbd42cd91	-0.047559325
98	0x3bd3d5ad	0.006464681
99	0x3d9b99ef	0.0759772
100	0x3dadf1f1	0.08493412
101	0xbbce1c08	-0.0062899627
102	0x3cd4f072	0.02599356
103	0x3d2f7d19	0.04284391
104	0x3dcf7e0d	0.10131464
105	0x3d039b3e	0.032130472
106	0xbd32ad64	-0.04362239
107	0x3d8027be	0.0625758
108	0xbd83312a	-0.06405862
109	0xbd093ee9	-0.03350726
110	0x3c9b0a9c	0.018925957
111	0x3d678fb0	0.056533515
112	0x3d9190eb	0.07107719
113	0x3db51c78	0.088433206
114	0xbd3a5ed8	-0.045500606
115	0xbd6699a5	-0.05629887
116	0xbd15d8ba	-0.03658364
117	0xbd320e27	-0.043470528
118	0xbce50f79	-0.02796148
119	0x3d68da6c	0.05684893
120	0x3d5d6033	0.05404682
121	0x3a908f2e	0.0011028999
122	0xbd71938e	-0.05897861
123	0x3db879c7	0.09007602
124	0x3da43c6d	0.08019338
125	0xbd64339a	-0.055713274
126	0xbd8546c5	-0.06507639
127	0x3dcd9bd8	0.100394905
128	0x3d8f9146	0.070101306
129	0x3c4bc21f	0.012436419
130	0x3dbe08ed	0.09279046
131	0xbc89a97f	-0.016804455
132	0x3d212a81	0.039347176
133	0x3d675466	0.056476973
134	0x3cd05b3d	0.02543413
135	0xbce79670	-0.028269976
136	0x3d2c5079	0.042068932
137	0x3cbf17e9	0.023326831
138	0xbdac87a0	-0.08424306
139	0x3b97605c	0.004619641
140	0x3d99fa7e	0.07518481
141	0xbcadf857	-0.021236582
142	0xbbb86d90	-0.0056282952
143	0xbd8d374a	-0.06895311
144	0xbb1295ac	-0.0022367043
145	0x3c4931ef	0.0122799715
146	0xbd2b22b1	-0.04178113
147	0x3cc82066	0.024429511
148	0xbdda8659	-0.10670156
149	0xbd4131a3	-0.047166478
150	0x3b2bf421	0.0026238041
151	0x3d651c16	0.055934988
152	0x3cd3d993	0.025860583
153	0xbd684950	-0.05671054
154	0xbd1822d4	-0.03714259
155	0x3ba6c765	0.0050896876
156	0x3d6cd79f	0.05782282
157	0xbd6ed839	-0.058311675
158	0x3d82d7c2	0.06388809
159	0x3c25cf1d	0.01012018
160	0xbd22dd8d	-0.03976207
161	0x3d1261ea	0.03573791
162	0xbd810c1a	-0.06301136
163	0x3ca08661	0.019595327
164	0xbd274bc2	-0.040843733
165	0x3d19b655	0.0375274
166	0x3d03c100	0.03216648
167	0x3d5cac43	0.05387522
168	0x3d92a60f	0.071605794
169	0xbcd7f0eb	-0.026359996
170	0xbd01d670	-0.031698644
171	0x3d4e2c77	0.050335374
172	0xbd879be2	-0.06621529
173	0xbd89d6e2	-0.06730439
174	0x3d81e4b3	0.06342449
175	0x3d97c8a6	0.074113175
176	0xbd9330f0	-0.071870685
177	0x3da00f5d	0.0781543
178	0x3c11d942	0.008901896
179	0x3b5cea32	0.0033708927
180	0xbd83a3b7	-0.064277105
181	0xbd9635e8	-0.073345006
182	0x3d796ea6	0.06089654
183	0xbd9c76d4	-0.07639852
184	0xbc8f8eb0	-0.017524093
185	0xbdaa0365	-0.08301429
186	0x3bced7b9	0.0063123372
187	0x3d80c1ee	0.06286989
188	0xbc88dc10	-0.016706496
189	0x3c4fdd3f	0.0126870265
190	0x3c3d0fc8	0.011539407
191	0xbc6a0a7e	-0.014284728
192	0x3d534b08	0.051585227
193	0x3b869c61	0.0041079973
194	0xbcf32a0a	-0.029683132
195	0xbd862897	-0.06550711
196	0x3dbd2815	0.09236161
197	0xbd6ffc08	-0.058589965
198	0x3da3b5f7	0.079936914
199	0x3bf0c23c	0.0073473733
200	0x3c106beb	0.008814792
201	0xbc818195	-0.01580886
202	0xbd710d23	-0.05885042
203	0x3d1a6128	0.03769031
204	0x3ce5e7ec	0.02806469
205	0xbd86af7d	-0.065764405
206	0x3c285997	0.010275266
207	0x3bfbcf52	0.0076846266
208	0xbd7ca0fa	-0.061676957
209	0x3d0f31e6	0.034959696
210	0xbdb8cf86	-0.09023957
211	0xbd3abd6a	-0.045590796
212	0xbd332bad	-0.043742824
213	0xbd404f32	-0.046950527
214	0x3d951a61	0.07280422
215	0xbd053d69	-0.03252927
216	0xbbbea142	-0.0058175633
217	0x3c32f6ef	0.010923131
218	0x3bc6000e	0.006042487
219	0x3db4562e	0.088055
220	0x3d073961	0.033013705
221	0x3da4632b	0.08026727
222	0xbd082f33	-0.033248138
223	0xbccac39a	-0.024751473
224	0x3c2d0c89	0.010562071
225	0x3d7418f6	0.059594117
226	0xbd0872e7	-0.033312704
227	0xbd308fc2	-0.043105848
228	0xbdae3765	-0.085066594
229	0xbc96fa8d	-0.018430019
230	0x3d0edae4	0.03487672
231	0x3d8c61c6	0.06854586
232	0xbdb18e88	-0.08669764
233	0x3dd515ce	0.104045495
234	0xbce8c18f	-0.028412608
235	0xbb79ee77	-0.003813652
236	0x3d2822cb	0.041048806
237	0x3d151949	0.036401067
238	0xbd4bbaa0	-0.049738526
239	0xbd8bb472	-0.068215266
240	0xbd8f1719	-0.069868274
241	0x3ca78118	0.020447299
242	0x39a07666	0.00030605792
243	0xbda1cde9	-0.07900602
244	0xbd90609b	-0.07049676
245	0xbca96eaa	-0.020682652
246	0xbdb68452	-0.08911957
247	0xbd8c279a	-0.06843491
248	0xbcd242a5	-0.025666544
249	0xbd8a9c60	-0.067681074
250	0xbdb332d9	-0.08749933
251	0x3c6c21e6	0.014412379
252	0xbcbe4107	-0.023224367
253	0x3cbbe57a	0.022936571
254	0x3dabb79b	0.08384629
255	0xbd7ec672	-0.06220097

lstm.bias_hh_l0 f4 [512]
0	0x3d1ecc4c	0.03876905
1	0x3da5d7f2	0.08097829
2	0xbd6e1a57	-0.05813059
3	0xba6d06db	-0.0009041854
4	0xbd38cd93	-0.045117926
5	0x3a9de9c3	0.0012047816
6	0xbd4f7709	-0.05065063
7	0xbcbb262f	-0.022845356
8	0xbd64dffc	-0.05587767
9	0x3d2951e2	0.041337855
10	0xbd36a7cf	-0.04459363
11	0x3df368c6	0.11885218
12	0x3d0801ce	0.033204846
13	0x3dc546a6	0.09632616
14	0x3daa2cb0	0.08309305
15	0xbc20cfe0	-0.009815186
16	0x3d7f7501	0.062367443
17	0x3dd9c7c4	0.106338054
18	0xbd5c0064	-0.05371131
19	0xbcd8cd7a	-0.026465166
20	0x3d8e417f	0.06946086
21	0x3d5a0edf	0.05323684
22	0x3d93a628	0.07209426
23	0x3be2021e	0.006897225
24	0xbcfc87a4	-0.030826397
25	0x3cf536aa	0.029933292
26	0xbcd0de5e	-0.025496658
27	0xbd3d594a	-0.04622773
28	0x3c22d16d	0.009937626
29	0x3d2b460d	0.041814853
30	0x3d272a27	0.040811684
31	0x3dd11649	0.10209329
32	0x3de6ba02	0.11265947
33	0x3d8f252d	0.069895126
34	0x3d9786ee	0.07398783
35	0xbd8fb9b1	-0.0701784
36	0x3dacf7c4	0.08445695
37	0x3d9ffab4	0.0781149
38	0xbd198dae	-0.037488632
39	0x3cc7729c	0.024346642
40	0x3d4395c2	0.047750242
41	0xbaa8b3c4	-0.0012870957
42	0x3d9d8b83	0.076926254
43	0x3d1a3b5f	0.037654277
44	0x3d0714c7	0.0329788
45	0x3d1f75a8	0.038930565
46	0xbb673869	-0.0035281426
47	0x3cfad180	0.030617476
48	0x3cbbee3a	0.022940744
49	0x3cf107f4	0.029422738
50	0x3dca85da	0.098888114
51	0x3c616cc4	0.013758842
52	0x3d1407da	0.0361403
53	0xbccee034	-0.025253393
54	0xbd6a7358	-0.057238907
55	0x3d7fbb7d	0.062434662
56	0x3d8ec471	0.06971062
57	0xbd2e5aa4	-0.04256691
58	0x3d79bed0	0.06097299
59	0x3d46eb9f	0.04856455
60	0x3aed646b	0.0018111592
61	0xbd7c8c77	-0.061657395
62	0x3d7a4011	0.061096255
63	0x3d8fe3b8	0.07025856
64	0x3cfecf33	0.03110466
65	0x3dd4b547	0.103861384
66	0x3ba8d1e0	0.005151972
67	0x3d8da6d9	0.06916589
68	0x3d68bc6a	0.05682031
69	0x3e01a455	0.12660344
70	0x3d56d876	0.052452527
71	0xbcc0ac67	-0.023519708
72	0x3cf7b9cb	0.03023996
73	0x3c8d5aca	0.017255206
74	0x3cb45fed	0.022018397
75	0x3d0ff7d7	0.035148468
76	0xbda7a28a	-0.08185299
77	0x3dc3c8ce	0.09559785
78	0x3cd3f5f9	0.025874125
79	0xb9eb89b2	-0.00044925284
80	0x3d8b40a3	0.06799438
81	0xbd9830fe	-0.074312195
82	0x3d8fe375	0.07025806
83	0x3bc5dd07	0.0060383114
84	0x3dc5228b	0.09625729
85	0x3d8d23d7	0.068916015
86	0xbcc99b97	-0.024610324
87	0xbc9a187f	-0.018810509
88	0xbd777241	-0.060411695
89	0x3ce8c2ed	0.02841326
90	0xbd018e3f	-0.031629797
91	0xbd2c7d28	-0.042111546
92	0xbc136ad0	-0.008997634
93	0x3d80aac1	0.06282569
94	0x3dbfe40e	0.0936967
95	0x3da4c559	0.080454536
96	0x3cf1e48c	0.029527925
97	0x3d45117f	0.04811239
98	0x3dff6aad	0.12471519
99	0x3dcad5e9	0.099040814
100	0x3d94ec0a	0.072715834
101	0x3d07ab17	0.03312215
102	0x3d1cef2f	0.03831404
103	0x3b774200	0.0037728548
104	0xbd8cc0f4	-0.068727404
105	0x3ca91a73	0.020642495
106	0x3caca7e3	0.021076148
107	0x3db5a9cc	0.08870277
108	0xbd6733e0	-0.056445956
109	0xbb097d15	-0.0020979096
110	0xbcebbb51	-0.028775843
111	0xbcf26680	-0.029589891
112	0x3da493a0	0.0803597
113	0x3ba4f572	0.005034142
114	0x3b9639dc	0.004584534
115	0xbcb93b90	-0.02261141
116	0xbc652bbf	-0.013987481
117	0x3c1a90b4	0.009433914
118	0x3d9c3870	0.07627952
119	0x3d5185b4	0.0511529
120	0x3dad1e8b	0.08453091
121	0xbd145bc6	-0.036220334
122	0x3be101ff	0.006866693
123	0xbcf08b98	-0.029363438
124	0xbd40c5aa	-0.047063507
125	0x3c8f4627	0.017489506
126	0x3d398e9b	0.045302015
127	0x3bc6d9f5	0.006068463
128	0xbc5a3883	-0.0133191375
129	0x3d619ade	0.055079333
130	0x3db6735d	0.089087225
131	0x3c285cb2	0.010276007
132	0x3c398cc3	0.011325064
133	0xbdc81750	-0.097700715
134	0x3d8ce507	0.06879621
135	0xbc328d72	-0.010897981
136	0xbd341d0f	-0.043973025
137	0xbc5162c8	-0.012779899
138	0xbd8354d6	-0.064126655
139	0x3d90c6ce	0.07069169
140	0x3d9f1147	0.07766967
141	0xbcbc42f3	-0.022981143
142	0xbd8f7e4f	-0.07006513
143	0x3d2d7918	0.042351812
144	0xbd10b33c	-0.03532718
145	0xbd71c9d7	-0.05903038
146	0xbd0332b2	-0.03203077
147	0x3bbea785	0.0058183097
148	0x3d5edd47	0.054410245
149	0xbd90c9b2	-0.0706972
150	0xbd9cc7d0	-0.07655299
151	0x3d7bf1fb	0.061510067
152	0x3d87703e	0.066132054
153	0x3ba7aa6d	0.005116752
154	0x3cb2a0b2	0.021805141
155	0xbd658c24	-0.05604185
156	0xbd42a403	-0.047519695
157	0x3b1f6d0a	0.0024326467
158	0x3d358b25	0.04432215
159	0x3d13c001	0.03607178
160	0xbc7b2ba5	-0.01533023
161	0xbd8007cf	-0.06251489
162	0x3d8e261a	0.06940861
163	0xbc0fb732	-0.0087717045
164	0xbc69929a	-0.014256144
165	0x3d9126f9	0.070875116
166	0x3cdaf177	0.026726468
167	0x3d187b1d	0.037226785
168	0x3cc6ec87	0.024282707
169	0x3d838025	0.06420926
170	0x3d329db0	0.043607414
171	0xbd63e2ab	-0.05563609
172	0xbd09c2c7	-0.03363302
173	0xbd7d7dc9	-0.061887536
174	0xbc7e2a17	-0.015512965
175	0x3d1ffc9f	0.039059278
176	0xbd982133	-0.07428207
177	0x3da29991	0.07939447
178	0x3d220fd3	0.039565872
179	0xbd65a070	-0.05606121
180	0xbd45c328	-0.04828182
181	0x3cd3ec94	0.025869645
182	0xbcd1c074	-0.025604464
183	0xbc72be0d	-0.014815819
184	0x3d330d30	0.04371375
185	0xbd6635e4	-0.056203738
186	0xbca5ab58	-0.020223305
187	0x3d915b0e	0.070974454
188	0x3d3e0eec	0.04640095
189	0xbd2fee04	-0.0429516
190	0x3d9ba02a	0.07598908
191	0xbc34a537	-0.011025718
192	0xbdad4a88	-0.08461481
193	0xbd8bf04f	-0.068329446
194	0xbd3f69a4	-0.046731606
195	0x3d92bd03	0.071649574
196	0xbd0449a2	-0.032296784
197	0xbdd01a0a	-0.101612166
198	0xbcb73802	-0.022365574
199	0x3d977df2	0.07397069
200	0x3cd8d30c	0.026467822
201	0x3c1732f0	0.009228453
202	0x3d86d5b6	0.06583731
203	0xbd0d18b0	-0.034447372
204	0xbd855cf4	-0.0651187
205	0x3dabb123	0.083833955
206	0x3d5cb837	0.05388662
207	0x3d86bd2e	0.06579052
208	0xbba002d1	-0.0048831482
209	0xbcabe120	-0.020981371
210	0xbb367db8	-0.002784593
211	0xbd9c5530	-0.07633436
212	0x3dad0c3f	0.084496014
213	0x3d2fb1a6	0.042894028
214	0x3de62e93	0.11239352
215	0x3dc38804	0.09547427
216	0x3da7cdc3	0.08193543
217	0x3d321540	0.043477297
218	0xbb39f3d4	-0.0028374093
219	0x3d6f8b7f	0.058482643
220	0x3c93bd62	0.01803464
221	0x3ccc5d74	0.024946906
222	0x3c3e0681	0.01159823
223	0x3d07ebd6	0.033183895
224	0x3d35831c	0.04431449
225	0xbd789ef1	-0.060698453
226	0x3d853b75	0.06505481
227	0xbd680ea1	-0.056654576
228	0xbd816d2e	-0.063196525
229	0x3d98fed3	0.07470479
230	0x3d4f7460	0.050648093
231	0x3dd65f2b	0.104673706
232	0x3cd40ad9	0.025884079
233	0xbd8805cd	-0.066417314
234	0x3d18e9a0	0.037332177
235	0xbd932849	-0.07185418
236	0xbd1c94c1	-0.0382278
237	0x3ce99336	0.028512578
238	0x3997cc03	0.00028952965
239	0xbd8cdab6	-0.06877653
240	0xbc05c1b7	-0.008163861
241	0x3d484fb5	0.04890414
242	0x3d83d801	0.06437684
243	0x3daf2963	0.08552816
244	0xbd9effbc	-0.07763621
245	0x3cc8bd91	0.024504455
246	0x3bc0d705	0.0058850073
247	0xbdda7fde	-0.1066892
248	0x3d462fa5	0.04838528
249	0x3d92e5cd	0.07172737
250	0x3d194caa	0.03742663
251	0x3d4a34d7	0.0493668
252	0xbd4694d1	-0.048481766
253	0x3cf4660f	0.029833822
254	0x3c93a7d7	0.018024368
255	0xbd50c7ba	-0.050971724

mlp_head.0.weight f4 [64, 128]
0	0x3ca73c74	0.020414568
1	0xbbff93fd	-0.007799624
2	0xbd39d41d	-0.045368303
3	0x3d230573	0.03980012
4	0x3c98e93f	0.018665908
5	0x3d780824	0.06055464
6	0xbc712f3a	-0.014720732
7	0xbd8419b3	-0.06450214
8	0xbd8485b8	-0.06470817
9	0xbd9a5fea	-0.075378254
10	0xbd887346	-0.06662612
11	0xbda91a0d	-0.08256922
12	0x3d11e437	0.035618033
13	0x3d97020b	0.073734365
14	0x3d41d262	0.047319777
15	0x3d1ffa39	0.03905699
16	0xbd12bffb	-0.035827618
17	0x3ce5c702	0.028048996
18	0x3d33d6c1	0.043905977
19	0xbd36c60c	-0.044622466
20	0xbd91e068	-0.0712288
21	0xbcfa1069	-0.030525403
22	0x3d141519	0.036152933
23	0xbd56e104	-0.052460685
24	0xbdcdf6e1	-0.10056854
25	0x3ce4c205	0.027924547
26	0x3c96e311	0.01841882
27	0x3d024731	0.031806175
28	0xbd623d57	-0.05523428
29	0x3ce743f9	0.028230654
30	0xbcc990fb	-0.024605265
31	0xbac5178b	-0.0015036924
32	0xbc5edd76	-0.013602605
33	0x3d9dc33c	0.077032536
34	0x3d195d8f	0.03744274
35	0xbd010370	-0.03149742
36	0x3dc1008b	0.09423932
37	0xbd383c7f	-0.04497957
38	0xbb925670	-0.0044658706
39	0xbd9f105e	-0.07766794
40	0x3becb018	0.0072231404
41	0x3da2fe71	0.07958687
42	0xbd276965	-0.040871996
43	0x3d80387b	0.06260773
44	0x3d9e809f	0.07739376
45	0xbcf116aa	-0.029429752
46	0x3da135f8	0.07871622
47	0xbd36bd69	-0.04461423
48	0xbd0a37e8	-0.033744723
49	0x3c88c6be	0.01669633
50	0x3cc20f5c	0.023688965
51	0xbd77429a	-0.06036625
52	0xbd22201d	-0.039581407
53	0x3ba6966c	0.0050838497
54	0xbd904ce7	-0.07045918
55	0x3d7f1d18	0.062283605
56	0xbd725d55	-0.05917104
57	0xbcac52b6	-0.021035533
58	0x3d030e0d	0.03199582
59	0x3d30ebd6	0.04319366
60	0x3d7f456a	0.062322058
61	0xbcb084d7	-0.021547718
62	0xbd20b14d	-0.039231587
63	0xbd93f8c5	-0.072251834
64	0xbbba82b1	-0.005691849
65	0x3dd32cb1	0.103112586
66	0xbb8efaaf	-0.00436338
67	0xbd8ff4b1	-0.07029093
68	0xbcfb02eb	-0.03064104
69	0x3daa9685	0.083294906
70	0xbd8453f8	-0.06461328
71	0x3d9bc17a	0.07605262
72	0x3c4a812a	0.012359897
73	0xbd3f7d40	-0.046750307
74	0xbdad1c80	-0.084527016
75	0x3d6509d0	0.05591756
76	0xbafdc9dc	-0.0019362527
77	0xbd1b4b7e	-0.03791379
78	0xbcc1db24	-0.023664065
79	0xbd2a26c8	-0.04154089
80	0x3de8c136	0.11364977
81	0xbda1c8cd	-0.07899628
82	0x3d683983	0.056695472
83	0xbdb1a72e	-0.08674465
84	0x3bd4dbf7	0.0064959484
85	0x3d900ab1	0.07033289
86	0xbd2ef1bc	-0.042711005
87	0xbc907245	-0.017632613
88	0xbd59cb1c	-0.053172216
89	0x3b8d346a	0.0043092268
90	0xbca2c8e3	-0.01987118
91	0x3da7c2bd	0.0819144
92	0x3d90eec4	0.07076791
93	0xbb49850f	-0.0030749475
94	0xbde03229	-0.10947067
95	0xbd8b094f	-0.06788885
96	0x3da1a548	0.07892853
97	0x3d74e93c	0.059792742
98	0x3db29583	0.08719923
99	0x3c9f7e2d	0.019469345
100	0xbdbe29b6	-0.092852995
101	0xbd7e93d5	-0.062152702
102	0xbb06c175	-0.0020562087
103	0x3dbcea2b	0.092243515
104	0x3cca1d8b	0.02467229
105	0xbcaf4474	-0.021394946
106	0x3dd05929	0.10173256
107	0xbd1f2786	-0.03885605
108	0xbd3757c2	-0.044761427
109	0xbc81a9e2	-0.015828077
110	0x3d61fa7e	0.05517053
111	0x3dcb70df	0.09933638
112	0xbd007837	-0.031364646
113	0xbd0e9eb6	-0.034819327
114	0x3db4d78b	0.08830174
115	0x3d176bdb	0.036968093
116	0x3cf6d41e	0.030130442
117	0xbdc70061	-0.09716869
118	0xbd89ca07	-0.06727987
119	0x3d72fbc2	0.059322126
120	0xbdb36920	-0.087602854
121	0xb946f404	-0.00018973654
122	0x3d6b8560	0.057500243
123	0xbd0bd5a0	-0.034139276
124	0x3d56f3a4	0.052478448
125	0xbd22fe34	-0.03979321
126	0x3c46349d	0.012097505
127	0x3ceb0955	0.028690973
128	0xbc26b46b	-0.010174851
129	0xbdcbf841	-0.0995946
130	0x3d29b08c	0.041428134
131	0x3cb139bd	0.021633977
132	0x3d0ff910	0.035149634
133	0x3d12557b	0.03572605
134	0x3be6b5d8	0.0070407204
135	0xbd7ded42	-0.061993845
136	0xbd85c05c	-0.0653083
137	0xbd8dea2f	-0.069294326
138	0xbd915257	-0.07095783
139	0xbdde4e68	-0.108547986
140	0xbb014e10	-0.0019730367
141	0x3de91d20	0.11382508
142	0x3d1d514f	0.03840762
143	0x3babf337	0.0052474993
144	0xbd3966d2	-0.045264073
145	0x3b07627a	0.0020658062
146	0x3d9cab13	0.07649817
147	0xbdb71b9c	-0.08940813
148	0x3d5ace4e	0.053419404
149	0x3d955085	0.072907485
150	0xbd5126e9	-0.0510625
151	0x3d50924e	0.050920777
152	0xbd02cce1	-0.03193367
153	0x3d94e213	0.07269683
154	0xbdb694f4	-0.08915129
155	0x3db56e21	0.08858896
156	0x3dc05ab8	0.09392303
157	0x3cd6c8e3	0.026218837
158	0xbd6dfd8d	-0.058103133
159	0x3d266971	0.0406279
160	0x3d817399	0.06320877
161	0x3d2d66e6	0.04233446
162	0x3d83b36d	0.06430707
163	0xbd48c328	-0.04901424
164	0x3dc958b2	0.098313704
165	0x3dcc1429	0.09964783
166	0xbd0d9493	-0.03456552
167	0xbd02a508	-0.031895667
168	0xbcd87771	-0.026424142
169	0x3d7f26cc	0.06229286
170	0xbca81795	-0.020519057
171	0xbc20741a	-0.009793306
172	0x3dbc6afb	0.092000924
173	0x3d753ca9	0.059872303
174	0x3d7473d5	0.05968078
175	0xbdcf81bd	-0.101321675
176	0x3d87a057	0.06622379
177	0xbcdd3710	-0.027003795
178	0xbcbc228e	-0.022965696
179	0x3db9108c	0.09036359
180	0xbd87605a	-0.066101745
181	0x3dcce601	0.10004807
182	0xbde1d098	-0.11026114
183	0xbc81fad2	-0.01586667
184	0xbd1f875f	-0.03894746
185	0x3dec4fd9	0.11538667
186	0xbdc5c652	-0.09656967
187	0xbd25f4c9	-0.04051665
188	0x3d1268d9	0.03574452
189	0x3cc85b79	0.02445768
190	0x3db0d547	0.086344294
191	0x3c72ee6a	0.01482735
192	0xbd067171	-0.03282303
193	0xbc3b7f18	-0.011443876
194	0xbd9c1a9c	-0.07622263
195	0xbaeb58b6	-0.0017955515
196	0xbd863b09	-0.06554229
197	0x3da16ed1	0.07882465
198	0x3d0a0c7c	0.033703312
199	0x3c89a5ec	0.01680275
200	0x3d4ad220	0.049516797
201	0xbd1c6569	-0.03818265
202	0x3d71b08b	0.059006255
203	0xbd343e6e	-0.04400485
204	0x3db78d42	0.0896249
205	0xbc2effdb	-0.010681118
206	0x3d6680ae	0.056275062
207	0xbdee61dc	-0.11639759
208	0xbd0ed2ab	-0.034868877
209	0x3cc7eb14	0.024404086
210	0x3d505c79	0.05086944
211	0x3b3a9602	0.002847076
212	0x3d0ca8b9	0.034340594
213	0x3d2e6fde	0.042587154
214	0xbd044d91	-0.032300536
215	0xbd8fc516	-0.07020013
216	0xbd19bb1b	-0.037531953
217	0xbd2874c8	-0.041126996
218	0xbd4922d9	-0.0491055
219	0xbcd99860	-0.026561916
220	0xbd8d5545	-0.069010295
221	0x3ce2b2a2	0.02767307
222	0xbde7bad8	-0.113149345
223	0xbccb622b	-0.024827084
224	0x3cacf37b	0.021112194
225	0x3d9c6f9d	0.07638476
226	0x3c4de138	0.012565903
227	0x3cf42ebb	0.02980744
228	0x3b0efc6f	0.0021817943
229	0xbaa2313c	-0.0012374292
230	0xbcb29c9b	-0.021803191
231	0xbc95e156	-0.018295925
232	0x3d271e57	0.04080042
233	0xbcbdf1be	-0.02318656
234	0xbd874509	-0.06604964
235	0x3d7addc5	0.061246652
236	0xbd81a112	-0.0632955
237	0xbcadf719	-0.02123599
238	0xbc2878f1	-0.010282741
239	0x3c34bcdf	0.0110313585
240	0xbc95f0f1	-0.018303366
241	0xbcc63607	-0.024195684
242	0xbd4ad021	-0.049514893
243	0xbd656088	-0.056000262
244	0x3d835a96	0.06413762
245	0xbddb34cb	-0.10703429
246	0xbd1d7d0e	-0.03844934
247	0x3be9f873	0.007140213
248	0x3b793b8b	0.0038029875
249	0xbd111a56	-0.035425507
250	0x3d37fea7	0.04492059
251	0x3dd234c0	0.102639675
252	0x3c14f344	0.009091202
253	0x3d065a31	0.032800857
254	0xbc71c5c8	-0.014756627
255	0x3c3fd6c1	0.011708916

mlp_head.0.bias f4 [64]
0	0x3d168cec	0.036755487
1	0xbd1baf38	-0.0380089
2	0xbda04c11	-0.078270085
3	0x3d72a5e2	0.05924023
4	0x3dbe4c62	0.092919126
5	0x3d5818f7	0.052758183
6	0xbd659042	-0.056045778
7	0xbd4b53d7	-0.049640503
8	0xbd12d02c	-0.03584306
9	0x3cd4ce09	0.025977151
10	0xbba4c822	-0.0050287405
11	0x3d17c349	0.037051473
12	0xbccf762b	-0.025324902
13	0x3d520d46	0.05128219
14	0xbc3cc651	-0.011521892
15	0x3a590e8f	0.00082800625
16	0xbb9ac278	-0.0047228895
17	0x3c3cccaa	0.011523405
18	0x3baf9316	0.00535811
19	0xbd9f9da5	-0.0779374
20	0x3d7e1ca4	0.062039033
21	0xbb829641	-0.003985197
22	0xbd3a1b40	-0.045436144
23	0x3d5e8885	0.054329414
24	0xbc360141	-0.011108697
25	0xbd7ac01d	-0.06121837
26	0x3db0c999	0.08632202
27	0x3c6c6e6d	0.014430624
28	0x3d7b3981	0.061334137
29	0x3ce9b9ff	0.028531073
30	0xbd7d2afd	-0.061808575
31	0xbd3d6f97	-0.046249
32	0xbd800818	-0.06251544
33	0xbce4d558	-0.027933761
34	0x3d874876	0.06605618
35	0xbd3b0f1b	-0.045668703
36	0xbd9ac118	-0.07556361
37	0xbd0859ff	-0.033288952
38	0x3c5bc02d	0.0134125175
39	0xbcf03e83	-0.029326683
40	0xbb3dd088	-0.0028963406
41	0xbd6a4b80	-0.05720091
42	0x3dbc6e34	0.09200707
43	0xbc2061e1	-0.009788961
44	0x3d70c5a6	0.058782242
45	0x3d823408	0.063575804
46	0xbd33f15e	-0.043931358
47	0x3d423286	0.047411464
48	0x3d5af284	0.053453937
49	0x3cc5b819	0.024135636
50	0xbc15f6ad	-0.00915305
51	0x3db8c12a	0.09021218
52	0xbc01071e	-0.007875232
53	0x3dbf3308	0.09335905
54	0x3cca7e9e	0.024718579
55	0xbc713894	-0.014722962
56	0x3daf42f1	0.0855769
57	0x3cb0a47c	0.021562807
58	0x3dd244ce	0.1026703
59	0x3c135f86	0.0089949425
60	0xbd4d70de	-0.050156467
61	0xbd44e5c0	-0.04807067
62	0x3cc1668a	0.023608465
63	0xbd553e17	-0.052061167

mlp_head.2.weight f4 [64, 64]
0	0xbcedb93f	-0.029018996
1	0x3d86974d	0.06571827
2	0x3d1db94c	0.03850679
3	0x3cb0d64f	0.021586565
4	0xbda32bfc	-0.07967374
5	0xbd436b31	-0.047709648
6	0x3d6429a9	0.055703793
7	0xbd8b9496	-0.0681545
8	0xbd86fc54	-0.065910965
9	0x3be3b79e	0.006949379
10	0xbba73dc7	-0.0051038
11	0x3db4b3e6	0.088233754
12	0x3d2aba0b	0.04168133
13	0xbb718b60	-0.0036856756
14	0x3cef0ea9	0.029181795
15	0x3d25ba58	0.040460914
16	0x3cde0290	0.027100831
17	0xbdd14166	-0.10217552
18	0x3e209c4b	0.15684621
19	0xbd835a1d	-0.06413672
20	0x3d88543b	0.06656691
21	0x3d917fb5	0.07104436
22	0xbd8a9437	-0.06766551
23	0xbd730098	-0.059326738
24	0x3d273a36	0.040827
25	0xbdab6958	-0.08369702
26	0xbca3c6b6	-0.019992214
27	0x3db77b47	0.0895906
28	0xbd87aec5	-0.066251315
29	0x3dfbd2a7	0.12296038
30	0xbde6123d	-0.112339474
31	0x3dcd716f	0.10031401
32	0xbd26662f	-0.040624794
33	0xbd9b1ef8	-0.07574266
34	0x3dee86ee	0.116468295
35	0x3df756ea	0.120771244
36	0xbd85b65e	-0.065289244
37	0x3db6aa22	0.08919169
38	0xbdbea9a0	-0.09309697
39	0xbdb19535	-0.08671037
40	0x3dc47e75	0.09594432
41	0x3e11d5c6	0.14241704
42	0xbe059951	-0.13046767
43	0x3e15b9a2	0.14621595
44	0xbe03c8ce	-0.1286957
45	0x3dc8db60	0.098074675
46	0xbe084671	-0.13308121
47	0xbdf06eef	-0.11739909
48	0xbc194e8a	-0.009357104
49	0x3d3e6ba0	0.046489358
50	0xbd84f4c6	-0.06491999
51	0xbdae529c	-0.0851185
52	0x3d8ab06d	0.06771932
53	0xbdb68d30	-0.08913648
54	0xbd9a1dce	-0.07525216
55	0xbd8aa74f	-0.06770193
56	0x3d0b3a3e	0.03399109
57	0x3d9548b2	0.07289256
58	0x3c65c62e	0.0140243005
59	0x3c434280	0.01191771
60	0x3d830a5d	0.06398461
61	0xbc52496d	-0.012834889
62	0x3c5106a1	0.012757928
63	0x3dd1740e	0.10227214
64	0x3de5c54e	0.112192735
65	0x3d8db47a	0.06919189
66	0xbddebf08	-0.1087628
67	0xbdcd501e	-0.10025047
68	0x3c389f18	0.0112684
69	0xbe06380a	-0.13107315
70	0xbdb72fd0	-0.089446664
71	0x3cc1bf3c	0.023650758
72	0xbd71cd72	-0.05903382
73	0x3db93507	0.09043317
74	0xbddd5e7c	-0.10809037
75	0x3d8a78e8	0.06761342
76	0xbd24fc15	-0.040279467
77	0x3db952fd	0.09049032
78	0x3c63f7a4	0.013914023
79	0x3d246013	0.040130686
80	0x3bfcc8a8	0.00771435
81	0xbdb90076	-0.09033291
82	0x3dd1498e	0.102191076
83	0x3d947a31	0.07249869
84	0xbdbd1cdd	-0.09234021
85	0x3c42064a	0.01184232
86	0x3b102b94	0.002199863
87	0xba01493b	-0.00049318717
88	0xbde3b9fd	-0.11119459
89	0xbddc59a7	-0.10759287
90	0xbdc13e1d	-0.09435675
91	0x3d3deae4	0.046366587
92	0x3dbf2cbb	0.093347035
93	0xbda3e681	-0.080029495
94	0xbdb8c84e	-0.0902258
95	0xbd6b99ef	-0.05751985
96	0xbdc274db	-0.09494945
97	0x3dcc1cf8	0.09966463
98	0x3d8a2d21	0.06746889
99	0x3dcd6d24	0.100305825
100	0x3c8240f3	0.01590011
101	0x3d715f37	0.058928695
102	0xbe10b314	-0.14130813
103	0xbd2e48b7	-0.042549815
104	0x3db86e1c	0.09005377
105	0xbc505c8d	-0.012717378
106	0x3d58ca7e	0.052927487
107	0xbdd66fbb	-0.1047053
108	0xbd404581	-0.046941284
109	0xbdfda4aa	-0.12384923
110	0x3de68193	0.11255183
111	0x3d9d21eb	0.07672485
112	0xbe047853	-0.12936525
113	0x3b11f82f	0.0022273173
114	0xbda45f27	-0.08025961
115	0xbc1ce59c	-0.0095762275
116	0x3de34b83	0.11098387
117	0x3b3d0656	0.0028842888
118	0x3cddb975	0.027065972
119	0x3da671e0	0.08127189
120	0xbd65438b	-0.055972617
121	0xbd4dbbc5	-0.0502279
122	0x3d827d37	0.06371539
123	0xbcc7866c	-0.02435609
124	0xbdbf40c3	-0.09338524
125	0x3d2e0d10	0.042492926
126	0x3df042f7	0.117315225
127	0x3c305d31	0.010764406
128	0x3c6305ed	0.013856393
129	0x3dcab063	0.09896924
130	0x3d9b0ddf	0.07571005
131	0x3d77ad7a	0.060468175
132	0x3dcdff6b	0.10058483
133	0xbd5490d5	-0.051895935
134	0x3d14a809	0.036293063
135	0xbd56287d	-0.052284706
136	0x3dc0b229	0.09408981
137	0x3d5f064f	0.054449376
138	0x3d4d1b9f	0.05007517
139	0x3dd1a810	0.102371335
140	0x3d924ade	0.07143186
141	0x3d324dd5	0.043531258
142	0x3caef49d	0.021356875
143	0xbccfdf67	-0.025375081
144	0xbda8b379	-0.08237357
145	0xbbe4bf78	-0.0069808327
146	0x3c8b5f31	0.017013164
147	0xbdaa7c32	-0.083244696
148	0x3d45438d	0.048160125
149	0xbd932282	-0.07184316
150	0x3d219670	0.03945011
151	0x3d6d2f7c	0.057906613
152	0xbd1d9ef5	-0.03848167
153	0xbd6cf81f	-0.057853814
154	0x3cf749e5	0.030186603
155	0xbe13b74d	-0.14425392
156	0xbe07716e	-0.13226864
157	0xbdddbd52	-0.108271256
158	0xbcc12392	-0.023576532
159	0x3de975bd	0.1139941
160	0x3d0895b9	0.03334591
161	0x3d7d9375	0.061908204
162	0x3d29eab0	0.04148358
163	0x3c710fa2	0.0147132
164	0xbd88daa5	-0.06682328
165	0x3dec283d	0.11531112
166	0x3ceb6767	0.02873583
167	0x3dae1f09	0.08502013
168	0xbd03b5fb	-0.032155972
169	0xbddcf518	-0.107889354
170	0x3d81eaa6	0.06343584
171	0x3d847716	0.06468026
172	0xbcc387e3	-0.023868507
173	0x3d5f32f3	0.05449195
174	0x3c9b8c15	0.018987695
175	0xbc9d6a2d	-0.019215668
176	0x3dfcdc2e	0.123466834
177	0x3c2d65a6	0.010583317
178	0x3da7c3da	0.081916526
179	0x3c3503fc	0.011048313
180	0x3de57fb5	0.11205999
181	0x3d408cd8	0.04700932
182	0x3dd8a294	0.10577884
183	0x3d253565	0.040334124
184	0xbddf5515	-0.109049
185	0xbe0e7c99	-0.13914718
186	0x3dab88a1	0.08375669
187	0xbdfed34b	-0.12442645
188	0x3c8510db	0.016243389
189	0x3db9630c	0.09052095
190	0x3ca42500	0.020037174
191	0xbc8eb6a4	-0.017421074
192	0xbc508b4e	-0.012728525
193	0xbc2c2a3c	-0.010508116
194	0x3cb4e071	0.022079678
195	0x3c39f8c5	0.011350815
196	0xbdf078f5	-0.11741821
197	0xbd7e0e6e	-0.06202548
198	0x3dc6f76c	0.09715161
199	0xbd103402	-0.03520585
200	0xbcb27aad	-0.021787012
201	0xbdba4e54	-0.09096971
202	0xbe0d90b9	-0.13824739
203	0x3dfc41f2	0.123172656
204	0x3dacd749	0.084395
205	0x3d0c1e32	0.034208484
206	0x3dc4fa45	0.096180476
207	0x3e10f492	0.14155796
208	0xbd9a9658	-0.07548207
209	0xbd24c2f8	-0.040225
210	0x3e2142dd	0.15748163
211	0x3d80a7b7	0.06281989
212	0x3e26c1dc	0.16284889
213	0x3e154e73	0.14580707
214	0x3d2d9825	0.042381424
215	0xbd8b04e8	-0.06788045
216	0xbc8036cd	-0.015651131
217	0x3da7c285	0.081913985
218	0xbdd80c48	-0.105492175
219	0x3ccb1778	0.024791464
220	0xbdaa6e60	-0.083218336
221	0xbd6808f9	-0.056649182
222	0x3dbacc3b	0.09120985
223	0x3ddb88d1	0.10719455
224	0xbc8f9893	-0.017528808
225	0x3d81ea71	0.06343544
226	0x3d9adcd1	0.07561649
227	0x3e0ba96a	0.13638845
228	0xbd4c32b0	-0.049853027
229	0xbdcfa77a	-0.101393655
230	0x3dd660b3	0.10467663
231	0x3db83ca6	0.08995943
232	0xbdb8eba3	-0.09029319
233	0x3c47ee0a	0.012202749
234	0xbc04300d	-0.008068097
235	0x3ddbe5dd	0.10737202
236	0xbd61dccc	-0.05514221
237	0x3d9f3131	0.077730544
238	0xbda417f7	-0.080123834
239	0xbc97f336	-0.01854859
240	0xbd820744	-0.06349042
241	0x3d909f22	0.07061602
242	0x3be8cb24	0.0071042944
243	0xbd50afbb	-0.05094884
244	0x3b86d49e	0.0041147014
245	0xbd8bb529	-0.06821663
246	0xbba07ea8	-0.004897911
247	0x3dec08e4	0.11525133
248	0xbda824af	-0.08210122
249	0x3d48c33f	0.049014326
250	0x3c84c80e	0.016208675
251	0x3decb7b4	0.11558476
252	0x3dfd8c7c	0.12380311
253	0x3ddb70a6	0.10714845
254	0x3ca2b734	0.019862749
255	0x3df5f0f0	0.12008846

mlp_head.2.bias f4 [64]
0	0x3e088710	0.13332772
1	0xbddd6f73	-0.10812273
2	0xbd1e36c8	-0.038626462
3	0xbcfd5952	-0.03092638
4	0xbc11007b	-0.008850212
5	0x3d137721	0.036002282
6	0xbc9210f0	-0.017830342
7	0xbdbe21ea	-0.09283812
8	0x3dd9b513	0.1063024
9	0xbd27beab	-0.04095332
10	0x3ddfe3fa	0.10932155
11	0x3c5f62e1	0.013634414
12	0xbdb7d55a	-0.089762405
13	0xbdec43e0	-0.11536384
14	0x3dfd8963	0.1237972
15	0x3cbe7f1d	0.023253972
16	0xbd9d3c39	-0.07677502
17	0x3cc8fa40	0.024533391
18	0xbdececdd	-0.115686156
19	0xbdc17997	-0.094470195
20	0x3dacc950	0.08436835
21	0x3d59e290	0.053194582
22	0xbd71c567	-0.05902615
23	0x3e015f37	0.12633978
24	0xbd59adce	-0.05314427
25	0x3ce5b515	0.028040448
26	0xbdf547a8	-0.11976558
27	0x3d8c1ed0	0.068418145
28	0xb9761754	-0.00023469079
29	0x3dcaf46f	0.09909903
30	0xbd6bef0b	-0.057601016
31	0x3cc3941b	0.023874333
32	0xbd177d50	-0.03698474
33	0x3def04f8	0.116708696
34	0x3d64962f	0.05580729
35	0x3ddd5c73	0.10808649
36	0xbcc9af8e	-0.024619844
37	0x3d5e9f52	0.05435116
38	0xbc9ab114	-0.018883266
39	0xbcaeebd9	-0.021352695
40	0x3d35aa24	0.044351712
41	0x37c66b95	2.3653536e-05
42	0x3d5c131e	0.05372917
43	0x3da5d50c	0.08097276
44	0x3d7bef45	0.061507482
45	0x3da067b4	0.0783228
46	0xbd516ec0	-0.05113101
47	0x3da01541	0.07816554
48	0xbdb7d075	-0.08975307
49	0x3ce1dc86	0.027570974
50	0x3de5f2fd	0.11227987
51	0xbd941633	-0.07230797
52	0xbdd8a049	-0.10577447
53	0x3d8506dd	0.0649545
54	0x3cbc4919	0.022984074
55	0xbc99ede4	-0.018790193
56	0xbce66498	-0.028124139
57	0x3de699ad	0.1125978
58	0xbd736b20	-0.059428334
59	0xbcfc4b12	-0.030797515
60	0x3df609f9	0.12013621
61	0xbbaa8327	-0.005203623
62	0x3d2cd3db	0.04219423
63	0x3d7c9c16	0.061672293

mlp_head.4.weight f4 [1, 64]
0	0xbe195a7d	-0.14975925
1	0x3d8065d7	0.062694244
2	0x3d9bf1fd	0.07614515
3	0xbd0e2096	-0.034699045
4	0x3de82395	0.11334912
5	0xbd7d541d	-0.061847795
6	0x3dccd5da	0.100017264
7	0xbdb18bdb	-0.086692534
8	0x3e104c45	0.14091595
9	0xbd8f3f78	-0.069945276
10	0xbe0a746c	-0.13520974
11	0x3d7841cf	0.060609635
12	0xbe17f7c1	-0.14840604
13	0x3d83e406	0.064399764
14	0x3d49219e	0.049104325
15	0xbdc5e4b3	-0.096627615
16	0xbd5acf40	-0.053420305
17	0x3dd912a9	0.10599262
18	0x3d8ef5be	0.06980465
19	0x3da8bb74	0.08238879
20	0x3e013f51	0.1262181
21	0x3e05e5f6	0.13076004
22	0x3da817b7	0.08207648
23	0xbd4e9c88	-0.05044225
24	0xbcd7c22a	-0.026337702
25	0x3d133b65	0.035945315
26	0xbd0fd51c	-0.035115346
27	0xbd82d129	-0.063875504
28	0x3d2362dd	0.039889205
29	0xbe04bad9	-0.12961902
30	0xbda482fb	-0.08032795
31	0xbda85908	-0.08220106
32	0xbdc1d5a1	-0.094645746
33	0xbd375388	-0.044757396
34	0x3e1bf163	0.152288
35	0xbe1c3835	-0.15255816
36	0x3e1c0c12	0.1523898
37	0x3df4ea12	0.11958708
38	0xbd83e270	-0.06439674
39	0x3ddd5454	0.108071
40	0xbdb62c86	-0.08895211
41	0x3dff9af7	0.12480729
42	0xbddc9034	-0.10769692
43	0x3df2e077	0.118592195
44	0xbe0336b9	-0.12813844
45	0x3e16f02b	0.14740054
46	0xbc2c4397	-0.010514162
47	0xbcf213eb	-0.029550513
48	0x3e1fda59	0.15610637
49	0x3e03beb2	0.12865713
50	0x3d8c8450	0.06861174
51	0xbe16a162	-0.1471
52	0x3d888bc6	0.06667285
53	0x3e160633	0.14650802
54	0xbd2dc29a	-0.042421915
55	0x3db9d1cd	0.090732194
56	0x3d8e20c2	0.06939842
57	0xbdb18686	-0.086682364
58	0xbd443abf	-0.047907587
59	0x3db21487	0.086953215
60	0x3cc3e8fc	0.023914807
61	0x3dab8b2a	0.08376153
62	0x3d67fecf	0.05663949
63	0x3de9b28e	0.1141101
