runs/8_hour_forecasting/274/best_model.pt (torch, 155769 bytes, 6 tensors)

net.0.weight f4 [64, 522]
0.04096344 0.05052379 0.001544783 0.051825527 -0.0008343227 0.0023647693 -0.035652656 0.021161223
0.03498961 -0.029547522 0.015468395 -0.0076170135 0.018748038 -0.011253688 0.0065614553 -0.025757682
0.0117462035 -0.013902554 -0.038663115 -0.0037013309 -0.0047942186 0.008065817 -0.0015963507 0.04513673
-0.0034592615 -0.005906232 -0.00933023 -0.026662143 0.0048822155 -0.031991366 0.053647462 -0.026020993
0.04629352 0.012077434 -0.020708492 0.013901989 0.004079253 0.031667158 0.0056222323 -0.03188994
-0.0019214165 -0.026679456 0.0010181245 0.02790314 0.007627675 -0.03907857 0.0073581384 -0.007863805
0.00998424 -0.012719614 -0.030957535 -0.001071825 -0.018506395 0.06590373 0.0269503 0.02038853
0.013497126 -1.0146704e-05 0.04759695 -0.017153028 0.012031053 -0.0157195 0.01977459 -0.02248097
0.00044218506 -0.009334816 0.032291677 -0.025154864 -0.040933378 -0.03605783 0.024776548 -0.0018967354
0.033568922 -0.051898494 -0.061355956 -0.049685933 -0.04260677 0.008083251 0.029082287 0.04766508
-0.007172072 -0.015426312 0.052013904 -0.0032889538 0.028035454 -0.010731474 0.025789212 -0.020849844
-0.010744464 0.022288775 0.023142423 -0.004614735 0.017277965 0.018221973 -0.031535473 -0.026174815
0.041138258 -0.028834304 -0.025277195 -0.05570878 -0.03941062 0.0034548168 -0.019686598 -0.047778964
-0.011965405 -0.040554076 -0.04421611 -0.011128951 -0.028014526 -0.013252558 0.056997567 0.036131803
0.027936129 -0.04017621 -0.029091261 -0.01381722 0.019176776 -0.02618988 -0.0094373645 -0.011517666
0.004882446 -0.025321938 -0.013014212 -0.030236747 -0.03279232 -0.025045382 -0.027714197 -0.041767634
0.021154482 -0.022085764 0.029089876 0.0015680818 -0.051174507 0.01976064 -0.020180754 -0.021331705
-0.023901062 -0.034528434 0.025893098 0.003093989 0.044121988 -0.021439893 0.032321267 -0.032473445
-0.0068061226 0.023486037 0.035453122 0.04412877 0.050844792 -0.030184066 0.0023121615 -0.02859185
-0.0070366133 -0.0354408 0.040357217 -0.042443197 0.0154640535 -0.0004946422 0.0032764508 -0.029153137
0.029534476 -0.0026409808 -0.0024362258 -0.044151418 0.016364604 0.004924071 -0.012640246 0.049294077
0.022669854 0.0017714719 -0.007657662 -0.0030991854 0.024093995 -0.010432643 -0.010718287 -0.0013006602
-0.021954233 0.026826935 0.03811867 -0.048896126 -0.00042140862 0.01864831 0.005563509 -0.015484665
0.012210319 0.017419286 4.985589e-05 -0.015961995 -0.014471495 -0.003764601 -0.018175974 -0.018608827
0.025024716 0.038159482 0.006424052 -0.0040095677 0.010141037 0.0097332 0.035160612 0.026760159
-0.041609786 -0.01649709 0.037610967 0.03065537 0.01027304 -0.014448955 -0.014241633 -0.03297968
-0.020800622 0.004528802 0.021714715 0.01736201 -0.039365366 -0.037675604 -0.013139668 0.026094195
0.00056905276 -0.011205488 0.0114640165 -0.02535772 -0.031346653 0.0316728 -0.016767967 0.0012371049
-0.0400023 0.03682107 0.044982415 0.03928786 -0.016042402 -0.045910627 -0.035892483 0.03339029
0.033895202 0.049118645 0.03283047 0.024161248 0.004685622 -0.03971616 -0.047211938 -0.048649445
0.014257938 -0.022848058 -0.018452253 -0.030726012 -0.021365141 -0.035634656 -0.024989828 0.009673154
-0.019963216 0.026600149 -0.011572513 -0.02636577 0.0016997379 -0.02062727 -0.008704806 -0.030505016
00000000: 48c9 273d 09f2 4e3d 517a ca3a 0147 543d
00000010: 73b6 5aba 3ffa 1a3b 8508 12bd 4d5a ad3c
00000020: 4451 0f3d a50d f2bc 276f 7d3c 2498 f9bb
00000030: 7c95 993c 6361 38bc 7a01 d73b c601 d3bc
00000040: 2673 403c 8ac7 63bc 375d 1ebd 0792 72bb
00000050: d218 9dbb 7d26 043c a43c d1ba 4be1 383d
00000060: c7b4 62bb 1189 c1bb d2dd 18bc 916a dabc
00000070: fefa 9f3b 6109 03bd 71bd 5b3d fa29 d5bc
00000080: 469e 3d3d 6ee0 453c dba4 a9bc 2bc5 633c
00000090: 41ab 853b 6cb5 013d b43a b83b 079f 02bd
000000a0: 0ad8 fbba e08e dabc 9772 853a 2095 e43c
000000b0: 93f1 f93b da10 20bd 8a1c f13b 30d7 00bc
000000c0: f094 233c ee65 50bc a89a fdbc 7b7c 8cba
000000d0: b99a 97bc 89f8 863d e0c6 dc3c d905 a73c
000000e0: 0d23 5d3c c33b 2ab7 05f5 423d 8284 8cbc
000000f0: e51d 453c 2ec6 80bc 52fe a13c 032a b8bc
00000100: 13d5 e739 0ef1 18bc 4744 043d 9311 cebc
00000110: c2a9 27bd 60b1 13bd 30f8 ca3c e19b f8ba
00000120: 917f 093d 8493 54bd 6250 7bbd 7a83 4bbd
00000130: 7084 2ebd 9d6f 043c fa3d ee3c 753c 433d
00000140: b303 ebbb a4be 7cbc 880c 553d 7d8b 57bb
00000150: 9caa e53c 10d3 2fbc e643 d33c 4bcd aabc
00000160: 8c09 30bc f396 b63c 2e95 bd3c 3437 97bb
00000170: 858a 8d3c 3f46 953c 572b 01bd 916c d6bc
00000180: 9780 283d eb35 ecbc 1f12 cfbc e42e 64bd
00000190: 086d 21bd 356a 623b ca45 a1bc e0b3 43bd
000001a0: 8c0a 44bc 081c 26bd f41b 35bd 3456 36bc
000001b0: b87e e5bc 4221 59bc 4876 693d f1fe 133d
000001c0: 4fda e43c cf8f 24bd cc50 eebc 9f61 62bc
000001d0: 9d18 9d3c 298c d6bc 2d9f 1abc 98b4 3cbc
000001e0: edfc 9f3b f46f cfbc 9039 55bc 0eb3 f7bc
000001f0: 3d51 06bd f92b cdbc e208 e3bc 8a14 2bbd
00000200: 2a4c ad3c 34ed b4bc e44d ee3c 1888 cd3a
00000210: 5c9c 51bd 11e1 a13c 1c52 a5bc d4bf aebc
00000220: 29cc c3bc b06d 0dbd c31d d43c 86c4 4a3b
00000230: 42b9 343d b7a2 afbc 4e63 043d e002 05bd
00000240: e505 dfbb ca65 c03c 4b37 113d 5ec0 343d
00000250: a142 503d 9344 f7bc a287 173b 7539 eabc
00000260: 6493 e6bb 5f2a 11bd 9c4d 253d ebd8 2dbd
00000270: f15c 7d3c e0aa 01ba b9b9 563b 8fd2 eebc
00000280: 49f2 f13c 4e14 2dbb 16a9 1fbb 1ed8 34bd
00000290: 100f 863c 1a5a a13b 0919 4fbc 96e8 493d
000002a0: 21b6 b93c bc30 e83a 20ed fabb b41b 4bbb
000002b0: c560 c53c aded 2abc c19b 2fbc ea7a aaba
000002c0: 5dd9 b3bc 29c4 db3c 5322 1c3d 4e47 48bd
000002d0: 82f0 dcb9 57c4 983c 194e b63b 64b3 7dbc
000002e0: ca0d 483c e4b2 8e3c 5b1c 5138 bbc2 82bc
000002f0: d919 6dbc 86b7 76bb c8e5 94bc 8a71 98bc
00000300: a200 cd3c 1e4d 1c3d db80 d23b b162 83bb
00000310: 9826 263c 0078 1f3c 9304 103d 1f38 db3c
00000320: 066f 2abd e824 87bc f50d 1a3d f820 fb3c
00000330: 4150 283c 4fbb 6cbc bd55 69bc b315 07bd
00000340: 1166 aabc 5866 943b 0fe3 b13c c63a 8e3c
00000350: 943d 21bd bc51 1abd c347 57bc 7ec3 d53c
00000360: 7c2c 153a 3997 37bc 92d3 3b3c feba cfbc
00000370: 5965 00bd 57bb 013d fa5c 89bc 5a26 a23a
00000380: 74d9 23bd b1d1 163d 7b3f 383d 4fec 203d
00000390: 5b6b 83bc c80c 3cbd ff03 13bd 42c4 083d
000003a0: b2d5 0a3d a230 493d 3e79 063d cfed c53c
000003b0: d989 993b 6aad 22bd 4e61 41bd a444 47bd
000003c0: 209a 693c da2b bbbc 2e29 97bc 1eb5 fbbc
000003d0: f305 afbc a5f5 11bd 78b7 ccbc 267c 1e3c
000003e0: e689 a3bc 8ee8 d93c a39a 3dbc 07fd d7bc
000003f0: bdc9 de3a 85fa a8bc 9a9e 0ebc a8e5 f9bc

net.0.bias f4 [64]
-0.011112376 0.038421076 0.014957967 -0.018457232 0.019723298 0.044928454 -0.008520972 0.044840302
-0.013882599 0.028010346 -0.019488333 -0.01050025 0.04155198 0.050057523 -0.040182844 0.0039214306
0.005916861 -0.009485307 0.010297585 0.030394109 0.04446315 0.0071260277 0.0040321816 0.028644145
-0.0034191736 -0.052355226 0.006945207 0.031711806 -0.027216483 -0.011961169 0.07193799 0.011244662
-0.015174405 -0.017780563 0.03856601 -0.0030730336 0.02136181 0.0037430814 -0.039354194 0.027544972
-0.009648128 0.024592174 0.007666622 0.018564498 -0.008674006 -0.026910866 -0.010409485 0.03719634
-0.026430741 0.03520155 0.023867985 0.018376531 -0.025579274 0.011464219 -0.0013545444 0.0173464
0.0037719058 0.04694983 -0.01245515 0.04185553 0.072769724 0.04169222 0.042001758 0.039790943
00000000: af10 36bc 6b5f 1d3d 4312 753c 9f33 97bc
00000010: c192 a13c e606 383d 8c9b 0bbc 77aa 373d
00000020: d773 63bc f475 e53c ffa5 9fbc 3e09 2cbc
00000030: 6932 2a3d 1e09 4d3d c496 24bd 587f 803b
00000040: 3ae2 c13b 4368 1bbc 34b7 283c 11fd f83c
00000050: fe1e 363d 7481 e93b 6420 843b 20a7 ea3c
00000060: 3714 60bb 6f72 56bd 9e94 e33b 3de4 013d
00000070: 1af5 debc c7f8 43bc 3a54 933d 883b 383c
00000080: 119e 78bc 8ba8 91bc 64f7 1d3d f364 49bb
00000090: f6fe ae3c 7c4e 753b dd31 21bd fea5 e13c
000000a0: 2f13 1ebc 8775 c93c 4938 fb3b 9314 983c
000000b0: 6b1d 0ebc 2d74 dcbc 8b8c 2abc 305b 183d
000000c0: 4885 d8bc 802f 103d cb86 c33c 618a 963c
000000d0: a08b d1bc 6bd4 3b3c f88a b1ba 0a1a 8e3c
000000e0: 1432 773b 774e 403d af10 4cbc b470 2b3d
000000f0: 4b08 953d 76c5 2a3d 090a 2c3d d4fb 223d

net.2.weight f4 [64, 64]
-0.09273186 -0.11536224 0.015609298 -0.035325244 -0.06386133 -0.12492352 0.03274148 0.091223165
-0.057904176 0.062252853 0.06367707 0.0021505037 -0.053272456 0.08291002 0.072563335 -0.068264626
0.08523755 0.06918536 -0.055357657 -0.101721704 0.045277517 0.075286515 0.0026326058 0.1280723
-0.025354639 0.018068166 0.091627665 -0.017552277 0.10881229 -0.010248618 0.03125651 -0.023312671
-0.013228561 0.05634127 -0.09666026 -0.026039803 0.027415236 -0.008688692 -0.053995006 -0.09402475
0.016161676 0.1696566 -0.049755823 0.041433554 0.1358316 0.107814796 0.013301697 -0.035366967
0.14312583 0.019595888 -0.09985817 -0.07527225 -0.026822137 -0.02299303 -0.058348503 0.022055821
0.061545175 -0.10226561 -0.09169237 0.06695407 -0.14311057 0.014900088 0.06018333 -0.07687272
-0.01818882 0.06985265 -0.027936932 -0.09101142 -0.07082968 -0.027132204 -0.12284413 0.09861198
-0.118291646 -0.017674984 0.06525558 -0.024982927 0.0011468369 0.0022571397 -0.0062855734 -0.038021512
0.09590483 -0.021036142 0.0361801 -0.0043315114 0.012567523 0.002073947 0.038970392 0.015673218
-0.051418755 -0.058929134 0.013113371 -0.102476545 0.1015923 0.02384526 0.02085483 -0.15737294
0.006338817 0.016697967 -0.0163013 0.13468283 0.11514153 0.043916095 0.09754018 -0.03674585
0.09970991 0.024652394 0.015699686 0.058947634 0.03527214 0.1341714 0.118339315 -0.079725884
-0.07033286 0.10068346 0.058891576 -0.054461583 -0.0942924 -0.029491646 0.05199367 0.13469748
0.03663185 0.033116497 0.09075111 0.051211346 0.040087678 -0.034054775 0.09184478 0.063128166
-0.02945108 -0.0005738255 -0.08803307 -0.11444389 0.14666693 0.058929544 0.027283778 -0.07111364
0.08589418 -0.0029488239 0.050160177 -0.08461381 -0.01710184 0.006396105 -0.024514608 0.019198816
-0.07233107 -0.081729986 -0.068919376 0.072114825 -0.010174646 0.014080792 0.11671205 0.14030239
0.08951427 0.08987768 0.019057909 0.053294893 0.0844661 0.03741137 -0.089643925 -0.12268928
-0.1388264 0.07725322 0.08353362 0.12251718 0.061972305 0.05285407 -0.074949056 0.08192413
0.11917931 0.04119803 -0.11878261 0.13068826 -0.010576278 -0.010296053 0.12536229 -0.0830284
0.12027716 0.07979038 -0.0275604 -0.10913811 -0.007215478 -0.108775765 -0.0872306 0.13592525
-0.02996593 -0.007929681 0.047709484 0.008787429 -0.018799594 -0.12521456 -0.0074900785 -0.075800285
0.051378977 -0.14777881 0.052776873 -0.16421509 0.12370273 0.09290816 0.015804896 0.011933426
0.030062864 0.13181527 -0.07915498 0.06760529 0.022512808 -0.058949377 0.13879618 0.042947132
-0.10554248 -0.045041353 0.07693047 -0.113594465 -0.12848389 -0.10766321 0.08279274 -0.009725642
-0.089536235 0.09633583 0.08539927 0.10853372 0.0068469467 -0.0967094 0.039754063 -0.02339084
0.091459736 0.06090227 -0.06253334 0.0947912 0.06583273 -0.032491304 -0.049364854 -0.056460496
0.13780111 0.09240664 -0.013961214 0.13621369 0.12627877 0.11233131 0.00609081 -0.02880379
-0.08041405 -0.06586945 0.07908627 -0.011509577 0.06501491 -0.09169671 0.10386435 0.12561974
-0.07194176 0.14705063 0.0826485 -0.00528466 0.061576985 -0.14862645 -0.01113268 0.042587757
00000000: 34ea bdbd 0a43 ecbd 24be 7f3c 34b1 10bd
00000010: bbc9 82bd e7d7 ffbd ee1b 063d 36d3 ba3d
00000020: ee2c 6dbd d9fc 7e3d 2069 823d 77ef 0c3b
00000030: 3834 5abd bbcc a93d 169c 943d 53ce 8bbd
00000040: 0691 ae3d 0eb1 8d3d b6be 62bd 7853 d0bd
00000050: eb74 393d d12f 9a3d cc87 2c3b 6325 033e
00000060: 88b4 cfbc b103 943c 49a7 bb3d cbc9 8fbc
00000070: fad8 de3d d2e9 27bc d406 003d 37fa bebc
00000080: 9bbc 58bc 1bc6 663d d0f5 c5bd 6d51 d5bc
00000090: eb95 e03c 045b 0ebc de29 5dbd 0c90 c0bd
000000a0: 7e65 843c 76ba 2d3e c3cc 4bbd 3bb6 293d
000000b0: 7017 0b3e 01ce dc3d 5cef 593c f4dc 10bd
000000c0: 948f 123e 8e87 a03c 7182 ccbd 5628 9abd
000000d0: 19ba dbbc e15b bcbc d7fe 6ebd 69ae b43c
000000e0: cb16 7c3d a270 d1bd 36c9 bbbd 371f 893d
000000f0: 948b 12be 801f 743c cc82 763d 726f 9dbd
00000100: b800 95bc e80e 8f3d fedb e4bc 3264 babd
00000110: 270f 91bd 5b44 debc b495 fbbd 14f5 c93d
00000120: e442 f2bd 21cb 90bc b8a4 853d ffa8 ccbc
00000130: 7651 963a 85ec 133b 36f7 cdbb 72bc 1bbd
00000140: c069 c43d fd53 acbc 9631 143d 5aef 8dbb
00000150: 03e8 4d3c 0feb 073b 6b9f 1f3d 1f65 803c
00000160: 799c 52bd ad5f 71bd 77d9 563c 39df d1bd
00000170: a00f d03d 2257 c33c c0d7 aa3c 5f26 21be
00000180: dab5 cf3b 2dca 883c 4e8a 85bc 4cea 093e
00000190: 53cf eb3d 5de1 333d 25c3 c73d d182 16bd
000001a0: b634 cc3d d1f3 c93c a19c 803c 1373 713d
000001b0: 8579 103d 3a64 093e e25b f23d 5347 a3bd
000001c0: ad0a 90bd 2133 ce3d 4b38 713d 1c13 5fbd
000001d0: 601c c1bd 7798 f1bc 51f7 543d 23ee 093e
000001e0: 470b 163d 2aa5 073d b8db b93d fdc2 513d
000001f0: fa32 243d 057d 0bbd 1e19 bc3d 5749 813d
00000200: 6443 f1bc c76c 16ba af4a b4bd 8f61 eabd
00000210: db2f 163e 1b60 713d 3b82 df3c 07a4 91bd
00000220: 4ae9 af3d 0e41 41bb c274 4d3d 014a adbd
00000230: 2819 8cbc 6b96 d13b dcd2 c8bc d646 9d3c
00000240: 5022 94bd 0d62 a7bd 9a25 8dbd f0b0 933d
00000250: 8fb3 26bc 1fb3 663c ba06 ef3d 6eab 0f3e
00000260: 4253 b73d ca11 b83d 551f 9c3c bf4b 5a3d
00000270: 90fc ac3d aa3c 193d 3c97 b7bd 8444 fbbd
00000280: 8228 0ebe f036 9e3d ad13 ab3d 4aea fa3d
00000290: acd6 7d3d 827d 583d e47e 99bd d7c7 a73d
000002a0: 4814 f43d 44bf 283d 4c44 f3bd 25d3 053e
000002b0: 2048 2dbc c7b0 28bc f95e 003e cb0a aabd
000002c0: df53 f63d 2469 a33d 59c6 e1bc cd83 dfbd
000002d0: d16f ecbb d4c5 debd f5a5 b2bd fd2f 0b3e
000002e0: 1c7b f5bc 7eeb 01bc 056b 433d 26f9 0f3c
000002f0: 9b01 9abc 3f38 00be 556f f5bb 2e3d 9bbd
00000300: c372 523d 5453 17be 902c 583d 0028 28be
00000310: db57 fd3d a246 be3d 4579 813c 6b84 433c
00000320: 6546 f63c 95fa 063e 021c a2bd a474 8a3d
00000330: c86c b83c e774 71bd 9620 0e3e 55e9 2f3d
00000340: a826 d8bd 487d 38bd b98d 9d3d 37a4 e8bd
00000350: 4891 03be 877e dcbd 3d8f a93d 4d58 1fbc
00000360: c65e b7bd b84b c53d d0e5 ae3d ed46 de3d
00000370: 5a5c e03b 940f c6bd 28d5 223d 269e bfbc
00000380: 3e4f bb3d a974 793d 7b11 80bd e321 c23d
00000390: 4fd3 863d 9a15 05bd cd32 4abd 1f43 67bd
000003a0: bc1b 0d3e b13f bd3d 93bd 64bc 9a7b 0b3e
000003b0: 394f 013e f50d e63d 6b95 c73b edf5 ebbc
000003c0: 1fb0 a4bd 90e6 86bd fbf7 a13d aa92 3cbc
000003d0: 8a26 853d 7ccb bbbd d5b6 d43d 76a2 003e
000003e0: 3456 93bd 7194 163e 9e43 a93d f12a adbb
000003f0: 2638 7c3d 8831 18be d865 36bc 8070 2e3d

net.2.bias f4 [64]
0.09950948 -0.10297092 0.034878727 0.0044382378 0.093723275 -0.07150171 -0.024917766 -0.07071067
-0.08492825 0.07828721 0.12543045 0.023253692 -0.030391596 -0.064798385 0.11550809 -0.0046171746
0.033369128 0.12308738 0.047630947 0.06542134 -0.0018051228 -0.0035712542 0.025034593 0.0030181203
-0.0669856 0.010952888 0.07549846 0.09744995 0.08977493 -0.02910084 -0.039492186 0.050161608
-0.081192836 -0.065159455 0.036697008 -0.08660695 -0.009208822 0.070582926 -0.069209516 -0.016776562
0.10389848 -0.05751505 0.004869667 0.078288116 -0.022223901 0.1137275 0.029939264 0.11275269
-0.038745925 0.013483278 0.08908664 0.06734944 0.05496093 -0.08989176 0.03310691 -0.11406142
0.024759559 0.051052317 -0.0673397 0.06480417 -0.09622973 0.079712234 0.10406595 -0.008714928
00000000: a0cb cb3d 6be2 d2bd ffdc 0e3d a36e 913b
00000010: fdf1 bf3d 7d6f 92bd 5820 ccbc c1d0 90bd
00000020: ddee adbd 0b55 a03d d770 003e 877e be3c
00000030: ccf7 f8bc 04b5 84bd 818f ec3d ab4b 97bb
00000040: 11ae 083d 3c15 fc3d ab18 433d a0fb 853d
00000050: df99 ecba b40b 6abb 5915 cd3c a8cb 453b
00000060: bf2f 89bd be73 333c f09e 9a3d d793 c73d
00000070: ebdb b73d e364 eebc 8fc2 21bd 4276 4d3d
00000080: 6e48 a6bd 5272 85bd 9a4f 163d fc5e b1bd
00000090: 99e0 16bc c88d 903d b8bd 8dbd 006f 89bc
000000a0: bac8 d43d e794 6bbd ba91 9f3b 8555 a03d
000000b0: e60e b6bc f7e9 e83d 3043 f53c e2ea e63d
000000c0: 0cb4 1ebd f8e8 5c3c 0e73 b63d 81ee 893d
000000d0: b61e 613d 2c19 b8bd 1c9b 073d 0999 e9bd
000000e0: 8fd4 ca3c 3c1c 513d 66e9 89bd 0cb8 843d
000000f0: 1814 c5bd 2b40 a33d 8720 d53d 0fc9 0ebc

net.4.weight f4 [8, 64]
-0.09034987 -0.05628852 -0.037003156 0.13588405 -0.0056714886 0.08528767 -0.12497364 -0.084352985
-0.110397026 0.119214594 -0.06535211 -0.1024711 0.06490224 0.047004152 -0.08698903 0.04025976
-0.05225279 -0.054691255 -0.054631807 0.013436074 0.054019284 0.11467199 -0.085011266 0.07778465
0.03965013 -0.091716975 -0.0020806366 0.13486488 0.111656986 -0.118331365 -0.09400073 -0.05264286
0.15363026 -0.073914185 0.0010359024 -0.13299738 -0.004294926 -0.08570772 0.1410134 -0.05502232
-0.06696718 -0.07366877 0.07989956 -0.09153367 0.066927515 0.030478118 0.114512965 0.05970274
-0.088857986 0.122357465 -0.12030152 0.15482904 0.10985538 -0.108305246 -0.037744377 0.096722506
0.07352691 -0.045054834 0.05503422 -0.12712567 0.014306563 -0.03454064 -0.0704664 0.047732487
0.037159443 0.119652845 0.040068623 0.036998354 0.059016105 -0.12107683 -0.0016078661 0.09012178
-0.049571525 -0.052352406 -0.038241122 -0.05034781 0.03863254 -0.08992893 -0.0011991784 -0.02330818
-0.13750754 -0.0018025552 0.09327958 -0.037697915 0.017652731 0.07063745 0.070275426 0.09978637
-0.08036564 0.019499423 -0.0708895 -0.054187395 -0.0690765 -0.060227074 -0.02308819 0.10423712
0.14275014 0.07981849 0.08583618 -0.07040623 -0.0878633 -0.08837179 -0.093968205 0.08578946
0.060288776 0.028927589 0.12594223 -0.055562176 0.12902158 -0.11370668 0.073038116 0.0054441993
0.12252993 0.098331966 -0.15259317 -0.041414324 0.028435273 -0.0708121 0.055000663 0.028948499
0.13358948 -0.03821698 0.05902689 -0.054561045 -0.091936685 -0.061443165 -0.026739664 0.007798897
-0.0047110827 0.0013522848 0.04653647 0.1075316 -0.008158828 -0.04960555 -0.13765296 0.12852623
-0.07096495 -0.014232222 -0.045002885 -0.05400366 0.06432494 0.053943492 0.13775432 0.025231428
0.024823679 0.0234754 0.10307167 -0.17304474 -0.02618688 0.029556528 0.027651656 -0.05676089
-0.031594105 0.023590216 0.04556444 0.028727992 0.14929307 -0.13713767 0.09961888 -0.026776133
-0.042418424 -0.017124113 0.15737708 0.04128859 -0.11739499 -0.086609475 -0.084310904 0.09114774
-0.09030398 0.023461994 0.05928306 -0.06032195 0.15421273 -0.029103315 -0.09400347 -0.012462824
0.07105118 0.105630316 -0.067575805 0.10869941 -0.018256651 0.030517986 0.028473997 0.13360609
0.01730146 -0.11374881 0.12503648 -0.12651691 -0.1374305 0.03131018 -0.063123435 0.079222046
0.17693077 0.08848792 0.121736735 0.071537055 0.09651979 -0.14468145 0.04996122 0.13355961
0.031664826 -0.13565552 -0.13731287 0.0089707505 0.06412242 -0.12466809 0.06124827 0.028615534
-0.14869316 0.03392185 0.025421916 -0.14708965 0.033474 -0.034077015 0.13341141 0.12518668
-0.11698814 0.09560719 0.0069668973 -0.059205264 0.0027180405 -0.05013079 0.029284293 -0.024860455
-0.00055264495 -0.1294183 0.15368396 -0.06269097 -0.0915243 -0.11347824 0.13023433 -0.13578105
0.0626348 -0.106920004 0.011453769 0.099146776 -0.071489036 -0.035255916 0.07785343 -0.09048761
0.04933066 -0.04590869 -0.050057117 0.07790305 0.086945914 0.038302377 -0.012411641 0.08525208
0.13495207 -0.058930457 0.014526324 0.014702572 -0.11807971 -0.092434764 -0.10003353 0.08139385
00000000: 5a09 b9bd cb8e 66bd 9f90 17bd 3025 0b3e
00000010: e5d7 b9bb 4dab ae3d 2ef2 ffbd 42c1 acbd
00000020: d617 e2bd c826 f43d 54d7 85bd 5edc d1bd
00000030: 77eb 843d 6d87 403d 4e27 b2bd 6be7 243d
00000040: 0607 56bd f003 60bd 9ac5 5fbd fb22 5c3c
00000050: 5343 5d3d 26d9 ea3d 631a aebd 8f4d 9f3d
00000060: 2d68 223d 1cd6 bbbd 4a5b 08bb 051a 0a3e
00000070: 6bac e43d b757 f2bd 7483 c0bd 0aa0 57bd
00000080: 4051 1d3e 5260 97bd 1ec7 873a 7730 08be
00000090: 73bc 8cbb 8787 afbd d165 103e 165f 61bd
000000a0: 1726 89bd a7df 96bd 61a2 a33d 0176 bbbd
000000b0: 4b11 893d 3fad f93c c685 ea3d dc8a 743d
000000c0: 2dfb b5bd 8d96 fa3d a560 f6bd 818b 1e3e
000000d0: dcfb e03d 24cf ddbd d999 1abd 7316 c63d
000000e0: 4795 963d 6b8b 38bd 906b 613d 3b2d 02be
000000f0: 1366 6a3c 7c7a 0dbd b050 90bd 2483 433d
00000100: 8034 183d 8d0c f53d ff1e 243d 968b 173d
00000110: dfba 713d 21f7 f7bd 09bf d2ba c591 b83d
00000120: 830b 4bbd 7a6f 56bd b9a2 1cbd 8139 4ebd
00000130: 273d 1e3d a92c b8bd c02d 9dba ccf0 bebc
00000140: c7ce 0cbe b743 ecba 5d09 bf3d 2169 1abd
00000150: 769c 903c 5eaa 903d 90ec 8f3d cc5c cc3d
00000160: be96 a4bd 41bd 9f3c 842e 91bd 9af3 5dbd
00000170: fb77 8dbd aab0 76bd 7223 bdbc 457a d53d
00000180: 182d 123e e077 a33d e1ca af3d 2431 90bd
00000190: adf1 b3bd 45fc b4bd 6772 c0bd 62b2 af3d
000001a0: 5df1 763d 8df9 ec3c 00f7 003e 2a95 63bd
000001b0: 3c1e 043e 0cdf e8bd 0295 953d 4165 b23b
000001c0: f9f0 fa3d 4562 c93d 6241 1cbe 11a2 29bd
000001d0: 17f1 e83c ef05 91bd 6048 613d 6725 ed3c
000001e0: aecb 083e 6889 1cbd 2ec6 713d 677b 5fbd
000001f0: 4d49 bcbd d4ab 7bbd 240d dbbc e48d ff3b
00000200: 6d5f 9abb 263f b13a 079d 3e3d 8739 dc3d
00000210: 9bac 05bc 302f 4bbd e6f4 0cbe 619c 033e
00000220: 1256 91bd 442e 69bc f254 38bd f132 5dbd
00000230: cbbc 833d daf3 5c3d 780f 0d3e 24b2 ce3c
00000240: 075b cb3c 7b4f c03c 3d17 d33d a432 31be
00000250: de85 d6bc 8820 f23c ba85 e23c 1b7e 68bd
00000260: d268 01bd 4540 c13c c7a1 3a3d f756 eb3c
00000270: 48e0 183e d16d 0cbe fc04 cc3d 9f59 dbbc
00000280: f1be 2dbd de47 8cbc 7527 213e 391e 293d
00000290: c96c f0bd 4f60 b1bd 32ab acbd abab ba3d
000002a0: 4bf1 b8bd 5e33 c03c cbd2 723d 2614 77bd
000002b0: f1e9 1d3e 136a eebc e484 c0bd df30 4cbc
000002c0: 4883 913d b554 d83d 2f65 8abd cc9d de3d
000002d0: f98e 95bc db00 fa3c 4d42 e93c 09d0 083e
000002e0: cbbb 8d3c 23f5 e8bd 9009 003e a68d 01be
000002f0: 95ba 0cbe 1a3f 003d dc46 81bd 2b3f a23d
00000300: 572d 353e 2839 b53d 1c51 f93d 0582 923d
00000310: 2bac c53d 6027 14be 23a4 4c3d dac3 083e
00000320: fab2 013d 48e9 0abe bf9b 0cbe 0efa 123c
00000330: 9e52 833d fc51 ffbd 77df 7a3d 206b ea3c
00000340: 0543 18be a3f1 0a3d 9f41 d03c ab9e 16be
00000350: 081c 093d 5794 0bbd 009d 083e f030 003e
00000360: 7a97 efbd b4cd c33d 924a e43b 3881 72bd
00000370: 2721 323b f155 4dbd 9de5 ef3c 27a8 cbbc
00000380: 60df 10ba 3b86 04be 545f 1d3e 2064 80bd
00000390: 1871 bbbd 4867 e8bd 265c 053e 300a 0bbe
000003a0: ad46 803d e0f8 dabd 97a8 3b3c 770d cb3d
000003b0: d868 92bd 8268 10bd 9e71 9f3d 9151 b9bd
000003c0: f20e 4a3d c00a 3cbd b108 4dbd a28b 9f3d
000003d0: b310 b23d f4e2 1c3d 325a 4bbc a498 ae3d
000003e0: e030 0a3e 1061 71bd d2ff 6d3c 0ee3 703c
000003f0: c6d3 f1bd 704e bdbd 61de ccbd d2b1 a63d

net.4.bias f4 [8]
-0.0902871 0.04341043 0.05472154 0.051164344 0.08617998 0.01784992 0.10248218 0.0300698
00000000: 71e8 b8bd 23cf 313d b223 603d b491 513d
00000010: 217f b03d ff39 923c 2de2 d13d f154 f63c
