runs/8_hour_forecasting/216/best_model.pt (torch, 295545 bytes, 6 tensors)

net.0.weight f4 [64, 1068]
0	0x3cb9ae98	0.02266626
1	0x3ce4365a	0.027857948
2	0xbc858514	-0.016298808
3	0x3d18103a	0.03712485
4	0xbbef0433	-0.0072942018
5	0x3c025a45	0.007956092
6	0xbc9bbe66	-0.019011687
7	0x3c9a75fb	0.018855086
8	0x3c03d1c9	0.008045622
9	0xbca9fb07	-0.020749582
10	0x3c3a460a	0.011369238
11	0x3c0724a8	0.008248486
12	0x3ca27ef8	0.019835934
13	0x3afac0f8	0.0019130995
14	0x3a9babe7	0.0011876792
15	0xbc4de70c	-0.012567293
16	0x3c989c76	0.018629294
17	0x3c8ab467	0.016931726
18	0xbc5c0e40	-0.013431132
19	0x3c17dad5	0.009268482
20	0xbc863390	-0.016382009
21	0xbc082d51	-0.0083115855
22	0xbc8ac809	-0.016941087
23	0x3c987d3a	0.0186144
24	0xbcdb5736	-0.026774984
25	0xbc94b0e5	-0.018150756
26	0xbc051202	-0.008121969
27	0xbc781a21	-0.015142948
28	0xbc54e028	-0.012992896
29	0xbd0af9a3	-0.03392948
30	0x3ca45a28	0.020062521
31	0xbce96adb	-0.028493335
32	0x3cd08571	0.025454255
33	0x3bd1406b	0.006385853
34	0xbac287d0	-0.0014841501
35	0x3caab82a	0.02083977
36	0x3b688435	0.0035479192
37	0x3d0913df	0.033466216
38	0xbbd026d3	-0.0063522845
39	0xbb85c7d8	-0.004082661
40	0x3ca58946	0.020207059
41	0xbb32c4c8	-0.0027277935
42	0x3c8ac375	0.016938904
43	0x3d168005	0.036743183
44	0x3c85eb7c	0.01634764
45	0xbc3d598a	-0.011556992
46	0x3ca3df21	0.020003857
47	0xb9eec0d9	-0.0004553858
48	0x3c98d00f	0.018653898
49	0xbc45e6ad	-0.012078923
50	0xbcc075fe	-0.023493763
51	0xbbaaab8f	-0.0052084397
52	0xbc8d47f4	-0.017246224
53	0x3d2e745b	0.042591434
54	0x3cbf410f	0.023346452
55	0x3cf0c833	0.029392337
56	0x3d02a0de	0.031891696
57	0xbab6692b	-0.001391684
58	0x3d127de7	0.0357646
59	0xbbf0979b	-0.0073422915
60	0x3c02a356	0.007973513
61	0xbcac03bc	-0.020997874
62	0x3cc2acc2	0.023764018
63	0x3c241c33	0.010016489
64	0x3ca2886e	0.019840445
65	0x3c7e1efa	0.015510315
66	0x3d1f1514	0.03883846
67	0x3a811d27	0.0009850607
68	0xbcd0e293	-0.025498664
69	0xbcda6fd4	-0.026664652
70	0x3d0eb960	0.034844756
71	0xbb180972	-0.002319899
72	0x3cde04da	0.027101923
73	0xbcb6c1cf	-0.022309212
74	0xbcba2d84	-0.022726782
75	0xbcc0383c	-0.023464315
76	0xbcafbc6d	-0.021452153
77	0x3c13c5b6	0.009019306
78	0x3be16227	0.0068781557
79	0x3cb0b5d2	0.021571074
80	0xbc2d7509	-0.010586985
81	0xbcb7e7d6	-0.022449415
82	0x3be44f3f	0.0069674547
83	0xbc84aef3	-0.016196704
84	0x3c57c10b	0.013168584
85	0xba7ab8ac	-0.00095642614
86	0x3ccc8556	0.024965923
87	0xbc3b8a7a	-0.01144659
88	0xbd09aa69	-0.03360978
89	0x3c2f3a2a	0.01069502
90	0x3c25059f	0.010072141
91	0xbc4dae66	-0.012553787
92	0x3ce63e12	0.02810577
93	0x3cbe0c62	0.023199264
94	0xbc9e3f0a	-0.019317169
95	0xbc94a1de	-0.01814359
96	0x3cfd3da0	0.030913174
97	0xbcd5b976	-0.026089411
98	0xbc45ee5f	-0.012080758
99	0xbd22ae7f	-0.039717194
100	0xbc5491f2	-0.012974249
101	0x3bf809ba	0.007569519
102	0xbbe77613	-0.007063636
103	0xbcfcd907	-0.030865205
104	0xbbd4a11a	-0.0064889314
105	0xbcbebc90	-0.023283273
106	0xbc7b1505	-0.015324836
107	0xbc7e631a	-0.015526557
108	0xbccc6da3	-0.024954623
109	0xbcad5fb2	-0.021163795
110	0x3cca51c2	0.024697188
111	0x3a6ce503	0.0009036811
112	0x3c18542a	0.00929741
113	0xbd027146	-0.031846307
114	0xbcc390f5	-0.023872832
115	0xbc176538	-0.009240441
116	0x3ba6896b	0.0050822995
117	0xbd2b6e15	-0.04185303
118	0xbc844ccc	-0.0161499
119	0xbccdc163	-0.025116628
120	0xbb991a1d	-0.0046723024
121	0xbbdf62e8	-0.0068172105
122	0xba6d3c40	-0.00090498105
123	0xbc652e5b	-0.013988103
124	0xbcacad05	-0.021078596
125	0xbca830e0	-0.020531118
126	0xbb8160ab	-0.0039482913
127	0xbd0f0d6e	-0.034924917
128	0x3cfb37ee	0.030666318
129	0xbacfae96	-0.0015844877
130	0x3cfe33fc	0.031030647
131	0x3c3b5522	0.011433871
132	0xbc935bfa	-0.017988194
133	0x3cb28a83	0.021794563
134	0xbc1db552	-0.00962575
135	0xbc17abdb	-0.009257282
136	0xbcf8e78a	-0.030383844
137	0xbce57426	-0.028009485
138	0x3c5271f3	0.01284455
139	0xbba25fbd	-0.0049552605
140	0x3c8d20cf	0.017227558
141	0xbca6858d	-0.020327354
142	0x3d1b68ed	0.037941862
143	0xbc2bd5dc	-0.010488
144	0x3c1ddbc8	0.009634919
145	0x3cd8d153	0.026467001
146	0x3c69a6a6	0.0142609235
147	0x3d0eea67	0.034891512
148	0x3d2598c4	0.04042889
149	0xbca2d924	-0.019878931
150	0x3bdaa5dc	0.006672604
151	0xbae63a19	-0.0017564922
152	0x3c7763db	0.015099491
153	0xbc673c46	-0.014113491
154	0x3d45a5df	0.04825389
155	0xbc377a55	-0.0111986
156	0x3d0aecd7	0.033917274
157	0x3b9f0b26	0.004853624
158	0x3b32a61e	0.0027259658
159	0xbc193fe6	-0.0093536135
160	0x3c87eab8	0.016591415
161	0x3bbb5a5e	0.0057175597
162	0x3bf1baf9	0.007377025
163	0xbc978a2e	-0.018498506
164	0x3c6d131e	0.01446989
165	0xbb992b40	-0.0046743453
166	0xbc7c284c	-0.015390467
167	0x3cc13f9c	0.023589902
168	0x3b9a8893	0.004715988
169	0xbc3ca8b8	-0.011514835
170	0xbc865f19	-0.016402768
171	0xbc2378cb	-0.00997753
172	0x3c56c9bd	0.013109622
173	0xbc4ef221	-0.01263097
174	0xbc30b87e	-0.010786174
175	0xbb3da91a	-0.0028939904
176	0xbc2c9414	-0.010533351
177	0xbbedc27e	-0.0072558513
178	0x3cd715c3	0.026255494
179	0xbcb663d1	-0.022264393
180	0x3b7e7d51	0.0038832019
181	0x3ccb5a19	0.024823235
182	0x3c2461b1	0.010033057
183	0xbc08bd9c	-0.008345988
184	0x3c690d42	0.014224352
185	0x3c9e01f6	0.019288044
186	0xbb35be69	-0.0027731902
187	0xbc018a30	-0.007906482
188	0xbca39bd9	-0.019971775
189	0x3c3230fd	0.0108759375
190	0xbb87430c	-0.0041278657
191	0xbc3701df	-0.01116988
192	0x3c5530c8	0.013012119
193	0x3cb45011	0.022010835
194	0xbbafa2a6	-0.0053599654
195	0x3b50d408	0.0031864662
196	0x3a71ed65	0.0009228795
197	0x3a3276c1	0.0006807857
198	0x3bd73155	0.00656716
199	0x3b285feb	0.0025691937
200	0xbd03834e	-0.032107644
201	0xbc51f387	-0.012814409
202	0x3caa49b4	0.020787098
203	0x3c10ee4d	0.008845878
204	0x3ac98ada	0.0015376464
205	0xbc8ff2e6	-0.017571878
206	0xbd07c8b9	-0.03315041
207	0xbcf5ef95	-0.030021468
208	0xbc7e0ef7	-0.015506498
209	0x3bbc1587	0.005739871
210	0x3cc652dc	0.024209432
211	0x3c9245e1	0.017855586
212	0xbcb10926	-0.021610808
213	0xbcb419f2	-0.021985028
214	0xbc08c21d	-0.008347061
215	0x3d027f18	0.031859487
216	0xbbd5e2fc	-0.006527303
217	0xbb85779a	-0.0040730955
218	0x3c65577e	0.013997911
219	0xbbe222cd	-0.006901121
220	0xbc82a557	-0.01594798
221	0x3cd8fa4b	0.026486536
222	0xbc6a94cd	-0.014317703
223	0xbc2168e3	-0.009851667
224	0xbceaa9bf	-0.028645394
225	0x3c68ec07	0.01421643
226	0x3ccd7678	0.025080904
227	0x3c5e4ac4	0.01356763
228	0xbcce3cf3	-0.025175547
229	0xbcd64030	-0.026153654
230	0xbcaf83c2	-0.021425132
231	0x3d127078	0.03575179
232	0x3cc511a9	0.024056273
233	0x3d1f5c0a	0.038906135
234	0x3d0b082e	0.033943348
235	0x3bb6a1f3	0.005573505
236	0x3c07fa9f	0.008299499
237	0xbc4d424e	-0.012528015
238	0xbcc05a8a	-0.023480672
239	0xbcfa1795	-0.030528823
240	0x3cabbec1	0.020964982
241	0x3aaf61b4	0.0013380558
242	0x3a85ea34	0.0010216893
243	0x3aab8cfe	0.0013088284
244	0x3b652fdc	0.0034971153
245	0xbbb4b9d6	-0.0055153174
246	0xbccc95d1	-0.024973782
247	0x3b87d110	0.0041447952
248	0xbb0312f9	-0.0020000322
249	0x3c1143e1	0.008866281
250	0xbc1ee7ff	-0.009698867
251	0xbc9abef4	-0.018889882
252	0x3b596545	0.0033171934
253	0xbc40ee75	-0.011775603
254	0xbc0d9303	-0.008641007
255	0xbced57e8	-0.028972581

net.0.bias f4 [64]
0	0x3c9c1dac	0.019057117
1	0xbc2370f4	-0.009975661
2	0xbae9f2e3	-0.0017848875
3	0xbcb81aca	-0.022473712
4	0xbc00aa7a	-0.007853145
5	0x3b144271	0.002262261
6	0xbc3042c1	-0.010758103
7	0x3c8ebb6d	0.017423356
8	0x3cd52209	0.026017206
9	0x3d0bf76f	0.034171518
10	0x3bc55166	0.0060216663
11	0xbc8324b2	-0.016008709
12	0x3d1b922d	0.0379812
13	0xbcd0ff64	-0.025512405
14	0x3ba7c378	0.0051197372
15	0xbc16a48d	-0.009194505
16	0xbc04e1eb	-0.008110504
17	0xbc47d567	-0.012196875
18	0x3cbbcdd9	0.022925304
19	0x3bbf54b4	0.005838955
20	0x3c65c451	0.014023856
21	0x3d250afb	0.040293675
22	0xbbc34e27	-0.005960244
23	0xbcb72bff	-0.022359846
24	0xbb94d25d	-0.004541679
25	0x3c4c1bd8	0.01245781
26	0x3c69aa81	0.014261843
27	0x3b73e1cb	0.003721344
28	0xbcb3504f	-0.02188888
29	0xbbe11b57	-0.0068697142
30	0xbc260e71	-0.010135279
31	0x3cf28b10	0.029607326
32	0x3c81444e	0.01577964
33	0x3d0a895d	0.033822406
34	0x3c0f94ce	0.008763505
35	0x3d227c2b	0.039669197
36	0x3cdffff2	0.027343724
37	0x3ccbe632	0.02489004
38	0x3d146601	0.03623009
39	0x3becaeb1	0.0072229733
40	0xbc72bc04	-0.014815334
41	0xbbb6f202	-0.005583049
42	0x3d1ff0aa	0.039047875
43	0xbc3dbbd6	-0.011580428
44	0x3b9ab5e4	0.00472139
45	0x3d026589	0.031835113
46	0xbc16f831	-0.009214447
47	0x3d22f4b3	0.039784145
48	0x3d1fce8d	0.03901534
49	0xbce0f2c2	-0.027459506
50	0x3d018085	0.031616706
51	0x3c5ef426	0.013608014
52	0xbacf97e4	-0.0015838114
53	0x3c9b2f71	0.01894352
54	0x3c02ba4a	0.007978985
55	0x3cb0c8b6	0.021580081
56	0xbc5f2d0e	-0.013621582
57	0x3be155ed	0.006876698
58	0x3ad860f7	0.001650839
59	0x3c207b04	0.009794954
60	0x3c86c3f7	0.016450865
61	0xbb23d3a1	-0.0024997967
62	0xba3ba66d	-0.0007158283
63	0xbb953020	-0.004552856

net.2.weight f4 [64, 64]
0	0xbdb2483e	-0.08705185
1	0x3d95deb5	0.073178686
2	0x3e138046	0.14404401
3	0xbdf67b52	-0.1203524
4	0xbc2bdb54	-0.010489304
5	0xbd59d000	-0.05317688
6	0x3ce7d974	0.028301932
7	0x3d433219	0.0476552
8	0x3d02711c	0.03184615
9	0x3dc710eb	0.09720024
10	0xbd827978	-0.063708246
11	0x3c11fdbd	0.008910594
12	0xbd49df76	-0.049285375
13	0x3df081f0	0.117435336
14	0xbdd3e09a	-0.10345574
15	0x3be6f873	0.0070486604
16	0x3d726bb4	0.059184745
17	0x3d94187e	0.07231234
18	0x3dfcd5b1	0.12345446
19	0xbdf3304e	-0.11874448
20	0xbcbdfeb0	-0.023192734
21	0x3e0a0171	0.13477112
22	0xbd83c596	-0.06434171
23	0x3c742413	0.014901179
24	0x3c1c7632	0.009549664
25	0xbd6e4a8f	-0.058176573
26	0x3cd0656f	0.025438992
27	0xbc162ce9	-0.009165981
28	0x3dc246b3	0.09486141
29	0xbdc7b0bc	-0.09750506
30	0xbe32ad73	-0.17448978
31	0x3d0a7910	0.03380686
32	0x3c7cac3f	0.015421926
33	0xbde0f429	-0.1098407
34	0xbd85ad4a	-0.06527193
35	0xbd53df06	-0.051726364
36	0x3d557933	0.052117538
37	0xbcf68cce	-0.030096438
38	0xbde02864	-0.10945204
39	0x3c1a5ebf	0.009422003
40	0x3cf3fa38	0.0297824
41	0xbdb620ea	-0.088929966
42	0x3d9b1803	0.07572939
43	0x3dccc023	0.09997585
44	0xba9e1802	-0.0012061598
45	0x3d64b829	0.05583969
46	0xbd8817b7	-0.06645148
47	0x3dc099f8	0.09404367
48	0x3cad215d	0.021134073
49	0x3d444764	0.047919646
50	0x3e00abd3	0.12565546
51	0xbd1c06f7	-0.03809258
52	0x3d59de44	0.053190485
53	0x3cf392ee	0.029733147
54	0xbd26ccac	-0.040722534
55	0xbdc63099	-0.09677238
56	0x3dc95359	0.098303504
57	0xbd944c14	-0.07241073
58	0x3dd3ccee	0.103418216
59	0x3dff7edb	0.12475368
60	0x3c0cd661	0.008596034
61	0xbdb21d65	-0.08697013
62	0xbdbd42ad	-0.09241233
63	0xbd91fbf7	-0.071281366
64	0xbbe02c43	-0.006841214
65	0xbe0a27e6	-0.13491783
66	0x3d410141	0.047120336
67	0x3d49409c	0.049133882
68	0x3d91359f	0.070903055
69	0xbdbe2a7c	-0.09285447
70	0xbd9d2894	-0.07673755
71	0x3e0f0d95	0.13970025
72	0x3be08b29	0.0068525267
73	0x3c10e1b0	0.008842871
74	0x3d9c4d09	0.07631881
75	0x3deb4a32	0.11488761
76	0xbb9f7d69	-0.004867245
77	0xbd0bb986	-0.034112476
78	0x3c8b098f	0.016972331
79	0x3dd13734	0.10215607
80	0x3debe0bf	0.11517476
81	0xbc4f52c4	-0.01265401
82	0xbe007309	-0.12543882
83	0xbc7d761d	-0.015470055
84	0x3d1a8be8	0.03773108
85	0x3ded5659	0.11588735
86	0x3d82d872	0.0638894
87	0x3d665643	0.05623461
88	0x3e0884a4	0.13331848
89	0xbbadb273	-0.005300814
90	0x3dddec36	0.10836069
91	0xbc5d0980	-0.0134910345
92	0x3d84ea74	0.06490031
93	0x3da37a7c	0.079823464
94	0x3d3f6ce1	0.046734694
95	0xbcfeb10f	-0.031090287
96	0x3d1ceaeb	0.038309973
97	0xbc1bc485	-0.009507303
98	0xbcb380dc	-0.02191203
99	0x3d82f21d	0.06393836
100	0xbd93ba5e	-0.07213281
101	0xbb7f2ef2	-0.0038937894
102	0x3daf81dd	0.08569691
103	0x3d6e2a62	0.05814589
104	0x3dc4c0ad	0.096070625
105	0x3d737a7b	0.05944298
106	0x3db58925	0.08864049
107	0x3c81204f	0.015762476
108	0xbd677c49	-0.056515012
109	0xbd92d958	-0.07170361
110	0x3d5d9ec7	0.0541065
111	0x3ba89b04	0.0051454324
112	0xbd02d92c	-0.031945392
113	0xbd18229a	-0.037142374
114	0xbda651fb	-0.08121105
115	0x3d4415f5	0.047872502
116	0xbbdef459	-0.006804031
117	0x3d539fb9	0.051665995
118	0xbe046e68	-0.12932742
119	0x3e0da850	0.13833737
120	0x3d3c55f5	0.045980413
121	0x3dfd7640	0.1237607
122	0xbd048e0e	-0.032362036
123	0x3dcc7743	0.09983685
124	0xbdee8bce	-0.116477594
125	0xbbc91bbc	-0.0061373394
126	0x3d56a047	0.052398946
127	0xbcc2f5a1	-0.023798766
128	0xbd282f0f	-0.041060504
129	0x3cdc0ce9	0.026861625
130	0xbd96acc1	-0.07357169
131	0x3b2d67f4	0.0026459666
132	0x3d0fcc6c	0.03510706
133	0xbde186c6	-0.11012034
134	0xbd58009b	-0.052734952
135	0x3d91a984	0.07112411
136	0xbdae48a6	-0.0850995
137	0xbc231725	-0.009954249
138	0x3da0b105	0.07846264
139	0xbd77a611	-0.060461108
140	0x3db9fd27	0.09081488
141	0x3d2bba0b	0.04192547
142	0xbd87b3fd	-0.06626127
143	0x3db4bd39	0.08825154
144	0x3d951230	0.072788596
145	0x3da182ec	0.078862995
146	0x3ca761ce	0.02043238
147	0x3d8dd678	0.06925672
148	0xbd4d2aca	-0.050089635
149	0xbce3c5ad	-0.02780422
150	0x3d8d254b	0.06891879
151	0xbdf830be	-0.12118672
152	0x3b898909	0.004197244
153	0x3dd36fc7	0.10324054
154	0xbc7676c6	-0.015042966
155	0xbd939d6d	-0.07207761
156	0xbdcdf0ef	-0.1005572
157	0xbd883d3a	-0.06652303
158	0xbd1975f3	-0.037466
159	0x3c545153	0.012958842
160	0x3d2d275f	0.042273875
161	0xbdb1de7b	-0.08685013
162	0xbdf3feda	-0.119138435
163	0xbcad170c	-0.021129154
164	0xbd3bd04f	-0.045852955
165	0xbd4e2671	-0.05032963
166	0xbdf16f8b	-0.11788853
167	0x3b2dae09	0.0026501438
168	0x39195bf6	0.00014625475
169	0x3cc2a24b	0.023759028
170	0xbd14f8bf	-0.036370035
171	0xbda0f8b5	-0.07859937
172	0xbd82d2f2	-0.06387891
173	0x3a117582	0.0005548821
174	0xbd36a4f7	-0.044590916
175	0xbcd641e3	-0.026154464
176	0xbd3e6636	-0.046484195
177	0xbd68dd3d	-0.056851614
178	0x3dda08e9	0.10646231
179	0x3c478129	0.01217679
180	0x3dc15c41	0.09441424
181	0x3d69664f	0.056982335
182	0x3dd3e076	0.10345547
183	0xbcf13531	-0.029444309
184	0xbe0588f7	-0.13040529
185	0xbd6c46c1	-0.057684664
186	0xbcf5bea8	-0.029998139
187	0x3c655aee	0.01399873
188	0xbd1c8603	-0.03821374
189	0xbde2d80e	-0.110763654
190	0xbdb888bc	-0.09010455
191	0x3dcfca12	0.10145964
192	0xbd591995	-0.053002913
193	0xbdd4bd53	-0.10387673
194	0x3d906cab	0.07051977
195	0x3cb80403	0.02246285
196	0x3c43a07a	0.011940116
197	0x3db61aff	0.08891868
198	0x3de415c4	0.11136964
199	0x3dfcb701	0.12339593
200	0xbdc70848	-0.097183764
201	0xbcba205a	-0.022720505
202	0xba6b4867	-0.00089753274
203	0x3d8eff62	0.06982304
204	0x3dcd16bf	0.10014104
205	0x3dc8c0ff	0.09802436
206	0xbde35486	-0.11100106
207	0x3e10d591	0.14143969
208	0x3dfc4f82	0.123198524
209	0xbdebbd77	-0.11510747
210	0xbdc71b98	-0.0972206
211	0x3e179158	0.14801538
212	0xbd6b6aa8	-0.057474762
213	0xbdcbc8de	-0.09950422
214	0x3d52a189	0.051423583
215	0xba7bd9dd	-0.00096073543
216	0x3db03c07	0.08605199
217	0xbd84438c	-0.06458196
218	0x3e001c26	0.12510738
219	0xbd3a34f8	-0.04546067
220	0xbddbd5c5	-0.10734133
221	0x3d6b97b1	0.05751771
222	0xbd09d8b5	-0.033653934
223	0xbdde8174	-0.10864535
224	0xbd124f4a	-0.035720147
225	0x3cc29eb8	0.023757324
226	0xbd55cd8f	-0.05219799
227	0x3be6010f	0.007019169
228	0xbdface03	-0.12246325
229	0x3dd7031e	0.104986414
230	0x3bdf9db1	0.006824218
231	0x3d3f5e36	0.046720706
232	0x3d94514d	0.072420694
233	0x3dad095c	0.08449051
234	0x3e022c1a	0.12712136
235	0x3d9ae372	0.07562913
236	0x3cb58ec5	0.022162804
237	0xbde1d142	-0.11026241
238	0x3da7c533	0.0819191
239	0xbcae631b	-0.021287492
240	0x3d86301f	0.06552147
241	0x3e33b0c2	0.17547897
242	0xbdc3896e	-0.09547697
243	0xbd5a7702	-0.05333615
244	0xbdc69ae5	-0.096975125
245	0xbc21b7a5	-0.009870444
246	0xbd1165fa	-0.035497643
247	0xbd4cea1a	-0.050027944
248	0xbd21bde4	-0.039487734
249	0x3d8a8cd4	0.06765142
250	0xbdbe892c	-0.09303507
251	0xbc0347b2	-0.008012699
252	0x3d9fc65b	0.07801505
253	0x3da2573f	0.07926797
254	0xbd9979f8	-0.07493967
255	0x3e043f61	0.12914802

net.2.bias f4 [64]
0	0x3d92a503	0.0716038
1	0x3de01fcb	0.10943564
2	0x3d0b501e	0.034011953
3	0x3dba23d3	0.09088864
4	0x3dfd96cb	0.12382277
5	0x3d811b17	0.06303995
6	0x3dc1985f	0.094528906
7	0xbc83da44	-0.016095288
8	0xbc8322bd	-0.016007775
9	0x3d841f20	0.06451249
10	0x3db7063a	0.089367345
11	0xbcde944e	-0.027170327
12	0x3dee679f	0.11640858
13	0x3dda991f	0.10673737
14	0x3cc03c22	0.023466174
15	0x3dffd603	0.12491991
16	0x3ce56012	0.027999911
17	0xbcac1c6c	-0.021009646
18	0xbdbdf67b	-0.09275528
19	0xbd76bcc2	-0.060238607
20	0xbde30d5e	-0.11086534
21	0x3d949289	0.07254512
22	0x3d86a32d	0.06574092
23	0x3d890a58	0.06691426
24	0x3dde7e63	0.1086395
25	0xbde2e261	-0.110783346
26	0x3d2aed73	0.041730355
27	0xbdb9b6f4	-0.09068099
28	0x3d452f40	0.048140764
29	0x3e03fda0	0.12889719
30	0x3dc835a7	0.09775858
31	0x3b1c8fa4	0.0023889327
32	0xbd8761e8	-0.06610471
33	0xbcde5067	-0.027137948
34	0xbd8d0859	-0.06886358
35	0x3d88b9f1	0.066760905
36	0xbd8da8d7	-0.06916969
37	0xbdb1f9e4	-0.08690241
38	0xbc4765eb	-0.012170295
39	0xbc9c17fb	-0.019054404
40	0x3cddacdc	0.027059965
41	0x3da6c2a6	0.08142595
42	0x3d5927d0	0.053016484
43	0x3d8eeabe	0.06978367
44	0x3ce7a4ca	0.02827682
45	0xbd2e6670	-0.04257816
46	0xbdfe4c10	-0.124168515
47	0x3d144fb8	0.03620884
48	0xbca90342	-0.020631436
49	0x3db38dc9	0.08767278
50	0xbdaf83f0	-0.08570087
51	0xbd7512a4	-0.05983223
52	0xbce35c81	-0.02775407
53	0xbd829205	-0.06375507
54	0xbdd5995c	-0.104296416
55	0xbdb2280e	-0.08699046
56	0xbd8a1912	-0.06743063
57	0xbbd1b4e3	-0.006399737
58	0x3e06aa6a	0.13150945
59	0x3d924132	0.07141341
60	0xbd0bc44d	-0.034122754
61	0x3d372c2b	0.044719856
62	0xbd7a863b	-0.06116317
63	0xbd88e41c	-0.066841334

net.4.weight f4 [8, 64]
0	0xbe00d359	-0.12580623
1	0x3dc2a612	0.09504332
2	0x3dded978	0.108813226
3	0x3dbb1caf	0.0913633
4	0x3d4ed48b	0.050495666
5	0xbd25a027	-0.040435936
6	0x3dbd54c2	0.09244682
7	0x3b919737	0.004443075
8	0xbdc1a69e	-0.09455608
9	0xbd5b4e23	-0.053541314
10	0xbd41641b	-0.04721461
11	0xbddab76c	-0.10679516
12	0xbda5897e	-0.08082865
13	0x3ceed064	0.029152103
14	0x3e26d53b	0.16292278
15	0xbdd30833	-0.10304298
16	0x3b9a6dbc	0.0047127884
17	0x3ddd479f	0.10804676
18	0x3ca05c44	0.019575246
19	0x3dd65288	0.1046496
20	0x3d29a1f6	0.041414224
21	0xbbfa128f	-0.007631607
22	0xbd8ef6b7	-0.06980651
23	0xbdd0eee7	-0.10201817
24	0xbb057577	-0.0020364204
25	0x3b642d89	0.003481718
26	0xbde1bbec	-0.110221714
27	0xbd9b4ed9	-0.07583398
28	0xbbbae6f2	-0.0057038004
29	0xbb2c5174	-0.0026293667
30	0x3e018d83	0.12651639
31	0xbdb525f4	-0.088451296
32	0x3dc91b87	0.098197035
33	0xbd4469df	-0.04795253
34	0x3d51bd6e	0.051206045
35	0xbbe39b5c	-0.0069460105
36	0xbd54392c	-0.051812336
37	0xbd442a23	-0.047891747
38	0xbca9bafd	-0.020719046
39	0xbdae2ba4	-0.085044175
40	0x3d608ee1	0.05482376
41	0xbd2b9cf5	-0.041897733
42	0x3d7b89bb	0.061410647
43	0xbc167803	-0.009183886
44	0xbcb18726	-0.02167089
45	0xbc3aee1e	-0.011409311
46	0xbdd25e10	-0.10271847
47	0xbdeaf8df	-0.1147325
48	0xbda3de4b	-0.080013834
49	0x3c917881	0.017757656
50	0x3da36bad	0.07979522
51	0xbda432ad	-0.08017478
52	0xbd4c27e4	-0.04984273
53	0xbd8777ab	-0.06614622
54	0x3d9ab4a3	0.07553985
55	0x3d8f29d0	0.06990397
56	0xbdcd1aea	-0.10014899
57	0xbda87630	-0.082256675
58	0xbd3da5be	-0.046300642
59	0xbdec5494	-0.115395695
60	0xbd84137c	-0.06449029
61	0x3de8e506	0.11371808
62	0x3c377ee0	0.011199683
63	0x3cfa593c	0.030560128
64	0xbc6cf735	-0.014463236
65	0x3d36bf51	0.044616047
66	0x3bec6d12	0.0072151506
67	0x3d2e4ae3	0.042551886
68	0xbdabab58	-0.083822906
69	0xbd56c450	-0.052433312
70	0x3d915588	0.07096392
71	0xbd45a02d	-0.04824846
72	0xbdccad4a	-0.0999399
73	0xbdba8a1b	-0.09108373
74	0x3bfd216b	0.007724931
75	0xbd6e9e43	-0.0582564
76	0xbdefa1a9	-0.11700756
77	0xbbadb21a	-0.0053007724
78	0x3c9e8c09	0.019353883
79	0xbd3121f1	-0.04324526
80	0x3dda9a84	0.10674003
81	0x3dd740ed	0.105104305
82	0x3b16f663	0.0023035042
83	0x3dd341a8	0.10315257
84	0x3d1636c0	0.036673307
85	0xbddd8d49	-0.10817964
86	0xbd513ce5	-0.051083464
87	0x3ce86fef	0.028373687
88	0xbd50d534	-0.050984576
89	0x3d4151ab	0.047197025
90	0x3ccf4a35	0.02530394
91	0x3de5f59f	0.11228489
92	0x3df55789	0.11979587
93	0x3d51dd1e	0.051236264
94	0xbd8cca2c	-0.06874499
95	0xbc749b20	-0.014929563
96	0xbdb257c8	-0.08708149
97	0x3db2cd58	0.087305725
98	0x3cc6f90c	0.024288677
99	0x3d579ba1	0.052638654
100	0x3dd0ae9b	0.10189553
101	0x3ded5174	0.115878016
102	0x3ccb0ba3	0.024785822
103	0xbcac9e71	-0.021071644
104	0xbd62f104	-0.05540563
105	0x3b971d2b	0.0046116314
106	0x3e2dd3b1	0.16975285
107	0x3dedf9ea	0.11619933
108	0x3de4393f	0.11143731
109	0xbd885edc	-0.06658718
110	0x3cc228c1	0.023701074
111	0xbdb81d0e	-0.08989917
112	0xbd967aa2	-0.07347609
113	0x3de26aba	0.11055513
114	0x3db5348c	0.08847913
115	0xbca21d11	-0.01978925
116	0xbce5e8dc	-0.028065138
117	0xbdbcc9de	-0.092181906
118	0xbcbec978	-0.023289427
119	0x3b9b358f	0.0047366093
120	0x3d793116	0.060837828
121	0x3df7074c	0.12061939
122	0x3d5f8c19	0.054576967
123	0xbd442126	-0.047883175
124	0xbe1f21e6	-0.15540275
125	0xbd4afd8a	-0.0495582
126	0xbcab1745	-0.02088512
127	0xbdd4c26d	-0.10388646
128	0xbdf955aa	-0.12174542
129	0x3d2fc5fa	0.042913415
130	0xbc76f19c	-0.015072253
131	0xbd3e5c01	-0.04647446
132	0xbd5600e7	-0.052246954
133	0x3cfdf455	0.031000296
134	0xb9891860	-0.00026148837
135	0xbb0b8f6f	-0.002129521
136	0xbcbc020d	-0.022950197
137	0x3d1605f2	0.036626764
138	0x3d20e68e	0.039282374
139	0xbe17fea9	-0.14843239
140	0xbd41ed49	-0.047345433
141	0x3db5de33	0.08880272
142	0x3e0b3e84	0.13598067
143	0xbe03fb24	-0.12888771
144	0xbd1cd811	-0.038291994
145	0xbd31740e	-0.04332357
146	0x3dc92d1e	0.098230585
147	0x3d1acf9d	0.03779565
148	0x3d84f9bc	0.064929456
149	0x3d97fc1a	0.074211314
150	0x3d21c9c3	0.039499056
151	0x3b362e1d	0.0027798482
152	0xbda764fd	-0.08173559
153	0x3d6cf2a8	0.057848603
154	0xbb7cbeb2	-0.0038565812
155	0x3ce731b4	0.028221942
156	0x3e166225	0.14685877
157	0x3db7bd2e	0.0897163
158	0xbcd738cb	-0.026272198
159	0xbd9f818a	-0.077883795
160	0xbd695943	-0.056969892
161	0x3cf4670f	0.029834298
162	0x3dca1815	0.098678745
163	0xbda7e7c8	-0.08198506
164	0xbcea46f9	-0.028598296
165	0x3e0bf7bc	0.13668722
166	0x3d7f20ad	0.06228702
167	0xbd809899	-0.06279106
168	0xbd9492a2	-0.072545305
169	0xbdab1f03	-0.083555244
170	0x3d8e0ddc	0.06936237
171	0x3e0625f2	0.13100412
172	0xbd6897d7	-0.05678543
173	0xbe07d0a9	-0.13263191
174	0xbd70ca6f	-0.058786806
175	0xbd9b1a90	-0.07573426
176	0xbdef783e	-0.11692856
177	0x3d3777c8	0.044791967
178	0x3c354770	0.011064395
179	0x3cd0b80e	0.02547839
180	0xbc73bc10	-0.014876381
181	0x3a0a2d49	0.000527103
182	0xbaca2003	-0.0015420917
183	0xbc33ce55	-0.010974486
184	0xbd2931b4	-0.041307166
185	0x3b019bf2	0.0019776789
186	0x3d92ac9c	0.07161829
187	0xbd238642	-0.03992296
188	0xbd403935	-0.046929557
189	0xbd1cebd1	-0.03831083
190	0xbdf0ee0a	-0.11764152
191	0x3c7f4eda	0.0155827645
192	0xbe14b218	-0.14521062
193	0x3d443ad3	0.04790766
194	0xbaf81f3a	-0.0018930205
195	0x3de2e707	0.11079221
196	0xbdc31bb7	-0.095267706
197	0xbbccf3f0	-0.0062546656
198	0x3c39cec1	0.011340798
199	0xbdeae984	-0.11470321
200	0x3db39523	0.0876868
201	0xbd1f3e83	-0.038877975
202	0xbc9c544f	-0.01908317
203	0x3c3422f3	0.010994661
204	0xbc29072b	-0.01031665
205	0xbb9a133b	-0.0047019995
206	0xbdbe5bf3	-0.09294882
207	0xbd33bb5e	-0.04387986
208	0x3df87565	0.12131766
209	0xbd4648cc	-0.04840927
210	0xbd8c315a	-0.068453506
211	0x3cca3df1	0.02468774
212	0xbc205d9f	-0.009787946
213	0xbdd49abc	-0.10381076
214	0xbd514893	-0.051094603
215	0xbad6a0b3	-0.0016374796
216	0x3b796c20	0.0038058832
217	0x3d664392	0.056216784
218	0xbdbc1ae4	-0.091848165
219	0x3dc012a9	0.09378559
220	0x3ddad75c	0.10685608
221	0x3daea00a	0.08526619
222	0xbccbc54f	-0.024874358
223	0xbdde9af3	-0.10869398
224	0x3d37ed07	0.04490378
225	0x3e0f5368	0.1399666
226	0x3e069945	0.13144405
227	0x3d86a134	0.06573716
228	0x3d9a9cc6	0.075494334
229	0x3d416a22	0.047220357
230	0x3e1c1074	0.15240651
231	0x3df50083	0.11962988
232	0xbd16aba7	-0.036784794
233	0xbdfad068	-0.122467816
234	0x3e0f7095	0.1400779
235	0x3d63a9f9	0.05558202
236	0xbd35d433	-0.044391822
237	0xbc2bc4c5	-0.010483925
238	0x3d1b3a56	0.03789743
239	0xbcb8b3ff	-0.022546766
240	0xbda6ad46	-0.08138518
241	0x3cb1bd6a	0.021696765
242	0x3da2fc04	0.079582244
243	0x3dcfada6	0.10140543
244	0xbd0ddcf6	-0.034634553
245	0xbd90167d	-0.07035539
246	0x3d4c03db	0.049808364
247	0x3ce44c30	0.02786836
248	0xbd87441b	-0.06604787
249	0xbd4ffa16	-0.05077561
250	0xbd92ceb4	-0.07168332
251	0xbd072434	-0.03299351
252	0xbd4eb422	-0.050464757
253	0x3d1a2a9b	0.037638288
254	0xbd9a4ef8	-0.07534593
255	0xbbc4ad59	-0.00600211

net.4.bias f4 [8]
0	0x3ddc1049	0.10745294
1	0x3db943e6	0.09046154
2	0xbc431ae7	-0.0119082695
3	0x3cdbd409	0.026834505
4	0x3ddbdc4b	0.10735377
5	0xbdbb5b8e	-0.09148322
6	0xbddbf44b	-0.107399546
7	0xbdf79edf	-0.12090849
