runs/4_hour_forecasting/71/best_model.pt (torch, 66681 bytes, 6 tensors)

net.0.weight f4 [64, 178]
000000 90 67 65 3d 99 a9 68 3d c9 d6 e4 bc 71 e4 91 3d
       0.056006968 0.056802366 -0.027934449 0.0712365
000010 a0 bb 65 bc d3 11 e3 3c 01 fb 71 bd 2c 07 01 3d
       -0.014021784 0.02771846 -0.059077267 0.03150098
000020 09 59 f0 3c bc c2 55 bd 62 6a 43 3d ea f3 81 3c
       0.02933933 -0.052187666 0.047708876 0.015863378
000030 9e 91 5c 3d b8 b3 03 bc 80 d0 0f 3d b0 8b b5 bc
       0.05384981 -0.008038454 0.03511095 -0.022161335
000040 79 db 8c 3d 4a 57 64 3c 75 2f 35 bd b9 5f f3 3a
       0.068777986 0.013936827 -0.04423471 0.0018567956
000050 a3 d2 2f bd 09 9c 8b bb ab cf 3f bd 9e d7 ea 3c
       -0.04292549 -0.004260544 -0.046828907 0.028667267
000060 38 6f 97 bd 00 56 22 bd 40 1b 16 bd 15 30 3e bd
       -0.0739426 -0.039632797 -0.03664708 -0.046432573
000070 e9 04 1b bc b2 3c 9c bd 2d a8 39 3d b4 c9 9d bd
       -0.00946162 -0.07628764 0.0453264 -0.077044874
000080 05 f4 3a 3d 34 9e 72 b9 02 d8 86 bc 17 04 05 3d
       0.04564287 -0.00023137854 -0.016460422 0.032474604
000090 cf b9 30 3b c2 73 6b 3d 4f 81 83 3c f7 d3 61 bc
       0.002696622 0.057483442 0.01605287 -0.0137834465
0000a0 bf 8f f1 3c 03 46 14 bc b0 14 d5 3c 0e 66 9d 3d
       0.029487489 -0.009049895 0.026010841 0.07685481
0000b0 af 76 22 3d 74 0f df bb a1 33 29 3d 9c a2 8c 3b
       0.039663967 -0.006807262 0.041309003 0.0042918455
0000c0 e3 bc 5a 3d 14 f1 55 bd f1 28 47 bd 9b 9e ef bc
       0.053402793 -0.052231863 -0.04862303 -0.029250434
0000d0 a1 ab 93 bd da 34 3b 3d 78 a1 8d 3b 72 c6 ef 3c
       -0.0721047 0.0457047 0.004322227 0.02926943
0000e0 d0 5e b4 3c b2 90 37 bb c7 9c 41 3d 81 2a a2 bd
       0.022017866 -0.002800983 0.047268655 -0.07918263
0000f0 e4 b5 4b bc a9 9e 67 bd 88 97 2a 3c 5b 43 0e bd
       -0.012433503 -0.056547794 0.010412104 -0.034732204
000100 40 3c 91 b9 bc 96 b3 ba 79 b5 19 3d d8 9c 16 bd
       -0.00027701445 -0.0013701539 0.03752658 -0.03677067
000110 61 77 6c bd bc 74 61 bd d7 ff 61 3d 4a 11 a0 3c
       -0.057731036 -0.055042967 0.05517563 0.019539494
000120 1f 97 6d 3d b3 de 9d bd ba 4c b4 bd 57 9e 8c bd
       0.05800545 -0.07708492 -0.08803697 -0.068661384
000130 3d 0f 81 bd f9 49 d2 3c af 78 37 3c e9 40 80 3d
       -0.063017346 0.025670039 0.011198207 0.06262381
000140 35 70 54 bd c5 ea 88 bd 4f 16 ca 3c 9d b0 18 bd
       -0.05186482 -0.06685404 0.02466884 -0.037277807
000150 24 e0 e3 3c fe df b3 ba ae 36 36 3d 89 b8 05 bc
       0.02781684 -0.0013723371 0.04448574 -0.008161672
000160 6c 60 83 bd b6 59 50 3d 2c 64 ff 3c eb 92 db 3b
       -0.064148754 0.050866805 0.031175695 0.0067008636
000170 d1 9d 8b 3d a0 60 a5 3d b9 a8 84 bc 4f 64 39 bd
       0.068172105 0.080750704 -0.016193734 -0.045261677
000180 e8 2d 9c 3d 3d 04 12 bd bc 8c 5b 3c 53 c7 a6 bd
       0.076259434 -0.035648573 0.013400253 -0.08143487
000190 d5 14 0e bd 1c d7 3f 3d 9d f6 9f 3b 7e 09 11 bd
       -0.034687836 0.046836004 0.0048816935 -0.035409443
0001a0 16 f7 d6 3b 3a 50 b8 bc 92 16 8e bd 85 30 72 bd
       0.0065602167 -0.022499193 -0.06937899 -0.059128303
0001b0 58 4a bb bd 5b b3 82 bd 9b 30 85 3d 86 e9 62 bc
       -0.09145039 -0.063818656 0.065034114 -0.013849622
0001c0 14 c3 e6 bb 64 a8 c2 bd d0 57 82 bd 97 b7 3c bd
       -0.007042298 -0.09504774 -0.06364405 -0.046073522
0001d0 fe f6 06 bb be 92 a8 bd 7c 2b 3d bd df 59 92 bd
       -0.0020593996 -0.08231114 -0.046184048 -0.07146048
0001e0 be ce fa bc 19 49 38 bd 9b e1 f7 bc 77 13 dd bc
       -0.03061616 -0.044991586 -0.030258944 -0.02698682
0001f0 0e 46 77 bd 2e 02 32 bd 36 49 a8 bc 46 ff 19 bd
       -0.060369544 -0.04345911 -0.020542722 -0.037596963
000200 e3 94 a2 3d 5d a6 83 3b bb 98 98 3d b0 51 aa 3c
       0.07938554 0.004017635 0.07451006 0.020790905
000210 78 cb 57 bd 8e 99 92 3d 74 05 91 3c 3f 4e d7 bc
       -0.052684277 0.071581945 0.017702796 -0.026282428
000220 f2 dd 86 bd 95 5f 61 bd f7 20 8b 3c 26 52 a8 3b
       -0.065853015 -0.055022795 0.016983492 0.005136746
000230 b8 9d ef 3c 3c 8b 9f bd 35 32 11 3d f1 6e 9c bd
       0.02925001 -0.07790229 0.03544827 -0.07638348
000240 f2 e4 79 bc 31 e9 4e 3c cb bb 18 3d cb e9 40 3d
       -0.015252339 0.012628839 0.03728847 0.047097962
000250 0b 5f 1a 3d a8 9a a4 bd 9a 9b 57 3c 3c bb 44 bd
       0.037688296 -0.08037311 0.013159657 -0.048030123
000260 4c 8e a2 bc f6 2b a9 bd ec fc ad 3d 84 35 af bd
       -0.019843243 -0.08260338 0.08495507 -0.08555129
000270 23 cf 48 3d a1 83 d7 3c 8e 7c df 3c 5e f6 0a bd
       0.049025666 0.026307883 0.027281072 -0.03392636
000280 c4 53 92 3d 2a ba a6 3c fd c9 12 3c 58 fb 83 bd
       0.07144883 0.020352442 0.008959291 -0.064444244
000290 bf 00 22 3d 73 df df bb 56 06 81 bc eb 68 81 3d
       0.039551493 -0.006832057 -0.015750092 0.0631884
0002a0 0d 7c ab 3c ca b4 0e bd dd 21 18 bd 68 c1 a3 bb
       0.020933175 -0.034840383 -0.03714167 -0.004997421
0002b0 78 20 54 3d 89 48 b1 bc 0f a8 dc bc f3 0d e4 bc
       0.051788777 -0.021641033 -0.026935605 -0.027838683
0002c0 e2 37 c2 bb 0b 58 ca 39 1c 41 5b 3d 5d 31 77 bd
       -0.005927072 0.0003859404 0.05352889 -0.06034981
0002d0 03 57 2c 3d ba 79 26 3d fd 5a 16 3c c5 a7 33 bd
       0.04207517 0.04064343 0.009176967 -0.04386117
0002e0 e0 b5 62 3d 9f 17 4d 3d 21 7d 91 3d 13 32 bd 3b
       0.05534923 0.050071355 0.071039446 0.0057737916
0002f0 65 81 11 3c 05 d9 d6 ba 47 37 85 bc 0b 2f c0 3a
       0.008880948 -0.0016391581 -0.01626171 0.0014662457
000300 c0 58 65 3d 26 68 aa 3d b4 87 7e bc f4 a2 d3 bc
       0.05599284 0.08320646 -0.015535284 -0.025834538
000310 7f c0 90 ba a6 78 c4 bb 04 48 a5 3b cb 2b 3d 3c
       -0.0011043696 -0.0059958277 0.0050439853 0.011546086
000320 fd cb 79 bd 84 d4 c4 bc ee 52 89 3d 2c 7f fb 3c
       -0.060985554 -0.024027117 0.06705271 0.030700289
000330 ef 8d b7 bb 8b 04 29 bd 9e 91 36 bd a2 04 93 bd
       -0.0056016366 -0.0412641 -0.044572465 -0.07178618
000340 6f 60 13 bc fe e2 ae 3c c1 de 3b 3d bf be d6 3c
       -0.0089951595 0.021348473 0.04586673 0.026214002
000350 ba 37 72 bd 7d ec d8 bc 34 fb 39 3c a4 b3 ce 3d
       -0.059135176 -0.026479954 0.011351395 0.100928575
000360 35 c9 25 3c f5 5a 72 b9 98 34 0b 3d 95 bd 04 bd
       0.010118772 -0.00023112803 0.033985704 -0.032407362
000370 cd 1d 15 bd 98 bd 3c 3d b5 e6 74 bc f2 cf 3e bc
       -0.036405373 0.04607925 -0.014947583 -0.011646258
000380 7d 62 4a bd 60 6f 76 3d 67 90 66 3d 41 64 0a 3d
       -0.049410332 0.06016481 0.056290057 0.033787016
000390 43 1d 84 bd 46 a3 80 bd 08 05 35 bd 37 54 7e 3d
       -0.06450894 -0.06281142 -0.04419425 0.062092032
0003a0 7a 1f 3f 3d 6e 47 8e 3d c6 88 11 3d e8 5d ef 3c
       0.046660878 0.06947218 0.035530828 0.029219583
0003b0 3c b6 53 3c 48 85 3e bd 9b 0f 3b bd ad 9f 6a bd
       0.012921866 -0.046513826 -0.04566918 -0.057281185
0003c0 9a 70 1e 3d 93 44 18 bd 8f e9 e7 3a 1b 40 40 bd
       0.038681604 -0.037174772 0.0017693507 -0.046936136
0003d0 27 47 ac ba f1 3e 50 bd 1f 19 81 bd 89 4b a5 3c
       -0.0013143764 -0.050841276 -0.063036196 0.02017762
0003e0 51 2f 8e bc 18 34 09 3d f4 af ec bc dc 32 57 bd
       -0.017356547 0.033496946 -0.028892495 -0.052538738
0003f0 3b f9 40 bc 85 ac 17 bd 48 60 7f bc 4e 1a 91 bd
       -0.011778171 -0.03702976 -0.01558692 -0.07085095

net.0.bias f4 [64]
000000 f7 fb e6 3c 30 38 8e ba 65 f2 66 3d 07 9b 87 bc
       0.028196318 -0.0010850485 0.05638351 -0.016553415
000010 0d 44 9e 3d 71 ee c6 3c a6 55 93 3d 23 d0 91 3d
       0.077278234 0.02428362 0.071940705 0.07119777
000020 da 26 b3 3b 7d 86 a3 3d 87 0a 60 3d 3c 0e 2d bd
       0.005467278 0.07984636 0.05469754 -0.042249903
000030 6e 05 13 3d c2 f5 d4 bc a0 95 3d 3d ab cf 6d bd
       0.03589385 -0.025996093 0.04628527 -0.058059376
000040 e5 1b ff ba 38 5b bd bb 17 bf 10 bd 0e 53 c9 3d
       -0.0019463269 -0.0057786964 -0.035338487 0.098302945
000050 ee 06 57 3c ab b4 de bb 32 7d b2 3c a9 c9 aa bb
       0.013124211 -0.0067964396 0.021788213 -0.005212028
000060 fc 2e 1d bd 19 62 72 3d b9 30 ea bc 71 23 50 bd
       -0.038374886 0.059175584 -0.028587686 -0.05081505
000070 93 a0 2f bd 18 d5 d9 bc 3b d9 9e 3d e6 b0 4a 3d
       -0.042877745 -0.026590869 0.07756277 0.04948511
000080 ae ed 95 3d a7 87 e6 bc 8f 6f e2 bc cd 7d 1a 3d
       0.073207244 -0.028140856 -0.027641086 0.03771763
000090 f7 9e d4 bc 8d 71 2f bb 15 b6 07 bd cf 6d 44 bd
       -0.025954707 -0.0026770562 -0.03313263 -0.047956284
0000a0 98 b1 98 bc 14 a8 30 bd 8a 11 2b 3d 05 da 6b 3c
       -0.01863937 -0.04312904 0.041764773 0.014395242
0000b0 2e 57 56 3d d8 31 a9 3d 86 1c bc 3d b8 ac 82 bd
       0.052329235 0.0826146 0.09185128 -0.063806
0000c0 2d fd 60 3d 08 bf fb 3c bf 40 aa bc 0e c2 2a 3c
       0.054928947 0.03073074 -0.020782826 0.010422243
0000d0 d8 ed e1 3c a1 73 a2 3c 41 41 16 bd c5 78 89 b9
       0.027579233 0.019830527 -0.036683325 -0.00026220657
0000e0 b5 32 c7 ba b3 60 0e 3d cf 4f 4b 3d 8e 10 a5 3d
       -0.0015197607 0.03476019 0.04963666 0.08059798
0000f0 a4 7b ee 3c b7 eb 44 bd e3 46 c0 3d 84 a8 d9 3b
       0.02911169 -0.048076358 0.093885206 0.006642403

net.2.weight f4 [64, 64]
000000 1a c0 a4 3d 61 b3 93 bd 7b 5a 72 3c a6 fb ed 3c
       0.08044453 -0.07211948 0.01479208 0.02905066
000010 e0 68 97 bb 2b f4 84 bd 31 1c b1 3d e3 41 df 3d
       -0.0046206564 -0.06491884 0.08647955 0.10901239
000020 cc d4 08 3e 40 00 ff 3c c7 33 5f bc 97 c7 72 3d
       0.13362426 0.031128049 -0.0136231845 0.059272375
000030 f5 c0 1e bb 11 eb dd 3d eb 2d d4 3d 18 7c 86 bd
       -0.0024223898 0.10835851 0.10360321 -0.06566638
000040 62 ca ee 3d 32 f0 27 3d 8e ae 7b bd 5f 43 47 bd
       0.11659695 0.041000552 -0.061445765 -0.048648234
000050 3c 27 22 3e 56 33 dd bd 6e d9 0f 3d 89 19 3d bd
       0.15835279 -0.10800807 0.035119466 -0.04616693
000060 00 0c cf bd ab 4e a6 3d ae fb d9 3d bd ae 2f 3e
       -0.10109711 0.081204735 0.10643707 0.17156501
000070 fd 75 bb bd e5 62 c5 3d 51 4d ba 3d 2b eb 42 3c
       -0.09153364 0.09638003 0.09096778 0.011896889
000080 b7 d1 b4 3d 76 a1 0d 3e ee d3 95 bd d8 c5 cf 3d
       0.088290624 0.13831124 -0.07315813 0.101451576
000090 24 0d 69 3d f2 f7 93 3d 88 c8 e3 3d 81 d9 43 3b
       0.056897298 0.07225026 0.11122233 0.002988428
0000a0 9c ac 83 bd 54 70 2c 3e d7 fa e0 3d 14 31 d4 3c
       -0.06429407 0.16839725 0.10985344 0.025902309
0000b0 e5 3a 60 bd 91 e2 16 be d5 aa 3c bc d2 f1 55 bc
       -0.054743666 -0.14734866 -0.011515339 -0.013058143
0000c0 ed 62 7c 3c 50 f3 3b bc 21 79 a9 3d 9c 4f 1c 3d
       0.015404445 -0.011471584 0.08275057 0.03816186
0000d0 87 92 b3 bd 33 0a 9b bd 22 67 01 be 4a dc d8 3d
       -0.08768182 -0.07570305 -0.12636998 0.10588892
0000e0 a1 43 a0 bc 25 bf a4 bd cc e1 42 bd dc 9e d4 3d
       -0.019563498 -0.080442704 -0.047578618 0.103818625
0000f0 ea 66 b8 bd cd d3 f1 bd 6b 1a ba bc 58 b1 7b 3d
       -0.09004004 -0.11807976 -0.022717675 0.061448425
000100 b4 e8 c5 bd 75 09 47 bd 3e e2 84 3d ff 1c c4 bd
       -0.09663525 -0.048593003 0.06488465 -0.09575843
000110 1d 34 53 3d c7 36 c9 3d 99 e0 04 3d f5 96 f2 3d
       0.05156337 0.09824901 0.032440756 0.11845199
000120 9c 67 c3 3d 5c 8d 1b bc 1b 25 c1 3d a8 8f bc 3d
       0.09541246 -0.009494152 0.094309054 0.09207088
000130 98 b7 7a 3d ad 54 cd bc 24 e0 a7 bd ea f7 fe bd
       0.061210245 -0.02506479 -0.08197048 -0.124496296
000140 be 66 39 3d 74 70 d8 b8 f9 8c 85 bb 49 dd 05 3e
       0.045264 -0.00010320629 -0.004075643 0.13072695
000150 41 6a d3 bd b4 4e 2c 3d d6 4b 27 3d 86 35 82 3c
       -0.10323001 0.042067245 0.040843807 0.015894663
000160 c4 7e d6 3d ef f1 b4 3d d1 3d b5 bd 26 58 94 bb
       0.104733974 0.08835208 -0.08849681 -0.0045271097
000170 c2 13 86 bd 2b e9 8f bd 94 5c a7 bd bd 59 86 3d
       -0.06546737 -0.07026895 -0.08171955 0.06560085
000180 a2 2f 54 3b 21 4a 9c bd ee d3 08 bd e4 21 b4 bc
       0.0032377024 -0.076313265 -0.033405237 -0.021988817
000190 ba b6 44 3d cf 83 bd 3d 61 9c 80 bd 4d da cf 3b
       0.048025824 0.09253656 -0.06279827 0.006343162
0001a0 27 68 1a 3e 3e a0 3a 3d ba f4 30 3d fb de b6 3a
       0.15078793 0.045562975 0.04320214 0.0013951951
0001b0 d8 0b 6a 3d 81 fb 43 3d df 20 cc 3c 61 01 c4 3d
       0.0571402 0.047847275 0.024918018 0.095705755
0001c0 b4 4f 95 bd fe e9 86 bd c0 6a fc 3d a2 6f 96 bc
       -0.07290593 -0.06587599 0.123250484 -0.018363778
0001d0 57 30 e9 bd 37 01 c8 ba 3d ad d2 3d 81 59 94 3d
       -0.11386173 -0.0015259151 0.10286949 0.07243634
0001e0 1e 89 c8 3d e9 68 e2 bc dc fc f4 bd 6b b8 1f 3d
       0.09791778 -0.027637916 -0.119622916 0.038994234
0001f0 04 50 f4 3d b1 f2 03 3e d5 bb a9 3d 07 51 f1 3d
       0.11929324 0.12885548 0.08287779 0.11783033
000200 38 de ab bd 86 98 4e bb 6d d6 15 bd 1f 40 80 ba
       -0.08391994 -0.0031524017 -0.036581445 -0.0009784735
000210 34 9c 8d 3d 4a 59 ec bd 3f 31 81 3c 40 29 7c bd
       0.06914559 -0.11540468 0.015770553 -0.061562777
000220 da 55 5e 3d 26 d9 f9 bd b4 ae c3 bd d4 0c b8 bd
       0.054281093 -0.12199621 -0.09554806 -0.08986822
000230 ce 08 9f 3d 32 88 3a 3d 68 4b df 3d 6b 22 2b 3e
       0.07765351 0.045540042 0.109030545 0.16712348
000240 ca 99 c3 3c 28 65 95 3b 24 cf d2 3c 61 9c 50 3c
       0.023877043 0.004559178 0.025733538 0.012732596
000250 94 71 fa 3b 98 77 12 be 8a cd b2 3d 94 27 ec bd
       0.007642934 -0.14303434 0.0873061 -0.115309864
000260 67 c7 e2 3d 20 77 62 3d 67 bc 1b 3d 7f 7b 85 3d
       0.11073189 0.055289388 0.03802147 0.06517696
000270 6f 69 0e 3d b1 67 ad bd 95 fa a6 bd 81 7d e4 bd
       0.034768518 -0.08467043 -0.081532635 -0.111567505
000280 5d 3e a3 bd 71 96 30 3d 50 a5 2c bc bb 3a e4 3c
       -0.07970879 0.043112222 -0.01053746 0.027860036
000290 68 b8 46 3d cb 31 f0 3d 67 34 cc 3a ac 8e 5f bd
       0.048515707 0.11728247 0.0015579582 -0.054579422
0002a0 39 38 a6 bd 0b 3d d1 3d 0c d3 da bd dd 95 2a 3d
       -0.08116192 0.10216721 -0.10684785 0.041646827
0002b0 01 af 95 3d 4b f3 2f 3d 24 7f d5 3b 66 89 21 bd
       0.0730877 0.04295663 0.0065154005 -0.039437674
0002c0 97 76 df 3d 69 56 85 bd ac ee 39 3c 85 d8 52 bd
       0.10911291 -0.06510622 0.011348408 -0.05147602
0002d0 19 d4 70 3d a1 59 92 bc ab b9 c8 bd ba 2c 5e bd
       0.058796022 -0.017865004 -0.09801038 -0.054241873
0002e0 55 06 23 3d 09 1a 9b ba dc 19 83 bd 54 78 bd bd
       0.03980096 -0.0011833321 -0.06401417 -0.092514664
0002f0 da 64 47 bd ea 53 8a bc c1 6f 64 bd ee d9 98 3d
       -0.048680164 -0.016885716 -0.05577064 0.07463442
000300 08 fd d2 3c 18 cf 81 bc 09 eb 46 bc 0b 32 cf 3d
       0.02575542 -0.01584582 -0.012140998 0.10116967
000310 36 6a d9 bd 00 53 a3 bd 55 a1 e5 bd ca 55 90 3d
       -0.10615961 -0.07974815 -0.11212412 0.07047613
000320 30 cb 8f bc 6c bb a3 bd f0 e1 c4 3d 8b cd e7 3d
       -0.017552942 -0.07994732 0.09613407 0.11318501
000330 8e ef e7 bd 9a 2d ae 3d 77 e2 b7 3b a3 51 c9 bc
       -0.11324988 0.085047916 0.0056117135 -0.02457506
000340 87 41 ef 3d e7 0f ab 3d 3f ab 46 3b 47 48 59 bd
       0.1168242 0.083526425 0.0030314473 -0.053047445
000350 0e 59 d9 3d 29 4a f1 3d 6a c6 31 3c 16 a9 80 bd
       0.10612689 0.11781723 0.010850528 -0.062822506
000360 67 b8 19 3e ac 22 31 bd d6 8b 79 bd 53 df 03 be
       0.1501175 -0.043245956 -0.060924374 -0.1287816
000370 8e 46 69 3d 26 21 fb 3c c1 cd d3 bc 0f b8 db bd
       0.05695205 0.030655455 -0.025854947 -0.10728466
000380 67 34 f5 3d 78 e0 68 3b 66 11 b6 3d 18 e5 65 bc
       0.119728856 0.0035534184 0.08890037 -0.014031671
000390 2f 0c 06 3e bd 55 8d bc 16 14 ef bc 96 89 c6 3d
       0.13090585 -0.017252797 -0.029184382 0.09694211
0003a0 5c 85 76 3d bd b3 c4 3d 7f 3e bd bb 25 12 b3 bd
       0.060185775 0.09604595 -0.0057752724 -0.08743695
0003b0 c6 b8 a1 bd 17 d7 ec bc c7 39 60 3c 10 56 2d bd
       -0.07896571 -0.028911157 0.01368565 -0.042318404
0003c0 0a 66 c7 3d 0b 33 b8 bd 1d 14 69 3d 32 18 cb 3c
       0.09736259 -0.08994111 0.056903947 0.02479181
0003d0 4f 59 a2 3c 83 f7 87 3c ad de 07 3d f7 4d a4 bd
       0.019817976 0.016597515 0.033171345 -0.08022683
0003e0 40 c6 f0 bd 8d ac 6e 3d 9b e7 d5 bd 9f 24 f0 bd
       -0.11756563 0.058270026 -0.10444566 -0.11725735
0003f0 0a 65 81 bd 97 71 f6 3d fc b9 ff bc 87 bd cf 3d
       -0.063181 0.12033384 -0.031216614 0.10143571

net.2.bias f4 [64]
000000 24 17 3c bc 7a 30 25 bc 99 cf 18 3d f8 3a dd 3d
       -0.0114801265 -0.0100823585 0.037307356 0.10802263
000010 4c e3 8b 3d 8a 01 07 3e f5 8b 53 3d 85 69 9d 3d
       0.06830463 0.13184181 0.051647145 0.07686142
000020 a1 33 0b 3d c7 19 b5 3d 52 c9 dd 3d 7c 32 ad 3d
       0.033984784 0.08842807 0.108294144 0.08456895
000030 c9 10 b5 bd 2a a3 19 3c 73 eb 8f bd 85 2b c5 bb
       -0.08841092 0.00937728 -0.0702733 -0.006017151
000040 19 50 fc 3d 06 16 7f bd 43 59 4a bd 13 cc 07 bd
       0.12319965 -0.062276863 -0.049401533 -0.033153605
000050 3f b5 1f 3d c0 b4 51 bd 35 fb 03 3d c9 96 e8 bd
       0.03899121 -0.051197767 0.03222199 -0.11356885
000060 b6 f1 f9 bc b0 1b a0 3d 2c ea cd 3d d1 1e af bc
       -0.030510765 0.07817781 0.1005443 -0.021377
000070 92 16 d1 3c 1d cf 7d bc e4 23 b6 bd 9b 89 31 bc
       0.025523458 -0.015491274 -0.08893564 -0.01083603
000080 a3 5e b0 3d aa 20 1a 3d 0f 56 09 3e 5d 6a 93 bd
       0.086118005 0.037628807 0.13411735 -0.071980216
000090 66 ae c5 bd ba d5 cc bd 0f 9c c7 bd a3 df 3b 3d
       -0.096524045 -0.100017026 -0.09746563 0.045867573
0000a0 f1 cc bc 3d 7a df c9 bd df cd e4 bd d2 77 2c bd
       0.09218777 -0.09857078 -0.11172079 -0.042106457
0000b0 bb 77 b2 3d 3c c3 9a 3d 0d 77 1a bc a8 29 01 3e
       0.08714243 0.07556769 -0.009427798 0.12613547
0000c0 1f bb 90 3d 1f cd ce 3d c9 21 8c 3c 1b 65 8d bd
       0.070669405 0.100977175 0.017105954 -0.0690405
0000d0 80 ea e0 3c 03 75 5e 3d 8f 76 87 3d 3c 16 66 3c
       0.027455568 0.05431081 0.0661441 0.014043387
0000e0 8f b7 ca bc 2d da 37 3d 30 3c e5 bb f3 03 38 3d
       -0.02474573 0.044885803 -0.0069957003 0.04492564
0000f0 33 3e d1 bd 7b 6f 93 bc 8f 62 ac 3d 9f 98 13 3d
       -0.10216942 -0.017997494 0.08417236 0.036034223

net.4.weight f4 [4, 64]
000000 4f f4 e3 3d f6 0a e1 bd eb 07 42 bb 31 56 7e bd
       0.111305825 -0.10988419 -0.002960677 -0.062093917
000010 bf 0c 09 be 46 5c 49 bd 8a 83 d6 3c 2c 12 c9 3c
       -0.13383768 -0.049160264 0.02618577 0.024544798
000020 d5 fa 01 bd 12 80 8b bd 7d 83 1d bd 61 75 c4 3b
       -0.031733353 -0.06811537 -0.038455475 0.005995438
000030 7a e2 49 3d dd a2 06 3e 89 39 b0 bd f4 d5 e1 bd
       0.04928825 0.13148065 -0.08604724 -0.110271364
000040 bb 47 09 3e 8b 06 e5 3d 9f 41 4a 3d 9f af c9 bd
       0.13406269 0.111828886 0.049378987 -0.0984795
000050 9c 30 0c 3e f2 de 27 be 90 40 0c be 75 b9 f9 3c
       0.13690418 -0.1639364 -0.13696504 0.03048394
000060 19 39 cb 3d 1c e6 06 be b3 9e bf 3c 9e d1 6b bc
       0.09923 -0.13173717 0.023391103 -0.014393238
000070 33 98 e6 3c 3a 73 a9 bd f2 dd 98 bd 57 20 31 3d
       0.028148746 -0.08273931 -0.07464208 0.043243732
000080 a8 27 71 bc a4 22 f9 3d 32 49 98 bd 1f 72 05 3e
       -0.014718927 0.1216481 -0.07435836 0.13031815
000090 3a 35 49 3d 6a 21 84 bc d0 35 d0 bd f5 37 ef 3d
       0.049123026 -0.016129214 -0.10166514 0.11680595
0000a0 ca b3 1b bc 76 f8 00 bd 80 ac 15 bc 66 46 b1 3d
       -0.009503314 -0.03148695 -0.0091353655 0.086560056
0000b0 e5 86 76 bd cb eb f6 bd 80 3d a3 3d 9e 8c 93 bc
       -0.06018724 -0.12056693 0.079707146 -0.018011387
0000c0 a7 35 f9 3d 5b ca b8 bd 0c 15 52 bd 71 38 87 bd
       0.121684365 -0.09022971 -0.051289603 -0.06602562
0000d0 7e 2e 13 3d 1e e0 0c bd 33 a5 8d 3d 7a 2c 0b be
       0.03593301 -0.034393422 0.06916275 -0.13591185
0000e0 0c 21 df bd f8 42 8b 3d f3 76 10 be 1b 1e 12 3d
       -0.10894975 0.06799883 -0.14107876 0.035673242
0000f0 30 aa e9 bd ac c5 5c 3d 5a 43 f4 bc 80 20 24 bd
       -0.11409414 0.053899452 -0.029817272 -0.040070057
000100 81 89 2a 3d 9a d1 93 bc ed c3 3d 3d f4 bc 77 3d
       0.04163504 -0.018044282 0.046329428 0.060482934
000110 63 f8 e2 bd f6 05 85 3d c3 7d 18 3e d9 7a 1f bd
       -0.11082532 0.064952776 0.14891724 -0.038935516
000120 91 81 f9 bd 3f c3 07 3d 3c 30 a5 bd 61 d8 c1 bc
       -0.12182916 0.033145186 -0.080658406 -0.023662748
000130 8d 5f 19 be a6 74 d0 3d 67 e9 46 3c 30 02 e2 bc
       -0.14977856 0.10178499 0.012140608 -0.027588934
000140 2c 4c 30 3b c6 55 9f 3d 35 c5 27 bd 5c 0e af bd
       0.002690087 0.07780032 -0.040959556 -0.08547661
000150 5e 49 90 3d 30 4b bb bd d8 69 cd 3a b9 13 c0 bd
       0.07045244 -0.091452 0.0015671803 -0.09378762
000160 e0 96 aa bb cf f4 de bd 9b 3c 00 3d 64 1f d2 bd
       -0.005205974 -0.10886537 0.031307798 -0.102598935
000170 c0 ab 06 3e 32 42 2c 3d 9b 79 74 3d c2 f5 15 bd
       0.13151455 0.042055316 0.059686285 -0.036611326
000180 1f 5b ea bd 55 fb d8 3c ec 24 c4 bd 4c 2b 41 bc
       -0.11443161 0.026487032 -0.09577355 -0.011790108
000190 56 43 bf 3d 5c dd ea 3d a4 80 76 bb 80 5d f7 3d
       0.09339015 0.11468002 -0.0037613297 0.120783806
0001a0 4d e2 db bd 60 c7 eb bd b2 fc bd 3d 29 e2 b2 3d
       -0.10736523 -0.11512637 0.092767134 0.08734543
0001b0 67 d1 3a bd 03 c4 02 be c2 0c b6 3b 00 bd 1c 3e
       -0.045609858 -0.12770085 0.00555572 0.15306473
0001c0 d2 de 31 3e 31 c4 95 3d 34 ba 00 be f1 61 2e 3d
       0.17370155 0.07312811 -0.12571031 0.042573873
0001d0 b0 dc 91 3d 4b af ee bd 2b 01 57 3d aa d5 20 be
       0.07122171 -0.11654528 0.05249135 -0.15706506
0001e0 ca 56 cb 3c d1 19 aa bd f9 c0 f5 bd 10 ad 81 bc
       0.024821658 -0.08305705 -0.11999697 -0.015829593
0001f0 13 63 39 3d 36 dc e7 3d f5 cf c1 bd a8 ed c7 3d
       0.0452605 0.11321299 -0.09463493 0.09762126
000200 c8 3c b0 3d 55 c9 df bd 2e 54 da 3c ea 4d 8c bd
       0.08605343 -0.10927073 0.026651468 -0.068507984
000210 7d a8 14 be 64 c3 cd bd d7 8d fc bc a8 87 23 3e
       -0.14517398 -0.100470334 -0.030829353 0.15969718
000220 7a 5b bf bd a8 fd b9 ba d7 95 12 be 58 c4 4c bd
       -0.0934362 -0.0014189975 -0.14314972 -0.049991935
000230 86 a2 3f 3c 5b cd c5 3c 94 55 3a 3c 6b 7b c9 bc
       0.011696463 0.024145773 0.0113729425 -0.024594983
000240 d0 3f 04 3e d8 4e 4b bd 4c f5 2b be fd c3 17 be
       0.12914968 -0.049635738 -0.16792792 -0.14820857
000250 a9 56 c2 3d ac ed b2 bd 02 f2 9f bd db 8d 8f 3c
       0.09489185 -0.087367386 -0.07809831 0.017523697
000260 ad 70 f4 3d 55 2f d1 bc 63 7f d7 bc 76 08 ae bd
       0.11935554 -0.025535265 -0.02630586 -0.084977075
000270 9f d0 b3 3d 9f 11 4a bc 9b e0 b6 3d 63 2d 12 3e
       0.08780026 -0.012333303 0.08929559 0.14275126
000280 e1 65 05 be 02 f0 c9 3b 4d d4 88 bd b5 da 79 bd
       -0.13027145 0.0061626444 -0.06681118 -0.06099959
000290 ac ca 93 3a 3f 4a 25 3d aa 94 1a 3e 39 0c 1a 3d
       0.0011275611 0.04035401 0.15095773 0.037609313
0002a0 b4 3c ca bd 6f aa ef bd 6b 43 3b bd 69 e8 02 bd
       -0.098748595 -0.117024295 -0.04571859 -0.031959925
0002b0 7f 2a 8a bc c4 3a dd bb 1e f3 a3 bd f3 d0 71 3d
       -0.016865967 -0.00675139 -0.08005355 0.05903716
0002c0 27 ee d6 3d 5a 4b d6 3b 20 7c 21 bd 4c 17 02 be
       0.10494643 0.0065397443 -0.039425015 -0.127042
0002d0 58 be 2a 3e 50 41 8c bd eb 2c 9d 3d c5 d7 26 bd
       0.16674173 -0.06848395 0.07674583 -0.040733118
0002e0 0a cb 31 3d 41 85 f3 bd 03 fb ad bc e8 13 02 be
       0.043406524 -0.118906505 -0.021237856 -0.12702906
0002f0 c4 86 67 3d 40 64 d4 3b c8 ee e6 bc 3f f0 58 3d
       0.056525007 0.0064816773 -0.028190032 0.05296349
000300 7b 5d cf bc 42 fd 22 bd ae 35 1f 3e fe 1e ad bd
       -0.02531313 -0.039792307 0.15547821 -0.08453177
000310 66 78 91 bd ce 6d b7 3d 09 c7 e8 3d 8a 60 b4 3d
       -0.07103042 0.089564905 0.11366088 0.08807476
000320 59 e2 23 be 9a 1c 07 bd e6 86 1a be 26 a7 ab bd
       -0.16004314 -0.03298626 -0.15090522 -0.083814904
000330 fc 8c 29 bd a7 ac 22 bd e3 73 7b 3d de c6 a8 bc
       -0.04139422 -0.039715435 0.061389815 -0.02060264
000340 d9 14 7d 3d 6f 93 64 3d ab 1c 17 bd 0d 01 ff bd
       0.06178746 0.055804666 -0.036892574 -0.12451372
000350 01 7a 6c 3d d4 6c 61 3d 82 4a 17 3d 89 ee ce 3d
       0.05773354 0.055035427 0.03693629 0.10104091
000360 92 f4 12 bd 97 3b 5b bd 7c 49 27 be af fc 14 be
       -0.03587777 -0.053523626 -0.16336626 -0.14549516
000370 84 3c 98 bd c5 99 cf 3d 76 b3 af bd 14 7f 99 3d
       -0.074334174 0.10136751 -0.08579151 0.07494941
000380 43 1e 41 3d b9 40 89 3d ae c5 c3 bd db 84 84 3d
       0.047148 0.06701798 -0.09559189 0.06470653
000390 b9 f4 0d 3d 1d f0 9f 3d 0a af e9 b9 8f 93 08 3e
       0.034657214 0.0780947 -0.00044571637 0.13337539
0003a0 73 ec b4 3c 28 4b a6 bd 1a 44 e3 3d 77 f1 86 bd
       0.022085404 -0.08119804 0.11096974 -0.065890245
0003b0 e7 01 25 bd 18 9f 00 be 12 60 08 be 51 bc 15 3e
       -0.040285017 -0.1256069 -0.13317898 0.14622618
0003c0 c0 43 c0 3d 0b 0b 85 bd 33 6f e5 bd 98 3d f5 bd
       0.09387922 -0.06496247 -0.1120285 -0.11974639
0003d0 8f 51 95 3c a4 42 71 bd bb 90 20 3e d2 0c bd 3d
       0.018227367 -0.058901444 0.1568021 0.09230961
0003e0 ba f5 5a 3d 9b 27 db bd b2 47 a5 bd 29 66 28 bc
       0.053457 -0.107009135 -0.080703154 -0.010278263
0003f0 d7 65 bd bd 8b 62 0d 3e 3e 92 02 be a8 ad 12 3e
       -0.0924794 0.13807122 -0.127511 0.14324057

net.4.bias f4 [4]
000000 f5 5b 92 3c 2d 89 e9 3d fc 8c a8 3d 51 42 6e 3c
       0.017866114 0.11403117 0.08230016 0.014542178
