runs/1_hour_forecasting/245/best_model.pt (torch, 161186 bytes, 11 tensors)

station_embedding.weight f4 [128, 5]
00000000: 7c4f b33e d665 bf3e 831d ddbd 30d9 d13e
00000010: 3f21 cabd eed0 d83d 03be 63be e245 823e
00000020: dfb6 c73e 46c6 a3be 3364 ce3e ddf3 ad3d
00000030: 620d ab3e 98c3 503d 34db 683e ae07 a1bd
00000040: 701c b53e 2730 883d 0fa9 4dbe fff0 a43d
00000050: 1744 5bbe c56e 82bd a26b 3abe 12f3 9b3e
00000060: aa31 bfbe 5252 5bbe 21c5 f0bd d5f2 87be
00000070: 59dc 253d 5458 e8be f5ca d43e 2edf c6be
00000080: 062f af3e 4b5d 8e3d 2193 0ebe ab62 943e
00000090: c1fd 603d f053 ba3e 9600 353d 1cc3 05be
000000a0: 98c4 063e 947f 03be 37c3 3d3e 0719 c93e
000000b0: ec00 8d3e 4675 5abe 87dc 853e 55a9 973d
000000c0: e366 693e d4c2 8cbe b6bf eabe 5fc3 23be
000000d0: df42 adbe 9f27 be3e 75cd e43d ad39 493e
000000e0: 4022 043e 993c 91bc 2816 b13e 5679 9fbe
000000f0: 2639 803d 76ac 9cbe 6ede 053e 98a8 3dbe
00000100: a8ab 4f3e db6a d3bd c175 b63e 4caa 81be
00000110: 182b 8bbe 4b8b 97be 98e1 ca3e 921f 263e
00000120: b64c db3e c0ca b8be 41aa dfbe dd95 babe
00000130: e776 93be b43d 493e 012a 2f3e 0ca4 b53e
00000140: f79b 72be 2d54 95be ac7c 773e 3850 37be
00000150: 2dcc 8a3e e72b c6bd bd5a 7f3e 1b9b b8be
00000160: 1153 63be cfa8 2b3e f4f6 d23d a14f f5bd
00000170: 7fa3 8a3e 3dc8 983e da05 aabe b826 70be
00000180: e460 cb3e bc4a 0dbe b883 26be ad9b ecbe
00000190: 622a 89be c5ad f83d 1056 69bd 1629 a2be
000001a0: d62a 0bbb 2f95 9abe 3dec c1be 2b26 82be
000001b0: 94c9 cabe 88bb 8ebe 95d1 e93e 8dd9 913d
000001c0: 30f1 0d3e 0876 d9be 8e2e 97be 46ad 1dbe
000001d0: d665 943d f993 c7be b5e7 54be 8e72 8ebe
000001e0: c73d 4a3c 407a 37be 0fa4 16bd 5537 a0be
000001f0: fd68 93be 576b 8bbe 23e0 14be 8680 afbe
00000200: 94fe c13e 438e bebd 6d32 be3e f970 1e3e
00000210: 07ad babe dade a33e ae34 e1bd 188a 37be
00000220: e8a2 bcbe 242b e3be ae48 053e 9734 d1bd
00000230: d921 493e 3eb3 bebe 8ee8 a13e 160c a6be
00000240: b80d 55bd b3d0 ed3d e036 6d3e ccce b33e
00000250: 475c cd3e 8602 b0be 3d81 fe3d ffc1 4cbe
00000260: d8cf 69bd 68b6 b4be eb26 dc3e ade6 aebe
00000270: 70fa 783e 1ea6 2c3e cf17 123e 3fbd 80be
00000280: 773c d93e eb11 c13d f546 5b3d a748 ccbe
00000290: bc49 513e 4b9a 2abd ec57 64be d204 c43e
000002a0: c470 a43d d7c5 7abe cb0a 78be e594 6fbc
000002b0: 212c 853e eafd e3bd 6297 8bbe dff6 13be
000002c0: 3118 acbe fda2 123e 3b86 b23e ebe3 d6be
000002d0: 219d d13d 7792 7c3e edc6 833d d345 20be
000002e0: 70b3 833e 26f5 7c3e b5b1 203e 98a7 b1bd
000002f0: 5f43 ffbd ddfb 8d3d 0da8 bfbd df3a 01be
00000300: 2406 993e 1997 cb3e 683e 59bd 3376 cdbd
00000310: 2030 e73b f56d e7bc b9b8 e43d 3950 083e
00000320: 4231 d5be d6be 21be 5e2b c63e e57d 2c3e
00000330: 55b8 1fbd caff 9abe fb8b 80be 778f ccbe
00000340: cde2 0cbe 8d7b 093e 4db8 9b3e 5e23 4d3e
00000350: ee43 d0be 9fab 87be 6956 77bd 9b01 e53e
00000360: 3e28 623d 5e53 00be 172e 373e 0dbf 28be
00000370: 9037 a0be e644 a73e 5c20 43be 34ee c8bd
00000380: 829b f2be 919c 963e cf0b ab3e bdd9 333e
00000390: 7936 9bbe bcec eebe 16be c4be 69b0 ac3e
000003a0: a9cb 653e a9ba c73e dcba 603e 0e17 023e
000003b0: 2835 37bc 2f70 b3be e637 c5be 94e8 d5be
000003c0: 3622 563e a76c 6abe f96e dabd f6e8 88be
000003d0: 183c 7cbd 8ea6 a2be b752 9dbe 93b7 123e
000003e0: 9b31 06be daa7 8a3e dc73 22be 2622 a7be
000003f0: c51a 9cbd 971b 61be be54 23be d1b8 e1be
0.3502158 0.37382382 -0.107966445 0.40986013 -0.098696224 0.10586725 -0.22240452 0.2544394
0.39006707 -0.31987208 0.4031082 0.08493779 0.33408648 0.050967783 0.2273987 -0.07862793
0.3537326 0.06649809 -0.20084022 0.08053779 -0.21412693 -0.06368784 -0.18205121 0.30458885
-0.37342578 -0.21418121 -0.11756349 -0.26552454 0.040493343 -0.4537989 0.41561094 -0.38842148
0.34215564 0.06951388 -0.13923313 0.28981528 0.0549295 0.36392164 0.044190012 -0.1306271
0.13160932 -0.12841636 0.185315 0.39276907 0.27539766 -0.21333799 0.26144812 0.074053444
0.22793154 -0.27492392 -0.4584939 -0.15992497 -0.3384008 0.37139603 0.11172 0.19650908
0.1290369 -0.01772909 0.34587216 -0.3114726 0.062609 -0.30600327 0.13073131 -0.18521345
0.20280325 -0.103231154 0.35636714 -0.2532524 -0.27181315 -0.2959846 0.3962524 0.1622298
0.42831963 -0.36092186 -0.4368458 -0.36442462 -0.28801653 0.19652444 0.17105867 0.3547672
-0.23692308 -0.29165784 0.24168652 -0.17901695 0.271089 -0.096763425 0.24936958 -0.36055836
-0.22199656 0.16763614 0.10301009 -0.11978079 0.27077863 0.2984027 -0.3320759 -0.2345227
0.3972236 -0.1379804 -0.16261184 -0.4621252 -0.26790148 0.12142519 -0.05696684 -0.3167197
-0.002123525 -0.30191943 -0.37875548 -0.25419745 -0.39606917 -0.2787745 0.4566771 0.07121573
0.13861537 -0.42472863 -0.29527706 -0.1539813 0.07245986 -0.38980082 -0.20791514 -0.27821773
0.01234383 -0.17917728 -0.036777552 -0.31292215 -0.28791037 -0.2723033 -0.14538626 -0.34277743
0.3788954 -0.09304478 0.37147847 0.15472783 -0.36460134 0.3200596 -0.10996376 -0.17923772
-0.36843038 -0.4436885 0.13016006 -0.10215109 0.19641818 -0.37246126 0.31622738 -0.32431096
-0.052015036 0.11612072 0.23165464 0.3511871 0.40109465 -0.34376925 0.12426994 -0.19995879
-0.05708298 -0.35295415 0.42998442 -0.34160367 0.24314284 0.16860244 0.14266895 -0.25144383
0.42428944 0.09427246 0.053534467 -0.3989918 0.20438284 -0.04165105 -0.22299165 0.38284928
0.08029321 -0.24489532 -0.24222867 -0.014622902 0.2601023 -0.11132415 -0.27263933 -0.14449643
-0.33612207 0.14319988 0.34868035 -0.41970763 0.10235048 0.24665247 0.064344265 -0.15651636
0.25722837 0.24702892 0.1569279 -0.08674544 -0.12464022 0.06932805 -0.09358225 -0.12620114
0.29887497 0.39763716 -0.05303803 -0.1003231 0.0070552975 -0.028250674 0.111680456 0.13311853
-0.41639143 -0.15795454 0.38704962 0.168449 -0.038994152 -0.30273277 -0.25106797 -0.39953205
-0.13758393 0.13426037 0.30414048 0.20033023 -0.40676826 -0.26498124 -0.06038514 0.44727787
0.05521416 -0.12531802 0.17888676 -0.1647913 -0.3129239 0.32669753 -0.19055313 -0.09811059
-0.47384268 0.29416326 0.33407447 0.1756353 -0.30314997 -0.4666499 -0.38426274 0.3372834
0.22440971 0.39009598 0.21946281 0.12704107 -0.011182107 -0.35046527 -0.3851921 -0.41779006
0.20911488 -0.2289301 -0.106656976 -0.26740235 -0.061580747 -0.31767696 -0.3072717 0.1432784
-0.1310486 0.27081186 -0.1586451 -0.3264324 -0.076222934 -0.21983181 -0.15950295 -0.44086316

station_embedding.bias f4 [128]
00000000: 0e84 cd3d 7942 d4be 202c d23e 161e 8d3e
00000010: 7642 e5be 3db9 4dbe 6bf1 1b3e 9e1a afbd
00000020: f245 51bd f286 57be 6cde bf3e 7a8c 7abe
00000030: 1afa c03e c90c da3c eab1 a53d d08b b73e
00000040: 2f84 7fbd 4920 89be c3b5 82bd e2b7 c23e
00000050: bf07 a7be 56b8 e03d 9715 debe 79d9 7a3e
00000060: e803 2a3e fd65 ab3c b069 373e 4e7d 603c
00000070: eb6a 783e 6010 babe 2162 33bd 3bbd 593e
00000080: 3dc8 e23e 4c6a 7b3e ac86 abbe a946 b43e
00000090: 8732 e6bd 4870 c2bd 39ef d6be 6336 a2bd
000000a0: 5bcd a73e 89f2 3a3d e6b0 85be b9d9 093e
000000b0: 1ab6 0cbe 89f0 d73e 9710 ccbe f592 15be
000000c0: 655a d9be a5bf 35be 3797 183e e7b8 df3e
000000d0: 9e60 aa3d 1598 e53e d5ca af3d 37d3 8a3e
000000e0: c441 b23e 1ce3 c73e a067 74be 1020 dd3e
000000f0: 3d1f 8b3e 41e1 62be ef02 66be 46b9 bdbe
00000100: 2013 e63d 95b3 c0be c082 493e d4a5 173e
00000110: 7e34 c9be b355 0a3e 1bfe 34bd e708 603e
00000120: 75d9 8c3e 2930 e8be 1d43 cf3e 039f c13e
00000130: da50 273e 999f d5be 139d 24be 68a1 04be
00000140: ba52 d5bd 9e46 863e bd3a 323e 3da9 be3e
00000150: 9f57 3dbe 177b 153e 6f9a 163e 99c3 c4be
00000160: a375 ddbe 5daf 76be 3419 9f3e a6bc e2be
00000170: 3f9c c0be c858 6c3e d2b8 803e 3058 b93e
00000180: 5d73 a9be 1e1d adbe ae61 683e 1a85 c63e
00000190: 6045 8b3e 8fca 643d 1917 203e bfb4 e03e
000001a0: 0c0b 93be a5f9 49be f187 a63e 93ad a0be
000001b0: 5418 82be 4d41 ac3e 0d89 0f3e e2fe 233e
000001c0: 46f5 45be e3c5 aebc 206a db3e c08b 8abe
000001d0: 2015 0ebc 1c55 673e 89cb 99be 4126 e63e
000001e0: 90f7 5bbe a50a d7bd d907 eebd 90c0 9bbe
000001f0: f568 e3be 60c2 853e 731d 063e 1180 dcbe
0.10034953 -0.41456965 0.4104929 0.27562016 -0.44777268 -0.20090194 0.15228812 -0.08549999
-0.051092096 -0.21047571 0.37474382 -0.2446765 0.37690812 0.026617425 0.08090575 0.35848856
-0.06238192 -0.26782444 -0.063823245 0.38030916 -0.32623097 0.10972659 -0.43375847 0.24497022
0.16603053 0.020922655 0.1791141 0.01370175 0.24259536 -0.36340618 -0.043794755 0.21263592
0.44293395 0.24552268 -0.33501184 0.3521016 -0.11240106 -0.09494072 -0.41979387 -0.0792053
0.3277386 0.045641456 -0.26111525 0.13461961 -0.13741341 0.421757 -0.39856407 -0.14606841
-0.42451778 -0.17748888 0.14901434 0.43695757 0.083192095 0.44842592 0.08583609 0.2711427
0.348158 0.39040458 -0.23867655 0.43188524 0.2717227 -0.2215624 -0.22462057 -0.37055415
0.112341166 -0.3763701 0.19678783 0.14809352 -0.3929786 0.13509254 -0.044187646 0.21878396
0.27509657 -0.45349243 0.4048089 0.3781663 0.16339436 -0.41723326 -0.16075544 -0.12952197
-0.104161695 0.26225752 0.1740522 0.37238494 -0.18490456 0.14597736 0.14707349 -0.3843048
-0.43253812 -0.24090333 0.31073916 -0.44284552 -0.37619206 0.23080742 0.25141007 0.36200094
-0.33095828 -0.33811277 0.22693512 0.38773423 0.27201366 0.055857237 0.15633811 0.43887898
-0.28719366 -0.19724138 0.3252559 -0.31382427 -0.25409186 0.3364357 0.14017124 0.16015199
-0.19331846 -0.021334594 0.42854404 -0.27059746 -0.008672029 0.2259106 -0.30038098 0.4495106
-0.21481156 -0.10500077 -0.116225906 -0.3042035 -0.44416013 0.2612486 0.13097171 -0.43066457

gcn.convs.0.bias f4 [128]
00000000: 8b2a f43b d213 6b3c ecc4 dabb 555f 563c
00000010: b060 723c b8c1 0e3c 2137 233c be4d fc3b
00000020: 46b3 d1bb f131 cf3b 042d 823c ea65 573c
00000030: c55e 513a 332f 163c fbb8 ee3b 7ebe 2e3c
00000040: c238 d9ba 8426 9a3c 4b13 c93b 4ee2 b6bb
00000050: 9cb2 16bc ad24 d63b cfdb 353c ab31 96bb
00000060: 59e6 1abb 1a1c 2a3c 80dd 32ba 3f87 d3bb
00000070: f561 65bb 859b 223b a670 703c 67e2 b43b
00000080: cf1f 6b3b afc5 903b 83ba 063c c730 bd3c
00000090: 980a 593c 5977 b1bb 37df ed3b 571b b5bb
000000a0: 66a1 563c 8a8f 7c3c a2a7 26bc 898e bdbc
000000b0: d641 fa3b dcca ccbb 0d55 173b d49e 2d3c
000000c0: 2dd9 ae3c ee23 ad3b dc7e 193c 2179 7c3c
000000d0: a2c7 913b 7650 8f3b a5f2 a3ba f9c2 5fbb
000000e0: cefd 6b3c dcc7 933b 929f e53b 76f1 7a3c
000000f0: 3583 6e3c 8874 e53b 682a a23a 9608 7a3c
00000100: c5ee 4a3c b400 7e3c cad1 7f3c 1a1f 7a3b
00000110: ef7d 373c 84b8 473c 9c27 ba3c 6135 3d3c
00000120: 1c7b 4e3b 1d79 cf3b d979 ec3a e962 203c
00000130: 5c53 9abb 04e9 fd3b c69c 193c ea63 fbb9
00000140: fc8f bf3b 5343 6c3a df44 af3b e2eb cebb
00000150: 24ba b7bb c95b 993c 8631 de3a 67a3 22bb
00000160: e31c fd3b d369 fcba 18d7 65bb b121 35ba
00000170: 92f8 293b ac1c 593c a70b be3b 30a1 f83b
00000180: 0b03 dc38 ecbf 483c d4fa 843b bdab 1f3c
00000190: a51a 17bc f9b6 f53a 1efb 9ebb a9bb 8cbb
000001a0: e372 253c 3a51 6b3c 539d 023c 22ba 03bb
000001b0: e3f8 be3b 2cd0 06bc 3514 c93c a5df 713c
000001c0: 4d36 91bb d2de 773c ff45 583c 3d9a 173c
000001d0: c8ac 003c 64fc ccbb 21c0 e33b 21be 623b
000001e0: ed27 5bbb 92ab af3b bcb7 8c3c 76c3 ff3b
000001f0: db74 223c 7205 893c e68c 3dbc aa55 c83c
0.0074513606 0.014347987 -0.006676307 0.013084252 0.01479356 0.008713178 0.009961874 0.0076996973
-0.006399545 0.006323092 0.015890606 0.013146857 0.0007986839 0.009166527 0.007285235 0.010665534
-0.0016572701 0.018817194 0.006136333 -0.005581177 -0.009197857 0.006535134 0.01109977 -0.0045835576
-0.0023635833 0.0103826765 -0.0006823167 -0.0064553316 -0.0035001014 0.0024811935 0.014675295 0.0055201533
0.0035877114 0.004418097 0.008223179 0.023094548 0.013247155 -0.0054158387 0.0072592753 -0.005526941
0.013100004 0.015415082 -0.010171803 -0.023139255 0.007637243 -0.0062497687 0.0023091466 0.01059695
0.021343792 0.005283824 0.009368625 0.015409739 0.004448847 0.0043736054 -0.0012508227 -0.0034143312
0.0144037735 0.004509909 0.0070075477 0.015316358 0.014557649 0.007002417 0.0012372257 0.015260836
0.012386029 0.015503097 0.015613982 0.003816551 0.0111994585 0.012189988 0.022723965 0.011548371
0.0031506484 0.0063315765 0.0018041685 0.009789207 -0.0047096442 0.007748725 0.009375757 -0.00047948892
0.0058460217 0.00090127176 0.0053487862 -0.0063147405 -0.0056069065 0.018720524 0.0016952015 -0.0024816634
0.007724391 -0.0019257612 -0.0035070833 -0.00069096225 0.0025935513 0.013251465 0.005799729 0.0075875744
0.00010490984 0.012252789 0.0040582214 0.009745535 -0.009222661 0.0018746547 -0.004851713 -0.004294832
0.010098192 0.014362628 0.007972079 -0.0020099957 0.0058280095 -0.008228343 0.024545768 0.014762794
-0.004431522 0.015128808 0.013200282 0.009253082 0.007853694 -0.0062556732 0.006950394 0.003459819
-0.0033440546 0.005361029 0.017177455 0.007805283 0.009915556 0.01672623 -0.011569237 0.02445491

gcn.convs.0.lin.weight f4 [128, 128]
00000000: af8b 8ebc 3ea1 e8bd 3ca3 98bd 4ca7 cf3d
00000010: dcd9 d6bd 2eaf a9bd a92f 963d ab11 b0bd
00000020: 6763 05be 30ed ba3c 6c60 863d 1516 19be
00000030: ad8e e53c 13ab dfbd 87e8 833d e253 ac3d
00000040: 0a47 5d3d 9620 203e 3824 32bd 2575 56bd
00000050: 96f6 3b3d 2cc5 5a3d 2e11 8cbd 2d17 b6bd
00000060: b5bc 23bd 1a8b 663d c311 7f3d c1a0 99bd
00000070: a52d 0a3e fe7a 02be e727 e6bb 8c52 183d
00000080: 88be c9bd 3071 093e 0d44 adbd 89a9 a83d
00000090: 10ff 763c 3ebc a5bd 44f9 023e a028 b1bc
000000a0: 0ddc d03c 43fb 1a3e 7e49 10be 3691 f63d
000000b0: 6ce8 9ebd 1058 f2bd 5971 a13d 134d 38bd
000000c0: 7303 ffbd d6af 99bd 5b18 dc3d 0d22 923d
000000d0: c39c 8fbb cce6 a63d e154 ce3c 189e fbbd
000000e0: 362f 213d 7edd d33d 63bf 05bc aadd 29bc
000000f0: e92a 213e b14c 3bbd 9ec2 123e 2427 023e
00000100: 84cb ee3d 2e33 253d 3e4f 5e3d 3d85 373d
00000110: 1ca3 10be c6e2 45bd 70ee c6bd dada 19bc
00000120: 32af 88bd 9352 3dbd e74b cabd 8f6e eebd
00000130: f327 263d a7d1 0e3e 1cc3 96bd e287 e8bd
00000140: 09da 5fbd e8f7 4ebd cf3e 19be 011b 113e
00000150: 7b0b cc3d 4706 fe3d 5f96 b0bd 8cfb d6bd
00000160: b70d 103e 1c14 dcbd 854c fabd 878e 0ebe
00000170: 458c 493d adf5 afbc f132 bfbd ce89 0f3e
00000180: 1954 bcbd 25f8 a73b e0ef aa3d 67ec a33d
00000190: caa6 013e c3a5 99bc 82a1 a93d 84aa 0cbc
000001a0: 30b3 6c3c 30f8 bdbd aae4 bf3d 0ef3 173d
000001b0: 9687 fd3c 4708 63bc 8ef3 783d f368 14be
000001c0: 1fb8 033e c56f fb3d 9d3e b03d f050 47bc
000001d0: dd21 1dbe ad9a 11bd 69ea febd a5ff 92bd
000001e0: a761 ff3d eadd acbc 9b72 123e 5e81 91bd
000001f0: 6f49 92bd 96f5 e5bd 7a3e 4c3d f7c1 5e3d
00000200: a3fe 933d 42f7 ef3d 0e8c ce3d f645 fcbd
00000210: fa21 37bc 5c4e fe3d 8764 d23d 4edb 573d
00000220: 7301 a3bd 701b 07be 691e 1f3e e3f2 82bd
00000230: ad7c 853d e78e 0abd 5b8d 64bd d74c 883d
00000240: c57f 193e eca4 15bd 99c0 563d bfc8 933d
00000250: 0608 ddbc 8540 123d c738 273d 4fb1 153e
00000260: 1a22 66bd d237 f23d 2ada 5ebc 7efd 733d
00000270: 57af fdbd 0f10 b93d c0a6 013e 8d1d 313d
00000280: 27b7 633c c5c7 3f3d dbee 05be 4440 01be
00000290: e34e e53d cfe6 11be dc75 43bd 4934 bdbd
000002a0: b976 08be 5b09 6ebd bc22 35bc ec60 00be
000002b0: ccc4 eebd a050 ecbd c4e3 a9bb e9f9 54bd
000002c0: 13c7 ca3d 3cb5 13be 9027 03be 2afa 14bd
000002d0: eb01 1b3e 7f23 103e 9ef1 c6bc 6fdf 1fbd
000002e0: 209a f93c c8f4 663c fa02 993b 09dd 64bd
000002f0: b86b a1ba 874c b73c b08f ac3d 7163 d6bd
00000300: 338a d8bc 9185 8b3d 1172 d33d 1d43 bd3d
00000310: 064f 53bd 964e 3d3d 5781 7dbd b63e 163e
00000320: 6800 c83d 068e 19be 61bf a03d cde4 223e
00000330: 6383 133d ae0e 0abe ef8c b93d ea1e 253a
00000340: 4984 1cbd d767 9b3d a5d2 053e a6d9 a23d
00000350: 9f9c 03be 5640 8c3d 6f9f d3bd c529 1ebe
00000360: 3ee0 a1bd 7437 8e3d c212 ff3d f33a f93c
00000370: 661d ae3d c733 0cbe a538 93bd d393 a8bd
00000380: e5cf 14be 0758 c1bd 6ce7 bdbd bfc8 e7bd
00000390: 11fd 083d 2867 a0bd 98c7 223b 68e9 79bc
000003a0: 8b78 ff3b c6fe 0cbe f1ac f2bd 272d 19be
000003b0: 6bce de3d aec0 973c 607c fabd fcd8 43bd
000003c0: 5387 1ebc bd61 cdbd b527 0a3e d3b6 c43d
000003d0: facf e83c 5db8 c0bc f1dc 9e3d 4cea 4a3d
000003e0: a0ef 603c 3e78 ba3c d45d 13be 8879 153d
000003f0: 96d1 2d3d 66f8 dc3d b11c 9e3d fc03 e93d
-0.01740059 -0.113588795 -0.074530095 0.10139331 -0.10490772 -0.08285366 0.07333309 -0.0859712
-0.130262 0.022818178 0.0656136 -0.1494983 0.028022135 -0.10921302 0.064408354 0.08414437
0.054022826 0.1563743 -0.043491572 -0.05235781 0.04588946 0.053410694 -0.06839214 -0.08891139
-0.039974887 0.056285 0.0622728 -0.075013645 0.13493975 -0.1274223 -0.0070237997 0.037188098
-0.09850794 0.13422084 -0.08460245 0.08235461 0.01507546 -0.08092545 0.127904 -0.021625817
0.025495553 0.15134911 -0.14090535 0.120394155 -0.07759175 -0.11833203 0.078829475 -0.04499538
-0.1245183 -0.07504241 0.10746833 0.07135401 -0.004382701 0.0814949 0.025186958 -0.12286013
0.039351664 0.10344981 -0.008163306 -0.01036779 0.15739025 -0.045727435 0.14332053 0.12710243
0.11659911 0.040332012 0.05427479 0.0448048 -0.14124721 -0.04831197 -0.09713447 -0.009390557
-0.06674041 -0.046221327 -0.098777585 -0.11642181 0.040565442 0.13947164 -0.07361433 -0.113540426
-0.054651294 -0.05052939 -0.14965366 0.14170457 0.09963127 0.12403541 -0.08622431 -0.104971975
0.14067732 -0.10746023 -0.12221626 -0.13921557 0.049206037 -0.021479452 -0.09335888 0.14017412
-0.09195728 0.0051260167 0.08346534 0.080040745 0.12661281 -0.0187558 0.08282758 -0.008585576
0.0144470185 -0.09275854 0.09369786 0.03709703 0.030948441 -0.013856954 0.060779147 -0.1449316
0.12863205 0.12277178 0.086056925 -0.012165293 -0.15344949 -0.0355479 -0.12447054 -0.071776666
0.124697976 -0.02110191 0.14301531 -0.07104753 -0.071429126 -0.112284824 0.04986427 0.054384198
0.072263025 0.117170826 0.10085307 -0.123180315 -0.011177534 0.124172896 0.1027308 0.05269938
-0.07959261 -0.1319406 0.15538944 -0.06393983 0.06517921 -0.03382769 -0.05579887 0.06655281
0.14990146 -0.036534235 0.05242977 0.07216024 -0.026981365 0.035706062 0.04082563 0.14618419
-0.056184866 0.11827053 -0.013601819 0.05956792 -0.12386959 0.09036266 0.12661266 0.043241072
0.013898647 0.046821374 -0.13079397 -0.12622172 0.11196687 -0.14248203 -0.04771982 -0.09238488
-0.13326539 -0.05811439 -0.011055645 -0.12536973 -0.1165863 -0.115388155 -0.0051846225 -0.051996145
0.09901252 -0.14424604 -0.1280806 -0.036371388 0.1513745 0.1407604 -0.024285134 -0.039031442
0.030469 0.014096446 0.0046695443 -0.055874858 -0.0012315428 0.022375358 0.08425844 -0.10468186
-0.026433086 0.06812585 0.10324491 0.092413165 -0.051589034 0.046217524 -0.061890926 0.1467236
0.097657025 -0.14995584 0.07849003 0.15907593 0.036013972 -0.13482162 0.09060084 0.0006298857
-0.038212094 0.07588165 0.13068636 0.079516694 -0.12852715 0.068482086 -0.10333144 -0.15445621
-0.07904099 0.069441706 0.1245475 0.030423617 0.08501701 -0.13691626 -0.071885385 -0.0823132
-0.1453243 -0.09440618 -0.09272656 -0.11317586 0.033444468 -0.078321755 0.0024838205 -0.015253402
0.0077963523 -0.13769063 -0.11849392 -0.1495863 0.10879215 0.018524494 -0.12230754 -0.047814354
-0.0096758185 -0.10028408 0.1349171 0.096051835 0.028419483 -0.023525411 0.07756985 0.04953985
0.013729006 0.022762414 -0.14391261 0.036492854 0.042436205 0.10789566 0.07720316 0.11377713

gcn.convs.1.bias f4 [128]
00000000: 3b28 3b3c e3ff 3a3b 4d6e 6d3c 83b6 5d38
00000010: 7c77 363c 56fb b53b 7171 0b3c 286e 303c
00000020: 5dcf bebb 9ff2 b2ba f29d 223c 28c3 0f3c
00000030: 878e 84bb 630a 003c 834e 80bc 4b9c ca3a
00000040: 46ae 783c 89e6 29bc c3d6 543c c80a 333c
00000050: ddd4 bc3b 7998 24bb 9cbf 713c 376c 2b3c
00000060: 5858 0cbb ac33 12bc efcc 0dbc 30b7 0d3c
00000070: 41e7 febb 6780 0ebb dbb4 633c 3b07 423c
00000080: dfa0 733a 0f8a 4b3c c330 32ba a6c4 c33b
00000090: fee4 54bc 6d45 293c 4044 ccbb caf0 78bc
000000a0: bf97 0b3c 9dcc 4e3b 035b 69bc f785 9dbb
000000b0: 7563 0c3c 30f8 223c fbf7 dfbb b175 113c
000000c0: 03a2 ef3b 3332 803b 4cca 2d3c 85ff 303c
000000d0: 7dcd c83a fb52 333c be1b cbbb b940 db3b
000000e0: b8b2 4dbc 2658 e43b af08 703c e6c3 793c
000000f0: 1a02 3739 86f7 28bc d1b0 01bc 22c7 d8bb
00000100: 3622 3fbc 0494 43bc a133 8b3b 26d6 c93b
00000110: 1dc1 38bc f3d0 15bc b311 44bc 623d 92bb
00000120: 839e 513a d70f 7bbb fc7c a5bb c9c8 f1bb
00000130: 2a6d 27bc ff2b 183c 4dc6 4fbc ef9e 9fbb
00000140: 41d0 23bc 5003 163c 7d67 023c 9b57 8a3b
00000150: b708 02bc eed3 e1bb f0ef 333b 9132 0cbc
00000160: 97e0 ef3b 7ea6 0ebc 7327 9c3b d24e 06bc
00000170: c233 2f3c 2adf 41bc 3b3f 633c 7c0d d9bb
00000180: 0fbe c03b 87a4 63bc bb98 683b bda9 77b9
00000190: 9503 37bc d449 7fbc 9ca8 223c 245d 2f3c
000001a0: 2af9 243c 056f f23b 57c0 493c 103b f73b
000001b0: 2964 763b c1ca 383c 02aa 73bb 9560 483c
000001c0: 8e32 d0bb bc29 d1bb 9f67 753c 2a87 323c
000001d0: 3e9f 49bc d548 873b 444b 3d3c 308a 473c
000001e0: 9276 5539 09f5 75bb ce09 443c 6e2f 59bc
000001f0: d097 6c3b 8017 653b 0084 363c 7763 1fbc
0.011423166 0.0028533868 0.01449163 5.2860483e-05 0.011136886 0.005553643 0.008510933 0.010768451
-0.0058230595 -0.0013652629 0.009925352 0.008774556 -0.004045311 0.007814976 -0.015662437 0.0015457956
0.015178269 -0.010369905 0.012990656 0.010927863 0.00576268 -0.0025115295 0.014755156 0.010462812
-0.0021414962 -0.008923452 -0.008654817 0.008649632 -0.0077790325 -0.0021744014 0.0138981 0.011842544
0.0009293686 0.012423052 -0.0006797427 0.00597437 -0.012994049 0.010331494 -0.006233722 -0.015194127
0.008520066 0.0031555064 -0.01424289 -0.0048072296 0.008568634 0.009946868 -0.0068349815 0.0088781575
0.0073130145 0.003912234 0.010607313 0.010803108 0.0015320029 0.010945077 -0.0061983755 0.006691065
-0.012554817 0.006968516 0.014650508 0.01524446 0.00017453023 -0.01031292 -0.0079156915 -0.0066155354
-0.011665871 -0.011937145 0.004248098 0.0061595617 -0.011276511 -0.009144056 -0.01196711 -0.004462884
0.00079963374 -0.0038309002 -0.0050502997 -0.007378672 -0.010218898 0.009287833 -0.012681556 -0.0048712413
-0.009998382 0.009156063 0.007959244 0.004221869 -0.007936648 -0.006891719 0.0027456246 -0.008556978
0.0073204744 -0.008706687 0.004765445 -0.008197503 0.010693492 -0.011832992 0.013870056 -0.006623922
0.0058820317 -0.013894207 0.0035491425 -0.00023618988 -0.011170288 -0.015581567 0.009927895 0.010703359
0.010069171 0.0073984885 0.012313924 0.0075448826 0.0037596321 0.011278809 -0.003718019 0.012230058
-0.006353683 -0.006383149 0.0149783185 0.010896483 -0.012306033 0.0041285553 0.011553589 0.012178943
0.00020357434 -0.0037530086 0.011965228 -0.013255937 0.003610123 0.0034956634 0.01113987 -0.009728304

gcn.convs.1.lin.weight f4 [128, 128]
00000000: 937c 833c 49d5 823c b83e 9b3d cd32 09be
00000010: bcd9 abbd 2fec 923d 865b bf3d 0cae dcbd
00000020: 5b43 1dbd dae1 51bd f0b2 1b3e 99aa 423d
00000030: b385 71bc d321 863d ddff bdbc 4a02 d03d
00000040: 8639 57bd 029e f03d 550a ec3d 7389 1c3e
00000050: 0589 1a3e 9f32 673d e8c5 a93d fec9 133e
00000060: c58b 9ebd b60e 8abc 3991 bc3b bd95 e7bd
00000070: 2b93 dcbd a7a0 093e 57a3 d7bd ed43 463d
00000080: 793f ac3d 7dac 173e d223 c0bd 7464 3dbd
00000090: 9973 583d fd05 0dbe 5ad1 b73d 840e d5bc
000000a0: e6b0 e7bd 0a30 8abd f8c9 393c 84b4 0fbe
000000b0: c82b b83d 125f 5bbd a7fa 483d 2254 723d
000000c0: a3f8 9f3d e0ae febd a6b3 1f3d 6f02 3bbc
000000d0: 24df 57bd 6d0a 873d 16c8 bd3d f1a6 b4bd
000000e0: 0913 263e d3a6 d33c f9be 1d3d 0a07 e23d
000000f0: dc86 b4ba 4e44 4c3d 043a fbbd 0f2e 1a3e
00000100: 18a8 feba 59d0 2bbc 2f1c 583c 98b6 e73c
00000110: 62ed 94bc 1764 303d 8559 f53d 0a35 db3d
00000120: 8e0e c0bd 7dbc 06be 44c3 febc 4d3f 01be
00000130: a71c b9bd 58e6 8bbd f7a2 863d 6387 cebc
00000140: bd53 723d 712b f3bc c9e9 d53c bbfd a03c
00000150: a6e2 863d ee43 2d3d 7287 2fbd d843 f63d
00000160: 617c 863d 78e0 ae3d 0548 b7bd 9fb3 8fbd
00000170: 3431 413d 6c91 143e d4a7 8b3d 7403 d93d
00000180: a0a2 293c 80a8 0b3e 8e47 b1bd e114 1f3e
00000190: 0697 783d 7d4d a2bd 0dce 273e 0fde 253d
000001a0: 1115 be3d 798c 143e 7c94 aabd bf05 bebd
000001b0: 30fa fb3d 4070 b7bc 01bd babd f91e 1c3d
000001c0: 7180 c6bd a7aa 0d3e 597e 53bd 7dca b2bd
000001d0: 8663 ab3d fd4f ea3d 395d 4a3d 8112 003e
000001e0: 097b 79bc ad6f c6bd 5410 8e3d b586 edbc
000001f0: 01ea ccbc 7b72 0dbe f949 c03c e090 7cbd
00000200: 6bc9 e4bc c3d1 f23b bbc3 d9bd 95ed b43d
00000210: 924a 1c3e 6b08 fabc aafb f1bd 0a23 ed3c
00000220: a2ca 38bc c8be f7bd a06a 153d 5fa9 b83d
00000230: 6e69 233d 5bd9 253d 63a5 be3d 78df f23d
00000240: e9ac 78bc 7368 9e3d 6f02 f1bd 3eab d53d
00000250: 12f2 3e3d 41c0 08be fec3 083d b607 97bd
00000260: bb82 103e b4ee 11be e755 96bb c3b5 ed3d
00000270: bf06 12bc 1b37 c43b a8bb 023c c744 3f3d
00000280: 956f 8e3d 289c 4abb 3c36 303e f4e0 8c3d
00000290: b8e0 003e 5da7 313d f22e a43b cc4a 433d
000002a0: 8bb2 c73a 3d05 bd3c a6fc 123e f863 9c3d
000002b0: a26d fbbd 84cf 7c3d ddef 313d 013d 933d
000002c0: 5aa3 9cbd e626 af3d 55a7 d5bd 7952 f8bd
000002d0: abec d6bd a48b 40bc bd0a aa3c ffb0 a23c
000002e0: 7c8e da3d 21ea 253d 2609 0bbe 3894 8dbc
000002f0: 5353 113e d364 143e 3d92 e1bd 10c3 0a3e
00000300: 3f10 16bd 6e8e 7f3d cde1 643d 432f 84bb
00000310: aad0 adbd 1645 c7bd 6da8 f63d ea2d 8b3d
00000320: e963 aebd 7c9b c1bc ca34 1d3e d3ae febd
00000330: 8c34 f23d 7584 503d 0347 153e fe47 c2bd
00000340: 99e0 0b3e 6576 173d 3e87 09bd 5e1e 8d3a
00000350: 0aae 1abc ef99 543d a703 0bbe 4ee8 28bd
00000360: f99d 03be 03f3 253e 7900 fdbd 626a cdbd
00000370: ac5b 1d3e 474a 013e 44c9 30bc e663 a9bc
00000380: e43c 83bd 4010 71ba abcd 003e 54c7 1f3e
00000390: aded 053e 8f66 a2bd 709e e9bb 85e8 a1bd
000003a0: cc80 4ebd da47 1a3e 9e8c adbd 9a81 d33c
000003b0: f43d 243e e20a 113e f302 b8bd 5e3e 35bd
000003c0: e8c3 e1bd b0bb d5bd da42 f73d 717d 3c3c
000003d0: 9ce7 0fbe 1dc1 a93d 34bd ccbd d02e 0ebe
000003e0: ece4 8ebd f9ab f9bc 6b2c 50bc 71be 26bc
000003f0: 73eb f8bd 04ae 003e c588 8e3b 94ec 823d
0.016050613 0.015970843 0.07580322 -0.13398285 -0.08391139 0.07173955 0.093436286 -0.10775384
-0.038394313 -0.05124078 0.15204978 0.047525976 -0.014741349 0.0654942 -0.023193294 0.101566866
-0.052545093 0.117488876 0.11525408 0.15286808 0.15091331 0.05644476 0.08289701 0.14432523
-0.07741503 -0.016852718 0.0057546166 -0.11307857 -0.107702576 0.1344019 -0.105292015 0.048404623
0.08410544 0.14811893 -0.09381832 -0.046238378 0.052844618 -0.13771816 0.089754775 -0.026007898
-0.113130376 -0.06747444 0.011339657 -0.14033705 0.089927256 -0.053557463 0.049067166 0.059162267
0.078110956 -0.124356985 0.038989685 -0.011414154 -0.052703038 0.065937854 0.09266679 -0.08820904
0.16218199 0.025836384 0.038512204 0.11036499 -0.0013773101 0.049869828 -0.12266925 0.15056632
-0.0019428758 -0.010486686 0.013190313 0.02828531 -0.0181796 0.043064203 0.11979965 0.10703476
-0.09377776 -0.1315784 -0.03109897 -0.12621804 -0.09038668 -0.06831044 0.06574052 -0.025211042
0.05916189 -0.0296838 0.026112454 0.019652238 0.065861985 0.04230111 -0.04285378 0.12024659
0.06566692 0.08538908 -0.089492835 -0.07016682 0.047166064 0.14508599 0.0681912 0.10596362
0.010353714 0.13638496 -0.08656226 0.15535308 0.060690902 -0.07924936 0.16387196 0.040494975
0.09281362 0.14506711 -0.083291024 -0.0927844 0.12303579 -0.022392392 -0.09118081 0.038115475
-0.09692467 0.1383463 -0.051634166 -0.08730028 0.08368592 0.11441038 0.04940531 0.12507059
-0.015227088 -0.09689269 0.06936708 -0.028994897 -0.025013926 -0.13813202 0.023472773 -0.0616616
-0.027928075 0.0074102595 -0.10633036 0.08834378 0.15262821 -0.030521592 -0.11815579 0.028947372
-0.01127878 -0.120969355 0.03647864 0.0901668 0.039895467 0.04049049 0.09308889 0.118590295
-0.015177944 0.07734766 -0.11768042 0.104330525 0.046617575 -0.13354589 0.033390038 -0.073745176
0.1411237 -0.14251214 -0.004587877 0.11606934 -0.008912741 0.0059880144 0.007979311 0.04669645
0.06954876 -0.003091583 0.17208189 0.06878844 0.12585723 0.0433725 0.005010479 0.047678754
0.0015235705 0.023073787 0.1435419 0.07636255 -0.1227677 0.06172134 0.043441642 0.0718937
-0.07648344 0.08552341 -0.10432307 -0.121251054 -0.104943596 -0.011752043 0.020757074 0.019859789
0.10671708 0.040506486 -0.13577709 -0.01728259 0.14191942 0.14491586 -0.11014221 0.13550973
-0.036636587 0.06239169 0.055879403 -0.0040339543 -0.08487065 -0.09729974 0.120438434 0.06795867
-0.0851515 -0.023633711 0.15352169 -0.12435689 0.11826429 0.05090757 0.1457787 -0.09486388
0.13659896 0.036978144 -0.033576243 0.0010766496 -0.009440908 0.051904615 -0.13575612 -0.041237168
-0.1285323 0.16205983 -0.12353606 -0.100300565 0.15367001 0.12625991 -0.010790173 -0.020677518
-0.06408098 -0.0009195842 0.12578456 0.15603381 0.13078947 -0.07929718 -0.007129483 -0.07905678
-0.0504158 0.15066472 -0.08474086 0.025818635 0.16039258 0.14164308 -0.089849375 -0.04424893
-0.11023694 -0.10436189 0.12073298 0.011504517 -0.14053196 0.082887866 -0.09997025 -0.13885045
-0.06977257 -0.03047751 -0.012705903 -0.010177241 -0.121542834 0.12566382 0.0043498003 0.0639278

mlp_head.0.weight f4 [32, 130]
00000000: d863 5abc 89f3 bb3d 21c4 113d 28a6 9ebd
00000010: 366f 08bd 89bf 0d3c e751 7dbb 8492 9abd
00000020: 9766 1c3d 6802 ae3d ef9f 05bb 9d2a 42bd
00000030: e19a 18bd 606f 1c3d 80b7 89bd 0ab3 593d
00000040: 58c0 503d 76ae bfbd d053 9e3c 375d e2bc
00000050: 0bee 683c 1fd2 af3c 4d08 55bd 9b22 553d
00000060: 097d 9fbc f300 0f3b e660 73bd 0af2 66bb
00000070: fbc0 063d 9e01 d33c ddd0 92bd 7e62 79bb
00000080: f9df 8bbd b91b cebc 8d2e b33d ee41 6bbd
00000090: c428 49bd ee03 abbd ce92 79bd 6865 55bd
000000a0: b6fc 9b3d 3417 7f3b e1db a0bd 17cf fc3c
000000b0: f2d2 a73d 5572 30bc 24d6 f23c d982 26bd
000000c0: a82d fcbc 309a 79bd 0e92 80bd e2f6 963d
000000d0: 1292 8c3d 9b3c aa3d 2093 4d3d d22d 9c3d
000000e0: 96e2 49bc 37d9 833d 241c a03c 30b0 7b3d
000000f0: ae8f 94bc f9d6 b4bd 4823 a2bd fe18 b7bd
00000100: 3a84 0e3d 2406 af3c 95cf 67bd a6ec 85bd
00000110: 9253 febb 7887 153d 71f1 b5bd f5f8 a9bd
00000120: 791d 8bbb af21 853d 0e28 813c 0fec 90bd
00000130: 14a3 ee3c 43a3 af3b ea41 80bd 1b55 15bd
00000140: d394 363d 9320 c73d 522d b53b 7354 61bd
00000150: 7222 97bd c432 cbbd 565a 72bd 0e18 353d
00000160: 9677 543d e09e 503d dbc1 57bc 8177 90bd
00000170: 134d 01bd 72b2 21bd 0322 bb3d 22a0 843d
00000180: 7a7c d43c de0e f9bb 04fb ac3d 61b2 0c3d
00000190: 6bbb 1dbd f7b9 1e3c dea6 8b3d 6938 863d
000001a0: 8191 8a3c 408f 43bd d0ac da3c 2c26 5639
000001b0: e873 3dbc 3480 b1bc c0a9 943d e3b3 f0bc
000001c0: 9e52 b9bd b856 52bd e7fb 8d3d e2b2 a33d
000001d0: 73c7 adbd 4d20 81bd d416 1f3d 54c6 303d
000001e0: 5ddc b0bc 5b03 da3c 583a 633d 615d 94bc
000001f0: 5c3b 96bd ee8d 03bd e5c5 aa3d 8b20 31bd
00000200: f11b 363c 86e3 0a3b 330d db3d 6060 0bbd
00000210: c175 903d 4edd 4abd 6acf 753d 142a c2bd
00000220: 31ab 043d 8df8 973d 9ed6 12bc 9ebb 9c3c
00000230: b356 4fbd fdcf aa3d 3581 ba3c fc70 973d
00000240: 5b89 8ebd 7711 6ebd e57d c13d 289b 4c3d
00000250: 2740 273c 64e6 c73c 9c6b be3c c548 8f3d
00000260: c40c ffbc 550a 6c3d 660e b23d 4085 84ba
00000270: 2e97 46bd 3bc4 a93d 7444 ad3d 4035 4e3d
00000280: 5bc7 863d 5949 343d d8fb 573d e7b4 91bd
00000290: bb74 72bd 31e7 473b 8220 6ebd 2a4b d73d
000002a0: 5f41 3bbd 2634 9cbd 78c9 103c 4a6c dbbc
000002b0: a6e1 95bd f281 88bd 4725 cebd 53e3 56bd
000002c0: 51df 143d 6ccb c83d 58fb 683c 8d56 163d
000002d0: 6f56 3abc 349e d53c 5887 b23d 246c ca3c
000002e0: 8945 f23c ba31 bf3d 037d ae3c 8e2a 86bd
000002f0: 5663 6a3d 8e7c a93d 1569 76bd d5e8 7e3d
00000300: 0328 ef3b 4ec5 28bd 9600 5abd 3f64 2cbd
00000310: 92bb dd3d e0a2 643d 4735 993c d057 bb3d
00000320: 614d 083c 8e62 db3c 1829 1bbd c7a8 e13c
00000330: 3dc8 b3bb 3c61 4bbd bd4c 363c 8d13 5d3c
00000340: fb91 bbbd 5d46 cabd a690 473d c34e d1bd
00000350: 775d 8a3c d7d9 463c d5c9 24bc 6a39 fabc
00000360: 71c9 683d 2bdd 9e3d 2b1f b1bd 10ea 77bb
00000370: 139b 85bd eee0 84bd 70ca ce3c 9517 b33b
00000380: 9103 d33d 70a2 623d 747c b03d 8dd1 9dbd
00000390: 4abb be3c 810f 22bd e4fd 27bd c30a 8ebd
000003a0: 4cb6 a33d 9181 b13d ad61 a63d 18be 51bd
000003b0: 4ac0 c33d 690e 3abd 33ae 6cbd f9f3 0a3d
000003c0: 106a cdbd 8740 723b d3a1 273d ffc4 88bc
000003d0: db06 923d 832d bb3a e971 cabb 0e96 bc3d
000003e0: b75c e03c a59d debc 73f9 a6b7 95d7 58bd
000003f0: 1cfc 373d 4eab 903d eb3f 43bc bb67 acbd
-0.013329469 0.0917731 0.035587434 -0.077465355 -0.033309184 0.008651623 -0.0038653554 -0.07547477
0.038183775 0.08496553 -0.0020389517 -0.04740392 -0.03725708 0.038192153 -0.06724453 0.05314926
0.050964683 -0.09359448 0.019327074 -0.027632339 0.01421691 0.021462498 -0.05200987 0.052034955
-0.019468801 0.0021820634 -0.05941858 -0.0035239481 0.032898884 0.025757607 -0.07168744 -0.003805309
-0.06829829 -0.025159704 0.08749113 -0.057435922 -0.049111143 -0.08350359 -0.06093102 -0.05209866
0.0761656 0.0038923742 -0.078544386 0.030860467 0.081945315 -0.010769446 0.029643126 -0.04065213
-0.03078349 -0.06093806 -0.06277858 0.07371308 0.06863798 0.08312341 0.050189137 0.07625927
-0.012322089 0.06437915 0.019544668 0.061447322 -0.018134918 -0.08830065 -0.079168856 -0.08940314
0.03479407 0.021365233 -0.05659445 -0.06539278 -0.007761427 0.036506146 -0.08883942 -0.08299438
-0.004245457 0.06500565 0.01576617 -0.070762746 0.029130496 0.0053600385 -0.06262572 -0.036458116
0.044575524 0.0972301 0.0055290842 -0.055012178 -0.07379617 -0.09921792 -0.059168182 0.044212393
0.05187186 0.050932765 -0.013168777 -0.070540436 -0.031567644 -0.03947682 0.091373466 0.064758554
0.025938261 -0.0076006493 0.08446315 0.034349803 -0.038508814 0.009687892 0.06818937 0.06553728
0.016915085 -0.047744036 0.026693732 0.0002042285 -0.011563279 -0.021667577 0.0725894 -0.029382652
-0.09048961 -0.051352233 0.06932812 0.079931036 -0.084853075 -0.06304989 0.03884013 0.04315789
-0.021589452 0.026612928 0.055475563 -0.018110933 -0.07335541 -0.032117777 0.08338527 -0.043243926
0.01111506 0.0021192743 0.10695877 -0.034027457 0.0705371 -0.04952746 0.06001226 -0.09480682
0.032389823 0.07420454 -0.008962302 0.019132432 -0.050619792 0.08340452 0.022766689 0.07394597
-0.06959792 -0.058122125 0.094478406 0.049952656 0.010208166 0.024401851 0.023244672 0.069963016
-0.031134017 0.05762704 0.086941525 -0.0010110512 -0.04848402 0.08289381 0.08460322 0.050343752
0.06580993 0.044015262 0.05273041 -0.071145825 -0.059193354 0.003050279 -0.05813647 0.10512383
-0.04571664 -0.07627134 0.008837096 -0.026785035 -0.0731843 -0.0666541 -0.10065704 -0.052462887
0.036345784 0.09804425 0.014220081 0.036703635 -0.011373146 0.026076414 0.08717221 0.024709769
0.029574173 0.093356565 0.021299845 -0.065510854 0.05722364 0.0827571 -0.060158808 0.062233765
0.007298471 -0.04120379 -0.053223215 -0.04208779 0.10826792 0.055819392 0.018702162 0.09147608
0.00831923 0.026780393 -0.037880987 0.0275463 -0.0054865167 -0.049653277 0.011126694 0.013493431
-0.09158703 -0.09876702 0.048721932 -0.10220101 0.01689027 0.012136898 -0.010057886 -0.030544955
0.056832734 0.07757028 -0.08648523 -0.003782872 -0.06523719 -0.064882144 0.025243014 0.0054654577
0.103034146 0.055330694 0.086174875 -0.07705984 0.023282666 -0.039565567 -0.041013613 -0.069356464
0.07993755 0.08667291 0.08124099 -0.05120668 0.095581606 -0.0454239 -0.057783317 0.033924077
-0.100299954 0.003696473 0.040925812 -0.016695498 0.07130214 0.0014280531 -0.00617813 0.09208308
0.02738796 -0.02717478 -1.9904901e-05 -0.05293997 0.044918165 0.07063924 -0.011917095 -0.084182225

mlp_head.0.bias f4 [32]
00000000: 0129 443d 0ab2 8abd dffd 763d ed66 603d
00000010: b712 1f3d 993b 633d 0bc9 973d d29a e53c
00000020: 9282 c7bb 9012 2b3d 8b2b 92bd db84 acbc
00000030: 21c9 32b9 7930 373d 96e7 98bd 7cc5 47bc
00000040: 8060 97bd 29b9 5e3d 5857 56bd 23d1 b0bd
00000050: 0f00 9dba 093e cc3c 3354 39bb ab59 c63c
00000060: 8986 843c 986b 643d 43e1 28bd 9c05 cb3c
00000070: cf0b 983d 5d56 403d fe96 893d b0d1 76b9
0.047890667 -0.067722395 0.060300704 0.054785658 0.038836207 0.05547676 0.07411393 0.028027926
-0.0060885632 0.04176575 -0.071372114 -0.021059444 -0.00017050329 0.04472396 -0.074660465 -0.01219308
-0.07391453 0.0543758 -0.05232939 -0.0863364 -0.0011978167 0.024931924 -0.0028278946 0.024212679
0.016177433 0.055766672 -0.04123045 0.024782948 0.07424127 0.046957362 0.067182526 -0.00023538503

mlp_head.2.weight f4 [32, 32]
00000000: b211 97bd 6432 25be 544d 0c3d 8891 90bc
00000010: 6b8e ecbd dd54 c8bc 7432 23be d727 cd3b
00000020: b61e 05be 46d2 18be 92d0 57bd a6c7 73bc
00000030: 70d3 863d f5a7 f73d fb39 0bbc e9ff 113e
00000040: 90a1 afbd 9ec1 d53d a942 253e 138b 0bbe
00000050: 3174 c0bd 323a d73d d263 97bd 805c fd3d
00000060: 3b6e 2bbe fe5e f1bd 1e2a 283c caaa be3c
00000070: 6aef 023e 6009 02be c2e4 8d3c 09fe 6abd
00000080: 830e 103e 23a7 02be 3f2e f23d 04aa 103d
00000090: 1c4a b4bb 8d9b 07be 0486 97bd 823d f73d
000000a0: 6c34 10be 9465 c33b 689a d8ba bd69 3dbd
000000b0: 60a7 1abe c751 81bd ade8 203e 4540 4a3d
000000c0: ac2a 343e 4bec 043e 1a1a 613d 50a6 b63d
000000d0: 75a6 243e c5ec 48bd 7c47 00be 2c1e cdbd
000000e0: f89c 80bb 3c39 ea3d 6a95 8bbb 8bf1 a4bd
000000f0: 2394 2ebe 1e6a 10be c34a 9d3d 16c9 1c3d
00000100: 89a1 853b ca80 2a3e f24c b4bd 22f8 9e3d
00000110: 9bbf 9fbd 60e3 fc3d c674 19bd f53a 0dbe
00000120: 6d3f 8dbd 139e 01be 1a3b 9e3a 251d f9ba
00000130: cd70 76bd 15e4 cabd 4de0 073d 7d1b ed3d
00000140: 4c58 01be 8362 3f3a 8bb2 bf3d 091c fe3d
00000150: cbd4 6fbd 28fe fb3d f697 b7bd 57e9 4abd
00000160: 56a4 16bc 2421 97bd 12ba f2bc 4d64 543c
00000170: 5ec1 efbd b7bf fabd a789 8b3d 4748 ff3d
00000180: a248 353c e24b 4d3d f2ff e03d 484b e63c
00000190: 38a1 c9bc 7a88 b13d 7c34 edbc f930 0a3d
000001a0: e069 4bbc 6f0a 343d d261 25bd 5f23 c3bd
000001b0: 1ac7 21be 187b 6a3d fd0e c83d d363 cc3d
000001c0: b1d0 92bd 5f36 33bd a786 d0bd a660 d33d
000001d0: eb8f bfbd 0d6e afbd 9181 76bd ec69 04be
000001e0: 7f7e 133d 8ae8 133d e6b6 3a3d 2633 0a3e
000001f0: d37f 2abe 123a ddbc 67a4 d73d 3402 293d
00000200: 376f be3d 81bc 3f3e 187f e8bd 4b79 03bd
00000210: 5aa6 2c3e 92b6 703d bf6e 913d cd59 843d
00000220: 867b 3b3d 28b7 493d 87d7 dcbd c6ba a53d
00000230: a4c6 013e 9d6b 22bc 9cf7 713a 1a37 373e
00000240: ccba f6bd 2061 e03b dd9b d33d c4b1 04bd
00000250: 2cb0 5d3d b55c b4bd a7e1 1cbd 2636 0bbd
00000260: a3ad e93d 0a3d a93d 0386 b0bd 5db3 24be
00000270: 8d01 283e b238 8f3d 29c6 153e 71c4 e3bd
00000280: a3ee 0cbe d06e fe3c bfa8 a7bd c552 fcbd
00000290: c660 033e 1079 6e3c 296e 423d 628e 06be
000002a0: 8a24 aa3d e357 eebd 65f5 103c ba9c ee3d
000002b0: 9b84 c13d 0096 803c 5daa 923d 5285 e8bd
000002c0: bc40 e4bd fc96 873b d7bd 5cbc 0199 f3bd
000002d0: 9a50 0bbe 8e70 08be 6253 3d3d 9a9b 3abc
000002e0: 1cce 04be 4f79 133d 0e52 16bd e1c1 1fbe
000002f0: 21d6 223e f251 2cbe 74f2 193e ed5e 2e3c
00000300: 9222 0ebe 5a55 15bd 9645 213e 2484 d1bc
00000310: 46b9 103e 4393 a83d 60d0 fc3d f3ff cf3c
00000320: 6b5c fe3c a0b0 fa3d fcfd d5bd 8052 36be
00000330: 889c 893d 5a83 2e3a 4456 b03d ce72 103e
00000340: f515 9b3d e42e d9bd 512f 0abe ca3d 09be
00000350: 5453 ad3d c02d 92bd b7ab b5bd 8d65 6abc
00000360: f25a 933d 13c8 0cbe 3f99 6fbc 75c3 0a3e
00000370: 07ac 9e3d 89ad ed3c 10b5 393e c5ee ae3d
00000380: b6d3 143d 6161 b33d 3fae e5bd 7039 7c3d
00000390: 3b7b 913d 7d00 9e3b 8bb8 10bd 0689 38bb
000003a0: 1db1 1a3e 414c 023c 1901 83bd aad4 c33d
000003b0: 2716 0c3e 1bc9 d03d 248f 133e c8bb 393d
000003c0: b19e 43be b47e 443d a6f8 d93d 495d 3eba
000003d0: 311c f8bb f5b9 4a3e 1292 1cbe d8a6 1a3e
000003e0: 6bdc c1bd 1bce fb3d 2616 1f3e c71b d43d
000003f0: fda0 b83c 6079 31be fbae 3c3e 41d5 acbd
-0.07376422 -0.16132504 0.034253433 -0.01764752 -0.115506016 -0.024454528 -0.15937215 0.006260853
-0.12999997 -0.14923963 -0.052689143 -0.014879143 0.06583297 0.12092582 -0.00849771 0.14257778
-0.085757375 0.1043732 0.1613871 -0.13627271 -0.09397162 0.10509147 -0.07392086 0.123711586
-0.16741268 -0.117856964 0.010263948 0.023274798 0.12786642 -0.12698889 0.017320994 -0.057371173
0.14068036 -0.1275907 0.11825227 0.03531839 -0.0055019986 -0.13242932 -0.07398608 0.120722786
-0.14082497 0.005963037 -0.0016525509 -0.046243418 -0.15102911 -0.06314426 0.15713759 0.0493777
0.17594403 0.12980764 0.054956533 0.0891844 0.16079123 -0.049053926 -0.12527269 -0.100155205
-0.003924962 0.11436698 -0.004259755 -0.08053883 -0.17048697 -0.1410298 0.07680275 0.038277708
0.0040780944 0.16650692 -0.08803739 0.07762171 -0.07800218 0.12348056 -0.03746488 -0.13792022
-0.06896863 -0.12657957 0.0012072057 -0.0019005878 -0.06016617 -0.099067844 0.033172894 0.115775086
-0.12631339 0.0007300751 0.09360226 0.12407691 -0.058552545 0.12304336 -0.08964531 -0.049538936
-0.009194454 -0.07379368 -0.02962974 0.012963367 -0.11706804 -0.12243598 0.068133645 0.12464958
0.01106468 0.050121196 0.10986318 0.028112069 -0.024613008 0.08668609 -0.02895569 0.03373811
-0.012415379 0.043955263 -0.04037649 -0.09528231 -0.15798607 0.057246298 0.09768484 0.099799775
-0.07168711 -0.043753024 -0.10181933 0.103211686 -0.09353622 -0.085659124 -0.060182158 -0.12931031
0.036009308 0.03611044 0.04558458 0.13496074 -0.16650324 -0.02700523 0.10529404 0.041261867
0.09298556 0.18724252 -0.11352366 -0.032098096 0.16860333 0.058767863 0.07101201 0.06462441
0.045772098 0.049246937 -0.10783296 0.08092265 0.12673432 -0.009913352 0.0009230317 0.17892113
-0.120473474 0.0068475157 0.10332463 -0.032396093 0.05412309 -0.08806745 -0.038301136 -0.033987187
0.11410072 0.082635954 -0.08619311 -0.16084047 0.16406842 0.06993236 0.14626373 -0.111214526
-0.13762908 0.031058699 -0.08186483 -0.123204745 0.12829885 0.014555231 0.04746834 -0.13140252
0.083077505 -0.11637857 0.008847569 0.11650987 0.094491206 0.015696526 0.071614005 -0.11353554
-0.111451596 0.004137872 -0.013472996 -0.118944176 -0.13604966 -0.13324186 0.0462221 -0.011389637
-0.1296925 0.03600436 -0.036699347 -0.15601303 0.15901996 -0.16828135 0.15033895 0.010642749
-0.13880375 -0.03645835 0.15749201 -0.025575705 0.14133176 0.08231213 0.12344432 0.0253906
0.031049928 0.1224072 -0.10448834 -0.17804909 0.06719309 0.0006657146 0.08610204 0.14106295
0.07572547 -0.10604647 -0.13494612 -0.13402477 0.08463159 -0.07137632 -0.08870643 -0.014306438
0.07195081 -0.13748197 -0.014623939 0.13551123 0.07747655 0.029013412 0.18135476 0.085416354
0.036334716 0.08758808 -0.112148754 0.061578214 0.071035825 0.0048218356 -0.035332244 -0.0028157844
0.15106626 0.007952751 -0.06396694 0.09562047 0.13680325 0.10194608 0.14410073 0.045345098
-0.19103505 0.047972396 0.10643129 -0.00072618254 -0.00757172 0.197975 -0.15290096 0.15102708
-0.094658695 0.12295171 0.15535793 0.103568606 0.022537703 -0.17331457 0.18426125 -0.084391125

mlp_head.2.bias f4 [32]
00000000: 6fa8 89bd 5e9a 2f3d 7a08 173e 4a40 fdbd
00000010: 2b91 69bd 4dea bd3a 3bb5 303e e1aa b8bd
00000020: 994b f7bd 7be4 adbc ec53 823d a9ff 153e
00000030: 53d8 cfbc 71c4 b3bd 755c 52bd 8b70 11bc
00000040: 6542 1a3e 1e46 37bd 43e0 15be 954a 9cbd
00000050: 30e0 323e 823d 75bd 55b9 983d 774f b1bd
00000060: 7762 1f3e 68a0 dd3d ba78 efbd fc10 083e
00000070: d96f 8ebd 3607 823d 8066 b5bd 1d3d 83bc
-0.06721579 0.042871825 0.14749327 -0.12365778 -0.05702321 0.0014489383 0.17256634 -0.090169676
-0.12074966 -0.021227112 0.06363663 0.14648308 -0.025371706 -0.087777026 -0.051357705 -0.00887693
0.1506439 -0.044744603 -0.1463633 -0.07631413 0.17468333 -0.05987311 0.07457224 -0.08657735
0.15564905 0.10821611 -0.11692949 0.13287729 -0.06954927 0.063490316 -0.08857441 -0.016020352

mlp_head.4.weight f4 [1, 32]
00000000: c244 933d e712 99bd a05f 2f3d bcec a9bd
00000010: 1799 c43d 4f50 ca3d 00bb c83c 5aae 203d
00000020: ecd0 32be 2f22 2bbe 5da2 c0bd ed37 d2bd
00000030: 2848 693d 8019 433d 15ef ecbc 6775 aebd
00000040: 0447 f23d 0cf5 67bd cf80 d13d c5c2 163e
00000050: 57a2 1abe 3c64 fb3c 9c8b 37be b6dc e0bd
00000060: 4b07 313e 4659 f6bc c09f 533d 834f 103b
00000070: 3a4f 05be 6093 fc3d 4ed2 30be 7b57 f6bd
0.07190849 -0.074743085 0.042815804 -0.082971066 0.09599512 0.09878599 0.024503231 0.039228775
-0.1746251 -0.16712259 -0.09405968 -0.10264573 0.05695358 0.04763174 -0.028922597 -0.085184865
0.118299514 -0.05663018 0.102296464 0.14722736 -0.1510099 0.030687444 -0.1792435 -0.10979597
0.17287938 -0.030071866 0.05166602 0.002202005 -0.13018504 0.12332797 -0.17267725 -0.12028404
