runs/1_hour_forecasting/131/best_model.pt (torch, 64889 bytes, 5 tensors)

net.0.weight f4 [64, 174]
000000 63 33 9c 3d 69 2f b2 3d 31 42 24 bc 81 fe a7 3d
       0.07626989 0.08700449 -0.010025547 0.0820284
000010 cb 81 b0 bb 75 88 02 3d 73 38 23 bc 12 fb 88 3d
       -0.0053865663 0.031868417 -0.009962189 0.06688513
000020 99 8c 91 3d a1 91 08 bd 26 aa b0 3d fd 12 e8 3c
       0.07106895 -0.033342008 0.08626203 0.028329367
000030 f3 01 96 3d 8a 44 92 3c 31 be 42 3d 5e 97 1a 3c
       0.073245905 0.017854948 0.047544662 0.009435503
000040 49 1c 8f 3d 19 40 8e 3c 00 86 5a bd 36 b4 e7 3b
       0.06987817 0.017364549 -0.05335045 0.0070710434
000050 93 3f 6c bd 46 cd fc bb 3c 96 29 bd 46 6c 57 3d
       -0.057677817 -0.0077149 -0.04140304 0.052593492
000060 55 e5 a7 bd 51 fe 12 bd 2c 93 19 bd 22 bd 31 bd
       -0.081980385 -0.035887066 -0.03749387 -0.04339326
000070 47 4f c5 bb 10 0e a9 bd 50 75 87 3d 38 1b 66 bd
       -0.0060214135 -0.08254635 0.066141725 -0.0561783
000080 7f 53 08 3d ca 25 4a 3b 2f dd f2 bb ba c1 65 3d
       0.033282753 0.0030845278 -0.007411621 0.056092955
000090 34 1c b6 3c d1 db a8 3d fd 32 03 3d b0 64 45 ba
       0.022230245 0.08245052 0.032031048 -0.0007529957
0000a0 2d 3e ed 3c 14 33 92 3c 37 ab 21 3d 78 5a b1 3d
       0.028960312 0.017846622 0.039469924 0.08659834
0000b0 99 fc 91 3d 89 02 cc bc bc e5 59 3d 67 dd 91 3c
       0.07128257 -0.024903553 0.053197607 0.017805768
0000c0 e2 18 62 3d 0c f9 15 bd 18 d8 51 bd 35 2d 03 bd
       0.05519951 -0.036614463 -0.051231474 -0.032025535
0000d0 43 93 75 bd c3 21 95 3d af 2c f5 3c 8e ba 23 3d
       -0.059954893 0.0728183 0.029928533 0.039972834
0000e0 eb f2 25 3d b1 ed 29 bc 62 4b 81 3d c8 f9 3b bd
       0.040514868 -0.010371611 0.06313206 -0.045892507
0000f0 89 d0 63 3b d9 52 74 bd 5f 97 03 3d 57 0a 2f bc
       0.0034761748 -0.059649322 0.03212678 -0.010683618
000100 75 74 d7 3c 81 20 7a bb d7 11 8e 3d 81 01 12 bd
       0.026300648 -0.0038166346 0.069369964 -0.035645965
000110 6c 44 58 bd 3a 05 4d bd 3c 30 7a 3d d3 e3 71 3c
       -0.052799627 -0.050053813 0.061081156 0.01476379
000120 6a e7 84 3d 45 93 99 bd a4 84 b0 bd 02 39 88 bd
       0.06489451 -0.074987926 -0.08619049 -0.066514984
000130 0f 92 62 bd c5 be bb 3c cd 44 96 3c 5b 26 38 3d
       -0.055315074 0.022918114 0.018343354 0.044958454
000140 29 44 42 bd 4c 10 73 bd d5 90 07 3d b7 85 1a bd
       -0.047428284 -0.059341714 0.033097107 -0.037725177
000150 dc bc 1f 3d 2f 5e 5d 3c 80 c0 2a 3d a3 e3 e6 bc
       0.03899847 0.013511225 0.04168749 -0.028184718
000160 6a e7 4f bc ef be 29 3d 8c a5 e6 3c f0 b9 61 3a
       -0.012689451 0.041441854 0.02815511 0.00086107757
000170 a6 d0 97 3d 09 52 96 3d 29 06 f1 bc e2 83 24 bd
       0.074128434 0.07339866 -0.029421883 -0.040164836
000180 ee b5 d5 3d 68 b7 75 bb e3 93 bd bb ea 8c 25 bd
       0.10435091 -0.0037493352 -0.0057854517 -0.04041759
000190 86 2e ef bc e9 46 d4 3c 89 b4 0c 3c 42 a8 fa bc
       -0.029196989 0.025912719 0.008587965 -0.03059781
0001a0 18 10 0c 3c b0 ec 85 bd f6 c5 a4 bd 9a c6 85 bd
       0.008548759 -0.06539285 -0.080455706 -0.06532021
0001b0 cf a8 86 bd 61 2a 84 bd 15 80 a0 3d 7e be c2 b8
       -0.065751664 -0.06453396 0.0783693 -9.286123e-05
0001c0 79 af 7f 3c 77 17 b0 bd a3 20 59 bd 68 6e 20 bd
       0.015605801 -0.085982256 -0.05300964 -0.03916779
0001d0 4c 4b cb 3b 7a 05 95 bd 56 d6 f0 bc 24 07 93 bd
       0.0062040444 -0.07276435 -0.029399078 -0.07179096
0001e0 3a 87 16 bc 60 50 0f bc fd 3b 30 3c 63 57 20 bd
       -0.009187514 -0.00874719 0.01075649 -0.03914584
0001f0 dc c8 da bc 79 e8 cc bc 26 7a 0a bc 78 0c 53 bd
       -0.026707105 -0.025013195 -0.008451974 -0.051525563
000200 98 6b ce 3d 2e b9 ef bb 21 aa 9d 3d 07 0a 48 3d
       0.10079116 -0.0073157763 0.07698465 0.048837688
000210 bc 5b 56 bd 94 77 77 3d 36 55 05 bc e4 a6 32 bc
       -0.05233358 0.060416773 -0.008137992 -0.010904048
000220 1b 04 4f bd a7 be 70 bd f6 f4 95 3c 4b ca 9c bc
       -0.050541025 -0.05877557 0.018305283 -0.01913943
000230 22 fc 14 3d 96 63 6c bd b2 fa 82 3d c9 cd 23 bd
       0.036373265 -0.05771216 0.063954726 -0.039991174
000240 25 98 b6 bc 1c f9 95 3c 10 3c 37 3d 33 d0 69 3d
       -0.022289345 0.018307261 0.044735014 0.05708332
000250 8b 5a 79 3d 6f 6f 5e bd 00 7a 03 3d 87 86 ff bc
       0.060877364 -0.05430549 0.03209877 -0.031192077
000260 12 ca 8b 3b ec b4 5f bd 4c c4 9f 3d fc 9d 80 bd
       0.004266032 -0.0546159 0.078011125 -0.06280133
000270 25 5c 19 3d 5a 3c b3 3c a5 3a 3b 3c d3 b8 45 bd
       0.03744139 0.021879364 0.011427556 -0.048271965
000280 26 4b 5b 3d 1c 54 0f 3c 8b e3 88 3b 73 9f 8c bd
       0.053538464 0.008748081 0.004177516 -0.0686635
000290 c5 6d f2 3c a3 4f 9f bc 9c 58 59 bd 36 e8 70 3d
       0.029593358 -0.019447153 -0.05306302 0.058815204
0002a0 aa 5a 48 3c 87 da 4b bd 47 0d 31 bd da c8 47 bc
       0.012228647 -0.04976895 -0.043225553 -0.012193883
0002b0 be 34 97 3d aa a4 ac bc f8 bd 13 bd 9f 65 03 bd
       0.07383107 -0.021074612 -0.03606984 -0.032079335
0002c0 dc 7f 27 bd 69 9e 0e 3d bd 9f 84 3d 5e 41 8c bd
       -0.04089342 0.03481904 0.0647578 -0.06848405
0002d0 3f 2a 91 3c 6e 38 32 3d e4 3e 02 3d ad 27 01 bd
       0.01772034 0.043510847 0.03179826 -0.03153198
0002e0 fb bc 6a 3d 3b 3a 3e 3d d3 bd de 3c b9 48 58 bc
       0.057309132 0.04644225 0.027190125 -0.013200932
0002f0 6c 22 8a bc 04 9a 4d 3c 83 07 22 bc 58 70 c9 bc
       -0.016862117 0.012548927 -0.009889486 -0.024589702
000300 c0 96 5b 3d 19 a1 8b 3d 00 bc 54 bc 75 27 f3 bc
       0.053610563 0.06817836 -0.012984276 -0.0296819
000310 a3 67 d6 bb 06 69 b4 3a 08 74 d9 3c 50 ca 1b 3c
       -0.006543116 0.001376421 0.026544586 0.009508684
000320 4b b8 81 bd 87 d5 f0 bc 55 5a 70 3d 23 78 e1 3c
       -0.06333979 -0.029398693 0.058679897 0.027523106
000330 66 0a 44 b9 c4 bf 6f bd 96 3b 1a bd dc 1c a5 bd
       -0.0001869589 -0.05853249 -0.03765448 -0.08062145
000340 da 27 06 bd 2f 65 c4 3c b1 4f 68 3d b7 90 3a 3d
       -0.03275285 0.02397403 0.056716625 0.045548167
000350 4b 67 a4 bd ad 6b 2d bd f7 d3 0f bb d4 37 84 3d
       -0.08027514 -0.042339016 -0.002194641 0.06455961
000360 e3 58 85 3c dd 81 a6 bc 45 33 3f 3c d3 33 d8 bc
       0.016277736 -0.020325596 0.011669938 -0.0263919
000370 c3 33 4c bd 55 36 6b 3d 76 cd be bc 36 60 3e bc
       -0.04985405 0.057424862 -0.02329133 -0.011619618
000380 37 da 80 bd b0 8c 26 3d af e1 58 3d 52 09 09 3d
       -0.06291621 0.040661514 0.052949604 0.033456154
000390 6f bb 3c bd 7a bf 9d bd 61 df 6e bd ca 2f 2e 3d
       -0.046077188 -0.07702537 -0.0583185 0.042526044
0003a0 fd f2 09 3d 56 dd 92 3d 1e e9 15 3d 49 05 f1 3b
       0.033678997 0.07171123 0.03659927 0.0073553664
0003b0 c1 1e de 3b ed 44 58 bd 23 eb 7b bd 44 9e 9b bd
       0.0067785685 -0.052800108 -0.06150354 -0.07598546
0003c0 cf 71 1c 3d d5 b3 2c bd 66 8d 96 bb 01 2b 1c bd
       0.038194474 -0.04216369 -0.0045944927 -0.03812695
0003d0 e2 c6 b0 bb 26 2b 5f bd 3c cf 1c bd 54 be 2d 3d
       -0.0053948024 -0.05448451 -0.03828357 0.04241784
0003e0 c8 60 86 bc 6f e7 5f 3d 78 c0 a5 bc 39 17 81 bd
       -0.01640357 0.05466407 -0.020233378 -0.063032575
0003f0 ff e9 c0 bb 26 57 43 bd 90 08 6d bc b2 38 86 bd
       -0.0058872695 -0.047690533 -0.0144673735 -0.065537825

net.0.bias f4 [64]
000000 38 00 19 bd a0 67 21 3b a4 30 35 3c f1 55 66 bd
       -0.037353724 0.0024628416 0.01105896 -0.056234304
000010 0a dd 0d 3d ba 65 4b 3c 06 83 eb 3c 3d 3c 82 3c
       0.034634627 0.01241439 0.028749 0.015897864
000020 8f ea 64 bc a0 d3 ab bc 78 89 00 bc e7 f5 57 bd
       -0.013971939 -0.020974934 -0.007845275 -0.052724745
000030 75 ab 70 3d d6 96 a4 3c 43 45 42 3d 56 a5 72 bd
       0.058757264 0.020091455 0.047429334 -0.059239708
000040 e9 58 78 3c 29 79 e0 bc 64 99 71 3c 28 4a dd 3c
       0.015157917 -0.027401524 0.014746044 0.0270129
000050 f7 d9 52 3c e5 2c 31 3c 54 7c 42 bc c2 0c b0 3c
       0.01286935 0.010813926 -0.011870462 0.021490458
000060 a2 c1 0d bc 85 b9 d4 3a aa d3 26 3d e4 8c 80 3d
       -0.008652123 0.0016229606 0.040729202 0.06276873
000070 53 aa fa 3c da e5 f4 bb be 40 08 3d d4 fc 3a 3d
       0.030598795 -0.0074736895 0.033264868 0.045651272
000080 0d 44 19 3d d8 3f 0a bd 10 47 4f bd 16 59 e5 3c
       0.037418414 -0.033752292 -0.05060488 0.027996581
000090 f0 81 53 bc 76 c8 5f 3d 39 2b 72 bd 67 c8 50 3d
       -0.0129093975 0.054634534 -0.05912325 0.05097237
0000a0 92 b9 3b 3d b2 b8 45 bc a8 78 64 bd 1c 06 92 3b
       0.04583127 -0.012067961 -0.05577913 0.0044562947
0000b0 b3 5f 78 3d a7 b2 5d 3d 3a 84 9b 3c d5 1e 86 bb
       0.06063814 0.054125454 0.018983949 -0.004093031
0000c0 93 05 a1 3d 91 e4 18 3d 28 63 a8 3d 46 a8 aa 3d
       0.07862391 0.037327353 0.082220376 0.08332877
0000d0 b0 2d 63 bd 6b cc 90 bc 9e 55 ef bc 6d f7 17 bc
       -0.055463493 -0.0176756 -0.02921563 -0.0092752995
0000e0 97 78 c4 3d 85 f8 48 bd c5 34 57 3d dc 09 59 3d
       0.09593313 -0.04906513 0.05254056 0.05298792
0000f0 dd c1 10 3c ac df 3e bd 5f db 0b bd cf 4e b8 3c
       0.008835283 -0.04660003 -0.034144755 0.022498516

net.2.weight f4 [64, 64]
000000 8f c1 33 3d b8 d9 15 3d d8 84 86 3d 03 67 cc 3d
       0.043885764 0.036584586 0.06568307 0.099805854
000010 19 e7 ac bd 8f cd af 3d 66 3f cc 3d a6 ae 52 bd
       -0.08442516 0.08584129 0.0997303 -0.05143609
000020 ba dc 51 bd e2 e5 0a be fe 6e de bd 8f 3a ab 3d
       -0.051235892 -0.13564256 -0.10861014 0.083607785
000030 05 c5 7d 3d f4 68 7e bd be 15 d5 bd f4 38 f5 bd
       0.06195547 -0.06211181 -0.104045376 -0.119737536
000040 1b 33 05 3e 73 27 86 3d 28 d6 5f 3d 43 25 2c 3a
       0.13007776 0.06550493 0.054647595 0.0006566832
000050 8b 5d 80 3d cd a9 fa 3c d1 de 35 3d ee d4 05 3d
       0.06267842 0.030598545 0.044401947 0.03267377
000060 2a 9b 0f bd f1 b5 57 bd 65 42 40 3c 4c c2 fb 3c
       -0.035060085 -0.052663747 0.01173458 0.030732296
000070 2e f9 df 3d 3b f9 c3 bd f2 4b 8a 3d 01 68 f0 bd
       0.10936199 -0.09569021 0.06752767 -0.11738587
000080 77 fa 0d 3d 03 61 ad bd 55 b5 a2 bd e1 5d aa bd
       0.03466269 -0.08465769 -0.079447426 -0.08318687
000090 ea 42 0a 3e 57 98 d1 3d 6f 2a 0f bd e2 09 b4 3c
       0.13502088 0.10234135 -0.034952577 0.021977369
0000a0 0e 93 bf bd 63 55 c3 bd 6c 4a 91 bd 20 de 2d 3d
       -0.0935422 -0.095377706 -0.07094273 0.042448163
0000b0 4a 6c af bd 81 15 40 bc 70 77 3c 3d ab de 70 ba
       -0.085655764 -0.011723877 0.046012342 -0.00091884536
0000c0 38 33 1a 3c 81 35 99 ba 59 d4 e7 3d 71 38 e0 bd
       0.009411626 -0.0011688919 0.11319799 -0.10948265
0000d0 6c 7a b8 bd 0e f8 a9 3d d4 d9 f2 3c 0d 31 d5 3d
       -0.09007725 0.08299266 0.029644884 0.10409746
0000e0 56 75 cf 3d 20 c2 b7 bd 5d b8 aa bb 01 97 b9 bd
       0.10129802 -0.08972573 -0.005209966 -0.09062005
0000f0 84 68 89 3d 17 4a ce 3d 61 c0 c8 bd 9e 16 94 bd
       0.06709388 0.10072725 -0.09802318 -0.072308764
000100 d9 2f 95 3d ee af 1e 3d 99 48 aa bd 55 a5 9f 3b
       0.07284517 0.038742 -0.08314628 0.004872004
000110 c4 87 88 bd 8a 4e 6f 3d 9a 50 1b 3d 8f d1 63 3d
       -0.0666652 0.05842451 0.037918665 0.055619773
000120 67 e7 86 3c 7a 55 52 bc 63 11 9f bd ca 21 0a 3e
       0.016467763 -0.012837762 -0.07766988 0.13489452
000130 55 99 17 3c 6f 8e 05 3c 48 35 bb 3c 03 f0 e5 bd
       0.009252866 0.008151635 0.022852555 -0.11227419
000140 a2 ab 42 3d cc f9 01 3e d2 46 d5 3d eb 6f ae 3c
       0.047526963 0.12692946 0.104138985 0.021293601
000150 72 a8 51 3d d2 a5 2b 3d 4e 0f 08 ba 06 ab 6c 3d
       0.051186033 0.041906185 -0.0005190269 0.05778029
000160 3d 37 8c 3d 38 89 2e 3d 37 f2 a6 bd 05 6c 9b bc
       0.06846473 0.04261133 -0.081516676 -0.018972406
000170 5f a9 cc 3d ad 07 8a 3d 09 88 5b bd fa 02 24 3d
       0.099932425 0.06739745 -0.05359653 0.0400419
000180 3b 0f 73 bd de 81 86 3d 1c cd 21 3d f7 43 ab bd
       -0.059340697 0.06567739 0.03950225 -0.08362573
000190 4c 67 f3 3d fb 60 c0 3d 56 67 dd 3d 20 b7 4b 3d
       0.11884937 0.093934976 0.108107254 0.04973519
0001a0 3b 3d 5f 3d 99 ec 92 3b 20 9d 7b bd c0 f6 87 3d
       0.054501753 0.004483771 -0.061429143 0.06638861
0001b0 aa 54 26 bd e1 1c 39 3d 05 7f 0c bd 29 42 46 bd
       -0.040608086 0.045193557 -0.034300823 -0.04840294
0001c0 81 97 a8 bd 91 bf 37 bd 02 1b 94 3d 98 20 32 3d
       -0.08232022 -0.044860426 0.07231714 0.043488115
0001d0 b0 7e 3b 3c b4 d3 c1 3d 60 7c c9 3d e5 ca 3f bd
       0.011443779 0.09464207 0.09838176 -0.046824355
0001e0 0b 56 b7 bd b3 28 dd 3d 6d b2 bf bd 76 8b aa bd
       -0.08951958 0.107987784 -0.09360204 -0.08327381
0001f0 48 70 be bd bd 4e 8b bd 60 b0 99 bd 97 f9 4d 3c
       -0.0929876 -0.068021275 -0.07504344 0.012571714
000200 8c 04 11 bd e6 78 d6 3d ab 81 a2 bd 7c 5b c1 bd
       -0.035404727 0.10472278 -0.079348885 -0.094412774
000210 32 09 f3 bd dd 01 98 bd fc d4 da 3c 48 e6 f1 bd
       -0.11866988 -0.074222304 0.026712887 -0.11811501
000220 75 71 28 bd 37 62 38 bd 0b d8 ba bc b1 e7 63 bd
       -0.041123826 -0.04501554 -0.022808095 -0.05564088
000230 0d d8 8b 3d 05 12 aa bc 58 ac 4d bd 3d 23 94 3d
       0.06828318 -0.020760546 -0.050213188 0.07233284
000240 74 21 c7 3d ae 40 c0 3d f4 fc 33 bd 11 de 27 3d
       0.097231776 0.09387337 -0.043942407 0.040983263
000250 f2 89 87 bd 34 6a dd bc bf 61 d9 3c e8 11 a9 bd
       -0.06618108 -0.02702818 0.026535867 -0.082553685
000260 8f b0 1e bd d5 59 7b 3d 97 48 5c 3d 0a 7b 0c 3e
       -0.0387426 0.061364967 0.053780165 0.1371881
000270 d3 66 72 bd ab 92 dc bc 98 28 03 be 75 b5 a2 3d
       -0.059180092 -0.026925405 -0.12808454 0.079447664
000280 e1 26 68 bd 23 c8 08 be 2c 8e b5 3c c8 e3 7f bd
       -0.056677703 -0.13357596 0.02216252 -0.06247309
000290 71 4c c4 bd cc 30 b0 3d 46 23 a5 bd 1f d6 62 3d
       -0.095848925 0.08603057 -0.080633685 0.055379983
0002a0 63 ab dd 3d 8a dd 8d 3d 43 a6 8f bc 2f 4a 90 3d
       0.10823705 0.06927021 -0.017535334 0.070453994
0002b0 69 6a b9 bd 27 c7 d6 3d 02 cb 1d bd 00 48 46 bd
       -0.09053499 0.10487204 -0.03852368 -0.04840851
0002c0 23 46 0f bc 47 b4 1d 3e 50 9a df bb 2b 16 e2 3d
       -0.008744749 0.15400802 -0.0068238154 0.110393845
0002d0 62 cd 00 3d f5 6d e5 bd 19 e4 9e bd 5a e5 eb 3d
       0.03144587 -0.11202613 -0.0775835 0.11518355
0002e0 37 c7 0e 3e 94 d1 9c 3d 6e 66 e0 3d 8d 7b 67 bd
       0.13943182 0.07657161 0.10957037 -0.05651431
0002f0 00 25 88 bd 49 00 10 bd ec c7 56 bd c4 ed 10 bc
       -0.06647682 -0.035156522 -0.052436754 -0.00884575
000300 6a 70 18 3d 60 bf aa 3c b7 d5 80 3d 2c d0 bd bc
       0.03721658 0.020843208 0.06290763 -0.023170553
000310 d4 d2 09 3e c7 ad 0a 3d 10 c0 b3 3d d0 2d e7 3d
       0.13459331 0.033857133 0.087768674 0.11288035
000320 6d eb 25 3c ed 87 ce 3d e9 73 91 3d e9 bd 9c bd
       0.010126931 0.100845195 0.07102186 -0.0765341
000330 8f b9 c5 3c 8f 30 87 bd 95 87 17 3d ce e4 a2 bd
       0.024136333 -0.06601059 0.036994535 -0.07953797
000340 ea a9 ab bc 40 2f 10 bd 43 fc ca bd bc 3d fc 3d
       -0.020955045 -0.03520131 -0.09911396 0.123164624
000350 c2 b5 29 bd c0 c2 d6 bc 8a 7a 9a bc ef 65 86 bc
       -0.041433103 -0.02621591 -0.01885726 -0.016406028
000360 a3 3d 9b bd ef 1a 21 3d b2 39 cd bd 61 c2 e3 bd
       -0.07580116 0.039332327 -0.1002077 -0.11121059
000370 de d9 22 bd 53 3d e0 bd 7b b1 de 3d 52 a0 2e 3d
       -0.039758556 -0.10949197 0.108736955 0.042633362
000380 57 b2 06 3e 23 d4 ac bd 73 93 da bd c9 01 83 3c
       0.13153969 -0.08438899 -0.10672655 0.015992062
000390 d6 f4 23 bd 14 8a 2c bd ae 51 51 bd 83 62 d2 bd
       -0.040028416 -0.04212387 -0.051103286 -0.10272696
0003a0 9a db 86 bd b9 89 a4 bd 5e 2b 37 3d 69 f5 07 3d
       -0.065848544 -0.08034081 0.044719093 0.033193026
0003b0 92 d4 d4 3d f2 41 e0 3d b8 69 f4 3d ca 09 ef bd
       0.10392107 0.10950078 0.11934227 -0.11671789
0003c0 c4 5d ad 3d c4 66 4b 3d c4 2d 94 bd e5 57 27 bd
       0.0846515 0.04965855 -0.072352916 -0.040855307
0003d0 24 f2 56 3d 16 9e ee bc 9f 17 c1 bd 75 6b 31 bd
       0.052477017 -0.029128116 -0.094283335 -0.04331537
0003e0 34 57 15 bd 3e 5a 7f 3d 12 8a 89 3d 1f 55 c8 3d
       -0.036460117 0.06234192 0.06715788 0.097818606
0003f0 b6 f8 8a bc 15 b9 cf bd 21 6e e8 3d 94 d5 43 bc
       -0.016964298 -0.101427235 0.113491304 -0.011952776

net.2.bias f4 [64]
000000 e9 ba c0 3d 75 28 59 3b 4a 1c d9 3b 79 38 29 bc
       0.0941065 0.0033135687 0.006625687 -0.010328406
000010 4b 81 91 bb 19 07 a4 bd 34 41 a4 3d 8d c6 01 3e
       -0.0044404618 -0.08009166 0.08020249 0.12673397
000020 f1 d6 8e 3d b7 1b 86 3d bf d4 e5 3d 7d 9f d1 3d
       0.069745906 0.06548255 0.11222219 0.10235498
000030 e1 3b 2a 3d d9 8a ab 3d 66 50 d0 3d 8d 3d 8d 3c
       0.04156101 0.083760925 0.10171585 0.017241264
000040 f7 93 a6 bc 97 bc 6c bd df 1f 9f bc a6 9f c9 3c
       -0.020334227 -0.05779704 -0.019424377 0.02461226
000050 de 1e 9d bd 11 65 d7 bd 57 91 8d bc df 38 bb 3c
       -0.07671903 -0.10517324 -0.017281218 0.022854267
000060 96 95 a7 3d 6b ae cc 3d aa 2c b6 bd 17 5b 65 3b
       0.08182828 0.09994205 -0.08895238 0.003499692
000070 ba 27 b3 bd e3 cc 1b 3d 4c e1 cb bd 53 41 d9 bd
       -0.087478116 0.038037192 -0.09955081 -0.10608163
000080 e1 21 8b bb 12 4c b8 3d 95 f1 bd bd 92 54 da bd
       -0.004245982 0.08998884 -0.09274594 -0.10660662
000090 1b 76 13 3d 79 76 15 3e 93 33 0f bd 49 25 04 3e
       0.036001306 0.14595975 -0.034961294 0.12904848
0000a0 9e bd 00 3e 3d b6 46 bd 9f 64 3c 3d 52 37 a0 3d
       0.12572333 -0.04851364 0.045994397 0.078230515
0000b0 d1 94 c2 bd fd 8d 71 3d 0e 14 15 3d e3 ee 1a 3c
       -0.09501041 0.0589733 0.03639608 0.009456369
0000c0 8d 62 c6 bd c4 e8 1e bc ea 19 a4 bd a6 29 81 3c
       -0.09686766 -0.00969905 -0.08012755 0.01576693
0000d0 58 0e 68 3b 8c 0e 9e bd 14 5b e7 3d 0d 8e b0 bd
       0.003540894 -0.07717618 0.11296669 -0.08620844
0000e0 ae bf cc 3d 23 0a b5 3d 5f 94 fb 3d eb 79 19 3d
       0.099974975 0.08839824 0.12284159 0.037469786
0000f0 00 00 a0 3d 3d bf 39 bd f9 5d 4f 3d e4 28 ec 3d
       0.078125 -0.045348395 0.05062673 0.11531237

net.4.weight f4 [1, 64]
000000 68 c4 1c be e5 d7 de bd 3f d0 32 3d 4c 05 53 bd
       -0.15309298 -0.10881022 0.04365563 -0.051518723
000010 12 64 f4 bc 72 1e 9a bd 53 f9 9e bc 93 e7 8e bd
       -0.029832873 -0.07525338 -0.019405996 -0.06977763
000020 42 9b 09 3e 9f 41 d3 3d a3 71 76 3d c2 b6 97 3d
       0.13438132 0.103152506 0.060166966 0.07407905
000030 5e 48 a1 bd bc 9c 27 bd 69 16 de 3d c1 a1 ce 3d
       -0.07875131 -0.040920958 0.10844118 0.10089446
000040 0b a3 2a bd 01 a5 05 be 6c 30 cc bc e4 cd c6 3d
       -0.041659396 -0.13051225 -0.024925433 0.09707239
000050 59 10 1d 3d 0a 9a 15 be c1 fc 57 3d a2 35 90 bd
       0.03834567 -0.14609542 0.05273128 -0.0704148
000060 cb 0b 9b 3d e3 b9 fb 3d e3 5a dc 3d 07 75 da bd
       0.07570609 0.122913145 0.10759523 -0.106668524
000070 88 bb 41 3d 4a 49 3f bd d4 9b 46 3d 25 82 c2 bd
       0.047297984 -0.046700753 0.048488453 -0.09497479
000080 6c b0 be bd 81 b2 91 bd ae 97 56 3d 27 34 cd 3d
       -0.093109936 -0.07114125 0.052390747 0.10019713
000090 9d d5 12 be 4b 64 c4 3d fa 61 12 3e 2c 33 f3 bd
       -0.143393 0.09589442 0.14295188 -0.11874995
0000a0 0c 08 e2 bd 28 5a 61 3d ff 57 ca bd d9 00 e3 3c
       -0.11036691 0.05501762 -0.09880065 0.027710365
0000b0 8f 5e 0e be 78 35 c6 bc 3a c2 d5 3d 2a d8 02 3e
       -0.13903259 -0.024195418 0.104374364 0.12777773
0000c0 76 76 53 3d 3b 3a b4 3d dd 66 10 3e f6 f5 00 be
       0.051626645 0.08800169 0.14101739 -0.12593827
0000d0 8c 44 cb 3d f4 a9 a4 3d b4 b0 ed bd ff 15 92 3d
       0.09925184 0.080402285 -0.11605969 0.07133102
0000e0 6f 47 88 3d 7f 8d 0e be 16 e2 98 bd ce cb b8 3c
       0.0665425 -0.13921164 -0.074649975 0.02255812
0000f0 eb fe c1 3c da dc 99 3d f8 c4 f0 3d 29 78 04 3e
       0.023681125 0.07512827 0.11756319 0.12936462
