runs/8_hour_forecasting/176/best_model.pt (torch, 503992 bytes, 10 tensors)

lstm.weight_ih_l0 f4 [512, 89]
0	0x3dc77832	0.09739722
1	0x3d9a801f	0.075439684
2	0x3c31d7f2	0.010854708
3	0x3dd35efa	0.1032085
4	0xbc7a8750	-0.01529105
5	0x3d3978ee	0.045281343
6	0xbd358f39	-0.04432604
7	0x3d8ad567	0.067789845
8	0x3da28fae	0.07937561
9	0xbd66e1ec	-0.0563678
10	0x3db2475b	0.08705016
11	0x3c84244b	0.016130587
12	0x3da66061	0.081238516
13	0x3c2d3f68	0.010574199
14	0x3d789c5e	0.060696
15	0xbb9344f1	-0.0044943024
16	0x3da133d6	0.07871215
17	0x3cc653fc	0.024209969
18	0xbd00610c	-0.03134255
19	0x3ca226b3	0.019793844
20	0xbd6e025b	-0.058107715
21	0xbb8597f0	-0.0040769503
22	0xbd3f342f	-0.046680626
23	0x3d96283a	0.07331891
24	0xbd86af35	-0.06576387
25	0xbd2dac73	-0.04240079
26	0xbca90c26	-0.020635676
27	0xbcb4429c	-0.022004418
28	0xbbca91a0	-0.0061819106
29	0xbdb41f36	-0.087950155
30	0x3d928339	0.07153935
31	0xbd9d6d43	-0.07686856
32	0x3d85bfd7	0.06530731
33	0x3d023a45	0.03179385
34	0xbcca499e	-0.024693307
35	0x3b911b1a	0.0044282796
36	0xbbbf7feb	-0.0058441064
37	0x3d647f0c	0.055785224
38	0xbaedda2b	-0.0018146684
39	0xbd87bd5f	-0.066279165
40	0x3caae75b	0.020862272
41	0xbd2b3828	-0.0418016
42	0x3caac2ed	0.020844901
43	0x3d9e27fb	0.077224694
44	0x3cfc880a	0.030826587
45	0xbd4eb36d	-0.050464083
46	0x3cdb9958	0.026806518
47	0xbbdfe8ea	-0.0068331854
48	0x3d25765b	0.040396076
49	0xbd787f51	-0.060668293
50	0xbdbc13e1	-0.09183479
51	0xbd2d6d9b	-0.042340856
52	0xbd8ee3c2	-0.06977035
53	0x3dad0b3c	0.084494084
54	0x3d104b3b	0.035227995
55	0x3d362c8b	0.044476073
56	0x3d2f1911	0.042748515
57	0xbc681a1a	-0.014166379
58	0x3d93e86e	0.07222067
59	0xbd47f299	-0.048815344
60	0x3aeba6bc	0.0017978768
61	0xbd93814c	-0.07202396
62	0x3d1ea170	0.038728178
63	0xbc67c8ce	-0.014146997
64	0x3d100acc	0.035166547
65	0xbc361f39	-0.0111158425
66	0x3daa03f9	0.08301539
67	0xbd3dcce5	-0.04633798
68	0xbd1aeb7e	-0.03782224
69	0xbd28f7ab	-0.04125182
70	0x3d69e95d	0.05710732
71	0x3c866867	0.016407205
72	0x3dc43d36	0.095819876
73	0xbdb1cdb6	-0.086818144
74	0xbdaae19a	-0.08343811
75	0xbd766096	-0.060150705
76	0xbd805658	-0.06266469
77	0x3d277c1b	0.04088984
78	0x3d0b9f53	0.03408749
79	0x3d7cdf37	0.06173631
80	0xbd346cd4	-0.0440491
81	0xbd546180	-0.051850796
82	0x3d70ff04	0.05883695
83	0xbd303aeb	-0.04302494
84	0x3d8cf9e4	0.068836
85	0xbd017f0c	-0.031615302
86	0x3e04ade0	0.12956953
87	0xbd891158	-0.06692761
88	0xbca32a08	-0.019917503
89	0x3d7e2e7d	0.062056053
90	0x3d9755bc	0.073893994
91	0x3ce42ffe	0.027854916
92	0x3d8a736c	0.06760296
93	0x3dd27173	0.10275545
94	0xbd0ac4bf	-0.033879038
95	0xbd5283dd	-0.051395286
96	0x3e10c98a	0.14139381
97	0x3d5778b2	0.05260534
98	0x3d3a7a68	0.045526892
99	0xbd669f25	-0.056304116
100	0xbd3d619e	-0.046235673
101	0x3d8b0426	0.067879006
102	0x3d478e01	0.04871941
103	0xbd69ab72	-0.05704827
104	0x3d71ec80	0.059063435
105	0xbcd5572b	-0.026042541
106	0xbda55dda	-0.080745414
107	0xbd542c4e	-0.051800065
108	0xbd846a43	-0.0646558
109	0xbcfefbea	-0.031125981
110	0x3db82bed	0.08992753
111	0x3c8d37a4	0.017238446
112	0x3c861a47	0.016369952
113	0xbda635ab	-0.08115705
114	0xbd2a2aea	-0.041544832
115	0xbca0a501	-0.01960993
116	0x3cb3ae2b	0.021933636
117	0xbd902605	-0.07038502
118	0xbce705c9	-0.028201
119	0xbd2d300a	-0.04228214
120	0xbbef007e	-0.00729376
121	0xba8a8655	-0.0010568599
122	0xbb923740	-0.0044621527
123	0xbdaaa1cf	-0.08331644
124	0xbd83cc9a	-0.06435509
125	0xbd97d274	-0.074131876
126	0xbd2b3918	-0.041802496
127	0xbdceabf0	-0.10091388
128	0x3d2b0573	0.041753244
129	0xbbb8296c	-0.0056201722
130	0x3d7f452f	0.062321838
131	0x3c00b0f9	0.007854694
132	0xbdb323db	-0.08747073
133	0x3daaefc2	0.083465114
134	0xbd1ecd17	-0.038769808
135	0xbd517912	-0.051140852
136	0xbd958742	-0.07301189
137	0xbdcf969d	-0.10136149
138	0x3c8a25fa	0.016863812
139	0xbd24dcb9	-0.04024956
140	0x3b4156f2	0.0029501286
141	0xbdde2a1d	-0.10847876
142	0x3d2cdc94	0.042202547
143	0xbdb80b52	-0.08986534
144	0xbd3d0741	-0.046149496
145	0xb9915f0a	-0.00027727365
146	0x3c973869	0.018459516
147	0x3d162c4b	0.036663335
148	0x3d6302d7	0.05542263
149	0xbdd9a8a3	-0.10627868
150	0xbbe750e5	-0.007059204
151	0xbd79277e	-0.06082868
152	0xbce7cd33	-0.028296089
153	0xbdcf1bc0	-0.10112715
154	0x3d524dea	0.051343836
155	0xbdb97b0f	-0.09056675
156	0x3c81fe61	0.015868368
157	0x3cc6dcba	0.024275173
158	0x3c0fac2d	0.008769077
159	0xbd8af784	-0.06785491
160	0x3d012bc7	0.03153589
161	0x3c235178	0.009968154
162	0x3ba9b1a4	0.005178647
163	0xbdc52dc7	-0.09627872
164	0x3c33002d	0.010925335
165	0xbd4c2a95	-0.049845297
166	0xbd7fc8ef	-0.062447485
167	0x3d59d068	0.053177267
168	0xbc19573e	-0.009359179
169	0xbd9245f5	-0.071422495
170	0xbd91103e	-0.07083176
171	0xbbc243e4	-0.0059285033
172	0x3cc50a19	0.024052667
173	0xbca9550f	-0.020670442
174	0x3d285546	0.041096948
175	0xbdac3258	-0.0840804
176	0xbd99e776	-0.07514851
177	0x3ceb1f7d	0.028701538
178	0x3d9e8e71	0.07742012
179	0xbdd1f9e4	-0.10252741
180	0xbad02a78	-0.0015881797
181	0x3d5ba2ea	0.053622164
182	0x3c99f594	0.018793859
183	0xbcbb3b19	-0.022855328
184	0x3c683fa3	0.014175328
185	0x3d0f5e0d	0.035001803
186	0xbcb695d8	-0.022288248
187	0xbd0b89d7	-0.034067
188	0xbd1c0978	-0.038094968
189	0x3c85be72	0.016326163
190	0xbc825d00	-0.015913486
191	0xbd734e2d	-0.059400726
192	0x3d6d9695	0.058004934
193	0x3d83b15c	0.06430313
194	0xbc115fcd	-0.008872938
195	0x3c940590	0.018069059
196	0x3cb06a68	0.021535113
197	0x3c1356bd	0.008992848
198	0x3d2553d3	0.040363144
199	0x3d8373bb	0.06418558
200	0xbd7c3409	-0.061573062
201	0xbbb53c16	-0.0055308444
202	0x3dce0d3f	0.1006112
203	0x3d314032	0.043274112
204	0x3bf24ceb	0.0073944232
205	0xbd3d0b95	-0.046153624
206	0xbd766982	-0.060159214
207	0xbd344f02	-0.04402066
208	0xbc98e258	-0.018662617
209	0x3d5e5b8a	0.054286517
210	0x3d843549	0.06455476
211	0x3daad7c6	0.08341937
212	0xbd8b897c	-0.068133324
213	0xbd87d05c	-0.06631538
214	0xbd4bb6ac	-0.049734756
215	0x3d95d1d9	0.07315416
216	0xbc5d9dfd	-0.013526437
217	0xbd05150d	-0.03249078
218	0x3cfb50bf	0.030678151
219	0xbcdbf1d8	-0.026848719
220	0xbd88c1ca	-0.06677587
221	0x3d78b1af	0.060716327
222	0xbd10e3bc	-0.035373434
223	0xbcba00e2	-0.0227055
224	0xbdd579f1	-0.10423649
225	0x3d327162	0.04356516
226	0x3d9e3a0a	0.07725914
227	0x3c2fa70b	0.0107209785
228	0xbd59bde4	-0.05315961
229	0xbdbc8a9e	-0.09206127
230	0xbd99e549	-0.07514436
231	0x3dada5d6	0.08478896
232	0x3d5dca9d	0.054148305
233	0x3db70d75	0.089381136
234	0x3d924ca0	0.07143521
235	0x3c75f566	0.015012121
236	0x3b5a31e5	0.00332939
237	0xbd3b2bad	-0.04569595
238	0xbda8fe1f	-0.08251595
239	0xbdba6232	-0.091007605
240	0x3d3e6e9d	0.046492208
241	0xbc942262	-0.018082801
242	0xbc13cd2b	-0.009021084
243	0xbceabb11	-0.028653653
244	0xbad6013f	-0.0016327276
245	0xbd3cdf7b	-0.046111565
246	0xbd1a6efa	-0.03770349
247	0x3d40f686	0.047110103
248	0xbc41f701	-0.0118386755
249	0x3cf94475	0.03042815
250	0xbae8c410	-0.0017758626
251	0xbd5b28fb	-0.05350588
252	0x3cdc6b41	0.026906611
253	0xbc6b39cd	-0.0143570425
254	0xbcca8b76	-0.024724703
255	0xbd85769c	-0.065167636

lstm.weight_hh_l0 f4 [512, 128]
0	0xb974481f	-0.0002329652
1	0xbd875312	-0.06607641
2	0xbd9fe776	-0.078078195
3	0x3c995eba	0.018721927
4	0xbc995504	-0.018717296
5	0xbd98ebcb	-0.07466849
6	0xbd38ecf6	-0.04514786
7	0xbdcba94e	-0.09944402
8	0xbd0929d1	-0.033487145
9	0xbb561400	-0.003266573
10	0xbd5b0f85	-0.053481597
11	0x3d7619ec	0.060083315
12	0x3cb0f1ce	0.021599676
13	0x3d09f30a	0.033679046
14	0xbd5508dd	-0.052010406
15	0xbd8b0986	-0.06788926
16	0x3d56bb2c	0.052424595
17	0x3dc56995	0.09639279
18	0xbd619978	-0.055078
19	0x3c9b965c	0.018992595
20	0x3d06a4eb	0.03287212
21	0x3daa932c	0.08328852
22	0x3d8a42b0	0.06751001
23	0x3cba62d3	0.022752201
24	0x3d41ba39	0.047296736
25	0x3ddd660c	0.108104795
26	0xbca86878	-0.020557627
27	0xbc548b90	-0.012972727
28	0x3d5aea15	0.053445894
29	0xbc257c1d	-0.010100392
30	0x3dfb36b4	0.12266293
31	0x3bb0e6d7	0.005398612
32	0x3bc3fec4	0.005981298
33	0x3d63a7cd	0.05557995
34	0xbdbbc03a	-0.09167524
35	0x3d467630	0.048452556
36	0xbb00d45f	-0.0019657833
37	0x3cc6e87c	0.024280779
38	0xbc189224	-0.009312186
39	0xbd6eb6b5	-0.05827971
40	0xbdb605b8	-0.088878095
41	0x3b02a7c8	0.0019936431
42	0xbbbdcfaa	-0.0057925778
43	0xbdd22e79	-0.1026277
44	0x3d7c47a4	0.06159176
45	0xbdbb6707	-0.0915051
46	0xba89aa75	-0.0010503071
47	0xbe060738	-0.13088691
48	0xbd1e5682	-0.03865672
49	0x3db95d6a	0.090510204
50	0x3de9e55b	0.11420699
51	0x3d94b70e	0.072614774
52	0x3d86d125	0.0658286
53	0x3de8b594	0.11362758
54	0x3dca4aba	0.09877534
55	0xbda704fa	-0.08155246
56	0xbd5592e6	-0.052142046
57	0xbd9cd095	-0.07656971
58	0xbdddffe3	-0.10839822
59	0xbd3e9e64	-0.04653777
60	0xbd81512a	-0.06314309
61	0xbcb12693	-0.021624839
62	0xbd2fb15a	-0.042893745
63	0xbc9155c9	-0.0177411
64	0x3caa061a	0.020754863
65	0x3dbaf01d	0.09127829
66	0x3db8bfcd	0.09020958
67	0xbc53a1d9	-0.012917005
68	0x3ddb3ab8	0.10704559
69	0x3a2d5f94	0.00066136685
70	0xbcbb44f0	-0.02286002
71	0xbc199bdc	-0.009375539
72	0x3dbc6cb3	0.0920042
73	0xbc4338d9	-0.011915409
74	0x3ba51c47	0.0050387713
75	0xbd3d4275	-0.046205956
76	0xbddcd5d7	-0.10782974
77	0x3ca375d1	0.01995364
78	0x3d33126c	0.04371874
79	0x3d963de5	0.07336024
80	0x3ccd67fe	0.025074001
81	0xbdbcc82b	-0.092178665
82	0xbdb77e1d	-0.08959601
83	0xbdccbfe5	-0.099975385
84	0x3dc184f2	0.094491854
85	0xbc856a07	-0.01628591
86	0x3d08e2be	0.033419363
87	0xbd604025	-0.054748673
88	0xbdc4588e	-0.09587203
89	0x3d84a2d1	0.06476367
90	0xbc763717	-0.015027783
91	0xbba94b0a	-0.005166416
92	0x3da52c0f	0.08065044
93	0xbd3ade79	-0.045622323
94	0x3cf3eb8b	0.029775402
95	0xbc930dcc	-0.017950915
96	0xbc528da5	-0.0128511535
97	0xbbfe2a7f	-0.007756531
98	0xbd316a8d	-0.043314505
99	0x3d578ac0	0.052622557
100	0x3cf417ef	0.029796569
101	0x3d960bec	0.07326493
102	0xbc8e0a7b	-0.017338982
103	0x3caf7ae1	0.021420898
104	0x3db5c662	0.08875729
105	0x3bb582bc	0.0055392664
106	0x3d46ae0b	0.048505824
107	0x3ddf75f0	0.10911167
108	0xbd6eee64	-0.058332816
109	0x3d43884f	0.047737416
110	0xbd80166d	-0.062542774
111	0x3d6a59b1	0.057214443
112	0x3d9bab7a	0.07601066
113	0xbd2642db	-0.040591102
114	0xbd19a1da	-0.03750787
115	0x3dd44727	0.10365134
116	0xbcca7027	-0.024711682
117	0x3cdfce95	0.027320186
118	0xbc94c70d	-0.018161321
119	0xbce91c75	-0.028455952
120	0xbd275ab7	-0.040857997
121	0xbd53be29	-0.051695023
122	0xbc41e17d	-0.011833546
123	0xbddd49d6	-0.10805099
124	0xbcae2a1b	-0.021260312
125	0xb8bea2d2	-9.090234e-05
126	0x3d7d8af8	0.06190011
127	0xbc6c28c0	-0.014414012
128	0x3d58e469	0.052952204
129	0x3c7a51dc	0.015278306
130	0x3daf30e1	0.08554245
131	0xbda215fe	-0.07914351
132	0x3d79d0f3	0.060990285
133	0x3b58d6a9	0.0033086932
134	0x3c7f226b	0.015572171
135	0xbdbf00f6	-0.09326355
136	0xbcce9eac	-0.025222145
137	0xbce467c7	-0.027881516
138	0x3dcc154a	0.09964998
139	0x3b7efe5e	0.003890894
140	0x3d564c75	0.05231901
141	0x3b10cc9a	0.0022094608
142	0x3ba575d4	0.0050494466
143	0xbdc432c3	-0.095799945
144	0x3d25494f	0.040353116
145	0xbd9d479b	-0.07679673
146	0xbd949a51	-0.07255996
147	0xbdc96e9f	-0.098355524
148	0xbc6fd9a3	-0.014639291
149	0xbd9137c9	-0.07090718
150	0xbd7391b7	-0.059465136
151	0x3d4e40ab	0.05035464
152	0xbd114481	-0.03546572
153	0xbd6d428e	-0.0579248
154	0xbcef260a	-0.029192943
155	0x3b0bd239	0.002133502
156	0x3d1840cb	0.037171166
157	0x3d5ec826	0.054390095
158	0x3c93c386	0.018037569
159	0xbb452ed8	-0.0030087736
160	0x3c940faf	0.018073885
161	0x3d07a30f	0.03311449
162	0xbdab7dea	-0.083736256
163	0xbd7fa67d	-0.062414635
164	0xbc1764a3	-0.009240302
165	0xbd819e4c	-0.06329021
166	0xbd1d0e36	-0.03834363
167	0x3a9bce68	0.0011887075
168	0x3d3061aa	0.04306189
169	0x3daf9ba5	0.08574609
170	0xbba25fb1	-0.004955255
171	0xbd800008	-0.06250006
172	0xbbcd397d	-0.0062629567
173	0x3d166d5b	0.036725383
174	0xbdfbd6db	-0.1229684
175	0xbd6236bf	-0.05522799
176	0xbd819913	-0.06328025
177	0xbd509d20	-0.050931096
178	0xbdc068ab	-0.09394964
179	0x3d403c9e	0.04693281
180	0x3d52af21	0.051436547
181	0xbcd0c831	-0.025486084
182	0x3c4d70a9	0.012539067
183	0xbd50a75c	-0.050940856
184	0xbcc0bf8d	-0.023528839
185	0x3d9dca10	0.07704556
186	0x3db2abe7	0.08724194
187	0xbd5a463b	-0.053289633
188	0x3da185fc	0.078868836
189	0xbd654c3e	-0.055980913
190	0xbb0e5be2	-0.0021722247
191	0x3d7f4d9b	0.06232987
192	0x3c77e585	0.015130405
193	0xbcdfae69	-0.027304845
194	0x3d231a40	0.039819956
195	0xbb4e5f36	-0.0031489856
196	0x3cc3aece	0.023887064
197	0xbda90733	-0.08253326
198	0xbceeb452	-0.029138718
199	0x3d28c059	0.041199062
200	0xbd116f44	-0.0355065
201	0xbdc7ba17	-0.09752291
202	0xbd25e844	-0.04050471
203	0x3dadfeef	0.0849589
204	0x3cf37308	0.029717937
205	0x3c1db046	0.009624546
206	0xbc7758ed	-0.015096885
207	0xbd8b2804	-0.06794742
208	0xbdc0f671	-0.09422005
209	0xbde7ab9c	-0.11312029
210	0xbd1f6e5d	-0.03892361
211	0xbdb563a7	-0.08856898
212	0xbc771669	-0.015081027
213	0xbd0e2f18	-0.03471288
214	0x3cdf8b32	0.027288053
215	0x3d4dae2f	0.050214943
216	0xbc5a735a	-0.013333166
217	0x3d584a5d	0.052805293
218	0x3a00cab7	0.00049130194
219	0xbccd9e37	-0.025099857
220	0x3aa6fb8e	0.0012739764
221	0xbd89a13b	-0.067202054
222	0x3ba4609f	0.005016401
223	0xbdae7b5b	-0.08519622
224	0xbda72113	-0.08160605
225	0x3d2b9986	0.04189446
226	0xbc8364f4	-0.01603935
227	0x3ca72be9	0.02040668
228	0xbca3abe9	-0.019979434
229	0xbddac9a0	-0.10682988
230	0xbde2cab9	-0.110738225
231	0x3d101b56	0.03518232
232	0x3da64c18	0.081199825
233	0x39a982e0	0.000323317
234	0x3dd6fb75	0.1049718
235	0xbd0426d1	-0.03226358
236	0x3d8b845c	0.06812355
237	0x3c7e8c41	0.015536369
238	0xbd94dbfe	-0.07268523
239	0x3d2c648c	0.042088076
240	0x3c016162	0.007896753
241	0x3c832706	0.016009819
242	0xbd281396	-0.041034304
243	0xbcb66eaf	-0.022269575
244	0x3c5a6005	0.013328557
245	0xbd018ff5	-0.03163143
246	0x3cc09b2a	0.023511488
247	0xbd26f857	-0.04076418
248	0x3d453d79	0.048154328
249	0x3d3ccc41	0.04609323
250	0x3d4ea2ba	0.050448157
251	0x3d5f8a20	0.054575086
252	0xbd6a0121	-0.057129983
253	0x3ccd3546	0.025049817
254	0xbcb1353f	-0.021631835
255	0x3a9296c5	0.0011183849

lstm.bias_ih_l0 f4 [512]
0	0x3d292fa5	0.041305203
1	0x3cf7986d	0.03022405
2	0xbcf5b778	-0.029994711
3	0x3d9cc82a	0.07655366
4	0x3d42982b	0.0475084
5	0x3d96aa83	0.07356741
6	0x3cca6dbe	0.024710532
7	0xbbe90c65	-0.0071120732
8	0xbcb13a88	-0.021634355
9	0xbc8c25d1	-0.017107876
10	0xbbffd97f	-0.00780791
11	0x3a433adc	0.00074474304
12	0x3da8e699	0.08247108
13	0x3dbccd0d	0.09218798
14	0x3cce4ef7	0.025184138
15	0x3dd67aa1	0.10472608
16	0x3d013590	0.03154522
17	0x3d822a9e	0.06355785
18	0x3d38e132	0.045136638
19	0xbb312286	-0.0027028634
20	0xbd2b5b49	-0.041835103
21	0x3ab566f3	0.0013839885
22	0x3d23e56c	0.040013716
23	0xbcc55f70	-0.02409336
24	0xbcc96520	-0.024584353
25	0x3cdef8c1	0.027218224
26	0x3d3cb464	0.04607047
27	0x3c6942ad	0.014237088
28	0xbcfe814c	-0.031067513
29	0x3d3a961a	0.045553304
30	0xbc66740e	-0.0140657555
31	0x3d352f5f	0.04423463
32	0x3b09d84f	0.002103347
33	0x3dfa5539	0.12223286
34	0x3d2ddeca	0.042448796
35	0xbbcad5c2	-0.0061900327
36	0x3db617a7	0.0889123
37	0xbd331914	-0.04372509
38	0x3d7b0470	0.06128353
39	0xbcfc1abd	-0.030774469
40	0x3d469228	0.04847923
41	0x3e02acff	0.12761305
42	0x3cbeeb3a	0.023305524
43	0x3d7f31e8	0.062303454
44	0x3da38460	0.07984233
45	0xbd2adebe	-0.04171633
46	0x3d67171d	0.056418527
47	0x3c2e2c27	0.010630644
48	0xbc842811	-0.016132386
49	0x3d34bec0	0.044127226
50	0x3c302083	0.010749939
51	0xbd4bdfea	-0.049774088
52	0x3cd0dd51	0.025496157
53	0xbc0fd860	-0.008779615
54	0x3ba179e4	0.0049278606
55	0x3e15d7e0	0.14633131
56	0xbcced9d9	-0.025250362
57	0xbc90889b	-0.017643264
58	0x3da72c05	0.08162693
59	0x3d3a3d61	0.04546869
60	0x3df683dc	0.12036869
61	0xbc947df7	-0.018126471
62	0xbcca5da3	-0.024702853
63	0xbcdc672c	-0.026904665
64	0x3d7304d7	0.059330788
65	0x3dcec427	0.10096007
66	0x3d0b496d	0.03400557
67	0xbd10cfbf	-0.035354372
68	0x3bcaa7e1	0.0061845635
69	0x3def35d7	0.11680191
70	0xbc1780d3	-0.009247023
71	0x3d8feb03	0.07027247
72	0x3d15852d	0.03650396
73	0xbd15db93	-0.036586355
74	0xbd0d8fd2	-0.034560986
75	0x3db41039	0.08792157
76	0x3c875d92	0.01652411
77	0xbbd19347	-0.0063957307
78	0xbc15fd2e	-0.009154601
79	0x3adc84af	0.0016824211
80	0x3dda15d7	0.10648697
81	0xbd280f53	-0.04103024
82	0x3d5f94c5	0.054585237
83	0xbd42aa18	-0.047525495
84	0xba45de26	-0.00075480563
85	0x3db4699b	0.08809205
86	0xbc779390	-0.015110865
87	0x3cfcd564	0.030863471
88	0x3bc7d034	0.006097818
89	0x3a3c9915	0.0007194442
90	0xbc3e64b8	-0.011620693
91	0x3debcc9b	0.11513635
92	0x3de18ce1	0.11013199
93	0x3bfb6fe1	0.007673249
94	0xbd39ac07	-0.045330074
95	0xbcbd43f0	-0.023103684
96	0x3ddc0bf1	0.10744465
97	0x3d6ff812	0.058586188
98	0x3db12b3d	0.08650825
99	0x3da0dd0c	0.07854661
100	0xbd020243	-0.03174044
101	0xbbfa321a	-0.007635367
102	0xbb7390ad	-0.003716509
103	0x3dc233b2	0.09482516
104	0x3d7a5a07	0.061121013
105	0xbc98e79e	-0.018665131
106	0x3def9233	0.11697807
107	0x3cdda5b4	0.027056552
108	0xbc4d9024	-0.012546573
109	0xbba6b15e	-0.005087062
110	0x3db9c162	0.09070088
111	0x3dedb7aa	0.11607297
112	0xbd003ed5	-0.03130992
113	0xbcc3d161	-0.02390355
114	0x3df23c82	0.11827947
115	0x3db8f85e	0.09031747
116	0x3d413375	0.047168214
117	0xbd017cae	-0.031613044
118	0xbd1c8d12	-0.038220473
119	0x3dbe7315	0.09299294
120	0xbd81f293	-0.063450955
121	0x3c80b7ae	0.015712585
122	0x3ddfe187	0.10931688
123	0xbc71d41e	-0.014760045
124	0x3dec963a	0.11552091
125	0xbcf41a85	-0.029797802
126	0x3d5b58ed	0.053551603
127	0x3d8ab092	0.06771959
128	0xbc4be9cc	-0.012445878
129	0xbdb8067b	-0.08985611
130	0x3d365065	0.044510264
131	0x3d300926	0.042977475
132	0x3d3b5c33	0.045742225
133	0x3d3de5b8	0.046361655
134	0x3d5e3863	0.054252993
135	0xbd02dd0a	-0.03194908
136	0xbd550246	-0.05200412
137	0xbd54550e	-0.051838927
138	0xbd2d524e	-0.04231482
139	0xbd76adf1	-0.060224477
140	0x3d0605b2	0.032720275
141	0x3dc186c7	0.09449535
142	0x3c827274	0.015923716
143	0x3d652b76	0.05594965
144	0x3c447d8d	0.011992824
145	0x3d098828	0.033577114
146	0x3da289a4	0.07936409
147	0xbd8fe198	-0.070254505
148	0x3d93d9b5	0.07219259
149	0x3da81da0	0.082087755
150	0xbd8fdfb8	-0.07025093
151	0x3d86e016	0.0658571
152	0x3bcecb37	0.006310846
153	0x3d98f834	0.07469216
154	0xbdac4549	-0.084116526
155	0x3d5e0d14	0.05421169
156	0x3ddeb348	0.10874039
157	0x3cd83fd9	0.026397632
158	0xbd85a75b	-0.06526061
159	0x3d885abf	0.066579334
160	0x3d81299b	0.06306764
161	0x3d9fa6bc	0.07795474
162	0x3d0a076e	0.03369849
163	0xbd506f20	-0.050887227
164	0x3d95a15a	0.07306166
165	0x3d9f7cf5	0.077875055
166	0x3c9eb9f8	0.019375786
167	0x3b5dfefe	0.003387391
168	0x3cd630f5	0.026146391
169	0x3d865a86	0.06560235
170	0x3bbabb10	0.005698569
171	0xbc3b1353	-0.0114181815
172	0x3d6a91c0	0.057267904
173	0x3d1937fd	0.03740691
174	0x3ce28c3e	0.027654763
175	0xbd9095bf	-0.07059812
176	0x3d52204e	0.05130034
177	0x3c8b6ff8	0.017021164
178	0xbd41b318	-0.047289938
179	0x3d93803f	0.072021954
180	0xbd37a099	-0.044830892
181	0x3d9a56c9	0.07536084
182	0xbcd34137	-0.025787933
183	0x3d6a18d1	0.057152573
184	0xbc0668ae	-0.0082036685
185	0x3dbd67d3	0.092483185
186	0xbd23c16a	-0.039979376
187	0xbd732490	-0.05936104
188	0x3d6f7e1f	0.058469888
189	0x3b672962	0.0035272469
190	0x3d981000	0.07424927
191	0x3d0b327e	0.0339837
192	0x3cc51971	0.024059983
193	0xbcd56fc2	-0.026054267
194	0xbcaf160f	-0.021372823
195	0x3ccf5b86	0.025312196
196	0xbd26113e	-0.040543787
197	0x3d8df649	0.06931741
198	0x3d9f5380	0.07779598
199	0xbc181f5a	-0.009284819
200	0x3d6aca96	0.057322107
201	0xbd0e31a9	-0.03471533
202	0x3db9d533	0.09073868
203	0xbcecdf06	-0.02891494
204	0x3dbbb325	0.091650285
205	0x3bcccb52	0.0062498236
206	0x3d8ce167	0.068789296
207	0xbd98399f	-0.07432865
208	0xbd5f969b	-0.054586988
209	0x3d2d0110	0.04223734
210	0x3d45f807	0.04833224
211	0x3d770838	0.060310572
212	0x3ab7c69a	0.001402098
213	0x3cdfc04a	0.02731337
214	0xbcb46d1b	-0.022024682
215	0xbd5f5fd7	-0.05453476
216	0x3b6a1df1	0.0035723413
217	0xbdaf3a5f	-0.08556055
218	0xbd63a536	-0.05557748
219	0xbb839176	-0.004015143
220	0xbd956245	-0.07294134
221	0x3b909d04	0.004413249
222	0xbd8fa7d2	-0.07014431
223	0x3c96ecdc	0.01842349
224	0x3d559a45	0.052149076
225	0x3d27841c	0.040897474
226	0xbb9f62ed	-0.004864088
227	0x3d5a79d6	0.053338848
228	0x3d4fa7c3	0.0506971
229	0x3d66cb86	0.05634644
230	0xbca2a33d	-0.019853229
231	0xbd261ff5	-0.04055782
232	0x3db5865d	0.088635184
233	0xbd28eed7	-0.0412434
234	0xbd8d4073	-0.06897058
235	0x3df96e86	0.12179284
236	0xbd072e80	-0.03300333
237	0xbca3efcb	-0.020011803
238	0xbb16b83c	-0.0022997996
239	0x3c3a0b71	0.011355267
240	0xbd42cbdc	-0.047557697
241	0xbd3e2643	-0.046423208
242	0xbcf7dac4	-0.030255683
243	0xbccd722c	-0.025078855
244	0x3d86d835	0.06584207
245	0xbd809e55	-0.062801994
246	0xbcc3074d	-0.023807192
247	0xbcbcb804	-0.023036964
248	0x3c035da7	0.008017934
249	0xbd2f2b53	-0.042765927
250	0x3da25009	0.07925422
251	0x3df59c5f	0.11992716
252	0x3d3f5d6f	0.046719965
253	0x3b21f0ec	0.002471025
254	0xbb903ae5	-0.004401552
255	0xbb86ae31	-0.0041101207

lstm.bias_hh_l0 f4 [512]
0	0x3d7b6ad6	0.061381184
1	0x3d99f45a	0.075173095
2	0x3d3ab467	0.0455822
3	0x3db05176	0.086092874
4	0x3d2fc45e	0.04291188
5	0xbc327534	-0.010892201
6	0x3d96418b	0.0733672
7	0x3d90a0f5	0.0706195
8	0x3c6aea75	0.0143381255
9	0x3daa4e7b	0.0831575
10	0x3cfdaa0f	0.03096488
11	0x3d86cd94	0.0658218
12	0xbccfe326	-0.025376868
13	0x3e06e3c3	0.13172822
14	0xbd25c097	-0.04046687
15	0x3daf53e5	0.085609235
16	0xbd271b98	-0.0407978
17	0x3d904ec3	0.070462726
18	0x3ca40b7a	0.020025004
19	0xbcd42706	-0.025897514
20	0x3dc0bf81	0.094115265
21	0xbcec7be2	-0.028867666
22	0xbc9cedbf	-0.019156335
23	0x3daaf6bc	0.08347842
24	0x3e0a07b1	0.13479497
25	0xbc3723d0	-0.011177972
26	0xbd34391e	-0.043999784
27	0xbcea8ee0	-0.028632581
28	0xbbd1b057	-0.006399195
29	0xbd40aa65	-0.0470375
30	0x3dc56cba	0.096398786
31	0x3dc2e509	0.09516341
32	0xbd03dcaa	-0.032192864
33	0x3db801c3	0.08984711
34	0x3aca7ab7	0.0015447949
35	0x3c949eb7	0.018142087
36	0xbd25b597	-0.04045638
37	0x3d957267	0.07297211
38	0x3ccd60cf	0.025070576
39	0x3d90a587	0.07062822
40	0x3d31bd33	0.043393325
41	0x3db0d937	0.086351804
42	0x3ded6109	0.115907736
43	0x3b9bf17c	0.004759012
44	0xbd2fccec	-0.042920038
45	0x3db1f4a6	0.08689241
46	0x3d349714	0.04408939
47	0xbd3ef463	-0.046619784
48	0x3da39e28	0.0798915
49	0x3d835ddc	0.06414387
50	0xbc46352c	-0.012097638
51	0x3cf3e3fa	0.029771794
52	0x3ad4b4dc	0.0016228217
53	0x3cb50997	0.0220993
54	0x3dd38786	0.103285834
55	0x3d1ed3fb	0.03877638
56	0x3c27c654	0.010240156
57	0x3ca489f5	0.020085314
58	0x3d941e8a	0.07232387
59	0x3c88d608	0.01670362
60	0x3d8217bb	0.063521825
61	0xbd545d8a	-0.05184702
62	0x3da459e8	0.08024961
63	0x3cd12936	0.025532346
64	0x3ca8fe92	0.020629201
65	0x3d619f05	0.055083293
66	0x3df04026	0.11730985
67	0x3ae075b0	0.0017124917
68	0x3d9dc48e	0.077035055
69	0x3cb7f933	0.022457695
70	0x3ba64b87	0.0050749215
71	0xbd7f1666	-0.06227722
72	0x3d57aa86	0.05265286
73	0x3de15fc7	0.11004596
74	0xbd23cf75	-0.03999277
75	0x3da388d9	0.07985086
76	0x3da8eb7f	0.08248042
77	0xbd2e0466	-0.042484663
78	0xbd395296	-0.045244776
79	0xbd847860	-0.06468272
80	0x3d1addf5	0.03780933
81	0x3ced086b	0.028934678
82	0xbd0ac999	-0.033883665
83	0x3dd20379	0.102545686
84	0x3da1102e	0.07864414
85	0x3dbee198	0.09320372
86	0xbd34ca6f	-0.04413837
87	0xbce6ab7a	-0.028157938
88	0x3de217b9	0.11039681
89	0xbd69f256	-0.057115875
90	0x3cbb2f7c	0.02284979
91	0xbc7cbc40	-0.015425742
92	0x3df89493	0.12137713
93	0x3dbabe0c	0.0911828
94	0xbcfeada6	-0.031088661
95	0x3b929a31	0.0044739475
96	0xbc6d2f55	-0.014476617
97	0xbd21734b	-0.039416593
98	0x3db201e5	0.086917676
99	0x3dfcf361	0.12351108
100	0x3dcf3044	0.10116628
101	0x3cd315ac	0.02576717
102	0xbd6cd6c6	-0.05782201
103	0x3d537c79	0.05163238
104	0x3e00578a	0.12533394
105	0x3dbcf5e1	0.09226585
106	0x3da446d3	0.08021321
107	0x3d211223	0.039323937
108	0x3d53b6d0	0.051688015
109	0xbd4956f8	-0.049155205
110	0xbcd6af9b	-0.026206782
111	0xbc497ab4	-0.012297321
112	0xbbb3ca80	-0.0054867864
113	0x3c4216d1	0.01184626
114	0xbcc8b16a	-0.02449866
115	0x3d082e44	0.033247247
116	0x3d5203c2	0.051273115
117	0x3db39082	0.08767797
118	0xbc89e4f6	-0.01683281
119	0x3cbaa380	0.022783041
120	0x3c2dfab0	0.010618851
121	0xbc787f59	-0.015167081
122	0xbd1f741f	-0.0389291
123	0x3b74f9c3	0.0037380315
124	0x3d3480ea	0.044068255
125	0x3cdedfb6	0.027206283
126	0xbd284857	-0.041084614
127	0xbd3f13da	-0.04664979
128	0x3d2cbde4	0.04217328
129	0xbc74cb40	-0.014941037
130	0x3bda8190	0.006668277
131	0x3cd2dfa5	0.025741408
132	0x3dafb5d4	0.08579603
133	0x3d5e9b1c	0.054347143
134	0xbd4fb07c	-0.050705418
135	0xbd718c63	-0.058971774
136	0xbcd17476	-0.025568228
137	0x3c836c64	0.016042896
138	0x3d0eacb8	0.034832686
139	0xbd0c7c2d	-0.03429811
140	0xbd543d58	-0.051816314
141	0x3d7eb195	0.062181074
142	0xbd945296	-0.072423145
143	0xbccfaa38	-0.025349721
144	0xbd17d1d6	-0.03706535
145	0x3cd029b7	0.025410516
146	0x3d368486	0.044559978
147	0xbd8392dd	-0.06424496
148	0xbcb7e8dc	-0.022449903
149	0x3d9033a3	0.07041099
150	0x3d97b2ad	0.074071266
151	0xbb600ade	-0.0034186165
152	0xbd853e3d	-0.06506012
153	0xbcc67dc9	-0.0242299
154	0x3bb21415	0.005434523
155	0x3dae4e28	0.08511001
156	0xbc2ab64e	-0.010419441
157	0xbd8c1b72	-0.06841172
158	0xbcaa9cce	-0.020826723
159	0x3db961f4	0.09051886
160	0x3db7cd70	0.08974731
161	0xbc850255	-0.016236464
162	0xbda7b251	-0.08188308
163	0x3d66ff4d	0.056395818
164	0x3d9e4f90	0.07730019
165	0xbccbb56a	-0.024866778
166	0x3d79cd5f	0.060986873
167	0x3cd289a5	0.0257004
168	0x3d7ebe9a	0.06219349
169	0x3d22ec09	0.039775882
170	0xbc96a0a9	-0.018387156
171	0x3d5c1f9d	0.053741086
172	0xbdab9adb	-0.08379146
173	0xbd90ecd3	-0.07076421
174	0x3cb63b48	0.022245064
175	0x3af0906b	0.0018353587
176	0xbcd5bab7	-0.02609001
177	0x3da1642e	0.07880436
178	0xbd2ef6de	-0.0427159
179	0x3cd9f350	0.026605278
180	0xbd6adc46	-0.057338975
181	0x3d9dc727	0.07704001
182	0x3d9844ab	0.074349724
183	0x3dfd6748	0.12373215
184	0xbc57c4e8	-0.013169505
185	0x3dac5c63	0.08416059
186	0xbd00e99b	-0.031472784
187	0x3d13191f	0.03591263
188	0xbbfc68d9	-0.0077029285
189	0x3da24058	0.07922429
190	0xbd7de6c9	-0.061987672
191	0x3d46f988	0.048577815
192	0x3d38e3fe	0.045139305
193	0xbd11bc17	-0.035579767
194	0x3dd893fa	0.10575099
195	0x3c44f035	0.01202016
196	0xbcb44d62	-0.022009555
197	0x3bbbc4ae	0.005730233
198	0x3cefa937	0.029255493
199	0x3bf74ef7	0.007547255
200	0x3d4df4e4	0.050282374
201	0x3d639a9d	0.055567373
202	0x3db3bbf3	0.08776083
203	0x3dd60374	0.104498774
204	0x3d994588	0.07483965
205	0xbd668ab8	-0.056284636
206	0x3bd85eec	0.0066031124
207	0xbd8a5427	-0.06754332
208	0x3d8f675e	0.070021376
209	0x3df217ef	0.11820971
210	0xbd50a005	-0.050933857
211	0xbcb6ac2c	-0.022298895
212	0x3d550788	0.052009135
213	0x3d63d664	0.05562438
214	0x3d870141	0.06592036
215	0x3da7c1dc	0.081912726
216	0x3c6e596f	0.01454769
217	0x3c4ab1b1	0.0123714665
218	0xbd87cb6b	-0.06630596
219	0xbd0e2884	-0.034706607
220	0xbc568443	-0.013093057
221	0xbd9dcd8e	-0.07705222
222	0x3ba45733	0.005015278
223	0xbb4a7fa2	-0.003089883
224	0x3d9719af	0.07377946
225	0x3d3609f4	0.044443086
226	0x3dd95f39	0.106138654
227	0xbcab26a5	-0.02089245
228	0x3d950b61	0.07277561
229	0x3dd07720	0.10178971
230	0xbd5a5c69	-0.053310785
231	0x3d9d0f51	0.07668937
232	0x3c9bb80e	0.019008663
233	0xbc98854b	-0.018618247
234	0x3db54073	0.08850183
235	0x3e000c71	0.12504746
236	0xbd6d4865	-0.05793037
237	0x3ce26a3e	0.02763855
238	0xbcc35c44	-0.023847707
239	0xbd35df5c	-0.044402465
240	0xbdb1d28e	-0.08682738
241	0xbd18b256	-0.03727945
242	0x3d604cc4	0.05476071
243	0xbd63dbcc	-0.055629537
244	0x3d117436	0.035511218
245	0xbd4bb814	-0.049736097
246	0x3b58fec6	0.0033110841
247	0xbd24eda1	-0.040265683
248	0x3d612f0f	0.05497652
249	0xbd4381a2	-0.04773105
250	0xba0e4708	-0.00054274546
251	0x3da031ff	0.07822036
252	0x3d8e5cc5	0.06951288
253	0xbdac02c0	-0.08398962
254	0xbd2295d0	-0.039693654
255	0x3cc986ad	0.024600351

mlp_head.0.weight f4 [64, 128]
0	0xbd1b783a	-0.037956454
1	0xbdb74178	-0.08948034
2	0xbde2a916	-0.11067407
3	0x3cf06a9f	0.029347716
4	0x3d9e801f	0.07739281
5	0xbcc1fae9	-0.023679214
6	0x3df80a64	0.12111357
7	0x3c0ad2e1	0.008473129
8	0x3dc7b2ec	0.097509235
9	0xbcbc44a5	-0.022981951
10	0xbdb41b57	-0.08794277
11	0xbdc8f366	-0.098120496
12	0xbceab1c4	-0.028649218
13	0x3ddc2d6c	0.10750851
14	0xbd8ef873	-0.06980982
15	0x3c566cb7	0.013087443
16	0x3dc6140a	0.09671791
17	0xbd39e14c	-0.045380875
18	0x3c95259b	0.018206408
19	0x3df6a608	0.12043387
20	0xbdc93b89	-0.098258086
21	0x3d6d1bee	0.057887964
22	0xbd6ab40d	-0.057300616
23	0xbd2845b0	-0.041082084
24	0x3dd181f3	0.10229864
25	0x3db9df5a	0.09075804
26	0xbd749be3	-0.059718978
27	0x3d1d12d2	0.038348027
28	0xbd8f68d9	-0.0700242
29	0x3d588a16	0.052866064
30	0xbd3f82e3	-0.046755683
31	0x3d8471d4	0.064670235
32	0xbdd9fd63	-0.10644033
33	0xbd00ef9d	-0.031478513
34	0xbc08b4c6	-0.008343881
35	0xbcd7b755	-0.026332537
36	0xbc46bfc9	-0.012130686
37	0xbd9ffecc	-0.078122705
38	0xbdc6bb85	-0.09703735
39	0xbc8997f7	-0.016796095
40	0xbc3bf5a8	-0.011472143
41	0xbd63eb39	-0.055644248
42	0xbbd86f65	-0.006605076
43	0xbd117426	-0.03551116
44	0xbd064ff4	-0.032791093
45	0x3d052145	0.03250243
46	0x3d5e8306	0.054324172
47	0xbbb832c9	-0.0056212884
48	0xbd38998b	-0.045068305
49	0x3d7b05b0	0.06128472
50	0x3d486708	0.048926383
51	0xbc82698e	-0.015919473
52	0xbcd5f884	-0.026119478
53	0x3b18f05f	0.0023336632
54	0xbc050066	-0.008117771
55	0x3d7e503e	0.062088244
56	0xbd7f5a75	-0.062342126
57	0xbcaecf2f	-0.021339027
58	0xbda0a89b	-0.07844659
59	0x3bfd11a5	0.0077230507
60	0xbda1a374	-0.07892504
61	0x3d03ee1f	0.03220951
62	0xbdae5ffe	-0.08514403
63	0x3d6b44a7	0.05743852
64	0x3d26a8b3	0.040688228
65	0xbc5f59f5	-0.013632287
66	0x3c95e5ef	0.018298117
67	0xbddace02	-0.10683824
68	0x3cd4b55f	0.02596539
69	0x3d41e595	0.047338087
70	0x3d29833b	0.041384917
71	0x3d119560	0.035542846
72	0xbd052656	-0.032507263
73	0x3dc3b8fb	0.095567666
74	0x3d41a258	0.047273964
75	0x3d827170	0.06369293
76	0x3d76521b	0.060136896
77	0xbcfc5a76	-0.030804854
78	0xbda1be5f	-0.078976385
79	0xbd4d41f6	-0.050111733
80	0x3c006f23	0.007838997
81	0x3dbaeb7f	0.091269486
82	0x3d98a573	0.07453432
83	0x3d9f6854	0.07783571
84	0xbd7dac19	-0.061931703
85	0x3b21c796	0.0024685613
86	0x3c94ae8f	0.018149642
87	0x3d96b446	0.07358603
88	0x3d76dff1	0.06027216
89	0x3d5ad8c9	0.0534294
90	0xbc485a17	-0.01222851
91	0xbdbda17c	-0.09259316
92	0xbc720d2b	-0.014773647
93	0xbda30c2a	-0.079613045
94	0xbda03b4c	-0.0782381
95	0xbac7b125	-0.0015235288
96	0x3dcd22f8	0.100164354
97	0xbd8554ae	-0.06510292
98	0x3d4a12a8	0.0493342
99	0x3ce58721	0.028018536
100	0xbd16f86b	-0.036858004
101	0xbce148a5	-0.02750046
102	0xbcc8c91d	-0.02450996
103	0xbdcbb249	-0.099461146
104	0x3bc5ed2d	0.0060402364
105	0xbdbbee7e	-0.09176348
106	0xbd88801d	-0.06665061
107	0xbd15efd5	-0.036605675
108	0x3c3683eb	0.01113985
109	0x3dbf2ebf	0.09335088
110	0x3cf52c27	0.02992828
111	0x3d5e3a90	0.05425507
112	0x3d856bef	0.06514727
113	0xbda9dff8	-0.08294672
114	0xbde964d6	-0.11396186
115	0x3da1f2b9	0.07907624
116	0xbcc0f8ef	-0.0235562
117	0xbc754a6e	-0.014971359
118	0x3cc19d66	0.023634624
119	0x3d91a59d	0.07111666
120	0xbdbc70ff	-0.0920124
121	0xbdecb088	-0.11557108
122	0xbcf0623b	-0.029343715
123	0xbd795f93	-0.060882162
124	0x3d8c3405	0.068458594
125	0xbdc19ee2	-0.094541326
126	0xbdbc69c7	-0.09199863
127	0x3dee7e16	0.11645143
128	0xbd89725b	-0.06711265
129	0x3bac7784	0.005263271
130	0x3d281338	0.041033953
131	0xbc2ac89b	-0.010423805
132	0xbc62e1ae	-0.013847752
133	0x3db144f4	0.0865573
134	0xbccfc18f	-0.02536085
135	0xbd2838c2	-0.041069753
136	0xbd7c4f8d	-0.061599303
137	0xbd13cdc3	-0.0360849
138	0x3dca19b4	0.09868184
139	0x3d772705	0.060339946
140	0x3d86fbff	0.06591033
141	0x3dcc5d5c	0.099787444
142	0x3dd4d16d	0.10391507
143	0xba8cd1c1	-0.0010743664
144	0x3d3f2664	0.04666747
145	0xbd34f8c1	-0.044182543
146	0x3d907bb1	0.07054842
147	0xbcc7db25	-0.024396488
148	0x3b8f7935	0.0043784627
149	0xbac5e5fa	-0.0015098446
150	0x3dd0bd18	0.10192317
151	0x3dad0ce7	0.084497266
152	0x3dca1f32	0.09869231
153	0xbd8eba2d	-0.06969104
154	0x3db1829b	0.08667489
155	0xbdba6a32	-0.091022864
156	0xbccd517e	-0.025063273
157	0xbcb0a9b2	-0.021565292
158	0x3cab8f04	0.020942219
159	0xbd8b7329	-0.068090744
160	0xbd6c076f	-0.057624277
161	0xbb9845bb	-0.0046469844
162	0x3c8d8d3d	0.017279262
163	0x3d66d6f9	0.056357358
164	0x3d570246	0.052492402
165	0x3b20f234	0.0024558427
166	0xbcd755bd	-0.026286
167	0xbd6e5bc9	-0.058193002
168	0xbd49141f	-0.049091455
169	0x3c94a851	0.018146666
170	0xbd760b90	-0.06006962
171	0xbbc6d571	-0.0060679247
172	0x3d0f5b5e	0.034999244
173	0x3cf4f9e0	0.029904306
174	0xbdaa1561	-0.08304859
175	0x3c89c8be	0.016819354
176	0x3c452bbc	0.012034353
177	0xbd357334	-0.04429932
178	0x3d17a52e	0.037022762
179	0x3d37caf8	0.0448713
180	0xbd0631e9	-0.03276244
181	0x3d06737e	0.032824986
182	0xbd8b48f0	-0.06801021
183	0xbc77dbb6	-0.015128067
184	0x3c0aeae3	0.008478853
185	0x3cbc3cdf	0.022978244
186	0x3d9d2f37	0.07675021
187	0x3c8c1e0c	0.017104171
188	0xbda3e0b6	-0.080018446
189	0xbd6c6721	-0.05771554
190	0x3cb078d0	0.021541983
191	0xbda3029a	-0.079594806
192	0x3c6b82d1	0.014374451
193	0x3ccbc76c	0.024875365
194	0xbbecdb46	-0.007228288
195	0xbbb34a38	-0.005471494
196	0x3811bb4a	3.474512e-05
197	0xbce735f2	-0.028223965
198	0xbd387985	-0.045037765
199	0xbcd27a79	-0.025693165
200	0x3c858137	0.016296966
201	0xbdc5e67d	-0.09663103
202	0x3d737a87	0.059443023
203	0xbd1e05cd	-0.03857975
204	0xbbd6e47d	-0.0065579996
205	0xbd277bd0	-0.04088956
206	0xbc9cfce0	-0.019163549
207	0xbb851c6b	-0.0040622256
208	0xbba4f104	-0.005033614
209	0x3cdaf3a3	0.026727503
210	0x3d8f0e51	0.069851525
211	0xbd2e40bb	-0.0425422
212	0x3c6a83b6	0.014313629
213	0xbd941b41	-0.07231761
214	0xbdaac44a	-0.083382204
215	0x3dd1b2c6	0.102391765
216	0x3c450d9e	0.012027172
217	0x3c4d9661	0.01254806
218	0x3ca06d34	0.019583322
219	0xbce4c530	-0.027926058
220	0xbc929156	-0.017891567
221	0x3d59772f	0.053092178
222	0xbd55b581	-0.05217505
223	0x3a7569f6	0.0009361798
224	0x3aebc8db	0.0017988937
225	0xbdd4fec1	-0.10400153
226	0x3c9224b6	0.01783977
227	0xbd3657d5	-0.044517357
228	0xbc4b1f29	-0.012397566
229	0xbdb5f8f6	-0.08885376
230	0xbd85a517	-0.06525629
231	0x3d9a59d7	0.07536667
232	0xbd9d57e0	-0.076827765
233	0xbcf76610	-0.030200034
234	0x3ccb0a91	0.024785312
235	0xbc0be2db	-0.008537973
236	0xbdd443cb	-0.10364493
237	0x3d144c92	0.036205836
238	0xbbbec75f	-0.0058221067
239	0x3d9f4293	0.0777637
240	0x3b29f97c	0.0025936058
241	0xbd0ace7b	-0.03388832
242	0x3db698a7	0.08915835
243	0xbd51def3	-0.05123801
244	0xbcd38e07	-0.02582456
245	0xbcc9fc85	-0.024656544
246	0xbd30cf75	-0.043166596
247	0xbcfe9687	-0.031077636
248	0x3db5318c	0.08847341
249	0x3da48efc	0.080350846
250	0x3cd7d27e	0.026345488
251	0x3c876a61	0.016530218
252	0xbbf013cf	-0.00732658
253	0x3d2563e8	0.04037848
254	0x3d6e8b4f	0.058238324
255	0x3d744faa	0.059646286

mlp_head.0.bias f4 [64]
0	0xbd70fd9e	-0.05883562
1	0x3d2bf874	0.04198499
2	0x3a89c4f1	0.0010510964
3	0x3dc1a562	0.094553724
4	0xbca7e554	-0.020495094
5	0xbc96cf31	-0.018409343
6	0x3d0f4753	0.03498013
7	0x3ddf8b32	0.10915221
8	0x3dd84231	0.105595
9	0x3baaa301	0.00520742
10	0xbce17752	-0.027522717
11	0x3dbeefed	0.09323106
12	0xbc834865	-0.016025731
13	0x3db56d63	0.088587545
14	0x3c212c9e	0.009837298
15	0x3d86ecfd	0.06588171
16	0x3d8fed64	0.070277005
17	0x3d4d6f92	0.05015523
18	0xbc08329d	-0.008312848
19	0x3d2aeaf1	0.041727964
20	0x3debe216	0.11517732
21	0x3d05abb0	0.032634437
22	0x3d532306	0.051547073
23	0x3dc148de	0.094377264
24	0x3db98e59	0.09060354
25	0xbd74056b	-0.05957548
26	0x3d55c82e	0.05219286
27	0xbd590472	-0.052982755
28	0x3dc16926	0.094438836
29	0xbd600a81	-0.054697517
30	0xbcf26d31	-0.029593082
31	0x3dc6b055	0.097016014
32	0x3cbacea1	0.022803606
33	0xbcf8f111	-0.030388387
34	0x3d9f3c4a	0.07775171
35	0x3de79d1f	0.11309265
36	0x3d4f6710	0.050635397
37	0xbd2d5aa4	-0.04232277
38	0xbd2b5eba	-0.041838385
39	0xbb5c8925	-0.003365108
40	0x3b847eae	0.0040434217
41	0xbc73a6ee	-0.014871342
42	0xbc5adf5e	-0.013358919
43	0x3d86e38c	0.0658637
44	0x3d535593	0.05159528
45	0x3dd032cd	0.101659395
46	0x3dba0c45	0.090843715
47	0x3c7625f8	0.015023701
48	0x3d15d07a	0.036575772
49	0x3d424a8a	0.047434367
50	0x3dd2c71b	0.102918826
51	0xbc787697	-0.015164993
52	0x3ca6a3b5	0.020341733
53	0x3dae4bc4	0.08510545
54	0x3d5206a2	0.051275857
55	0xbb1dcaa9	-0.0024077094
56	0xbd15bb7d	-0.036555756
57	0xbd1ef247	-0.038805272
58	0x3d6f06d2	0.058356114
59	0x3d862295	0.06549565
60	0x3de4b2b4	0.111668974
61	0xbd3fd1a7	-0.0468308
62	0x3da887ec	0.0822905
63	0x3dcfc4f3	0.10144987

mlp_head.2.weight f4 [64, 64]
0	0xbd8c31f1	-0.06845463
1	0xbd8ef8ac	-0.06981024
2	0x3e22cb32	0.15897825
3	0x3dd04b37	0.10170596
4	0x3d8745f1	0.06605137
5	0x3cace6fb	0.021106234
6	0x3df58997	0.11989134
7	0x3d6fffdb	0.058593612
8	0x3d9947ad	0.07484374
9	0xbdd4b6c2	-0.10386421
10	0xbcfa88a2	-0.03058273
11	0x3cfcb55e	0.030848201
12	0x3d0d3ee0	0.03448379
13	0x3dce7b03	0.100820564
14	0xbd20f03b	-0.0392916
15	0x3dfd488e	0.12367354
16	0xbdaf90e4	-0.085725576
17	0x3e14e668	0.14541018
18	0xbdda5223	-0.106601976
19	0xbd49a1d0	-0.049226582
20	0x3dea1692	0.11430086
21	0x3dee11c4	0.11624482
22	0x3d1a03db	0.037601333
23	0x3e1c904d	0.15289421
24	0x3e1a467b	0.15065949
25	0x3d614bd8	0.05500397
26	0xbe00a1b6	-0.12561688
27	0x3e3cbae7	0.18430673
28	0xbdb5c0b2	-0.08874644
29	0xbd86dfc6	-0.0658565
30	0x3d8da765	0.069166936
31	0xbe042898	-0.1290611
32	0xbcf813eb	-0.030282935
33	0x3de8d54c	0.11368808
34	0xbddb49bd	-0.10707424
35	0x3cb7d9b6	0.02244268
36	0xbd3c41ba	-0.04596112
37	0x3cde6707	0.027148737
38	0x3b9a63a0	0.0047115833
39	0x3dbf6701	0.09345818
40	0xbe013aec	-0.12620133
41	0x3caa0fa2	0.020759407
42	0xbd9cb5e9	-0.07651884
43	0x3d1a78fb	0.037713032
44	0x3d7fcb58	0.062449783
45	0x3dc22420	0.094795465
46	0xbd8937b7	-0.0670008
47	0xbdc9508d	-0.09829817
48	0x3b34ce6f	0.0027588864
49	0x3b75c0aa	0.003749887
50	0x3d092530	0.03348273
51	0x3df988f3	0.12184324
52	0xbdd79d0b	-0.105280004
53	0xbc92e70f	-0.017932443
54	0x3db6e9dc	0.08931324
55	0xbb5e2780	-0.0033898056
56	0x3e2ac7f5	0.1667784
57	0xbd077ed3	-0.033079933
58	0x3cefc16c	0.029267035
59	0xbd0764a2	-0.033054955
60	0xbcac3780	-0.021022558
61	0x3d160448	0.036625177
62	0x3df51bea	0.11968215
63	0xbb793ef9	-0.003803192
64	0xbd893c7f	-0.06700992
65	0x3d1428f3	0.036171865
66	0x3db9be1c	0.090694636
67	0xbce4d6e6	-0.027934503
68	0x3b99e3a1	0.004696325
69	0x3daf6d56	0.08565776
70	0xbdf0dc1c	-0.117607325
71	0xbde24d5e	-0.11049913
72	0xbd4b8e4b	-0.049696248
73	0x3d78b8b0	0.060723007
74	0x3dd7fabf	0.10545873
75	0x3d4aab1d	0.049479593
76	0xbda1ffd0	-0.079101205
77	0x3d800a00	0.06251907
78	0xbd6694b0	-0.056294143
79	0x3d73fa18	0.05956468
80	0x3e017952	0.12643936
81	0xbdb2fa87	-0.087391905
82	0x3dd24eca	0.10268934
83	0xbd9a4569	-0.0753277
84	0xbdfdc51b	-0.123911105
85	0xbd4eb544	-0.050465837
86	0x3c0365bd	0.008019862
87	0x3c3dc052	0.011581497
88	0x3d44b5b8	0.048024863
89	0x3c889877	0.016674263
90	0x3db253bb	0.087073766
91	0xbd8ee18c	-0.069766134
92	0x3c3d8aea	0.011568764
93	0x3ccd8a97	0.025090499
94	0xbdad0934	-0.08449021
95	0x3d435566	0.047688864
96	0xbc707c26	-0.014678037
97	0xbc5bbbe6	-0.013411498
98	0x3db40eba	0.08791871
99	0xbc3c1fa2	-0.011482151
100	0x3dd1f015	0.1025087
101	0x3d318d53	0.043347668
102	0xbb2d5449	-0.0026447943
103	0xbc7b6cfd	-0.015345809
104	0x3df7a6d8	0.1209237
105	0x3b6e7e3b	0.0036391157
106	0x3d995365	0.07486609
107	0xbd86042e	-0.06543766
108	0xbd1f4255	-0.03888162
109	0xbd4b1ddd	-0.049589027
110	0x3d893fe5	0.0670164
111	0xbd25ded1	-0.040495697
112	0xbd24341d	-0.04008876
113	0xbd749a1f	-0.059717294
114	0x3df6b627	0.120464616
115	0x3d1f9bc3	0.038966905
116	0x3d1108a6	0.03540864
117	0x3d021d59	0.03176627
118	0x3dcf8ccc	0.10134277
119	0xbda24911	-0.079240926
120	0x3d280e5d	0.041029323
121	0xbd8aec50	-0.06783354
122	0xbdd15078	-0.10220426
123	0xbdfa90b1	-0.12234629
124	0xbc9f6c4d	-0.019460822
125	0xbd63805c	-0.055542335
126	0x3b9df89a	0.0048208954
127	0x3db38a22	0.08766581
128	0xbd3296d5	-0.043600876
129	0x3df2f581	0.118632324
130	0xbe003e74	-0.12523824
131	0x3bae9531	0.0053278436
132	0xbda2450a	-0.079233244
133	0xbdc51260	-0.096226454
134	0x3d59d2e6	0.053179644
135	0xbda896ea	-0.082319096
136	0xbd903125	-0.070406236
137	0x3deab6e8	0.11460668
138	0x3d6b47f9	0.057441685
139	0x3da29de6	0.07940273
140	0x3df355a7	0.11881571
141	0x3d411873	0.047142457
142	0xb9671b96	-0.00022040153
143	0x3d4caa3b	0.049967032
144	0xbd3824f7	-0.044957127
145	0xbd85ffea	-0.06542952
146	0xbd731579	-0.05934665
147	0xbb192d32	-0.0023372886
148	0x3da9e4e8	0.082956135
149	0xbdeb1dde	-0.11480306
150	0x3d9ae9e6	0.07564144
151	0xbd27ebf2	-0.0409965
152	0x3d5d03d6	0.053958736
153	0xbe01ae89	-0.12664236
154	0xbdeebc9d	-0.11657069
155	0xbd6c57b4	-0.057700828
156	0xbd3bd730	-0.045859516
157	0x3d8a977c	0.067671746
158	0xbd5b9c4d	-0.053615857
159	0x3df57423	0.11985042
160	0xbbde6759	-0.0067872223
161	0x3d5f5c01	0.0545311
162	0x3dcc9770	0.09989822
163	0xbbcef01c	-0.0063152444
164	0xbdfd627e	-0.123723015
165	0x3ddc1760	0.10746646
166	0xbddc97e4	-0.10771158
167	0x3d8db860	0.06919932
168	0x3d2de40f	0.04245382
169	0x3d089cae	0.033352546
170	0xbc7bb9f0	-0.015364155
171	0xbd81121b	-0.063022815
172	0xbd865968	-0.06560022
173	0x3bdf4ef1	0.0068148305
174	0x3ddfb8b2	0.109239
175	0xbdac9eed	-0.0842875
176	0xbdca9dac	-0.09893355
177	0xbdeef9ba	-0.11668725
178	0xbd9b75d8	-0.07590836
179	0x3df624ec	0.12018761
180	0x3dc87f1d	0.0978987
181	0x3d103474	0.035206273
182	0xbd83d287	-0.06436639
183	0xbd91f538	-0.0712685
184	0x3d2a56a7	0.041586544
185	0x3d9cfdcc	0.076655954
186	0x3d188812	0.03723914
187	0xbdb365dc	-0.087596625
188	0x3df0198d	0.117236234
189	0xbbde028a	-0.006775205
190	0x3d9f0f40	0.077665806
191	0x3d26a990	0.04068905
192	0x3df25e07	0.118343405
193	0x3d906598	0.070506275
194	0x3cfd3eca	0.03091373
195	0xbd1d6f19	-0.03843603
196	0xbddc092e	-0.107439384
197	0x3d6bff10	0.057616293
198	0x3cc5279b	0.024066737
199	0xbc6c2fdf	-0.01441571
200	0xbdbc98d0	-0.09208834
201	0xbd2d5ab8	-0.042322844
202	0xbd540e05	-0.051771183
203	0xbd39486d	-0.045235086
204	0xbd8d7e19	-0.06908817
205	0x3d772400	0.060337067
206	0x3daff9fa	0.08592601
207	0xbd1bc58f	-0.038030203
208	0xbcb73997	-0.022366328
209	0x3d6624e0	0.05618751
210	0x3ceb927b	0.02875637
211	0xbdc520f7	-0.09625428
212	0x3d9f794d	0.07786808
213	0x3daaaf9a	0.083342746
214	0xbdb84726	-0.089979455
215	0xbda0220f	-0.07818996
216	0xbd8ac771	-0.06776322
217	0x3c0facb0	0.008769199
218	0x3dbaf6b0	0.09129083
219	0xbc34c55f	-0.011033385
220	0xbda1e109	-0.0790425
221	0xbce6e51f	-0.028185425
222	0xbdd10d7a	-0.102076486
223	0xbb167149	-0.0022955707
224	0x3d8d5aa7	0.06902056
225	0xbdfab926	-0.122423455
226	0x3db72e41	0.08944369
227	0xbc13fcfd	-0.009032485
228	0x3d56b42a	0.05241791
229	0xbd9f4a2e	-0.077778205
230	0x3d7f5038	0.062332362
231	0xbd32a681	-0.04361582
232	0xbde72c70	-0.11287773
233	0xbb4fce0b	-0.0031708505
234	0x3cdb23ca	0.026750464
235	0x3c31ad4a	0.010844538
236	0x3d37b0ec	0.04484646
237	0xbd801532	-0.06254043
238	0xbd6d35cc	-0.057912633
239	0x3ce1e938	0.027577028
240	0xbdcde70e	-0.10053836
241	0x39c331d9	0.00037230438
242	0x3d50eaf9	0.051005337
243	0x3d3f9acc	0.046778485
244	0x3d83fcfb	0.064447366
245	0xbd44d36b	-0.048053186
246	0x3ce5a596	0.02803306
247	0x3d9b74d4	0.075906426
248	0x3d96885b	0.073502265
249	0x3d2c1888	0.042015582
250	0xbdd704b4	-0.10498944
251	0xbd9bb7df	-0.0760343
252	0xbde8e5f1	-0.11371983
253	0x3cd529d8	0.02602093
254	0x3b6eb691	0.0036424736
255	0x3dbe0a7f	0.09279346

mlp_head.2.bias f4 [64]
0	0x3e027935	0.1274155
1	0xbb8d4afa	-0.0043119164
2	0xbca2e499	-0.019884394
3	0xbd6e9058	-0.058243126
4	0x3d2a1b42	0.0415299
5	0x3dcb1208	0.099155486
6	0xbe054582	-0.13014796
7	0x3b576fdb	0.0032873068
8	0x3c744d6f	0.01491104
9	0x3cdd1c6d	0.026991094
10	0x3c7c0daa	0.015384117
11	0xbc291eb3	-0.010322261
12	0x3cbf3b71	0.023343774
13	0x3d837dca	0.06420477
14	0x3d070303	0.032961857
15	0x3d9bbf11	0.076048024
16	0x3bb866b1	0.005627476
17	0xbd995fe5	-0.074889936
18	0xbc940d38	-0.01807271
19	0xbd7e8b9e	-0.062144868
20	0x3c053617	0.008130572
21	0x3d5bba9b	0.053644758
22	0xbd7f5c81	-0.062344078
23	0x3cc54c4d	0.024084235
24	0x3e01e999	0.12686767
25	0x3d2a7e55	0.041624386
26	0xbcb8a381	-0.022538902
27	0x3b0f1f80	0.0021838844
28	0xbd9169de	-0.07100271
29	0xbd42dda5	-0.047574658
30	0xbca52163	-0.020157522
31	0xbd9ae432	-0.07563056
32	0xbd4c700e	-0.04991155
33	0xbdb1a010	-0.086731076
34	0xbcc42e58	-0.02394788
35	0x3df74a6d	0.120747425
36	0xbdbd9aef	-0.09258067
37	0x3e02beaf	0.12768053
38	0x3dedba5c	0.11607811
39	0x3d618aa8	0.055063874
40	0xbd879d5f	-0.06621813
41	0x3c0ccb8d	0.008593452
42	0x3dd1e380	0.1024847
43	0x3d374f65	0.04475345
44	0xbd61fccc	-0.055172727
45	0x3cd67f57	0.026183767
46	0xbd63b46a	-0.055591978
47	0x3e0a80a1	0.1352563
48	0x3ddf103d	0.10891769
49	0x3dae1fd5	0.08502165
50	0x3df60ae9	0.120138
51	0x3d9a125e	0.075230345
52	0xbd20bf6d	-0.039245058
53	0x3c3c3e78	0.011489503
54	0x3d682dd4	0.05668433
55	0x3da8071d	0.08204482
56	0xbbf06735	-0.007336522
57	0x3d0480c6	0.03234937
58	0x3dfad651	0.12247909
59	0x3d979405	0.07401279
60	0xbdbc41f7	-0.09192269
61	0x3cc663f2	0.02421758
62	0x3df4759e	0.11936496
63	0x3dd6c232	0.104862586
