runs/8_hour_forecasting/130/best_model.pt (torch, 341113 bytes, 6 tensors)

net.0.weight f4 [64, 1246]
000000 d2 53 b1 3c c4 bc fe 3c b0 35 d2 3a c2 3b 07 3d
       0.021646414 0.03109587 0.0016037729 0.033015974
000010 33 2b f2 ba 41 16 1c 3c 3b 84 72 bc f6 83 bb 3c
       -0.0018476009 0.00952679 -0.014802034 0.022890072
000020 45 e3 8d 3c 04 88 01 bc 0e 99 8a 3c 95 85 76 3c
       0.017320285 -0.007905964 0.016918685 0.015046497
000030 40 26 ea 3c fd e1 1e 3c 52 16 56 3c 93 eb 68 ba
       0.028582692 0.0096974345 0.013066845 -0.0008885201
000040 6e b1 e0 3c 35 5d 01 3d 7a 9e bd bb 62 9b e9 3b
       0.027428355 0.03158303 -0.005786714 0.007129119
000050 3d f3 18 bc 55 f2 28 3c b3 3b 5d 3b 30 22 d5 3c
       -0.009335336 0.010311683 0.0033757507 0.026017278
000060 f0 03 a6 bc b9 e2 d7 bb 73 89 7c bb 76 cd d1 ba
       -0.02026555 -0.0065883067 -0.0038534075 -0.0016006667
000070 99 4c a1 ba 8e ff 85 bc 2d ae dc 3c 10 46 52 bc
       -0.0012306153 -0.01635721 0.026938522 -0.012834087
000080 ef e6 aa 3c 6b 90 a7 3c 72 f5 82 bb 0e b7 44 3c
       0.02086207 0.020454606 -0.0039965445 0.012006534
000090 9a 72 35 ba fe 08 b7 3c a9 a1 f9 36 6f 87 8c bc
       -0.0006921679 0.022343155 7.439598e-06 -0.017154424
0000a0 0b 71 27 3c 81 f0 b5 bb 28 66 af bb 5c e8 ac 3c
       0.010219823 -0.005552352 -0.005352754 0.021106891
0000b0 69 24 a0 3c 81 72 cd bc f3 ea 01 3c c0 d3 d2 bb
       0.019548612 -0.025079014 0.007929551 -0.006433934
0000c0 2c c8 23 3c 7c c5 82 bc 72 a2 8e bc e5 a7 82 bc
       0.009996455 -0.015963309 -0.017411444 -0.015949199
0000d0 82 34 d9 bc eb 09 dd 3c cc 29 2f 3c ff 0a 53 3c
       -0.026514295 0.026982268 0.0106911175 0.01288104
0000e0 5d 1a 74 3c a8 fd 19 bc cb 1d a9 3c dd a2 8f bc
       0.014898864 -0.009398855 0.02064409 -0.017533714
0000f0 d6 66 01 bb 14 32 de bc 35 0f 44 3c f2 a6 89 bb
       -0.0019745133 -0.027123488 0.011966516 -0.0042008096
000100 f5 a7 f8 3b 2b 15 7c bb d1 88 cc 3c 56 f6 85 bc
       0.0075883814 -0.0038464766 0.024967583 -0.016352814
000110 74 7b 67 bc aa a7 a7 bc d2 94 13 3d c6 79 63 3c
       -0.014128555 -0.02046569 0.036030598 0.0138840135
000120 87 3b 1d 3d 2e a4 2a bc 4b ef b7 bc 2d 84 b4 bc
       0.038386848 -0.01041512 -0.022452971 -0.022035683
000130 d7 89 52 bc 58 23 29 3c 78 e2 84 3c ca 5c 11 3d
       -0.012850246 0.010323368 0.01622127 0.03548888
000140 c0 9f d5 bb 27 3b 80 bc 9f 92 af 3c 82 3a 12 bc
       -0.006519288 -0.015653206 0.02143222 -0.008925082
000150 2f 61 ae 3c 56 54 0c bb bd e6 09 3d 7c d4 f4 bb
       0.021286575 -0.0021412573 0.033667315 -0.007471619
000160 b5 49 a1 bc 03 85 10 3c a5 18 5a 3c ba 74 77 3a
       -0.019688467 0.008820775 0.01331154 0.0009439696
000170 83 28 c6 3c 7d 4e c2 3c d1 28 9c bc ba 24 86 bc
       0.02418924 0.023719067 -0.019062432 -0.016374934
000180 85 d6 00 3d 6d 3c 82 bc 87 c9 17 3b e5 24 f9 bc
       0.03145458 -0.015897954 0.002316089 -0.0304131
000190 99 5c 8e bb 78 6a 63 3c 84 8a 8c 3b 5f 58 a0 bc
       -0.0043445346 0.013880365 0.0042889733 -0.019573389
0001a0 89 19 cf 3b b9 0f 80 bc ca 79 26 bb f9 70 06 bc
       0.0063201827 -0.015632497 -0.0025402182 -0.008205646
0001b0 c6 63 d1 bc 1b 0b 5a bc da 29 22 3d 7d 16 8f 3c
       -0.025560271 -0.013308312 0.039590694 0.017466778
0001c0 a8 85 36 3c b2 ae b1 bc 81 48 6a bc 81 f5 a1 bb
       0.011140265 -0.021689747 -0.014299513 -0.0049425964
0001d0 81 19 86 3c 75 0b d8 bc 4a 7e c6 ba 6d 65 93 bc
       0.016369583 -0.02637265 -0.0015143838 -0.0179927
0001e0 4a a4 bd 3b 14 dc 45 bc cd 31 fb 3b fa 1e 93 bc
       0.005787407 -0.0120763965 0.007665849 -0.017959107
0001f0 ce f7 a3 bc 19 67 bc bc d3 39 24 bc 27 0a ce bc
       -0.020015623 -0.02299838 -0.010023552 -0.025151325
000200 b9 20 63 3c 9a d6 8d 3a cd 76 ce 3c b8 73 a1 bb
       0.013862782 0.0010821403 0.025203133 -0.004927125
000210 46 9f bf bc 9f d8 a6 3c bd ad a0 bc 66 94 a2 bc
       -0.023391377 0.020366965 -0.019614095 -0.019846153
000220 eb 40 1b bd 95 f3 e6 bc 43 e2 13 3c 6d 0b 6b 3b
       -0.037903707 -0.02819232 0.009026113 0.0035864965
000230 fe a4 be 3b 08 5e e9 bc 19 a2 c8 3c ca f1 97 bc
       0.0058180084 -0.02848722 0.024491357 -0.018547911
000240 d4 02 89 bb 89 9a 3c 3c 59 26 b4 3b 41 62 ab 3c
       -0.0041812453 0.011511453 0.0054977355 0.020920875
000250 e4 00 e1 3c 09 0b da bc 89 41 70 ba 9e d1 17 bc
       0.027466245 -0.02661659 -0.0009165039 -0.009266285
000260 8c 81 06 3b 17 24 bd bc 73 dc e3 3c 15 95 a1 bc
       0.0020523993 -0.023088498 0.02781508 -0.019724408
000270 04 53 7c 3c 05 e5 4c 3c 9e 47 a3 3b 62 de 24 bb
       0.015400652 0.012505774 0.0049829027 -0.0025156965
000280 e7 52 f0 3c 72 c6 47 3c 5a 58 86 3c 3f f0 aa bc
       0.029336406 0.012193309 0.016399551 -0.020866511
000290 b3 52 4e 3c a8 d7 3c ba 82 cc 56 bc 15 71 f5 3c
       0.012592959 -0.0007203766 -0.013110282 0.029961148
0002a0 fc 04 76 3c f9 7e 0a bc 06 62 37 bc 9d f3 77 3b
       0.015015837 -0.008453124 -0.011192804 0.0037834414
0002b0 2d f3 a2 3c 3a ab df ba 4e 7a 15 bc 4c ab f2 3b
       0.019891346 -0.0017064579 -0.009123398 0.007405674
0002c0 1a 27 d9 bb a8 33 9a 3b 30 63 b4 3c 07 47 8b bc
       -0.0066269757 0.004705865 0.022019953 -0.017001642
0002d0 49 20 72 3c bc de cd 3c 11 29 24 3c d4 2f 08 bc
       0.014778205 0.025130622 0.010019557 -0.008312184
0002e0 24 4c 6f 3c 28 7d 9c 3c 04 de 0d 3c 12 84 fc 3b
       0.014605556 0.019102648 0.00865889 0.0077061737
0002f0 6c 4c 0c bc de 3c 68 3c 56 18 88 3b 03 1a fc 3a
       -0.008563142 0.014174668 0.0041532917 0.0019233826
000300 d6 cf 7a 3c b2 e1 e8 3c b3 22 31 b8 4e 29 84 3c
       0.015308341 0.028427932 -4.2232405e-05 0.016132977
000310 b4 e6 cb 3b c8 ea 8e bb 08 fa 4c 3c e9 5b 95 3c
       0.0062225703 -0.004361484 0.012510784 0.018232303
000320 46 ac 87 bc 28 ec 07 bc ac 1a e4 3c 42 93 45 3c
       -0.016561639 -0.00829605 0.02784475 0.012059035
000330 c1 ed 36 3b 48 2a 28 bc 7e 83 87 bc 98 aa 51 bc
       0.0027912708 -0.010263987 -0.016542193 -0.01279702
000340 cc d0 50 bc a6 12 52 3c 63 a4 a1 3c 5e 72 8a 3c
       -0.012745094 0.012821829 0.019731706 0.016900238
000350 83 e6 c1 bc 4e c4 78 bc cc 88 25 bc 82 b2 dc 3c
       -0.023669487 -0.015183521 -0.010103416 0.026940588
000360 56 10 a1 b9 48 f2 41 bc 3f 62 67 3c e6 a8 0c bc
       -0.00030720484 -0.0118375495 0.014122545 -0.00858519
000370 5a 8d ca bc db 5c 9f 3c 18 f6 04 bc 1c bd 84 bc
       -0.024725605 0.019453457 -0.008115314 -0.016203456
000380 80 de 0f bd a7 f9 ea b9 fa 38 b8 3c 97 4a 17 3c
       -0.035124302 -0.00044817963 0.022488106 0.009234092
000390 d9 fb 3d bc 0c ca 08 bd 72 07 eb bc 28 16 c7 3c
       -0.01159569 -0.033395812 -0.028690074 0.024302557
0003a0 6a a8 7e 3c 12 51 c5 3c ff e2 a4 3c 61 17 0b bb
       0.015543083 0.024086509 0.020127771 -0.0021223652
0003b0 0f 72 34 bb 1c 23 ab bc e5 46 ec bc ef 72 0e bd
       -0.0027533805 -0.020890765 -0.028842399 -0.034777578
0003c0 06 f1 67 3c 4c 67 17 bc f2 da 08 bc 1e 1f 6a bc
       0.014156586 -0.0092409365 -0.008352982 -0.0142896455
0003d0 8d d7 95 bb f0 56 a2 bc cb be 89 bc 52 05 b4 3b
       -0.004572815 -0.019816846 -0.01681461 0.0054937983
0003e0 3c 96 a6 3b ef bb a1 3c 02 ff cb bb 54 95 1a bc
       0.0050838273 0.019742934 -0.0062254677 -0.009435017
0003f0 7e 15 0f bb e4 fb 43 bc 50 01 f4 bb cf 9f dc bc
       -0.0021832879 -0.011961911 -0.0074464455 -0.026931671

net.0.bias f4 [64]
000000 45 88 40 bb c5 cc 5e 3c 99 b8 cb bc 22 2f ca bc
       -0.0029378098 0.013598626 -0.024868296 -0.024680678
000010 7a 94 6c bc 3e 31 08 3d a7 a6 16 3d 6b 7e 11 bc
       -0.014439696 0.033250086 0.036780026 -0.008880238
000020 ab db f1 3b bb 7d 0d 3d c9 05 49 3c 68 d0 87 3c
       0.007380923 0.034543734 0.012269446 0.016578868
000030 8e 5d ea b8 95 aa 0d bc d2 d1 ae bc 5d c9 65 3b
       -0.000111754154 -0.008646627 -0.021340284 0.0035062649
000040 5a 05 d8 3c 64 e6 fe 3c cb 2b c1 3c 74 9e e5 ba
       0.02636974 0.031115718 0.023580452 -0.0017518536
000050 03 19 b4 3a f2 4a e5 bb aa d5 fd ba 0c 74 8c bc
       0.0013740364 -0.0069974596 -0.0019366045 -0.01714518
000060 71 63 02 bb 52 dd aa ba 39 22 12 3c e3 a2 5a bc
       -0.0019895697 -0.0013035929 0.008919292 -0.013344499
000070 29 63 0e bb 32 9c d3 3c d9 29 62 3c ff 65 a8 3b
       -0.0021726585 0.025831316 0.013803923 0.005139112
000080 23 da cf bc fa df e9 3c d0 16 33 3b 2d 79 65 bc
       -0.02537257 0.028549183 0.002732683 -0.014005941
000090 f5 ce 1b bc 6c 26 10 3d b0 a0 c7 3c 16 4b 31 bc
       -0.009509792 0.035192892 0.024368614 -0.010821125
0000a0 f4 4a 71 bb 0b 45 52 bb 3b ae b2 3c f2 ca 36 bc
       -0.0036818357 -0.003208461 0.021811595 -0.011156784
0000b0 62 dd 89 3b 1e a7 ee bc a0 a0 22 bc ab f9 47 bc
       0.004207299 -0.029132422 -0.009925991 -0.012205522
0000c0 87 e8 0e 3d 20 71 88 bc 09 79 9e 3c 4e 2d ee 3b
       0.034889724 -0.016655505 0.019344823 0.0072685843
0000d0 a5 24 23 3d 1a c1 42 3a de 72 dd 3c 24 0d 91 bc
       0.03982987 0.0007429287 0.027032312 -0.017706461
0000e0 88 65 aa 3c 84 9a 14 3c 89 48 66 3c 4e 5d 81 bc
       0.020800367 0.0090700425 0.01405538 -0.015791561
0000f0 07 ae d0 3b 3b 32 7e bc 4c f0 51 3c 93 e2 88 3c
       0.006368402 -0.015514906 0.012813639 0.016709602

net.2.weight f4 [64, 64]
000000 1b c1 90 bd 84 fa a0 bd 42 e0 24 be 01 eb 80 bd
       -0.07068082 -0.07860282 -0.16101173 -0.062948234
000010 94 89 e2 3d 7a 96 32 bc 69 f6 9b 3d b5 93 c0 bd
       0.11061397 -0.010900134 0.076153584 -0.09403173
000020 f1 3c 99 bd 28 09 92 3c 6b cd 94 bd 5b d1 5a 3d
       -0.07482327 0.017826632 -0.07265743 0.053422313
000030 be 6e ba 3d fa c8 5f bd 78 2d dc bd 65 16 74 3d
       0.09103154 -0.054635026 -0.1075086 0.05959167
000040 90 d7 b3 bd 50 c2 71 3d 49 c8 40 bd c6 d7 d2 bc
       -0.0878135 0.0590232 -0.047066007 -0.025737654
000050 a1 2a e1 bc 0f 58 9c 3d 8a 5c a4 bd 0c 95 f6 bd
       -0.027486147 0.07633983 -0.08025463 -0.12040147
000060 5a ed 10 be 0d 26 99 3d 85 51 3a 3d 71 e8 10 bd
       -0.14153042 0.07477961 0.0454879 -0.035377923
000070 a8 57 77 3d 29 89 14 be 2c c3 47 3d 05 f9 a7 3c
       0.06038633 -0.14505447 0.048770115 0.020504484
000080 7f 0e 74 bd 93 c4 bd bc a7 90 ac 3d 35 37 d3 3c
       -0.059584137 -0.023165023 0.08426028 0.02578316
000090 41 3b b9 3c 0f 5d d4 bc 62 30 fc bd b3 2c af bd
       0.022611262 -0.02592328 -0.12313916 -0.085534476
0000a0 1f f9 bd bd 1f 13 76 3d 7e 8f f3 3d 93 c1 65 3c
       -0.09276032 0.06007683 0.11892603 0.0140232025
0000b0 cc eb 26 3b 2c 4c 84 bd 47 62 91 3d e7 55 e8 bc
       0.0025470136 -0.06459841 0.07098823 -0.028361274
0000c0 6e de 82 bd 01 60 cf 3d 59 3c 90 3c 25 fb 07 3c
       -0.06390081 0.10125733 0.017606901 0.008299624
0000d0 6a 48 57 3d ab ea d4 3c 87 01 1f bd d1 f1 d4 3c
       0.052559294 0.025990805 -0.038819816 0.025994213
0000e0 31 15 09 3e 94 c9 b0 bd d9 06 3c 3d 09 34 e5 bd
       0.1338699 -0.08632198 0.045904968 -0.111915655
0000f0 f4 84 a9 3d fc 0b ee 3d 62 00 00 be df e4 02 3e
       0.08277312 0.116233796 -0.12500146 0.1278262
000100 24 44 c8 bd 3b 78 a7 bd d6 38 70 3d a8 11 38 3d
       -0.09778622 -0.08177229 0.058647953 0.044938713
000110 ff ef 92 3d e1 d7 fe 3d f9 af b6 bd 96 7b ba bd
       0.07174682 0.124435194 -0.08920283 -0.091056034
000120 aa c4 a1 3d e5 95 e5 bc 25 21 30 bd 8c a4 2a 3d
       0.07898839 -0.028025577 -0.04300036 0.04166083
000130 15 81 8e 3d 5c b8 ec 3d 75 d6 d7 3d 3e 49 bf bd
       0.06958214 0.11558601 0.10538951 -0.09340142
000140 7d 06 49 bc b2 03 37 3d a8 37 86 bd b8 e8 05 bc
       -0.012269613 0.04468126 -0.06553584 -0.00817316
000150 2b 55 b1 3d 03 fb ab 3d 19 7c a0 bd bd 98 85 3d
       0.086588226 0.08397486 -0.0783617 0.06523273
000160 e3 a4 d5 bd c4 44 20 bb 5e 6d c6 3d 07 b7 1b 3d
       -0.1043184 -0.002445505 0.09688829 0.038016345
000170 24 2e ef 3d 12 eb 9f 3d f5 3a 09 3e a2 57 4e bd
       0.116787225 0.07808508 0.13401397 -0.050376542
000180 04 64 18 bc 36 03 ee bd bc 80 fb bd 6f 90 08 be
       -0.009301189 -0.11621706 -0.122804135 -0.13336347
000190 c9 86 92 3c 63 e5 50 3d 19 17 ae bd e4 92 1b 3e
       0.017886536 0.05100001 -0.08500499 0.15192753
0001a0 b6 5a 62 3d b1 e2 93 bd 7f 46 bb bd 5c be 33 bd
       0.05526229 -0.07220972 -0.091443054 -0.043882713
0001b0 c5 ee 5f 3a 20 3d 64 bb e5 83 50 3c 56 fc 73 3c
       0.00085423543 -0.0034826472 0.012726759 0.014891705
0001c0 0e 8d 89 bc 70 0c 21 bd 98 f2 0b bd 32 a5 58 3d
       -0.016790893 -0.039318502 -0.034166902 0.052891918
0001d0 5e fd f5 3d bc 7c 6f bd 67 5a a4 bd 04 ae 05 3e
       0.120112166 -0.058468565 -0.080250554 0.13054663
0001e0 3e 9f 9e 3c 3c 08 a2 3d 28 79 8b 3d b5 99 b3 3c
       0.019363042 0.07911727 0.06810218 0.02192388
0001f0 17 c4 22 3c b7 f2 d0 bd b7 ab 97 3d 62 97 f0 3d
       0.009934447 -0.10202544 0.07405799 0.11747624
000200 e3 68 ac 3d 14 b0 d5 bc 36 3a eb bd 9c 1a f8 bd
       0.08418443 -0.026084937 -0.11485712 -0.1211445
000210 83 e1 ba bc e0 aa e7 3d 79 fd 44 3d 07 d7 ae 3d
       -0.02281261 0.11311889 0.048093293 0.08537107
000220 f1 ac bc 3d 5a 9e e6 bd f9 74 55 bd d6 d9 e2 bc
       0.092126735 -0.11260672 -0.052113507 -0.027691763
000230 9c 51 e7 3c 6b 30 61 3d c6 cf f2 bd 6c a7 7e bd
       0.028237157 0.054977816 -0.11856036 -0.062171385
000240 72 b0 14 3e 94 de ab 3d 9e b0 99 bd 72 68 60 bc
       0.14520434 0.08392063 -0.0750439 -0.013696777
000250 d9 8a d3 3d 0d 79 9b 3d a4 f8 87 bd 05 0c fd bd
       0.103292175 0.07591448 -0.06639221 -0.12355808
000260 eb a9 39 3d 9b 84 f8 bd 6b fb cb 3d 0c 3b 01 be
       0.045328062 -0.121346675 0.099600635 -0.12620181
000270 de 99 52 bd 3a af 92 bd eb 16 a7 bd de ca 91 3d
       -0.05141627 -0.07162328 -0.08158668 0.07118772
000280 6c 01 72 3d 78 84 1c bd 46 65 12 3e db 84 e5 bb
       0.059083387 -0.03821227 0.14296445 -0.007004363
000290 60 2a f3 bd 2f 6d 39 bd fa 10 f4 bd 1b c5 2c bd
       -0.11873317 -0.04527014 -0.119173005 -0.042180162
0002a0 4e 99 6d bd 72 db 71 bd 2b bb 3a bd 13 8e b0 bc
       -0.05800753 -0.05904717 -0.045588654 -0.021552121
0002b0 1b 99 2e bd e1 82 43 bd c9 94 6e 3d c9 d0 aa 3c
       -0.04262648 -0.047732238 0.05824736 0.02085151
0002c0 95 a4 de bd 24 4e a5 3d 1c d0 c7 3d 3b 39 36 3a
       -0.10871235 0.08071545 0.097564906 0.0006951277
0002d0 e4 83 a7 3d 4e 86 81 3d 56 42 db bd 74 b2 b0 bd
       0.08179453 0.06324445 -0.10706012 -0.08627787
0002e0 7a 58 af 3d 93 f6 02 bd ef 4a 0e be 1d 8c 16 3d
       0.085617974 -0.031973433 -0.13895772 0.036754716
0002f0 e6 4b 94 bd 49 d0 ad 3d dd bb 90 3d bd dc 0a 3e
       -0.07241039 0.08486993 0.07067082 0.13560767
000300 83 5b 98 3c 3a c8 b7 3d 01 a7 a8 bc 08 f2 1a bd
       0.018598324 0.08973737 -0.020587446 -0.037828475
000310 57 dd 71 bd c1 e2 21 bd 5a cd 9d bd 7b a0 ef 3d
       -0.059048977 -0.03952289 -0.07705183 0.11700531
000320 21 b8 9d bd 10 8f 98 3c 99 90 04 be c4 2a cf bd
       -0.077011354 0.018622905 -0.12945785 -0.10115579
000330 48 7f 0f bd 3d 29 56 3d 9c 06 8b 3d 77 a7 b8 3d
       -0.035033494 0.05228542 0.0678837 0.090163164
000340 bf 1b 09 bd 27 14 db bd 87 90 d5 bd 72 9d 1c 39
       -0.033473726 -0.10697203 -0.10427957 0.00014935972
000350 a0 c6 9f bd c8 1a 20 3d f4 2f fa ba da d8 d3 3d
       -0.078015566 0.03908804 -0.0019087777 0.103440955
000360 aa 14 04 3d 17 34 ba bd ba 7a 3c 3d 1d 41 a2 3d
       0.03224627 -0.090919666 0.04601548 0.079225756
000370 ac e1 98 3d 75 fa 98 3c 9c 15 0f bc 7d 6f d0 3d
       0.074649185 0.018674115 -0.008733179 0.10177515
000380 69 1f f0 3d 4b b9 5c bd 5a 2a cc 3c df 68 ba 3d
       0.11724741 -0.053887647 0.024922539 0.09102034
000390 4f 24 5c bd 83 95 e0 3c 5b ef c0 3d 03 00 96 3d
       -0.053745564 0.027415043 0.094206534 0.07324221
0003a0 02 91 dd 3c 9e ce d2 bd 62 b8 a1 3d 5f 32 0c be
       0.027046684 -0.10293315 0.07896496 -0.1369109
0003b0 95 c3 b6 3d 89 03 31 bc 9b 0c 1a bd 72 7c b8 3d
       0.08924023 -0.0108040655 -0.037609678 0.09008111
0003c0 b7 a8 d0 3c b5 08 75 3c 4f f6 bc 3d 7e 24 7b 3d
       0.025471075 0.014955689 0.09226667 0.0613141
0003d0 8e 9e ba 3d 6b f1 f5 3b 44 9e 64 3d 40 40 97 3c
       0.09112273 0.007505586 0.055814996 0.018463254
0003e0 a9 c4 73 bd e7 f8 56 bd 66 22 4b bc 15 1c 9c bc
       -0.05951372 -0.052483466 -0.012398338 -0.01905636
0003f0 86 a8 2b bd 9e b5 73 3d 7d ee 93 3d 87 28 cc bb
       -0.041908763 0.059499376 0.072232224 -0.006230417

net.2.bias f4 [64]
000000 76 43 28 3c 4e 04 f6 3d fb 83 94 3c 14 cd 8f bd
       0.01026999 0.1201254 0.01812934 -0.070215374
000010 05 2c 97 bc a3 81 e8 bc 5b 3d 9f bc 12 f6 ac bd
       -0.018453607 -0.028382128 -0.019438436 -0.08445372
000020 b4 60 95 bd 74 50 71 3d 25 1f bc ba 23 34 f8 bb
       -0.07293835 0.058914617 -0.0014352544 -0.0075745746
000030 28 18 4c bd 0d 46 8b 3d aa 67 b3 3c c2 c1 6f 3d
       -0.049827725 0.068004705 0.021900017 0.05853439
000040 44 da 0d bd 01 e5 0d 3a 53 c5 6b bd 55 d8 89 3d
       -0.034631982 0.00054128474 -0.05756123 0.06730715
000050 68 df 49 ba ec 78 f6 bd f4 97 fa bc e4 de da 3d
       -0.00077008316 -0.12034783 -0.030590035 0.10687044
000060 91 47 87 3c c5 81 49 bd f0 b5 50 3c ce c1 8a 3c
       0.016513618 -0.049196023 0.01273869 0.016938116
000070 d4 b7 f5 3d 0a fc 8b 3d 6e cc 12 3d bb ce 77 bd
       0.11997953 0.06835182 0.03583949 -0.060499888
000080 1d 6b ae bd 9a c4 34 3d 11 d7 b1 bd 5b f2 e2 bd
       -0.08516524 0.044132806 -0.08683599 -0.11081382
000090 5d d4 3f bd eb 05 0b bd f1 e2 f8 ba f4 5f 9c bd
       -0.046833385 -0.03394119 -0.0018988532 -0.07635489
0000a0 95 fa da 3c ab da c9 bc b2 c6 bf bd 7f 86 03 3a
       0.026730815 -0.024640402 -0.0936407 0.0005017295
0000b0 6c cf cb bd 76 3e dd bc 4e fe 51 bd d3 65 c0 3d
       -0.09951672 -0.027007323 -0.051267914 0.093944214
0000c0 e8 ca 54 bd 55 ab 09 3c a9 6e 72 3d 6b 15 15 3d
       -0.05195132 0.008402665 0.059187565 0.03639738
0000d0 17 5b b9 3d 44 9d 6d 3d 95 68 5e bb 1a 2a 24 bd
       0.09050577 0.05801131 -0.0033936847 -0.040079214
0000e0 10 b7 ce 3c 89 a8 9c 3d 5b 23 f0 bd c0 da 03 bc
       0.025233775 0.07649333 -0.117254935 -0.0080477595
0000f0 81 bc cc 3d 53 8a e0 bc 50 f5 4f 3d c6 5f d6 bd
       0.09996892 -0.027409708 0.050771058 -0.10467486

net.4.weight f4 [8, 64]
000000 61 e2 b8 bd a2 ca 16 be 17 dd 85 bd 7b 06 7e bd
       -0.09027553 -0.14725736 -0.0653631 -0.0620179
000010 37 19 8a 3d 8d 77 2b bc bc 08 45 bd f4 7d 24 3e
       0.067430906 -0.010465515 -0.048104033 0.16063672
000020 4e 3f bd bd a7 dd ce bc 19 0f 86 3d 7d 13 09 3e
       -0.0924059 -0.025252176 0.065458484 0.1338634
000030 8a 00 92 bd bb 4c d1 bc 0e 38 c4 3d 0e aa 7e bd
       -0.07129009 -0.025549283 0.09581004 -0.062173896
000040 55 d3 ab bd d7 68 01 3e b1 ba 09 bd 3d 91 4a bd
       -0.08389918 0.1263765 -0.03362531 -0.049454916
000050 99 55 13 3e 67 a0 63 3c 17 03 f1 bd 93 42 cf 3d
       0.14388122 0.013893223 -0.117681675 0.1012012
000060 c0 12 15 be ec b8 59 3d 29 0e aa 3c 58 e1 5e 3d
       -0.14557934 0.05315487 0.020758705 0.054414123
000070 f9 40 cc bc df f6 a3 bd 6b 6e 1a 3e 69 ce 01 be
       -0.024933325 -0.08006071 0.15081184 -0.12676395
000080 99 dc 04 bd 59 84 0f 3e cf 84 26 3c 33 73 26 bc
       -0.03243694 0.1401533 0.0101635 -0.010159302
000090 37 ac ba bd 60 e0 90 bd d9 fd ab bd a1 08 dc 3d
       -0.091148786 -0.07074046 -0.08398027 0.10743833
0000a0 0e 5a 62 bc a7 b9 d9 3d 95 f1 cd 3c db 0a b8 bd
       -0.013815416 0.106311135 0.02513961 -0.089864455
0000b0 1f 96 a3 bd be 64 d7 3c 55 8c 86 bd c3 ae 45 3d
       -0.07987618 0.026293155 -0.06569735 0.04826237
0000c0 3d 35 9b 3d 4e d0 29 bd f8 a3 dc 3d c1 25 1c bc
       0.07578514 -0.04145842 0.10773462 -0.009530486
0000d0 5b b2 e6 3d d2 97 ba 3d 06 c8 1c bd a6 82 4a bc
       0.11264487 0.09110989 -0.038276695 -0.012360251
0000e0 bc ae d9 bd e7 ee 41 3d 93 ed 34 bc 79 1b 32 bd
       -0.10629031 0.047346976 -0.01104297 -0.04348323
0000f0 f6 33 fa 39 f1 8b ac 3d 2f b9 86 bd 44 7a b7 bd
       0.0004772243 0.08425129 -0.0657829 -0.08958867
000100 a3 ab c4 bd a6 41 09 be df f0 e9 bd 36 4a f0 3d
       -0.096030496 -0.13403949 -0.11422896 0.117329046
000110 dd 98 7a 3d 30 12 8e 3d b0 5e 03 bd 18 85 10 3d
       0.061180938 0.06937063 -0.032072723 0.035283178
000120 84 51 92 3d 58 bd b3 bd 40 1a 98 3c 80 9c eb 3d
       0.07144454 -0.08776349 0.018567204 0.115044594
000130 37 e5 ea bc dc 6c 00 3e 6e e4 0a 3e 39 8d 92 3d
       -0.028673751 0.12541527 0.13563702 0.07155842
000140 9d 1c ec 3d ce 69 42 bd c0 6e d6 3d ba 24 15 3e
       0.11528895 -0.047464184 0.10470343 0.14564791
000150 b8 f1 16 bd db 51 f3 3d 14 75 b3 bd 15 d4 0a bd
       -0.036851615 0.11880847 -0.08762565 -0.033893663
000160 09 6f 8c bd 2e ad 32 3d e3 6b b0 bc ef 15 c7 bd
       -0.06857116 0.04362219 -0.02153582 -0.097209804
000170 d2 92 02 3d 8f 81 9b 3d f4 9f f2 3d d8 01 ca bd
       0.0318783 0.07593071 0.11846915 -0.09863633
000180 2f 78 85 3d b5 50 c5 3d a1 33 c7 3c 1a 92 ef 3d
       0.06517064 0.09634534 0.02431661 0.116977885
000190 1d 0e 4f bd da 73 01 be fd d6 bd bd cd 76 65 bd
       -0.05055057 -0.1264185 -0.092695214 -0.0560215
0001a0 fe da 11 3e db 22 96 bd f5 27 47 bd 1b 96 cf bc
       0.14243695 -0.07330867 -0.04862209 -0.02534013
0001b0 b7 20 8d 3c 0b 3b 13 3c 60 e8 53 bd 6b dd 3a 3a
       0.017227514 0.008986245 -0.051735282 0.0007128331
0001c0 1a b5 85 3b 77 60 d0 3d 88 64 7e bd c7 db 87 bd
       0.004080427 0.10174649 -0.062107593 -0.06633716
0001d0 e1 74 dd bc e2 db b9 3d 55 61 a4 3d 7c 87 be 3d
       -0.027033271 0.090751424 0.08026377 0.09303185
0001e0 68 95 1c 3d 78 54 9b bc 4d da 46 bd 7f 4b 45 3d
       0.038228422 -0.018961176 -0.04854803 0.0481677
0001f0 a4 86 94 3d af 22 e1 bd 9f 6f 3d 3a 33 ba e1 bc
       0.07252243 -0.109929435 0.00072264107 -0.027554607
000200 23 ad 03 bd 00 1b 99 3d ac f8 c0 bd 5a f5 87 3d
       -0.032147538 0.07475853 -0.094224304 0.06638594
000210 53 f8 99 bd c1 8e be 3d e2 bc 04 be 14 85 09 3e
       -0.07518067 0.09304572 -0.12962678 0.13429672
000220 0b 05 8e bd b1 f8 12 be df ab c3 3d ad 56 b6 3d
       -0.069345556 -0.1435268 0.09554266 0.08903251
000230 de 1a 20 3d d0 bc ac 3d 2b a5 ae 3d 9c e9 c9 3d
       0.039088123 0.084344506 0.08527597 0.098590106
000240 29 4d 25 3d 39 e1 54 3d a7 95 1b 3c 58 d5 70 3d
       0.04035679 0.0519726 0.009496129 0.05879721
000250 d7 f5 ce 3c 04 7a 6d 3a c2 6d e7 bd 22 2a 65 3c
       0.02526371 0.0009059014 -0.113002315 0.013987096
000260 61 c9 e1 bd d5 9d 0d 3a df 0a a7 3d 0b ad fd bc
       -0.11024738 0.0005402242 0.0815637 -0.030966302
000270 a7 80 9d 3c 10 33 4f bd 61 61 84 bd ab a1 af bc
       0.019226385 -0.050585806 -0.06463886 -0.021439394
000280 81 5d 52 bd b5 c0 80 3d 65 ed 15 3d d5 04 8a bd
       -0.051358704 0.06286756 0.03660335 -0.06739203
000290 fc 12 02 be 51 65 6d bc 18 b4 f3 bd a2 84 ee 3d
       -0.12702554 -0.014489488 -0.118995845 0.116463915
0002a0 ec 76 1b 3e c2 81 ba bb aa a8 ca 3d 7c 56 ad bd
       0.15182084 -0.005691738 0.09895451 -0.08463761
0002b0 a4 80 ef 3d 42 3b fd 3d a3 97 62 3d c4 90 0b be
       0.11694458 0.12364818 0.055320393 -0.13629442
0002c0 80 b3 ab 3d d0 c6 66 3d 19 e6 b0 bc 0b 61 0f 3e
       0.08383846 0.056341946 -0.021594094 0.14001863
0002d0 c1 4a a3 3d 4b c5 95 3c 32 ac e4 3d 64 aa 4d bd
       0.079732426 0.018282553 0.11165656 -0.050211325
0002e0 29 c9 f9 bd 90 d8 a3 3d 2f 4c b5 bc e0 76 b8 bd
       -0.121965714 0.080002904 -0.022131054 -0.090070486
0002f0 59 be 47 bc 4c 55 bb 3d 80 bc 4c 3c 73 2c 58 3d
       -0.0121913785 0.091471285 0.012496114 0.052776765
000300 26 8e 3e bb 00 41 4b 3c a8 34 1e be 2a 85 93 bd
       -0.0029076426 0.012405634 -0.15449774 -0.072031334
000310 b2 c0 ef 3d ab ab a6 3d 80 9f e2 3c 61 14 b2 bb
       0.117066756 0.08138212 0.027663946 -0.0054345583
000320 5a 4c e5 bb 3f 5b ed bc d8 ea fa 3d 01 11 47 3d
       -0.006997627 -0.028974174 0.12251824 0.0486002
000330 e8 7f 00 bc 1c 9c 99 3d 8f 80 4b 3d b0 96 2b 3d
       -0.007842995 0.075004786 0.04968315 0.041891754
000340 94 49 0e bd 6d d4 00 3e 44 8f 8f bc 5c 81 45 3c
       -0.03473814 0.12581034 -0.017524369 0.012054767
000350 60 ba 06 3e 89 55 03 3d e7 3f 6a bd 11 ce 29 bd
       0.13157034 0.032063995 -0.05718985 -0.041456286
000360 0e a1 11 3d e7 21 de 3c e1 84 cb 3b 32 9b 67 bd
       0.035553984 0.027115775 0.0062109088 -0.05654449
000370 38 0f 37 3a f0 c8 71 bb ff b9 19 3c 66 b7 43 3d
       0.0006983164 -0.003689345 0.009382724 0.047782324
000380 1c 9e 90 3d be 14 cd 3d 17 1f 34 3d 51 89 17 bd
       0.07061407 0.10013722 0.043974962 -0.03699619
000390 68 1e 46 bc 97 be 0e 3d 6a 85 0a be 41 5e b1 bd
       -0.01209221 0.03484973 -0.13527456 -0.08660556
0003a0 4a 32 e3 3c 71 c6 e9 3d fc 3d b5 bb a0 94 85 bc
       0.02773394 0.11414803 -0.0055310708 -0.016306221
0003b0 b6 75 e9 3d c3 9b 23 3e d4 73 f6 bc 7c b8 9d bd
       0.11399405 0.15977387 -0.030084528 -0.07701203
0003c0 14 7a fb 3c d6 49 bb 3d 78 7d b7 3b 8f b4 c0 3d
       0.03069786 0.091449425 0.005599674 0.09409439
0003d0 90 82 16 3e 58 a9 e5 3d d3 da 0b 3e d7 80 39 3d
       0.14698243 0.112139404 0.13657694 0.045288887
0003e0 a1 69 36 bd 8e a9 df 3d 7d d2 96 bd 05 7f f5 bd
       -0.04453433 0.10921012 -0.07364366 -0.11987118
0003f0 b7 57 03 be 98 eb c4 bd e2 3e 90 bc c8 4e a2 3d
       -0.1282643 -0.096152484 -0.01760811 0.079251826

net.4.bias f4 [8]
000000 da d2 96 3c 3e e2 5d 3d ab c3 ca bd 43 3b 23 3d
       0.018411089 0.05417084 -0.09900602 0.03985144
000010 ec 98 00 bd f7 81 a4 3d aa 69 1a bc b9 ea 7e bd
       -0.031395838 0.08032601 -0.009424606 -0.062235568
