runs/1_hour_forecasting/216/best_model.pt (torch, 287142 bytes, 5 tensors)

net.0.weight f4 [64, 1044]
0	0x3ce2851e	0.027651366
1	0x3cddb416	0.02706341
2	0xba20c780	-0.00061332434
3	0x3d0d4caa	0.03449694
4	0x3b34bc38	0.0027578007
5	0x3c5f963e	0.01364666
6	0xbc434456	-0.011918148
7	0x3ccebac7	0.025235547
8	0x3cf1f655	0.029536406
9	0xbc7b20b8	-0.015327625
10	0x3cdd376d	0.027003968
11	0x3c54d2a3	0.012989673
12	0x3cf06e5d	0.0293495
13	0x3c2c3f2f	0.010513111
14	0x3cc39e45	0.02387918
15	0x3bd3f4a5	0.006468373
16	0x3cfe8a9c	0.031071953
17	0x3c2c794d	0.010526967
18	0xbc2ae775	-0.01043116
19	0x3c4f380f	0.012647643
20	0xbb7ef38f	-0.0038902496
21	0xb931c2c7	-0.00016952596
22	0xbbe4b8fe	-0.0069800606
23	0x3ceb5613	0.028727567
24	0xbcc5214c	-0.024063729
25	0xbc34ab7e	-0.011027215
26	0xbbf3d270	-0.0074408576
27	0xbca73840	-0.020412564
28	0x3bed48b2	0.007241332
29	0xbcf0cd9c	-0.029394917
30	0x3cc44b5d	0.023961717
31	0xbcc07c58	-0.023496792
32	0x3d11b346	0.03557136
33	0xbaeeb1be	-0.001821093
34	0x3c287c12	0.010283487
35	0x3cc5fde5	0.024168918
36	0x3ba6ceaf	0.0050905566
37	0x3ccbfbcf	0.024900345
38	0x3c2408e4	0.010011885
39	0xbc44c2af	-0.012009307
40	0x3c121572	0.008916246
41	0xbbb4c380	-0.0055164695
42	0x3c2cf569	0.010556557
43	0x3ce782e1	0.02826065
44	0x3ce1efdf	0.0275802
45	0xbc3b5d3e	-0.011435805
46	0x3c942a06	0.018086445
47	0x3b3947f7	0.0028271654
48	0x3cbd4a31	0.023106666
49	0xbc896524	-0.01677186
50	0xbc8be988	-0.01707913
51	0xbc741688	-0.01489795
52	0xbcdf48bc	-0.027256362
53	0x3cc4112b	0.023933968
54	0x3bf60d9f	0.007508948
55	0x3c3b0a8a	0.011416087
56	0x3c269d4b	0.0101693375
57	0xbb9a76a1	-0.0047138487
58	0x3caf80a9	0.021423655
59	0xbcc41818	-0.02393727
60	0xbac5b279	-0.0015083096
61	0xbccff66e	-0.025386062
62	0x3c0e4773	0.008684027
63	0xbc36c000	-0.011154175
64	0x3bdc65eb	0.0067260168
65	0xbbc97341	-0.0061477725
66	0x3cbad0bc	0.02280461
67	0xbc9dbf5b	-0.019256284
68	0xbc926c4a	-0.017873902
69	0xbc851dba	-0.016249526
70	0x3d00aa72	0.03141255
71	0x3c7aaf2f	0.015300556
72	0x3cefb7af	0.029262392
73	0xbccaa38a	-0.024736185
74	0xbceea4ad	-0.029131258
75	0xbcb66cb2	-0.022268627
76	0xbcacb9ea	-0.021084744
77	0x3c4cf646	0.012509888
78	0x3c6aa2fb	0.014321084
79	0x3cdf3576	0.027247172
80	0xbc8a941f	-0.016916333
81	0xbc924670	-0.017855853
82	0x3c6a558d	0.014302623
83	0xbc264027	-0.010147131
84	0x3c92d5f7	0.017924292
85	0xba955539	-0.0011393196
86	0x3c96d964	0.018414207
87	0xbc8ce8c6	-0.017200839
88	0xbc7a0847	-0.015260763
89	0x3c870b4e	0.016484883
90	0x3c1e979c	0.009679701
91	0x3c03e5c4	0.008050386
92	0x3ccae3f7	0.024766905
93	0x3cd54716	0.026034873
94	0xbc7381e3	-0.01486251
95	0xbc2f1a3b	-0.010687406
96	0x3d07753f	0.0330708
97	0xbbd35b71	-0.0064501096
98	0xb7927b6f	-1.7462035e-05
99	0xbcb4a133	-0.022049522
100	0xbc530a9c	-0.012880947
101	0x3c9ba1b9	0.018998014
102	0x3b1b7e5f	0.0023726446
103	0xbc83a65e	-0.016070541
104	0x3b043919	0.0020175634
105	0xbc98ec32	-0.018667314
106	0xbcf49457	-0.02985589
107	0xbc5cc2d4	-0.013474185
108	0xbcc4846d	-0.023988927
109	0xbc8c3895	-0.017116824
110	0x3cf0d6fb	0.029399386
111	0x3b645ec6	0.0034846528
112	0x3c574730	0.013139531
113	0xbcf629a7	-0.030049158
114	0xbca171cb	-0.019707581
115	0xbc5226bd	-0.012826619
116	0x3b02072a	0.0019840696
117	0xbd018497	-0.03162059
118	0xbc4a8f3e	-0.012363253
119	0xbc29b862	-0.010358902
120	0xbc369886	-0.011144763
121	0x3b3d72e7	0.0028907598
122	0xbb1ad958	-0.0023628082
123	0xbc823805	-0.015895853
124	0xbcbbc9f6	-0.02292345
125	0xbc200628	-0.009767093
126	0xbb96ea13	-0.0046055405
127	0xbcbe0446	-0.023195397
128	0x3cb748e9	0.022373633
129	0xbbb16a6c	-0.005414298
130	0x3c9f6f38	0.019462213
131	0x3c6f9cb4	0.014624763
132	0xbc954594	-0.018221654
133	0x3cca7619	0.024714516
134	0xbc2f48b1	-0.010698483
135	0xbbf51530	-0.0074793324
136	0xbcb44001	-0.022003176
137	0xbccdb7fb	-0.025112143
138	0x3bcdf8f3	0.0062857806
139	0xbc293ed6	-0.010329923
140	0x3c302161	0.010750146
141	0xbcdae2a8	-0.026719406
142	0x3cb44cfa	0.022009362
143	0xbcb207dd	-0.021732265
144	0xbc1a94cb	-0.009434889
145	0x3b6ce007	0.0036144273
146	0x3c6154c3	0.013753119
147	0x3cb05e6a	0.021529395
148	0x3cc5488e	0.024082448
149	0xbccf081e	-0.025272425
150	0x3bf7b4b8	0.007559385
151	0xbc85c00d	-0.016326929
152	0xbb1593a1	-0.002282359
153	0xbcd51fa7	-0.02601607
154	0x3ce48dec	0.027899705
155	0xbcbcc81c	-0.023044638
156	0x3c9f613d	0.019455547
157	0x3c419d0b	0.011817227
158	0x3c7b1ca2	0.015326651
159	0xbc7dc21e	-0.015488176
160	0x3ce777d1	0.028255375
161	0x3c0e03b9	0.00866788
162	0x3bc267b7	0.005932774
163	0xbce50b6b	-0.027959546
164	0x3c4b0fb5	0.012393882
165	0xba52e436	-0.00080448703
166	0xbc4f3a77	-0.012648216
167	0x3cc42070	0.023941249
168	0x3c125a71	0.008932696
169	0xbca0a235	-0.019608596
170	0xbc5f3e16	-0.013625642
171	0xbb3f5de5	-0.0029200253
172	0x3cc068b6	0.02348743
173	0xbbec0e32	-0.0072038407
174	0xbc69c468	-0.014268018
175	0xbc310ab2	-0.010805773
176	0xbc92bea5	-0.017913172
177	0x3c779519	0.015111231
178	0x3d153952	0.036431618
179	0xbcc9d481	-0.024637463
180	0x3c23e16d	0.010002476
181	0x3cc8b8d0	0.024502188
182	0x3ba0f48d	0.004911965
183	0xbb2db28f	-0.0026504134
184	0x3cc3b0c0	0.023887992
185	0x3caef850	0.021358639
186	0x3c827e1a	0.01592927
187	0x3b7022ec	0.0036641909
188	0x395d4289	0.00021100989
189	0x3c5102a0	0.0127569735
190	0x3b2cfa4b	0.0026394303
191	0xbbfc439c	-0.0076984894
192	0x3caf9a64	0.021435924
193	0x3cb8a685	0.02254034
194	0xbbc37cca	-0.0059658037
195	0xbb6d0d38	-0.003617121
196	0x3b96095a	0.0045787515
197	0x3bdce1fa	0.0067408057
198	0x3b4e8003	0.0031509406
199	0x3c1da63f	0.009622156
200	0xbce9c06c	-0.028534137
201	0xbc3f07de	-0.0116595905
202	0x3cbf073c	0.02331888
203	0x3c36b56c	0.011151653
204	0x3891db90	6.9550355e-05
205	0xbca09365	-0.019601533
206	0xbc663478	-0.014050595
207	0xbd1b727f	-0.03795099
208	0xbb6d76f8	-0.003623424
209	0x3ab16ee0	0.0013537072
210	0x3cc88672	0.024478171
211	0x3c8323f6	0.016008358
212	0xbcd654fc	-0.02616357
213	0xbc1f2a77	-0.009714714
214	0xbaa8a01d	-0.00128651
215	0x3ccd1302	0.025033478
216	0x3c1a7527	0.009427345
217	0xbc4fe8b8	-0.012689762
218	0x3c9f4062	0.01943988
219	0xbb750166	-0.0037384867
220	0xbc3fcc92	-0.011706488
221	0x3c3ab6a7	0.011396087
222	0xbc1a1780	-0.009405017
223	0xbab78392	-0.0014001003
224	0xbcbac46d	-0.022798741
225	0x3c97afda	0.01851647
226	0x3ca172dd	0.019708091
227	0x3c29bbdb	0.01035973
228	0xbcbd0975	-0.023075799
229	0xbd000f96	-0.031264864
230	0xbcc3e390	-0.023912221
231	0x3c9b22b6	0.01893745
232	0x3c4c42e2	0.012467118
233	0x3cc4bbec	0.02401539
234	0x3c5319d3	0.012884575
235	0x3b78650b	0.0037902023
236	0xba9b51e4	-0.0011849967
237	0xbcbdbe62	-0.02316207
238	0xbcf4c01e	-0.029876765
239	0xbce2fcf2	-0.027708504
240	0x3c258840	0.010103285
241	0xbc7cd5d2	-0.015431838
242	0xbbcfd3ac	-0.006342372
243	0xbc85a044	-0.016311772
244	0xbbdac92c	-0.0066768136
245	0xbc908b44	-0.017644532
246	0xbca06dcf	-0.01958361
247	0x3c457c3f	0.012053548
248	0xbbe7344b	-0.0070557944
249	0x3c988c48	0.018621579
250	0xbc35ae1f	-0.011088877
251	0xbcb7a674	-0.022418238
252	0xb9a252f5	-0.00030960856
253	0xbc62a223	-0.013832602
254	0xbc366f88	-0.01113499
255	0xbceb280d	-0.028705621

net.0.bias f4 [64]
0	0x3c9b7bf9	0.018980013
1	0x3cfd046c	0.030885898
2	0xbc70f1ce	-0.014706088
3	0xbccadee7	-0.024764491
4	0xbcaf17c2	-0.021373633
5	0xbc452380	-0.01203239
6	0xbcd36187	-0.02580334
7	0x3c243aff	0.010023831
8	0x3c51afb0	0.012798235
9	0x3cfb967b	0.030711403
10	0x3ccffea7	0.025389982
11	0x3d054d9c	0.032544717
12	0x3bad5fc0	0.0052909553
13	0x37e548ec	2.7332884e-05
14	0x3d32af34	0.043624118
15	0xbbdeafd6	-0.0067958636
16	0x3cd1a114	0.025589503
17	0xbc89bb62	-0.016812984
18	0xbc6620b8	-0.014045887
19	0xbcb5fd8a	-0.022215623
20	0x3c155d85	0.009116535
21	0xbcb2d1e5	-0.021828601
22	0xbb4d9d98	-0.003137445
23	0xbcc4db7c	-0.02403044
24	0x3d128d38	0.035779208
25	0xbc8198d4	-0.015819944
26	0xbc0dd33c	-0.008656319
27	0x3cdc4b1f	0.02689129
28	0x3cdb9669	0.02680512
29	0xbb0fee4f	-0.0021962111
30	0xba5aaa76	-0.00083414407
31	0xb9c94e17	-0.0003839589
32	0x3cbfa537	0.02339421
33	0x3ae9a7f1	0.001782654
34	0x3b138e9b	0.002251542
35	0xbc6ee642	-0.014581265
36	0xbca1e2f8	-0.019761547
37	0x3c993d1b	0.018705895
38	0x3cf9ae28	0.030478552
39	0xbc9ecce6	-0.019384813
40	0x3b74d0a5	0.0037355807
41	0x3d079597	0.033101644
42	0x3c01713d	0.007900533
43	0x3cdf7b45	0.02728046
44	0x3be48c1a	0.006974709
45	0x3ceefd01	0.029173376
46	0xbbe5e559	-0.0070158658
47	0x3cb663df	0.02226442
48	0x3c7e1cc5	0.015509789
49	0xbc9b3fb1	-0.018951269
50	0xbc50be5c	-0.012740698
51	0x3d04a882	0.032387264
52	0x3cdaeb45	0.026723513
53	0xbc99dfdf	-0.018783508
54	0xbcb05647	-0.021525515
55	0x3d0dc6b8	0.03461334
56	0x3d3a96ad	0.045553852
57	0xbce3f26d	-0.027825559
58	0xbc76ffe2	-0.015075656
59	0x3c25ffd5	0.010131796
60	0xbc7b775a	-0.01534828
61	0x3bcbc923	0.0062190457
62	0x3c41d81b	0.011831309
63	0x3cf0a884	0.02937723

net.2.weight f4 [64, 64]
0	0xbcde3a62	-0.027127448
1	0x3d72a0d3	0.059235405
2	0x3c01cdaf	0.007922574
3	0x3e007a02	0.12546542
4	0x3ce6a8aa	0.028156597
5	0xbdfb3eac	-0.12267813
6	0x3d9b99c2	0.07597686
7	0xbdedbd16	-0.11608331
8	0x3c1b3a08	0.009474285
9	0x3dba6ffb	0.0910339
10	0x3d73137e	0.05934476
11	0x3dcada0d	0.09904871
12	0x3ca33251	0.019921454
13	0xbdd5b53f	-0.104349606
14	0x3da7af98	0.08187789
15	0xbd6aa032	-0.05728168
16	0xbd8d29d6	-0.06892745
17	0x3da5de6a	0.08099063
18	0xbdf5d91c	-0.12004301
19	0xbd78935f	-0.06068742
20	0xbc4caa81	-0.012491823
21	0x3e03d050	0.12872434
22	0xbd2ce969	-0.042214785
23	0xbd7b242d	-0.061313797
24	0xbc7000bf	-0.014648615
25	0xbd8de15f	-0.06927752
26	0x3caaa3ff	0.020830153
27	0xbdbf8802	-0.09352113
28	0xbce5354e	-0.02797952
29	0x3de52d94	0.11190334
30	0x3d32846a	0.04358331
31	0x3d15da36	0.036585055
32	0xbdb54d6b	-0.08852657
33	0x3de086a5	0.109631814
34	0x3793f4f9	1.763784e-05
35	0x3d34c751	0.044135395
36	0x3d9018bc	0.07035968
37	0xbd40e9fe	-0.047098152
38	0xbc82329c	-0.015893273
39	0x3d7afb44	0.06127478
40	0x3e04aab5	0.12955745
41	0x3ddddcf2	0.108331576
42	0x3d2ac7e9	0.041694555
43	0x3d0a8dd3	0.03382666
44	0xbd418fe5	-0.04725637
45	0x3d14d1b9	0.03633282
46	0xbde3d6d8	-0.111249626
47	0x3da0069c	0.07813761
48	0x3dd5e6c7	0.10444408
49	0xbd38024d	-0.04492407
50	0x3d23de60	0.040006995
51	0x3cfe64c7	0.031053914
52	0xbddef94c	-0.10887393
53	0x3d87f226	0.06637983
54	0xbd5f637a	-0.054538228
55	0x3d8b260f	0.067943685
56	0x3dd12423	0.10211971
57	0x3d8ee60d	0.069774725
58	0xbdd20286	-0.102543876
59	0x3c5553fa	0.01302051
60	0x3d4e0aa5	0.05030312
61	0xbca4645e	-0.02006739
62	0x3cfd2e37	0.030905826
63	0x3dde9a3a	0.1086926
64	0xbdb67f24	-0.08910969
65	0xbd941924	-0.07231358
66	0x3d78a0f9	0.06070039
67	0xbd8b2982	-0.06795026
68	0x3cfb8629	0.030703621
69	0x3dcca1ef	0.09991824
70	0xbd79f863	-0.061027896
71	0xbdb357dc	-0.08756992
72	0x3dbde988	0.09273058
73	0xbda2e732	-0.07954253
74	0xbcdcb085	-0.02693964
75	0xbd263269	-0.04057542
76	0x3db402bd	0.08789585
77	0xbc85ad90	-0.016318113
78	0x3d3112a6	0.043230675
79	0x3deedb61	0.11662937
80	0x3cdfb80d	0.027309442
81	0x3cdbdc9c	0.026838593
82	0xbce7f46c	-0.028314792
83	0xbdf1b51e	-0.118021235
84	0x3daa18e1	0.083055265
85	0xbda8c31e	-0.08240341
86	0xbdc35107	-0.09536939
87	0x3d6b29f2	0.05741305
88	0x3b9829ca	0.0046436535
89	0xbc26a11d	-0.010170248
90	0xbdd8d271	-0.105870135
91	0xbd64c70b	-0.055853885
92	0x3bb1df0f	0.005428202
93	0xbd4e801c	-0.050415143
94	0x3c61cffc	0.0137824975
95	0x3e05f6d9	0.13082446
96	0xbd16415c	-0.036683425
97	0x3deb240a	0.11481483
98	0xbd83a9af	-0.06428849
99	0x3db42c90	0.08797562
100	0xbcdefea1	-0.027221026
101	0x3c6376c8	0.0138833
102	0x3ca4b6e2	0.020106737
103	0x3dba3164	0.09091452
104	0x3d22826c	0.03967516
105	0xbd8ee5e5	-0.06977443
106	0x3d54d476	0.05196043
107	0xbdc3ea48	-0.0956617
108	0xbdc66d67	-0.096888356
109	0xbdae09c8	-0.084979594
110	0x3c804789	0.01565911
111	0x3da17231	0.078831084
112	0x3d543e13	0.05181701
113	0x3dd5a577	0.104319505
114	0x3d949d09	0.072565146
115	0xbdbea75f	-0.09309267
116	0x3db4deaf	0.08831536
117	0x3d9935ce	0.074809656
118	0x3d4f6f9d	0.050643552
119	0x3d817cbb	0.063226186
120	0xbd36442c	-0.044498608
121	0xbd91749f	-0.07102322
122	0xbdbdcde7	-0.092677884
123	0xbd4510b3	-0.04811163
124	0xbdcedcbd	-0.10100696
125	0xbc254245	-0.010086601
126	0x3dec1ec5	0.11529306
127	0xbdd8e8ee	-0.10591303
128	0xbd2dcea2	-0.04243339
129	0x3d31667a	0.04331062
130	0x3d9f08c3	0.07765343
131	0x3d50e909	0.05100349
132	0x3d0b1e94	0.03396471
133	0x3c7b697c	0.015344974
134	0x3e0ce58c	0.1375944
135	0xbd603683	-0.054739486
136	0xbd4a45fd	-0.049383152
137	0x3da35374	0.07974902
138	0xbc866ebb	-0.016410222
139	0xbdbc6da0	-0.09200597
140	0xbdcafecf	-0.09911882
141	0xbda600ea	-0.08105643
142	0x3d0a1712	0.033713408
143	0xbdc5382b	-0.09629854
144	0x3d53fe84	0.051756397
145	0x3dc79b5e	0.09746431
146	0xbde5b569	-0.11216242
147	0x3ddf686c	0.10908589
148	0xbcfb1e62	-0.030654136
149	0x3dd3b2b0	0.10336816
150	0xbb861713	-0.004092106
151	0x3dde02b1	0.10840357
152	0x3d090d2e	0.033459835
153	0x3dead1a9	0.11465771
154	0x3bc31d21	0.0059544
155	0xbdec6992	-0.115435734
156	0x3dbb1604	0.091350585
157	0xbdceebe0	-0.10103583
158	0x3c4670f5	0.012111892
159	0x3d585f4b	0.052825253
160	0xbdc5789d	-0.09642146
161	0xbcca659f	-0.02470666
162	0x3dd0d4ce	0.10196839
163	0x3d961bf2	0.07329549
164	0x3c59f092	0.013301985
165	0x3d83db1c	0.06438276
166	0x3d0a9ea6	0.033842705
167	0xbd92e7a4	-0.07173088
168	0xbdcd8e5e	-0.1003692
169	0x3e0966bd	0.13418098
170	0xbcd28e41	-0.025702598
171	0xbd9bbe0e	-0.076046094
172	0xbd9eb770	-0.07749832
173	0xbddcd198	-0.10782164
174	0xbd4f3041	-0.050583128
175	0x3c4f3be4	0.012648556
176	0xbdd0f81a	-0.102035716
177	0x3c8ab074	0.016929843
178	0xbcfd3ea2	-0.030913655
179	0xbca1e81d	-0.019764
180	0x3d46aac1	0.048502687
181	0xbdde4693	-0.10853305
182	0x3da7bdd3	0.08190503
183	0x3d2b62ee	0.041842394
184	0xbb972b69	-0.004613329
185	0x3c7d887f	0.015474438
186	0xbe01c48d	-0.12672634
187	0x3e02a2cd	0.12757416
188	0xbda83ed9	-0.08215112
189	0x3dd02e81	0.1016512
190	0xbd11e9e6	-0.035623454
191	0x3d1aa26e	0.03775256
192	0x3d087367	0.03331318
193	0xbd11da4a	-0.035608567
194	0x3d0c6228	0.034273297
195	0xbb14e839	-0.0022721423
196	0x3d1ad459	0.037800167
197	0xbd6e172f	-0.05812758
198	0x3dddd7aa	0.1083215
199	0x3c6c6464	0.014428232
200	0xbdc250c1	-0.09488059
201	0xbccc649e	-0.024950322
202	0xbd19f8b7	-0.03759071
203	0xbdb90ead	-0.09036002
204	0xbe0a2ced	-0.134937
205	0x3d69a539	0.057042334
206	0x3c4650bd	0.01210421
207	0xbd9ae09c	-0.07562372
208	0xbd8e10b0	-0.06936777
209	0x3e000ef1	0.125057
210	0x3db8647c	0.09003541
211	0xb9e8ff94	-0.0004444091
212	0x3e08407f	0.13305853
213	0x3e0049aa	0.125281
214	0x3b7efc6d	0.0038907782
215	0x3d957d99	0.072993465
216	0x3dfeebaa	0.12447293
217	0x3df77789	0.120833464
218	0x3d8ece79	0.06972975
219	0xbd969182	-0.07351972
220	0x38a37354	7.793927e-05
221	0xbd9ede98	-0.077573
222	0x3d698107	0.057007816
223	0x3d809d59	0.06280012
224	0xbd870575	-0.06592838
225	0x3dd79989	0.105273314
226	0x3c9ff21b	0.019524625
227	0x3cbd83c2	0.023134116
228	0xbcce2010	-0.025161773
229	0xbd281d29	-0.041043434
230	0x3da7b4bc	0.08188769
231	0xbc0c5d63	-0.008567187
232	0x3db4bfda	0.08825655
233	0x3d299bbc	0.041408285
234	0x3d9a11d6	0.07522933
235	0x3e01f624	0.12691551
236	0xbc0c58e7	-0.008566118
237	0x3ca5dca9	0.02024682
238	0xbbd8f4e6	-0.006620991
239	0x3dbda90b	0.09260758
240	0x3cb8175f	0.022472082
241	0x3ca26a85	0.019826183
242	0xbc449e77	-0.012000672
243	0x3b7ba607	0.003839852
244	0xbd591a5c	-0.053003654
245	0xbd8e80c5	-0.069581546
246	0x3db0feb6	0.08642332
247	0xbd8c4610	-0.06849301
248	0x3d3976fe	0.045279495
249	0x3d9d9c7f	0.07695865
250	0xbdf0ca9d	-0.117573954
251	0xbccea517	-0.025225205
252	0x3d49981b	0.049217325
253	0xbc3c7912	-0.011503475
254	0x3dea8610	0.11451352
255	0x3dcb18d1	0.09916843

net.2.bias f4 [64]
0	0xbc1aec38	-0.009455733
1	0x3da25387	0.07926088
2	0x3b7877fd	0.0037913315
3	0x3caed58e	0.021342065
4	0xbcf3d914	-0.029766597
5	0xbddf2624	-0.108959466
6	0xbd913f0a	-0.07092102
7	0x3de2fede	0.11083768
8	0x3d7c1659	0.06154475
9	0x3c28bdda	0.01029917
10	0x3dc05c81	0.09392644
11	0x3dafe25a	0.08588095
12	0x3dc146ed	0.09437356
13	0xbb75b469	-0.0037491566
14	0x3cfe698a	0.031056184
15	0x3dd2f392	0.103003636
16	0x3d9237fc	0.071395844
17	0x3d59d218	0.053178877
18	0xbd0416f5	-0.032248456
19	0x3d67cb10	0.05659014
20	0x3d939f03	0.072080635
21	0xbdbc0f1f	-0.091825716
22	0x3d1f79e7	0.038934615
23	0x3d82be54	0.063839585
24	0x3dfa8a5f	0.122334234
25	0xbdac95f1	-0.084270366
26	0x3dba7146	0.091036364
27	0xbcb199c2	-0.021679763
28	0xbd9f64b2	-0.07782878
29	0x3c26ad7a	0.010173196
30	0xbdeb8f06	-0.11501889
31	0xbddcb36f	-0.10776412
32	0xbdca14e2	-0.09867264
33	0x3da20955	0.07911936
34	0xbdddcf69	-0.10830576
35	0xbdc4e4ca	-0.096139506
36	0xbd3663b2	-0.04452867
37	0xbdad799d	-0.084704615
38	0xbcbec67c	-0.023288004
39	0xbdbea068	-0.09307939
40	0x3e00d33b	0.12580578
41	0xbc658c56	-0.0140105095
42	0xbdcb9441	-0.099403866
43	0x3de8f108	0.11374098
44	0xbdfc9c8a	-0.12334545
45	0xbdd3b2f3	-0.10336866
46	0x3db7e23c	0.08978698
47	0x3de5f038	0.11227459
48	0x3d18e30f	0.037325915
49	0x3dd442db	0.10364314
50	0x3d26fb8f	0.04076725
51	0x3df18048	0.11792046
52	0xbb82fb5c	-0.0039972495
53	0xbc894946	-0.016758572
54	0xbd2b819f	-0.041871663
55	0xbcfcd90b	-0.030865213
56	0x3dfd330f	0.12363254
57	0x3dd54b79	0.10414786
58	0xbd9d723a	-0.076878026
59	0xbdb2ee2d	-0.08736835
60	0xbd100b7f	-0.035167214
61	0x3d1890e0	0.03724754
62	0xbd0a77ed	-0.033805776
63	0x3d109fe4	0.035308734

net.4.weight f4 [1, 64]
0	0xbd97f570	-0.0741986
1	0xbdff41c5	-0.124637164
2	0xbcd4983c	-0.025951497
3	0xbe082880	-0.132967
4	0xbd7cc233	-0.06170864
5	0x3df5601f	0.11981224
6	0x3cf7b9fa	0.030240048
7	0x3cdca1cc	0.02693262
8	0x3d66fd4d	0.05639391
9	0x3d347ff6	0.044067346
10	0x3e0d2afb	0.13785927
11	0xbe14ae51	-0.14519621
12	0xbde95824	-0.113937646
13	0x3d853f0f	0.06506168
14	0xbc75dba4	-0.01500598
15	0x3e06cdb1	0.13164403
16	0x3d7177ae	0.058952026
17	0x3daa535a	0.08316679
18	0x3daed672	0.08536996
19	0xbdb898e9	-0.0901354
20	0x3dc28185	0.0949736
21	0x3db93cd0	0.09044802
22	0x3d6fbd31	0.058530036
23	0xbd1e0c1b	-0.038585763
24	0x3bf10912	0.0073558176
25	0xbdf4a254	-0.11945024
26	0xbdd25b4b	-0.10271319
27	0x3d581675	0.05275579
28	0xbcb3c1ea	-0.021943051
29	0x3da0a8f1	0.07844723
30	0xbc0a5f83	-0.008445623
31	0xbc45ec0b	-0.012080203
32	0x3de4820a	0.111576155
33	0xbdf0fbb1	-0.11766756
34	0x3dac17b7	0.08402961
35	0x3e051ee5	0.13000067
36	0x3c7902b2	0.0151983965
37	0xbe0a4ca2	-0.13505796
38	0x3c2fb94b	0.01072533
39	0xbd66d6a4	-0.05635704
40	0xbd62663b	-0.055273276
41	0xbcec8656	-0.02887265
42	0xbdff2813	-0.124588154
43	0x3e115c0e	0.14195272
44	0xbdca4611	-0.09876645
45	0x3ceed79b	0.029155543
46	0x3decc5ca	0.11561163
47	0x3da010c9	0.078157015
48	0x3cb46c7b	0.022024384
49	0x3e06a023	0.13147025
50	0x3d699dd9	0.0570353
51	0x3dfa9f73	0.12237444
52	0xbd0d8c59	-0.034557674
53	0xbd0f4d42	-0.03498579
54	0xbd888fc7	-0.06668048
55	0xbd879465	-0.06620101
56	0xbcaa3ea2	-0.020781819
57	0x3d9d372a	0.07676537
58	0x3d1e457d	0.038640488
59	0xbda3e6d1	-0.08003009
60	0x3d3e0244	0.04638888
61	0x3d5639ac	0.052301094
62	0xbc0dd546	-0.008656805
63	0xbe06265e	-0.13100573
