runs/8_hour_forecasting/127/best_model.pt (torch, 204409 bytes, 6 tensors)

net.0.weight f4 [64, 712]
00000000: 795c f23c b68a bc3c aa27 9cbb 9a6f 0f3d
00000010: e3cb 97bb 4b60 a03b e656 05bd 105f 933c
00000020: 219a ff3c 7e33 9dbc 3a3a bc3c 6778 c4bb
00000030: 0ac3 da3c b5b8 113c 3857 903b e450 97bb
00000040: ff66 063d 4a5c 163d 5f8a a8bb 732d 7c3c
00000050: 4525 a9bc 11f8 523c a10b 06bc 3277 1d3d
00000060: dc7e 9fbc e954 3fbc 31ae dabb bc10 b5bc
00000070: 03a1 d6bb e0dd d4bc 672d 1c3d 85e7 c2bc
00000080: b649 013d cc60 e43b 3693 e0bb 691c fd3c
00000090: 4797 f0ba 1bfc 0e3d d23b e53a 10f6 3ebc
000000a0: 443b 893c 32d6 8e3b a07f 923c 5c6b 503d
000000b0: 78c1 c43c e6a9 63bc 63da ab3c 1ee8 383c
000000c0: dd6a dd3c efc4 85bc 96c5 98bc 5452 bc3b
000000d0: d786 84bc a6a2 073d 5e4c 5b3c 0717 e53c
000000e0: 2290 863c 97af 963c 929a 293d fcb4 ebbc
000000f0: 3fda 803c 47c8 f4bb b4d7 5d3c bfd2 38bc
00000100: 06df 853c e747 343c d7a8 023d f09f a7bb
00000110: 860d 3fbc ce57 48bc ff7f 1d3d dc93 263b
00000120: a1ff 3d3d 3441 f4bc c6a8 f9bc 3deb 6abc
00000130: b4b3 c4bc 3dc3 6b3c f00b ce3c 220a 623c
00000140: 1ebf 86bc adb9 3fbc b8b2 113d b26a a0bc
00000150: bc54 e53c 8095 12bc 6d70 3d3c 5253 0bbd
00000160: 750e 44bc a562 543c 1c8a a73b af93 9bbb
00000170: cc25 cc3c 20ed e63c 3d77 e7bc 8f18 10bd
00000180: da1c fa3c 1573 41bc b994 78bb 75a7 27bd
00000190: 4a7c 08bd 1f6c 253c ba30 11ba a68f 25bd
000001a0: d003 d33a cd34 9fbc 3bf6 2f3a 49f8 05bc
000001b0: 5d78 f2bc 9a56 e1bc d2f1 503d 77fe 253c
000001c0: 73cb a43c a7ba e7bc 64ec d1bc 597e 28bc
000001d0: aafc d73b 5fec 40bd 4d1e e1bb f972 9ebc
000001e0: 5621 393b 2dc0 74bc 3f2c 8bbb fb29 89bc
000001f0: 3a94 84bc 18ed f2bc 5bda 29bc d1af e8bc
00000200: 2311 0d3d 563b a2bb 2449 383d 3895 403c
00000210: 1c44 8bbc 0c9f d93c 22dd e4bb f83b 1fbc
00000220: d2fa ccbc 44f8 8bbc ab59 2e3c a15f 2a3c
00000230: c633 0b3d b079 a2bc ffea e63c b2ca dfbc
00000240: 49ba 983b 50ee 323c dccd 1a3d 6304 263d
00000250: b9ff ef3c ac42 93bc 53ad d93c 96a2 89bc
00000260: 4779 8abb 78be d2bc f16b 573d ab2f eebc
00000270: e6dc 143d 34b4 c23c 1b43 af3c aca8 90bc
00000280: f63d c93c b0ba 943c 205c 5d3b 185e d0bc
00000290: e701 eb3c 4a2d f6bb f5de 97bc 9766 213d
000002a0: 9809 19bc 68fd acbc 385a dfbb 8e4e 5d3c
000002b0: 5a78 8f3c 8cbc bfbb 5c2a c1bc 665f b2bc
000002c0: 48ba 06bd 0766 a63c 5997 f63c 7d73 12bd
000002d0: 23cd 383c 3abb aa3c 756a 4c3c f06c 63bc
000002e0: c0d0 0c3b b89e 663c c8e6 913c 8470 4bba
000002f0: a805 92bc ef4d afbb 6bad cfbb c05a f1bb
00000300: ed8b 4c3c dc4d f33c 3b80 a53b 0122 9a3c
00000310: 6879 203c f8fe 82ba f9e4 a33b 6101 c03c
00000320: 12bf 03bd 4d4e f2bb 1fb4 0f3d a97b 303c
00000330: 0280 9d3a f66b d2bc 1d1e 26bd 1676 dcbc
00000340: 4ad1 2fbc d8be 873c 037e 9c3c 8d6d 8e3c
00000350: 602e a4bc e77b 6fbc ec48 4fbc 8be4 163d
00000360: 8c83 fc3b 8b08 ccbb f718 963c 6c56 80bb
00000370: 10df babc 371f 253d 2087 2bbb 1e6e debb
00000380: 6977 12bd b778 d33c d694 273d 4a04 2f3c
00000390: 9b66 13bc f955 93bc ed4f aabc 9e97 d83c
000003a0: f2bb 813c d114 2b3d d7ee b03c 695d e23c
000003b0: eef9 0b3c a387 11bd 47ad b1bc c9a6 97bc
000003c0: 4ba6 423c 71bf a3bc 2913 f1bb dcf6 43bb
000003d0: 20f8 2dbc e5eb 28bc 7a68 47bc cd23 a83c
000003e0: 4f9c 30bc 3f72 653c d904 e3ba 40de e6bc
000003f0: 9c22 263b 5138 02bc 5737 61bc c3f8 1abd
0.02958511 0.023015361 -0.0047654705 0.03501854 -0.0046324595 0.0048942915 -0.032553576 0.017989665
0.031201424 -0.019189592 0.022976983 -0.0059957984 0.02670433 0.008894135 0.0044049285 -0.004617797
0.03281307 0.036709107 -0.0051434482 0.015391695 -0.020647654 0.012876526 -0.0081814835 0.03844375
-0.019469671 -0.011677959 -0.0066735973 -0.022102706 -0.006549956 -0.025984704 0.038129237 -0.023792038
0.031564437 0.006969547 -0.0068534864 0.030897336 -0.0018355631 0.034908395 0.0017489141 -0.011655346
0.016751893 0.00435903 0.017883122 0.050883636 0.024018034 -0.013895487 0.020978158 0.01128581
0.027028495 -0.016329257 -0.018648904 0.005747119 -0.016177578 0.033114098 0.013384907 0.027965082
0.01642615 0.018394275 0.041407175 -0.028772824 0.015729068 -0.007470164 0.013540197 -0.0112807145
0.016341697 0.011003471 0.0318993 -0.0051155016 -0.011660939 -0.0122279655 0.038452145 0.002541772
0.046386365 -0.029816248 -0.030475985 -0.014338312 -0.02401147 0.01438981 0.025152177 0.013796361
-0.016448554 -0.011701983 0.03557083 -0.019582126 0.027994506 -0.008946776 0.011562449 -0.034015007
-0.011966337 0.012962972 0.0051128995 -0.00474783 0.024920367 0.028189242 -0.0282551 -0.03517967
0.030531336 -0.011807223 -0.0037930442 -0.040931184 -0.033321656 0.010096579 -0.0005538572 -0.040420197
0.0016099159 -0.019434357 0.00067124114 -0.008176872 -0.02959841 -0.027507115 0.051011868 0.01013147
0.020116543 -0.028287245 -0.025625415 -0.01028403 0.006591399 -0.04710042 -0.006870067 -0.019341933
0.002824863 -0.014938396 -0.004247218 -0.01674365 -0.016183961 -0.02965407 -0.010367001 -0.028404148
0.03444017 -0.004950921 0.044991627 0.0117543265 -0.01700025 0.026565097 -0.006984369 -0.0097188875
-0.025021944 -0.017086156 0.010641496 0.010398776 0.033984922 -0.019833416 0.028188227 -0.027318332
0.004660879 0.010921076 0.03779398 0.040531527 0.029296743 -0.017976128 0.026571905 -0.01680116
-0.004225883 -0.025725588 0.052593175 -0.029075464 0.036343478 0.023767568 0.021394303 -0.017658554
0.024565678 0.018155426 0.0033776835 -0.025435492 0.02868743 -0.007512723 -0.018538931 0.039404478
-0.009340666 -0.021116927 -0.006816175 0.013507498 0.017513443 -0.005851334 -0.023579769 -0.021774005
-0.032892495 0.020312322 0.030101465 -0.03575467 0.011279377 0.02084123 0.012476553 -0.013880953
0.002148673 0.014075927 0.01781024 -0.00077606016 -0.017824963 -0.0053498666 -0.0063378117 -0.0073655546
0.012484533 0.029700212 0.0050506867 0.018815042 0.0097945705 -0.00099942 0.005001661 0.023438158
-0.03216464 -0.007394588 0.035083886 0.01077167 0.0012016299 -0.025686245 -0.040556062 -0.026911777
-0.010731051 0.016570494 0.019103056 0.017386222 -0.020041645 -0.014616943 -0.012651663 0.03683905
0.0077061113 -0.0062266043 0.018322451 -0.0039165523 -0.022811443 0.040312972 -0.002617307 -0.0067880293
-0.03575841 0.025814397 0.040913425 0.010682175 -0.008996631 -0.01798533 -0.020790065 0.026439484
0.01583669 0.0417679 0.021598263 0.027632432 0.008543475 -0.035529744 -0.02168907 -0.018512147
0.011880468 -0.019988747 -0.0073570204 -0.0029901778 -0.01061824 -0.010310148 -0.012170905 0.020524884
-0.010779454 0.014004289 -0.001732017 -0.028182149 0.0025350219 -0.007947997 -0.013746104 -0.037834894

net.0.bias f4 [64]
00000000: 515d b3bc 135f c93b 3de5 bebc f55d 1c3b
00000010: 6b70 8ebc 638a bcbc 9e30 3c3a 9c08 24bd
00000020: b636 513c 3538 803a 8efd 1abb cadd 253d
00000030: 7cc1 d63c b381 733c 9234 d8bb c52e 25bc
00000040: 251b 683d 2274 0e3d d032 89bc ec1d 1b3d
00000050: 0bce 613c 5cc7 fa3c cd79 1e3d 1600 833c
00000060: bb98 bb3c 4cf5 163d 1eb6 44bc be2a 313b
00000070: d443 863d bb9f a0bb daec 483d 2aa9 1f3c
00000080: ac30 993b 4161 203d fa97 92bc 7b8c de3c
00000090: d7ee 043c 7a21 c03c 428a 8dbb 7970 94bc
000000a0: 20b2 6ebc 7792 a1bb 175a 463c ccf1 42bc
000000b0: 507d 0e3d bb0d f3bc 1618 8239 1081 22bd
000000c0: 6905 92bc ba50 363d 1d07 053d e709 443d
000000d0: 5a44 1c3d dc79 df3c 5a16 063d 79d1 c6bc
000000e0: bdd9 b0bc d810 a1bb 65ad d8bc b953 39bb
000000f0: 2872 06bd 4fff c6bb abb4 6abc 1067 6e3c
-0.021895083 0.006145367 -0.023302669 0.0023859714 -0.01738759 -0.023015207 0.00071788754 -0.040047273
0.012769392 0.0009782376 -0.0023649666 0.040494718 0.026215307 0.014862466 -0.0065980637 -0.0100819515
0.056666512 0.03477872 -0.016747862 0.037870333 0.013782035 0.03061264 0.038690377 0.015991252
0.022899976 0.036855027 -0.012006311 0.0027033533 0.06555906 -0.004901854 0.049054004 0.009744922
0.0046749916 0.03915525 -0.017894734 0.027166596 0.0081135845 0.023453463 -0.00431946 -0.018120037
-0.0145688355 -0.00493079 0.01210644 -0.011898469 0.034787476 -0.029669633 0.00024813478 -0.039673865
-0.017824845 0.04451058 0.032477487 0.047861006 0.038151123 0.027279787 0.03273616 -0.024269806
-0.0215882 -0.004915338 -0.026449868 -0.0028278662 -0.03282371 -0.0060729156 -0.014325301 0.014550939

net.2.weight f4 [64, 64]
00000000: 5e8e 503d d3ce 143e a771 943d 2dad a2bd
00000010: 251b dd3d 1079 c2bd 607f aebd d10f ea3a
00000020: fd6d a63d ada9 3bbd e773 e7bb cd9b 02be
00000030: ede1 13be 9ab4 203d f7f9 d73c dac3 d93d
00000040: df62 743c e4a9 f3bd d526 f5bd fee0 13be
00000050: 6e6c f83d 4329 003c cb31 963d 419b 9fbd
00000060: 68f0 e8bd 1a42 1a3e 95d9 e8bc 4cb4 193d
00000070: d1fa c93d 88a5 a8bd 28ab 933d a0f2 4abc
00000080: 8094 69bd 9df4 393d 725c d6bc 1ae2 963d
00000090: 1f45 9b3d b238 933d 1581 cdbc a81a 3f3d
000000a0: dd69 fb3d 456d 113d 1121 bc3d 2eed 023e
000000b0: 1c5e 02be dbb4 133d 5cc3 d6bd 923f 9a3c
000000c0: 7d9a 913d 3a9e 84bd 9fe3 38bd 10c0 ac3d
000000d0: e8fd ebbc 4a1c 7c3d d3d4 6a3d 848d 9bbd
000000e0: 8c7e 27bd fb09 99bd eb81 57bd 53d2 a4bd
000000f0: 0ebb 1b3b 6a91 6c3d 7f0b 9e3d ed55 5c3c
00000100: cbc5 ab3d 715b 5d3d 1ecd e53d 8bd6 66bd
00000110: 695f 8a3d 1e69 583c 0043 493c 4ea3 22be
00000120: 2711 aabc d3e6 cf3c dc80 d53d 1f23 c7ba
00000130: efcc ed3c b877 9a3c f429 813b 2be2 e2bd
00000140: c36c af3d 284c a9bd e53c f4bd c67b c8bd
00000150: 21f0 ddbc 8420 09be b9d3 fcbd 423c 813d
00000160: 9ad0 2abd 1341 b3bd e06c cbbd 9ede 133d
00000170: 9a5e 0f3d aba9 f63d 4d50 5e3d 6cb3 9a3c
00000180: a031 a23d d70d b23d c0ce adbd c6e6 12be
00000190: afc5 1abb fdb0 adbd 1c5a 1bbc ad61 4fbd
000001a0: 16d4 7f3c cb7d d33d 75ab 453d ebad 15bc
000001b0: b6bb 843c 6c6e c93d c458 c9bd 8679 31bd
000001c0: 342b c1bd b7b9 21bd 7258 acbd f947 a33d
000001d0: dcbc 313d ba92 bcbc ebe7 ba3d 2b6b 96bd
000001e0: 50c1 a5bd 3de1 ee3d 0546 0f3e aaf5 7abd
000001f0: 58fc 3b3c 2e96 97bc fa6b 713c 6623 cc3c
00000200: ab65 a03c 2e0f dbbc 6b2b e53d 9596 c5bc
00000210: afab 163e 5a1f d1bd e6ba 1cbd 1714 ac3c
00000220: 60d9 49bd 941e 99bd 759d 863c d0b0 0c3e
00000230: d79f e13d 01f5 4e3d fd66 64bd 640a 60bd
00000240: deb3 bfbd 3fcc 1cbe 4565 01bc 5d40 c6bd
00000250: abf0 213c 1d55 95bd 7212 e03d 7fdb 463d
00000260: cb8e 8cbc ab5a a43d 2f28 e23c 9718 5ebd
00000270: 0390 4f3d 3222 d7bd 3c7c ae3c 7bba e2bd
00000280: e3cf 0ebd 9398 d43d e68f ce3b 59a2 3b3d
00000290: c9ce d8bc 45cc 0dbe 7012 9ebd 2cc0 b63d
000002a0: dcf3 243e 65a8 9abc 62af e23d fe37 62bd
000002b0: f591 133e 4f5f 4e3c 0737 7bbc e6fe a33d
000002c0: d15f f43a fa0b 4c3d 2d65 25bd abae 163d
000002d0: 8796 1dbc e1bb 163d 7d03 e53c 3b2c 05bd
000002e0: eca0 713c 8d80 363d 7f6b 063e d8c1 853d
000002f0: 7164 65bd 714c f3bb 1ce5 83bb 5c61 293d
00000300: f5f4 90bd 682a 463d 65be acbd 3de6 57bd
00000310: 8b4b 5ebd 7fb3 a2bd 32d7 66bd c3c6 c13d
00000320: daf9 be3d eba7 da3d 7fcc c0bd 74a0 83bd
00000330: ece6 5ebd 2b2f 383c 7ee2 6abd 53d4 bc3d
00000340: f546 07bc 5171 d73d 8824 99bd e592 10bd
00000350: ee56 d73a af22 ec3b 4b8d 64bd 1eba 1b3d
00000360: 705c d03d fe52 5e3c 2e58 8cbd 984c fb3d
00000370: 0d1b 88bc 5ed7 fb3b ab8a afbd 1171 973d
00000380: 2162 ae3d dc41 053e 70ad d8bc 866c c0bc
00000390: b258 d3bc c574 50bd 870d c0bd b461 0cbe
000003a0: f995 d8bc ac2a 53bd 2ecf 7bbb 376c a6bd
000003b0: f7f8 cabd ed45 a2bc 1d91 2e3d 419a 8abd
000003c0: 667e 8f3d 0ec4 543d 393d 7abd b180 8f3d
000003d0: 9b0c ce3c 3f6e 683d 44f6 973c 7fef 903d
000003e0: e8b6 f33d ed18 b7bd 5bb5 c53d 8f4a c2bd
000003f0: 3fab 51bd 89ed 123e 7c46 43bd a574 a93d
0.050917022 0.14532022 0.0724824 -0.07943187 0.10796193 -0.09495747 -0.085203886 0.0017857497
0.08126447 -0.045816112 -0.007063377 -0.12754746 -0.14441653 0.039234735 0.02636431 0.10633059
0.014916151 -0.118976384 -0.11970297 -0.14441296 0.12130056 0.007822338 0.07333716 -0.07793284
-0.11373979 0.15064278 -0.028424064 0.03752546 0.098622926 -0.082346976 0.0721038 -0.012386948
-0.057026386 0.045399297 -0.026167128 0.07367344 0.07581543 0.07188548 -0.025085965 0.04665628
0.12276051 0.0355046 0.091859944 0.1278579 -0.12731212 0.03606115 -0.104864806 0.01882914
0.071095444 -0.06475492 -0.04513895 0.084350705 -0.028807595 0.061550416 0.05733187 -0.07595351
-0.04089217 -0.07472607 -0.052614134 -0.08047929 0.0023762616 0.057755865 0.077170365 0.013448221
0.083873354 0.054042283 0.112207636 -0.056356948 0.06756479 0.013208656 0.01228404 -0.15882608
-0.020760132 0.02537862 0.104249686 -0.0015192962 0.029028384 0.018855914 0.003941769 -0.11078294
0.085656665 -0.08266479 -0.11925677 -0.09789233 -0.027092041 -0.1339131 -0.123450704 0.063103214
-0.041702844 -0.08752646 -0.09932876 0.036100976 0.03500233 0.1204408 0.0542758 0.018884383
0.079196215 0.08694046 -0.084867 -0.14345846 -0.0023616364 -0.084810235 -0.009481933 -0.05063026
0.01561453 0.103267275 0.048259217 -0.009135704 0.016202789 0.098355144 -0.09831384 -0.043328784
-0.094320685 -0.039483752 -0.08415307 0.07972712 0.043393 -0.023019183 0.09126266 -0.073446594
-0.08093512 0.116640545 0.13991554 -0.06126944 0.011473738 -0.018504228 0.014735216 0.024919223
0.019579729 -0.026740637 0.11189922 -0.024119655 0.1471393 -0.10211058 -0.038264178 0.021005673
-0.04927957 -0.074765354 0.016432503 0.13739324 0.11016815 0.050526623 -0.05576228 -0.05469741
-0.09360479 -0.15312289 -0.00789768 -0.09680245 0.00988404 -0.07291625 0.10941018 0.04854917
-0.017157933 0.08025106 0.027607052 -0.05422267 0.05067445 -0.10504569 0.021299474 -0.110707246
-0.034866225 0.10380664 0.006303775 0.045809124 -0.02646579 -0.13847454 -0.077183604 0.089233726
0.1610865 -0.018879125 0.11068608 -0.05522918 0.14411147 0.0125959655 -0.015332944 0.080076024
0.0018644278 0.04981611 -0.040379692 0.03678767 -0.009618408 0.03680027 0.027955765 -0.032512885
0.014747839 0.04455619 0.13126944 0.065311134 -0.05600399 -0.007424884 -0.0040251147 0.041352615
-0.07077972 0.048380286 -0.084347524 -0.052709807 -0.054271262 -0.079443924 -0.05635757 0.09461739
0.09324999 0.10676559 -0.094140045 -0.064270884 -0.054419443 0.0112417145 -0.057344906 0.09220185
-0.008256664 0.1051966 -0.07477671 -0.03529634 0.0016429105 0.007206283 -0.05579881 0.038019292
0.10173881 0.013569592 -0.068527564 0.122704685 -0.016614461 0.007685586 -0.08571371 0.073946126
0.0851481 0.13013405 -0.026449889 -0.023489248 -0.02579913 -0.05089261 -0.0937758 -0.13709146
-0.0264387 -0.051554367 -0.003842305 -0.08126109 -0.099107675 -0.019808734 0.04261886 -0.06767703
0.070065305 0.051944785 -0.061093543 0.07006968 0.025152495 0.056745764 0.018550046 0.0707693
0.11900121 -0.08940301 0.096537314 -0.09486877 -0.051188704 0.14348425 -0.04767464 0.08274201

net.2.bias f4 [64]
00000000: beea c9bd b579 bdbd 25ee 95bd 4bed 42bd
00000010: 8417 ad3d a265 19bd 8be7 873d 2374 5b3d
00000020: 0d34 543d 7359 9c3c 02f8 d4bc 2858 003e
00000030: 1498 d23d aa44 cf3d ef1b 12bb 8bfd eb3d
00000040: ad73 063e a86d 783c 5b22 ef3d 40a9 a43c
00000050: 5d79 5b3d 26b2 89bd e974 8fbd 62c7 873d
00000060: de15 4ebd 9ec3 c3bd 4e6a e13d 8fb2 d03c
00000070: e19a eb3d acd4 963c 4cc4 f93c 9e9b 633d
00000080: 65db 53bb ad76 f03c 9bb2 9b3c 6fb1 0a3e
00000090: ab6d 9cbd 5d6e 9dbd fee0 60bd 26c4 97bd
000000a0: c0f4 04bc e123 a4bc c562 46bd a475 65bd
000000b0: 681b c13d c0f7 d0bb b3ca a4bd 125f 82bd
000000c0: e6c9 d03d fd3d f23d df33 113d 5f80 4dbc
000000d0: db32 22bd 9560 a6bc 7784 973d c48f 72bd
000000e0: f5c8 ed3d 203a 78bc 6c00 03bd 779c ab3c
000000f0: 2edc 883c 15aa 4b3c f3d6 883d 480f ba3d
-0.09859227 -0.092517294 -0.07320813 -0.04758958 0.08451751 -0.03745044 0.0663596 0.053577553
0.051807452 0.019085621 -0.025997166 0.12533629 0.10282913 0.101205185 -0.0022294482 0.11522969
0.13130064 0.015162863 0.11676475 0.020100236 0.053582538 -0.06723432 -0.07004721 0.06629826
-0.050313823 -0.095587954 0.11006604 0.025475768 0.1150415 0.018411957 0.03048911 0.05556833
-0.0032326814 0.029353464 0.019006064 0.13544248 -0.07638105 -0.07687066 -0.05490207 -0.07410459
-0.008114994 -0.02003664 -0.048434038 -0.056020394 0.094290555 -0.0063771904 -0.08046474 -0.063657895
0.10194759 0.118282296 0.03544986 -0.012542813 -0.03959928 -0.020309726 0.073983125 -0.059219137
0.11610595 -0.015150577 -0.031982824 0.020948632 0.016706552 0.012430687 0.06681623 0.09084946

net.4.weight f4 [8, 64]
00000000: 2913 763c 50ff 753b 7bfa 07be 6b04 95bd
00000010: a664 b43b cd16 6ebc 1642 c83d 0f94 5dba
00000020: b9a6 37bd d2ba f8bd 3beb b33d 537f c83c
00000030: 4b95 0a3e 4882 b2bc ba04 5abc 4f4a 25be
00000040: b820 233b d808 01bd 0d4e b03d 5850 2f3e
00000050: 399a cfbd ad8f 343d 1a34 95bd 604a d53a
00000060: 96fc 773d c4cd 453d 8667 2abc b32b fabd
00000070: 9e89 7fbd 6507 d43c ece3 86bc 031c b3bd
00000080: 02ed 173d 3a27 433d 568a 41bd 68f1 b43c
00000090: 0b48 ea3c a373 99bd f6ff 0d3d c327 cfbb
000000a0: c9af f8bd e9fe 913d 4c22 90bd 0158 43bd
000000b0: 19b3 3a3b ec18 493d 9683 b9bd 1982 873d
000000c0: b586 113e 92a6 a3bd bb3a 963d 66ba 1cbe
000000d0: eb76 5f3d 3915 a53c 7f1f e3bd 7535 6cbd
000000e0: 6dad d83d c979 d9bb 0aa3 9d3d 3e8d f73d
000000f0: b1fb 9fbd 9b90 b1bc efbb da3d a0a5 343d
00000100: 1e3a e6bd 86ee 973d 0846 68bd b1dd 25bd
00000110: 4b4e b93c 80f7 8cbd 509f 463d f205 1d3d
00000120: a125 acbd fb70 dabd 2882 49bd 19b0 c3bd
00000130: 330f 9c3d e5e4 d8bc b3e6 bcbd a79f 15be
00000140: 8707 483d b799 b33d 54c9 01be e316 1d3e
00000150: 2458 123d 8c1e 2e3d be2f ec3d f83a b4bb
00000160: 3b1d 0c3d b3a7 bdbd b475 b0bd 86b6 acbd
00000170: eeed 2fbd a586 95bc 3ce0 40bd f838 0f3e
00000180: 97e1 ae3c 8a2c 8f3d 51d3 84bd 7181 c33d
00000190: 13db c33d faae 8cbd f01f 55bc c83a e6bc
000001a0: 1323 a0bd 2653 b43d c1fb 3a3d 11f3 3cbc
000001b0: 7c1b 81bc 2193 013e b9a0 f23c bebd 753b
000001c0: e7aa 823c 343e 973d 1e8d a63c 28ed 8abd
000001d0: f9ec df3c edbc 50bd c579 31bd f734 b2bc
000001e0: be0c e93d 620c c1bd 75a0 f63c c5ca d23d
000001f0: f623 bbbd 916f 83bc a7a9 8b3d d475 413d
00000200: d90f 7abc de83 38bb 72e2 98ba 300e d6bd
00000210: 46db 96bd 5a0a 15bb 9757 c43d 52ad e3bd
00000220: 4aab 8abd ff61 babd b043 063e fe9f e4bb
00000230: e050 833c 4656 7e3d 6d2e 11bd f893 423c
00000240: 95ca 15bc 49cc 943d 0fcf 4c3d 0af4 163e
00000250: 05c3 2b3e 48b0 a63c 280c aa3d fef3 ce3d
00000260: 4d44 ae3b cb6d 0dbd c10c 24bd eb56 11be
00000270: 863b d0bd 3862 ef3d 4e26 f3bd 354e 5a3d
00000280: 6b91 ac3d 4f14 d83d 1c53 febd c227 c2bb
00000290: db76 343d 2510 0fbe 3dff c03d 9fb6 8cbb
000002a0: 8853 0fbe 7db5 d4bc 86f2 f73c c002 0dbe
000002b0: 2410 463d bb25 f2bb 6e4c 40bc e43e 723d
000002c0: c9ca 833d 555f dfbd 2e53 323c bb55 59bd
000002d0: 7b85 99bd 4755 8b3d d8b5 283d 3a73 e2bd
000002e0: 790e 063e 6f7e fdbc 7ddb 3e3c 004d 883d
000002f0: f47a 2cbd e694 343b 9ff1 ddbd ec76 0f3e
00000300: b810 923b 8a3d 47bd f43f efbc 5c11 873c
00000310: 058a b6bb 4f5c 0abd e70c f13d 032b 833d
00000320: 012d 03be bff1 14be de4a c2ba 0d21 0bbe
00000330: de90 44bd 857f d7bc ecf2 243d 73ac 63bd
00000340: 312b a73d 3fb5 4cbd 7c3a e6bc bf27 783d
00000350: 13f1 c43d 1676 213d 1a9e 2fbc 0618 0c3e
00000360: bbfd c73d 94fe 85ba 7d46 b1bd 171c cfbd
00000370: e944 07ba 5788 0d3e 1617 563c 366a d13d
00000380: 55ea 0f3d 8e4d e83d 0125 d8bd d679 203e
00000390: 3d5c 6d3d fc26 b1bd 5a84 183e 4582 463d
000003a0: 4651 f03c 343b 173e 0588 57bc 66e7 eebd
000003b0: a9f2 003e 771d 9d3c 4a16 d0bd bc50 513d
000003c0: 8de8 64bd 18ba 913d 4e7f f8bc da7c abbd
000003d0: 23cf f53c cf87 f13d 2d24 bd3c 3859 9e3d
000003e0: ac6f 21bc 8da3 d6bd 5b9e 7a3d 4e79 15bd
000003f0: 173b 83bd 3ec7 0cbe c17f dcba 6e87 88bc
0.015019217 0.0037536211 -0.13279144 -0.07276233 0.0055051623 -0.014531803 0.0977823 -0.00084525434
-0.044836733 -0.12145008 0.08785101 0.024474775 0.13533513 -0.021790639 -0.013306791 -0.16141628
0.0024891328 -0.031502575 0.08608637 0.17120492 -0.101368375 0.044082332 -0.07285328 0.0016272776
0.06054362 0.048291937 -0.0104006585 -0.12215366 -0.0623871 0.025882432 -0.016466103 -0.08745577
0.037091263 0.04764483 -0.047251068 0.022087768 0.028598806 -0.07492759 0.03466793 -0.0063218786
-0.12142903 0.071286984 -0.070377916 -0.04769135 0.0028488098 0.049096033 -0.09058301 0.06616611
0.14211543 -0.07990755 0.07335421 -0.1530548 0.05455677 0.020151721 -0.11089992 -0.057668168
0.10579953 -0.0066368324 0.07697113 0.12087487 -0.07811678 -0.021675399 0.10680377 0.044103265
-0.11241554 0.074185416 -0.056707412 -0.040494625 0.02262034 -0.068831444 0.048491776 0.038335748
-0.08405615 -0.106660806 -0.049196392 -0.09555072 0.076200865 -0.026476333 -0.0922369 -0.14611684
0.048835304 0.08769553 -0.12674457 0.15340762 0.03572859 0.0425096 0.115325436 -0.0055001937
0.034207564 -0.09260502 -0.086162 -0.08433251 -0.042951517 -0.01825268 -0.047088847 0.13986576
0.021347804 0.06990917 -0.06485618 0.09546173 0.095632695 -0.06869312 -0.013008103 -0.028104201
-0.0781919 0.08804922 0.045650247 -0.011532561 -0.015760176 0.12653781 0.029617654 0.0037497128
0.015950633 0.07384911 0.020330962 -0.06783515 0.027334677 -0.050961424 -0.04332902 -0.021753771
0.113793835 -0.0942619 0.030105809 0.102925815 -0.091377184 -0.01604441 0.06819468 0.04723151
-0.015262567 -0.002815477 -0.0011664166 -0.10451925 -0.07366042 -0.0022741766 0.09587019 -0.111170426
-0.06770952 -0.091007225 0.13111758 -0.0069770804 0.016029775 0.062093996 -0.035444666 0.011876099
-0.009142538 0.07265527 0.050002154 0.14741531 0.16773613 0.02034773 0.083031 0.101051316
0.0053182007 -0.034528535 -0.040051226 -0.14193313 -0.10167603 0.116886556 -0.118725404 0.05329724
0.08426174 0.105507486 -0.124181956 -0.0059251497 0.044058662 -0.13971002 0.09423683 -0.004294231
-0.13996708 -0.025965447 0.030267011 -0.1377058 0.048355237 -0.0073897517 -0.011736972 0.05914201
0.064351626 -0.10906855 0.010884089 -0.053060275 -0.074961625 0.06803375 0.041189045 -0.11057134
0.13091458 -0.030944077 0.01164901 0.066553116 -0.042109445 0.002755457 -0.10837101 0.14010209
0.0044575594 -0.048642673 -0.0292053 0.01648777 -0.0055706524 -0.03377944 0.11770039 0.06404688
-0.12810136 -0.14545344 -0.0014823338 -0.13586827 -0.04798972 -0.026305923 0.04027073 -0.055584382
0.08162535 -0.049977537 -0.02810406 0.06058478 0.09616294 0.039419256 -0.010718847 0.13681039
0.09765192 -0.0010222965 -0.08656023 -0.101127796 -0.000516011 0.13821541 0.013067028 0.10225336
0.035135586 0.113429174 -0.10553933 0.15671477 0.057949293 -0.08650014 0.14894238 0.04846408
0.02933563 0.14768678 -0.013154988 -0.116652295 0.12592568 0.019179089 -0.10160501 0.051102385
-0.05588584 0.07115573 -0.030334141 -0.08373423 0.030005997 0.117934816 0.023088539 0.07731861
-0.009853285 -0.104804136 0.061186176 -0.03649264 -0.06407755 -0.1374788 -0.0016822742 -0.01666614

net.4.bias f4 [8]
00000000: bdca e9bd 4e45 1ebd b9dd bc3d 4e72 c1bd
00000010: cb4d aa3d e799 88bd af0d b4bd 136b 223d
-0.114156224 -0.038640313 0.09221978 -0.0944563 0.08315619 -0.066699795 -0.087916724 0.039652895
