runs/4_hour_forecasting/335/best_model.pt (torch, 421048 bytes, 10 tensors)

lstm.weight_ih_l0 f4 [512, 49]
0.017938083 0.047203075 -0.057789624 0.055745732 -0.054928266 -0.012328989 -0.073057406 0.03970561
0.064970456 -0.0641778 0.07995173 0.020049876 0.06894627 0.013869508 0.05116171 -0.0010087406
0.07514698 0.015323145 -0.06363667 -0.0093969405 -0.07673089 -0.03491209 -0.046052855 0.027959103
-0.11280244 -0.064957045 -0.04987382 -0.09582302 -0.028259113 -0.10149423 0.066606924 -0.08433745
0.024602758 0.008938155 -0.06201233 0.0038126807 0.02394928 0.0997654 0.0198189 -0.025696484
0.028623538 0.0080752745 0.057222243 0.09854835 0.07959874 -0.07553468 0.080543295 0.022396363
0.01922952 -0.09606702 -0.10009731 -0.013512707 -0.056633227 0.0864629 0.018819405 0.00920919
0.045368165 0.009895297 0.07478979 -0.06590214 0.004071084 -0.061865352 0.014886488 -0.010907774
0.046967104 -0.0027434865 0.07989779 -0.061443347 -0.051853415 -0.05802427 0.062003832 0.021147737
0.080521315 -0.07220451 -0.073500484 -0.050199796 -0.07751792 0.023837445 0.050858956 0.090367064
-0.030956578 -0.082436435 0.062948905 -0.03664278 0.020206748 -0.00469373 0.085791275 -0.028510774
-0.0047313543 0.058683977 0.052338548 0.0046652146 0.09726611 0.10363133 -0.060763456 -0.07278232
0.08618341 -0.051680524 -0.07043487 -0.081057794 -0.039011225 0.02755428 -0.030850857 -0.08266097
-0.028976312 -0.060174674 -0.07342189 -0.04182411 -0.07212719 -0.049114563 0.08067859 0.014469278
0.04127025 -0.09945583 -0.056499377 0.0074927793 -0.0008583999 -0.10264647 -0.057920106 -0.07932353
-0.005548776 -0.094124004 -0.031490244 -0.06722195 -0.08285071 -0.08328035 -0.057944782 -0.06548682
0.07458178 -0.017954363 0.045645826 0.03432531 -0.09741871 0.026758 -0.059252728 -0.054373085
-0.09715781 -0.11425557 -0.0021099988 -0.04368585 -0.0077633155 -0.10122754 0.039046027 0.053106096
0.057793953 0.03733007 0.04344625 0.11810412 0.0971595 -0.040234376 0.050861232 -0.004731829
0.014120628 -0.046677344 0.10172345 -0.068210885 0.008357307 -0.0023330834 -0.0065313564 -0.09487593
0.035755083 -0.004483333 -0.017584095 -0.10957325 0.003587391 -0.0043251673 -0.01719418 0.08854165
0.046978295 -0.027106663 -0.040101383 -0.010302526 0.070501186 -1.6063095e-05 -0.0676604 -0.035282526
-0.0451484 0.040381275 0.06471771 -0.09960303 0.019035406 0.059994094 -0.0045476966 0.022465158
0.091717035 0.10011644 0.08004745 0.028875431 0.017307987 0.047602136 0.029868824 0.01414754
0.04132982 0.039597128 0.010888609 -0.02783833 -0.049645536 -0.054214165 -0.02825914 -0.021374198
-0.12287479 -0.07774378 0.0242391 -0.017152194 -0.05637374 -0.02839866 -0.025516707 -0.051506035
-0.010914696 0.051921103 0.1052731 0.07749921 -0.029024132 -0.031062728 -0.009199446 0.07113197
-0.010834298 -0.055590317 0.036232427 -0.04971919 -0.058218773 0.045528065 -0.053464256 -0.038003303
-0.09267791 0.09567097 0.104638614 0.07182943 -0.09049614 -0.047771912 -0.06308602 0.011789749
0.0107358275 0.060429573 0.028362319 0.0017701845 -0.023194293 -0.077234596 -0.09868998 -0.0956356
0.030474622 -0.016130796 0.026747944 -0.032874566 -0.022019187 -0.14614719 -0.073022306 0.021747584
-0.051572204 0.00913299 -0.04980235 -0.1317725 -0.016262671 -0.04493177 -0.021520525 -0.10384777
00000000: e3f2 923c 0358 413d d0b4 6cbd a355 643d
00000010: 76fc 60bd 87ff 49bc 1f9f 95bd 5aa2 223d
00000020: 3b0f 853d a76f 83bd bcbd a33d a33f a43c
00000030: b433 8d3d ef3c 633c f18e 513d b837 84ba
00000040: a9e6 993d ee0d 7b3c f153 82bd a0f5 19bc
00000050: 1625 9dbd fbff 0ebd eba1 3cbd 7d0a e53c
00000060: f704 e7bd 3308 85bd 7e48 4cbd dc3e c4bd
00000070: a87f e7bc 35dc cfbd 3669 883d 1db9 acbd
00000080: b98b c93c 5771 123c a400 7ebd 2bde 793b
00000090: 4831 c43c cd51 cc3d 3f5b a23c 6f81 d2bc
000000a0: e97b ea3c 284e 043c df61 6a3d b8d3 c93d
000000b0: aa04 a33d edb1 9abd e2f3 a43d 9478 b73c
000000c0: 3a87 9d3c c9be c4bd d2ff ccbd 6764 5dbc
000000d0: 3ef8 67bd 7613 b13d 272b 9a3c 24e2 163c
000000e0: f8d3 393d e21f 223c 642b 993d b4f7 86bd
000000f0: ba66 853b 8666 7dbd 75e6 733c 85b6 32bc
00000100: 9460 403d 11cc 33bb 74a1 a33d 05ac 7bbd
00000110: 3f64 54bd dbaa 6dbd bbf7 7d3d 053e ad3c
00000120: 5ce8 a43d f5df 93bd 6c87 96bd 4d9e 4dbd
00000130: b7c1 9ebd bf46 c33c 7b51 503d 5e12 b93d
00000140: a698 fdbc 6fd4 a8bd 5beb 803d bd16 16bd
00000150: 9f88 a53c dccd 99bb 56b3 af3d 6d8f e9bc
00000160: 7a09 9bbb 9c5e 703d f260 563d a8de 983b
00000170: 7433 c73d aa3c d43d 1ae3 78bd e60e 95bd
00000180: ed80 b03d f5ae 53bd 2840 90bd a101 a6bd
00000190: 3cca 1fbd 83b9 e13c f0ba fcbc 284a a9bd
000001a0: bb5f edbc b879 76bd 375e 96bd c24f 2bbd
000001b0: 6cb7 93bd 5a2c 49bd d13a a53d 8d10 6d3c
000001c0: fe0a 293d 80af cbbd e46b 67bd fd85 f53b
000001d0: 3e06 61ba 5038 d2bd a23d 6dbd 6074 a2bd
000001e0: 82d2 b5bb 16c4 c0bd eafb 00bd a9ab 89bd
000001f0: a2ad a9bd e38e aabd 8257 6dbd f41d 86bd
00000200: 55be 983d 0715 93bc 1ef7 3a3d b298 0c3d
00000210: 7683 c7bd 9833 db3c fdb2 72bd 50b6 5ebd
00000220: adfa c6bd d3fe e9bd e847 0abb efef 32bd
00000230: 6963 febb 6250 cfbd baee 1f3d c785 593d
00000240: 5ab9 6c3d 6ae7 183d b2f4 313d 93e0 f13d
00000250: 8ffb c63d cdcc 24bd de53 503d 750d 9bbb
00000260: 355a 673c be30 3fbd 6254 d03d 26b2 8bbd
00000270: 16ed 083c a5e6 18bb fd04 d6bb 504e c2bd
00000280: ec73 123d ece8 92bb 850c 90bc f167 e0bd
00000290: 6f1a 6b3b 22ba 8dbb cfda 8cbc 5355 b53d
000002a0: 506c 403d cb0e debc 5941 24bd edcb 28bc
000002b0: ed62 903d 3cbf 86b7 8991 8abd 6984 10bd
000002c0: 87ed 38bd d666 253d b88a 843d acfc cbbd
000002d0: 24f0 9b3c 5ebc 753d d804 95bb da08 b83c
000002e0: 24d6 bb3d d909 cd3d ebef a33d 2b8c ec3c
000002f0: 7bc9 8d3c 75fa 423d 77af f43c 15cb 673c
00000300: 7549 293d 9930 223d 2366 323c 360d e4bc
00000310: 1e59 4bbd ac0f 5ebd b67f e7bc f118 afbc
00000320: c7a5 fbbd 2238 9fbd 1491 c63c c282 8cbc
00000330: 27e8 66bd 4ea4 e8bc 6a08 d1bc fef7 52bd
00000340: 8ed3 32bc 39ab 543d 6c99 d73d e8b7 9e3d
00000350: 04c4 edbc 4377 febc 46b9 16bc a3ad 913d
00000360: 5782 31bc acb2 63bd 7468 143d 59a6 4bbd
00000370: cf76 6ebd a37b 3a3d 56fd 5abd 5aa9 1bbd
00000380: ebcd bdbd 24ef c33d c54c d63d 4f1b 933d
00000390: 0a56 b9bd 7bac 43bd 3e33 81bd cb29 413c
000003a0: 53e5 2f3c 0085 773d 1858 e83c 8905 e83a
000003b0: f501 bebc 2c2d 9ebd f91d cabd 99dc c3bd
000003c0: eaa5 f93c bb24 84bc 811e db3c 7ba7 06bd
000003d0: 9561 b4bc 9ca7 15be b88c 95bd fd27 b23c
000003e0: 603d 53bd 89a2 153c 8dfd 4bbd 5fef 06be
000003f0: 4b39 85bc 600a 38bd d04b b0bc 24ae d4bd

lstm.weight_hh_l0 f4 [512, 128]
0.07213762 0.0073176315 0.09416734 -0.0045345468 -0.03477277 -0.043546166 -0.12893115 -0.06714226
-0.024305448 -0.07210988 -0.00075285893 0.07797716 -0.050715867 0.024219872 0.0355098 0.014100661
-0.10332706 -0.060782444 0.02556901 0.04329906 0.1420728 -0.050545387 0.13450347 -0.052356873
0.0645404 0.06887015 -0.10063062 0.04637532 0.029542347 -0.108096205 -0.08671386 0.026478866
-0.011348367 0.07918567 0.043212872 -0.020056859 0.052256588 -0.06735997 0.083290696 0.08527254
0.04909605 0.0137883695 0.024961568 -0.023837639 0.027880069 -0.08533375 -0.010668871 0.05509216
0.04695726 -0.02450819 -0.04306681 0.077544786 0.037825163 -0.045266706 0.0031414041 -0.03484323
-0.08365752 0.032511674 -0.017601632 0.04151284 -0.036789574 -0.0745817 -0.052190352 0.021038821
0.031829603 -0.032460604 0.060290907 -0.037496936 -0.05337209 -0.013978854 0.07508526 -0.10410179
-0.04599017 0.046033133 -0.015631326 0.05612345 0.046019237 -0.025692144 -0.048830926 -0.017089609
0.027726851 -0.010395298 0.032002613 -0.0039364696 -0.051286988 -0.04698292 0.064804316 -0.036000162
0.068069056 0.09397348 -0.03274771 0.024617573 0.010633365 -0.052860416 -0.06409588 -0.039403494
-0.046079658 0.09644931 0.07542678 -0.083553515 -2.7381584e-05 0.05569517 -0.051377192 -0.0025217074
-0.07129133 -0.009195929 -0.06333928 0.023118021 -0.014379456 -0.030893635 0.041019134 -0.006381823
-0.120899506 0.016148496 0.033419386 -0.058554523 0.04385538 0.039598558 0.011770801 -0.0392055
-0.032159634 0.059363924 -0.026713334 0.011048886 -0.032046173 -0.059476674 0.002874508 0.043833688
0.08520672 0.14107974 0.08280649 0.06934923 -0.062043965 -0.0029096932 0.032716207 0.042722028
0.076949 0.09781789 0.0064308285 0.064344674 0.08327567 -0.01318371 -0.026589714 0.0093279
0.050789434 -0.030402385 0.024908863 0.03265847 0.08473889 -0.0030386103 -0.021876508 0.012172262
-0.051550947 0.03023603 -0.099867366 0.00045389577 0.057567112 -0.09467404 0.0061985245 0.0108424425
-0.009707537 0.03037825 0.0034492617 -0.019043295 0.061593305 0.017667426 -0.052104138 -0.0016239035
-0.041991748 -0.08541821 0.108836904 0.024887383 -0.029831273 -0.03418709 -0.041225944 -0.020141039
-0.06864202 -0.05599068 0.0057503716 0.032682046 -0.0962006 -0.071154304 -0.121777065 0.0036955313
0.08292911 0.08413171 0.0416898 0.021096982 0.025283365 0.073161535 -0.084321395 -0.025083281
-0.055254117 -0.09454508 0.03775508 0.014858997 0.01134819 -0.030601159 0.09773837 -0.08342275
-0.0046361126 0.0012759542 -0.011376533 -0.042154122 -0.018207124 0.029178366 -0.086570665 0.059173886
0.04237343 0.099746406 0.0752647 -0.047368404 -0.084942795 0.062919505 -0.08388539 -0.051301826
0.10714562 0.06916507 -0.028639965 -0.124478444 -0.008439347 -0.006235194 0.0421073 0.00040578886
-0.003952402 0.0055044903 -0.1087075 -0.07218152 -0.05015232 -0.013212628 -0.043493498 0.036387045
-0.11002827 -0.05200818 -0.008766982 -0.033176463 -0.024761835 -0.009354574 0.017799148 -0.014297483
-0.08755725 0.0008354862 0.03378784 -0.02867707 0.1364394 0.04923425 -0.064097606 0.034116965
-0.091626994 0.060117196 -0.056690276 0.049322147 -0.04708262 -0.033534992 -0.04471258 0.090652
00000000: e3bc 933d bec8 ef3b ceda c03d 8996 94bb
00000010: e46d 0ebd 775d 32bd 8706 04be e281 89bd
00000020: 381c c7bc 58ae 93bd 825b 45ba 7db2 9f3d
00000030: 71bb 4fbd c168 c63c b972 113d 7506 673c
00000040: 239d d3bd 03f7 78bd 1a76 d13c 5b5a 313d
00000050: 887b 113e ae08 4fbd 47bb 093e 2974 56bd
00000060: c22d 843d cb0b 8d3d 6d17 cebd 0cf4 3d3d
00000070: cb02 f23c 8b61 ddbd 0997 b1bd 35ea d83c
00000080: 80ee 39bc 192c a23d fbff 303d 484e a4bc
00000090: 010b 563d 06f4 89bd 5094 aa3d 5fa3 ae3d
000000a0: f118 493d 9de8 613c 347c cc3c 2747 c3bc
000000b0: be64 e43c 76c3 aebd 7dcc 2ebc 51a8 613d
000000c0: 4256 403d 66c5 c8bc d366 30bd cdcf 9e3d
000000d0: 8fee 1a3d 9569 39bd 04e0 4d3b c6b7 0ebd
000000e0: a254 abbd f62a 053d 4c31 90bc 5e09 2a3d
000000f0: aab0 16bd 4abe 98bd 8dc5 55bd 9b59 ac3c
00000100: c25f 023d 69f5 04bd 99f3 763d 6396 19bd
00000110: b19c 5abd 9007 65bc 4dc6 993d 5233 d5bd
00000120: 3060 3cbd 3d8d 3c3d 440d 80bc b4e1 653d
00000130: ab7e 3c3d 5578 d2bc f002 48bd 82ff 8bbc
00000140: 6c23 e33c 0a51 2abc 2c15 033d 80fd 80bb
00000150: 4e12 52bd 2a71 40bd 20b8 843d e874 13bd
00000160: ca67 8b3d 2b75 c03d 7622 06bd cbaa c93c
00000170: 9137 2e3c 2a84 58bd b344 83bd 8f65 21bd
00000180: 06be 3cbd 3787 c53d 5b79 9a3d 1b1e abbd
00000190: 81b1 e5b7 9e20 643d e470 52bd 3b43 25bb
000001a0: 3001 92bd 86aa 16bc 06b8 81bd 0162 bd3c
000001b0: cf97 6bbc a614 fdbc ae03 283d 9d1e d1bb
000001c0: 299a f7bd da49 843c c4e2 083d ded6 6fbd
000001d0: b3a1 333d 1932 223d 51da 403c f295 20bd
000001e0: d2b9 03bd 9627 733d ecd5 dabc 6306 353c
000001f0: d942 03bd d09d 73bd 3e62 3c3b f48a 333d
00000200: dc80 ae3d 3577 103e 7396 a93d f806 8e3d
00000210: d021 7ebd 8db0 3ebb 6e01 063d 4bfd 2e3d
00000220: 7097 9d3d bf54 c83d b3b9 d23b 24c7 833d
00000230: 6f8c aa3d 7d00 58bc acd2 d9bc 0cd4 183c
00000240: 9508 503d 6c0e f9bc ac0d cc3c e3c4 053d
00000250: 958b ad3d 6c23 47bb 5d36 b3bc 2b6e 473c
00000260: 1627 53bd 8db1 f73c 4387 ccbd dcf8 ed39
00000270: 7ecb 6b3d 77e4 c1bd fe1c cb3b 80a4 313c
00000280: 5c0c 1fbc cfdb f83c 020d 623b af00 9cbc
00000290: 4349 7c3d 47bb 903c 266b 55bd 29d9 d4ba
000002a0: 8aff 2bbd beef aebd e2e5 de3d a0e0 cb3c
000002b0: b760 f4bc c307 0cbd 89dc 28bd d2fe a4bc
000002c0: 3094 8cbd 7c56 65bd 9d6d bc3b 9cdd 053d
000002d0: d204 c5bd 59b9 91bd 4166 f9bd ba30 723b
000002e0: bdd6 a93d 3f4d ac3d ecc2 2a3d 94d3 ac3c
000002f0: 0f1f cf3c b7d5 953d b2b0 acbd 747b cdbc
00000300: 2452 62bd daa0 c1bd 12a5 1a3d 2773 733c
00000310: c2ed 393c 48af fabc 0e2b c83d 8cd9 aabd
00000320: 88ea 97bb eb3d a73a a364 3abc cda9 2cbd
00000330: 1b27 95bc 7807 ef3c f64b b1bd 5160 723d
00000340: c38f 2d3d d847 cc3d 6124 9a3d 5f05 42bd
00000350: 7df6 adbd f1db 803d 1acc abbd dd21 52bd
00000360: 2a6f db3d 6ba6 8d3d 5c9e eabc 8eee febd
00000370: 3045 0abc 9950 ccbb b478 2c3d 0fc0 d439
00000380: 2783 81bb 035f b43b 0aa2 debd e8d3 93bd
00000390: 856c 4dbd c779 58bc 3d26 32bd 950a 153d
000003a0: 8056 e1bd 8806 55bd 63a3 0fbc 0be4 07bd
000003b0: 55d9 cabc ed43 19bc 85cf 913c fd3f 6abc
000003c0: 3751 b3bd 8804 5b3a 1e65 0a3d 2dec eabc
000003d0: c5b6 0b3e daa9 493d 9b45 83bd 3bbe 0b3d
000003e0: efa6 bbbd 733d 763d 1034 68bd 0506 4a3d
000003f0: b5d9 40bd fd5b 09bd 8a24 37bd c1a7 b93d

lstm.bias_ih_l0 f4 [512]
0.05165243 0.017568776 0.10967111 0.027987815 0.11057437 0.08848589 0.0345904 -0.0049925493
0.031762127 0.022993702 -0.043097213 -0.051423803 0.078156166 0.09869412 0.07284526 0.0112579325
0.055857975 0.02197557 0.024159526 -0.01813056 0.0811418 0.04756801 -0.06387831 0.08549611
0.08234501 0.10989155 -0.010521285 0.07664067 -0.029473739 0.12391013 -0.036062706 -0.035449833
-0.023357771 -0.018579166 0.0097182235 0.11023412 -0.034950584 0.07887075 0.00594283 0.058038436
0.040851317 0.06723114 0.07975861 -0.07004725 0.073461205 0.031534225 -0.049750682 -0.023258239
0.047447126 0.061516844 0.01623542 0.067221835 0.029800668 0.018815083 0.051069498 0.023872439
0.10249097 0.036872897 0.10109976 -0.06203673 0.1240825 -0.044477634 -0.037053052 -0.0033477508
-0.011374502 0.10147236 -0.009473246 0.08734448 0.016496526 0.031883042 0.04994947 -0.007811016
0.037289675 -0.044024825 0.12744991 0.010568032 0.0030516458 -0.0072464384 0.048375428 0.10349703
-0.005001743 0.052554023 0.028678915 0.056875195 0.028451914 0.023712203 -0.026896464 0.008134512
-0.02305504 -0.036490057 -0.02170364 -0.044428352 -0.062150598 0.103911616 0.048052672 0.05588854
0.06617568 -0.012905949 0.049148902 0.01789781 0.0046160184 -0.05772515 0.06748187 0.10718347
-0.0023440593 -0.0146068605 0.11791682 0.12262373 0.119773984 -0.071829066 0.10350677 0.057547588
-0.00017910455 0.0613487 0.12301616 0.12956683 -0.06285354 -0.021250613 0.0290518 0.022164363
0.039606944 0.09957876 0.082422085 0.03229008 -0.04624043 0.040799774 0.04223977 0.04345748
0.00081565266 0.094564855 -0.069967605 -0.021458 0.06090122 -0.050185364 0.030415967 -0.045450706
0.08530894 0.05827655 -0.016491434 -0.01950847 0.09443376 0.059779655 0.044865936 -0.025401846
0.02849498 0.124386616 -0.011651657 0.087570325 -0.020762684 -0.017936196 0.028617922 0.03973011
-0.029875223 0.08676215 0.06018449 -0.0495778 0.005272273 0.0031658083 -0.0028860793 -0.035511322
-0.002562807 0.041984905 -0.023670882 0.12398391 -0.032821115 0.07755962 -0.064329356 -0.05906181
0.06867539 -0.056311607 0.059352715 -0.012421625 0.051666874 0.02329591 0.033474836 0.11693034
-0.050688256 0.052192353 0.05357774 0.07218424 0.06050753 -0.023143895 0.04896287 0.029653464
0.012569696 -0.014094203 0.0631251 0.022749389 0.016138941 0.06966897 -0.02103083 0.06145952
0.05965703 0.05080375 -0.067794494 0.054505672 -0.031858478 0.046698377 0.001233012 0.07507887
0.009815385 0.083844714 -0.015714876 -0.042696103 0.008612841 0.007660273 0.009672114 -0.045702644
0.009992959 -0.044339564 0.019470636 -0.015534167 0.103529304 -0.0011651675 -0.020593766 0.01811629
0.056386005 0.06825353 0.06597772 0.03525858 0.066659085 0.0031222554 0.08694673 0.028727602
0.047392294 -0.0056609414 0.07101156 -0.030428736 -0.025679108 -0.0001078988 -0.012242458 0.063004486
0.09615207 0.029740823 -0.028940633 -0.02762978 0.007023588 0.01290343 0.028637014 0.070172034
-0.014720162 -0.039810617 -0.020761212 0.072462454 0.056012332 0.089328155 -0.051671885 0.083490536
0.043862868 0.0066507338 0.081098676 -0.0012309732 -0.0053795227 -0.04620994 0.0005835497 -0.057375778
00000000: 8091 533d 65ec 8f3c 3f9b e03d b446 e53c
00000010: d174 e23d 1738 b53d aaae 0d3d 8a98 a3bb
00000020: 0119 023d 4a5d bc3c b486 30bd c4a1 52bd
00000030: 5710 a03d 2520 ca3d e52f 953d 3173 383c
00000040: 55cb 643d 1c06 b43c 33ea c53c 8a86 94bc
00000050: ac2d a63d acd6 423d a2d2 82bd 9618 af3d
00000060: 80a4 a83d d20e e13d 7861 2cbc c9f5 9c3d
00000070: e972 f1bc 98c4 fd3d 7db6 13bd d833 11bd
00000080: cc58 bfbc 5633 98bc 2f39 1f3c 6dc2 e13d
00000090: 5828 0fbd fd86 a13d 12bc c23b b6b9 6d3d
000000a0: b653 273d 7bb0 893d 7b58 a33d ef74 8fbd
000000b0: d472 963d 082a 013d 5fc7 4bbd 1088 bebc
000000c0: eb57 423d 16f9 7b3d 2500 853c 9aab 893d
000000d0: 8820 f43c 1722 9a3c 402e 513d 2290 c33c
000000e0: c9e6 d13d 0908 173d 640d cf3d 3a1a 7ebd
000000f0: f71e fe3d 2e2e 36bd f1c4 17bd f065 5bbb
00000100: 1f5c 3abc bed0 cf3d ac35 1bbc aae1 b23d
00000110: b923 873c cb97 023d d197 4c3d 8df3 ffbb
00000120: 0fbd 183d 6053 34bd 3b82 023e 8a25 2d3c
00000130: 1ffe 473b 8873 edbb 5025 463d 40f6 d33d
00000140: a9e5 a3bb e342 573d 0bf0 ea3c f7f5 683d
00000150: fd13 e93c 1840 c23c f955 dcbc 9e46 053c
00000160: ecdd bcbc 9976 15bd d5cb b1bc 81fa 35bd
00000170: a091 7ebd 9dcf d43d e1d2 443d 62eb 643d
00000180: 1d87 873d 7973 53bc 5c50 493d 6e9e 923c
00000190: f841 973b 3571 6cbd ef33 8a3d 0283 db3d
000001a0: ca9e 19bb 9d51 6fbc 607e f13d 2622 fb3d
000001b0: 104c f53d 1e1b 93bd 5cfb d33d 05b7 6b3d
000001c0: 03ce 3bb9 c648 7b3d e6ef fb3d 2bad 043e
000001d0: 5bb9 80bd c415 aebc 0afe ed3c 0a92 b53c
000001e0: e43a 223d f3ef cb3d e9cc a83d 9a42 043d
000001f0: 9b66 3dbd aa1d 273d 9c03 2d3d 7800 323d
00000200: 86d1 553a 38ab c13d 2d4b 8fbd b0c8 afbc
00000210: 8f73 793d 2b8f 4dbd e82a f93c 852a 3abd
00000220: 74b6 ae3d 64b3 6e3d 0b19 87bc 3ad0 9fbc
00000230: 7d66 c13d 83db 743d 58c5 373d 8817 d0bc
00000240: 4e6e e93c 69be fe3d 97e6 3ebc 1258 b33d
00000250: 8116 aabc eeee 92bc 2270 ea3c 0abc 223d
00000260: e2bc f4bc 5bb0 b13d 0384 763d 1712 4bbd
00000270: 08c3 ac3b 7379 4f3b 6024 3dbb 5274 11bd
00000280: c4f4 27bb 5df8 2b3d 70e9 c1bc 47eb fd3d
00000290: 6f6f 06bd 94d7 9e3d 1cbf 83bd ccea 71bd
000002a0: afa5 8c3d 00a7 66bd d51b 733d 1284 4bbc
000002b0: a5a0 533d 10d7 be3c e91c 093d 2d79 ef3d
000002c0: 7d9e 4fbd a6c7 553d 5574 5b3d 55d5 933d
000002d0: bed6 773d 4498 bdbc 4a8d 483d d2eb f23c
000002e0: 20f1 4d3c 5feb 66bc bc47 813d ed5c ba3c
000002f0: d035 843c 9bae 8e3d d948 acbc fabc 7b3d
00000300: ee5a 743d 9817 503d d7d7 8abd 5741 5f3d
00000310: 097e 02bd cc46 3f3d 049d a13a f3c2 993d
00000320: b5d0 203c c7b6 ab3d 7cbc 80bc 1ce2 2ebd
00000330: e01c 0d3c 0703 fb3b c977 1e3c b232 3bbd
00000340: 82b9 233c 679d 35bd e280 9f3c 0583 7ebc
00000350: 2c07 d43d 89b8 98ba 42b4 a8bc 9d68 943c
00000360: 03f5 663d 82c8 8b3d 541f 873d 4d6b 103d
00000370: 8f84 883d c19e 4c3b 2111 b23d 2656 eb3c
00000380: 6c1e 423d 6b7f b9bb 826e 913d af45 f9bc
00000390: fe5c d2bc ba47 e2b8 9794 48bc 7f08 813d
000003a0: 60eb c43d 07a3 f33c e814 edbc d957 e2bc
000003b0: 2026 e63b e868 533c 2c98 ea3c 5bb6 8f3d
000003c0: d62c 71bc 7510 23bd 6b13 aabc 3267 943d
000003d0: 306d 653d aef1 b63d e6a5 53bd 16fd aa3d
000003e0: 8da9 333d 66ee d93b 1017 a63d 9b58 a1ba
000003f0: b546 b0bb a246 3dbd 5cf9 183a dd02 6bbd

lstm.bias_hh_l0 f4 [512]
0.0093017435 -0.02285922 0.009299152 -0.032473207 0.05337355 0.028471865 0.11797169 0.09291949
0.10300677 -0.04218152 0.02878362 0.0612092 0.09816473 0.00026755026 -0.011463012 0.051470213
0.045380656 -0.041181706 0.03403754 0.0679187 0.05652719 -0.0047626505 0.08098448 0.010005049
0.05175857 0.018190073 0.048256487 0.029485907 0.0874998 0.12114784 0.09212036 0.04389256
0.11258472 0.04535624 0.0063165156 0.021266721 0.020629225 0.065558515 0.055563584 0.045362983
0.08259934 0.082205206 0.0019068756 0.036253005 0.026042113 -0.030052014 -0.042138055 -0.011137317
0.14776407 0.089846075 -0.020692533 -0.03972706 0.100585975 -0.0029215235 -0.014132901 0.09894614
-0.021072648 -0.03859719 0.07282859 0.078695126 -0.0117342705 0.063357286 0.010732555 0.027068889
0.04461451 0.023106052 0.13179232 0.124047734 0.12582368 -0.009445264 0.04256562 0.06458222
0.07392004 0.04558208 0.082100175 0.10165021 -0.031180967 0.08067572 0.008044383 -0.023335846
0.021370577 0.094071805 0.02884782 -0.01657197 -0.017452352 -0.0021920553 -0.07129167 0.11020917
0.088354215 0.07651233 -0.027233284 0.06838541 0.0107893525 -0.03892761 0.09911042 0.022095088
0.09358404 0.056381546 0.068080574 -0.01689508 -0.026825706 0.054545466 0.10860986 -0.02502041
0.00064227555 0.028950922 0.09592421 0.031944253 0.066544905 -0.007387672 -0.025269484 0.1308677
0.07798341 0.040472362 0.031244397 0.05357202 0.10291111 0.050597217 0.08674137 -0.029606344
0.1289011 0.053549774 -0.04352941 0.0559856 0.0411948 -0.009778774 0.06671531 0.054104943
0.050593585 -0.0062902737 -0.06407893 0.084661566 0.041896038 0.055354953 0.041135482 -0.03654995
0.10600806 0.0031839556 -0.037467834 0.07543393 0.07663664 0.09538283 -0.028572904 0.07713653
-0.0027906105 0.006505819 0.071445726 0.078704625 0.019691046 -0.027168505 -0.05283425 0.0538746
0.035187688 0.07522035 0.02488944 0.014622272 -0.019919975 -0.025376957 0.056205884 0.038078874
-0.0065923613 0.0759595 -0.024992311 0.0017661494 0.03264324 0.044281982 -0.06769098 0.10234424
-0.057842113 0.05063165 -0.055633664 -0.03837583 0.08114014 -0.0043175016 0.0068822787 0.11762318
0.05312517 0.020755045 0.07832764 0.06489134 0.07716299 0.09714017 -0.03149103 0.04312745
0.021151273 0.016939446 0.09949834 -0.003952916 0.09260081 -0.055427223 -0.02689843 0.026573041
0.07552555 0.103498496 -0.05079662 0.03650643 0.05967461 0.032104544 -0.021538595 -0.04093478
0.0062463325 0.02179026 -0.014490307 -0.0087588485 -0.011983332 0.060578145 0.017404543 -0.0099394955
-0.054693002 0.06794328 -0.04074301 0.057661775 0.0718676 -0.070129566 0.090717874 0.04466985
-0.04182138 0.019515062 -0.037684713 0.025904274 0.035889737 -0.015488674 0.0145274075 0.054720726
0.032936968 -0.016177377 -0.047492392 0.01790048 0.08197711 -0.04723007 0.07262624 0.07189102
0.114235036 0.09819399 0.025601441 -0.05827662 -0.058709573 -0.08661748 0.028649027 0.1082782
0.013024882 -0.08857161 -0.0016504609 -0.08269321 0.055013128 -0.043522067 -0.012732747 0.11058829
0.025820358 -0.0066629797 0.03318238 0.046335664 -0.0031931787 -0.03425748 0.028518472 -0.080956064
00000000: 5766 183c 4243 bbbc 785b 183c a002 05bd
00000010: 399e 5a3d d43d e93c 249b f13d 934c be3d
00000020: 37f5 d23d 88c6 2cbd a0cb eb3c 80b6 7a3d
00000030: 970a c93d fd45 8c39 5bcf 3bbc 6ed2 523d
00000040: 11e1 393d 26ae 28bd f36a 0b3d f618 8b3d
00000050: 0e89 673d 0210 9cbb 31db a53d 38ec 233c
00000060: cb00 543d 5903 953c 98a8 453d 6e8c f13c
00000070: 1833 b33d 5c1c f83d 99a9 bc3d afc8 333d
00000080: d192 e63d 77c7 393d c6fa ce3b 8c37 ae3c
00000090: 9ffe a83c 8b43 863d a496 633d 89ce 393d
000000a0: d829 a93d 345b a83d 21f0 f93a 087e 143d
000000b0: 4556 d53c a42f f6bc f498 2cbd 4b79 36bc
000000c0: 774f 173e 3801 b83d 6383 a9bc d7b8 22bd
000000d0: 0500 ce3d 0877 3fbb af8d 67bc 46a4 ca3d
000000e0: 8ca0 acbc 1618 1ebd 2827 953d e92a a13d
000000f0: 1941 40bc 77c1 813d 99d7 2f3c 93bf dd3c
00000100: b4bd 363d e748 bd3c 91f4 063e bd0c fe3d
00000110: ecd7 003e 4fc0 1abc 4a59 2e3d af43 843d
00000120: 6463 973d 46b4 3a3d 2324 a83d fc2d d03d
00000130: 3a6f ffbc 5039 a53d 96cc 033c d12a bfbc
00000140: 5911 af3c b8a8 c03d 4352 ec3c f1c1 87bc
00000150: 3cf8 8ebc 96a8 0fbb 5e01 92bd 58b5 e13d
00000160: 0ef3 b43d 7fb2 9c3d 5618 dfbc a60d 8c3d
00000170: d3c5 303c 8f72 1fbd 67fa ca3d c200 b53c
00000180: fda8 bf3d 56f0 663d d46d 8b3d 8d67 8abc
00000190: 95c1 dbbc 116b 5f3d d96e de3d 9af7 ccbc
000001a0: 625e 283a 7c2a ed3c ea73 c43d fad7 023d
000001b0: b248 883d 4914 f2bb f301 cfbc 2f02 063e
000001c0: c4b5 9f3d 59c6 253d 40f4 ff3c 566e 5b3d
000001d0: 0fc3 d23d 073f 4f3d 76a5 b13d 0189 f2bc
000001e0: a6fe 033e 0257 5b3d e54b 32bd 2851 653d
000001f0: e1bb 283d 2737 20bc 09a2 883d 259d 5d3d
00000200: 383b 4f3d a41e cebb d03b 83bd 0b63 ad3d
00000210: 2e9b 2b3d e0bb 623d ae7d 283d 66b5 15bd
00000220: c11a d93d e9a9 503b df77 19bd 1b7d 9a3d
00000230: acf3 9c3d 1358 c33d b911 eabc c2f9 9d3d
00000240: ade2 36bb c42e d53b 2352 923d e42f a13d
00000250: 1e4f a13c 7c90 debc ba68 58bd 9dab 5c3d
00000260: f720 103d 200d 9a3d f0e4 cb3c 4192 6f3c
00000270: 372f a3bc 56e3 cfbc 2438 663d 98f8 1b3d
00000280: bc04 d8bb a890 9b3d adbc ccbc 247e e73a
00000290: ebb4 053d 0661 353d 92a1 8abd db99 d13d
000002a0: daeb 6cbd 2263 4f3d 20e0 63bd f92f 1dbd
000002b0: cd2c a63d d479 8dbb bd84 e13b 6ce4 f03d
000002c0: c799 593d 7c06 aa3c 3e6a a03d c0e5 843d
000002d0: a107 9e3d 6df1 c63d bdfc 00bd 69a6 303d
000002e0: 6f45 ad3c 98c4 8a3c c9c5 cb3d 7687 81bb
000002f0: 7ea5 bd3d a807 63bd 195a dcbc b5af d93c
00000300: 24ad 9a3d 05f7 d33d 1e10 50bd c487 153d
00000310: 5d6d 743d 0e80 033d b571 b0bc 3aab 27bd
00000320: 09ae cc3b 7d81 b23c c168 6dbc 4681 0fbc
00000330: bd55 44bc ca20 783d f993 8e3c 44d9 22bc
00000340: c505 60bd d925 8b3d 24e2 26bd c12e 6c3d
00000350: 522f 933d 17a0 8fbd 4bca b93d bcf7 363d
00000360: e54c 2bbd 0dde 9f3c 495b 1abd 3335 d43c
00000370: 1e01 133d 35c4 7dbc 5d04 6e3c d722 603d
00000380: eae8 063d 6b86 84bc 6287 42bd 07a4 923c
00000390: 9de3 a73d 5174 41bd 11bd 943d 993b 933d
000003a0: 0ff4 e93d ee19 c93d 1dba d13c 77b3 6ebd
000003b0: 7379 70bd 8164 b1bd 5db1 ea3c f6c0 dd3d
000003c0: 5166 553c 0865 b5bd 4754 d8ba 0f5b a9bd
000003d0: 7255 613d 3244 32bd 039d 50bc 1d7c e23d
000003e0: 3785 d33c 2055 dabb 3fea 073d 77ca 3d3d
000003f0: a644 51bb 9251 0cbd 929f e93c 4bcc a5bd

mlp_head.0.weight f4 [64, 128]
0.090701625 -0.023247147 -0.06299875 -0.050252564 0.074688494 -0.072783664 -0.09373915 0.08527896
0.087554485 -0.04182879 -0.0819266 0.057362016 0.059674617 -0.07076067 0.07720937 -0.032564037
0.029659763 -0.09061271 0.050842207 0.0312892 0.022130972 -0.07454688 0.062079996 0.027689014
0.010730441 -0.04273803 -0.09439231 -0.05100747 -0.104466975 -0.034828875 0.008651319 -0.012216432
-0.006111389 -0.009928444 -0.039888874 0.049593255 0.06791147 -0.0645844 -0.052810073 0.057011943
-0.14322679 -0.050485138 0.060817715 0.023055194 -0.06925343 0.084789746 -0.00094500615 0.027412668
0.02591975 0.07100833 -0.06846992 0.011712599 0.04099602 -0.09099827 -0.086761646 -0.05747082
0.04341018 0.022465788 0.007383451 0.011150643 -0.0151587175 -0.09438576 -0.0040933946 -0.024855282
0.0069119856 0.03862342 0.0023215313 -0.10867952 -0.014286989 -0.033316903 0.049863476 -0.041452367
0.014391943 0.03689963 0.027517818 0.03092615 0.0847366 -0.0410677 -0.08988562 0.02532645
0.048217084 0.02666731 0.110207625 -0.029438505 0.0827688 0.00058703654 0.007173945 -0.037988715
0.08574357 -0.023468463 0.06774548 0.021869639 0.04566276 0.014983708 0.054731514 -0.05601838
0.08595061 -0.047204033 -0.07684204 -0.14377373 0.0682776 -0.059003055 0.11339811 -0.06924853
-0.015727527 -0.030781114 0.02143058 0.068572946 0.028594509 0.016438328 0.01921328 0.12795386
0.010185828 0.0071705775 -0.104035944 -0.045057405 0.11865327 -0.01880445 -0.07153533 -0.14101286
-0.122786924 0.029756507 -0.102006465 -0.00020332324 -0.09037967 0.07142633 0.05959044 0.016290383
-0.016306095 0.013435967 -0.0019911414 -0.075339474 0.018271994 -0.120869055 -0.11158751 -0.06751588
-0.034735654 -0.03752354 0.123291455 0.117082715 0.035632428 -0.071480066 0.015457035 0.0059177307
0.06674941 -0.024243245 0.07447874 -0.03919139 0.00084773253 -0.09504259 0.08524211 -0.077044964
-0.085995555 0.040654175 0.041207973 0.03137708 0.101066686 -0.090163715 -0.11035007 0.050887696
0.010753999 0.01354981 0.10344653 0.004144124 -0.01192116 -0.09884265 0.005047012 0.0819037
-0.0026848835 -0.08664993 0.11392953 -0.0569557 -0.0018120105 -0.119204074 -0.06942557 0.06305668
-0.030969806 -0.06779619 -0.058749683 0.08810167 0.0069643175 0.0050833006 0.01757361 -0.08241848
-0.049878825 0.08097323 0.05366848 -0.080133796 0.044737354 -0.007743466 -0.0038608059 0.059412118
0.014281299 -0.01642895 0.09808561 -0.10178219 -0.03202917 -0.0061267586 -0.053011946 -0.06584525
-0.07189049 -0.014023444 0.052543025 0.04763767 0.10330718 -0.01730611 -0.056927893 0.0637385
0.005718146 0.020285364 -0.0073613427 0.027884528 -0.048369233 0.1187039 0.066011965 -0.018272286
0.068506576 0.056413993 -0.115081936 0.036831 0.013098628 -0.11926848 0.0025219084 0.029223371
-0.03891375 0.045906894 -0.061874013 -0.120112024 0.057290357 -0.001326373 0.0014191481 0.00639398
0.035544395 -0.050309356 -0.057241727 0.06506635 -0.06707102 0.021767061 -0.11171649 0.0033286132
-0.12424431 -0.031874537 -0.0039701127 -0.08824104 0.06612874 0.09280224 -0.05666536 -0.044209767
0.06876678 -0.013144521 -0.12077394 0.02823079 -0.09561559 -0.022298688 0.09235136 0.082776055
00000000: c6c1 b93d cd70 bebc 7d05 81bd a2d5 4dbd
00000010: 48f6 983d 9a0f 95bd 50fa bfbd bca6 ae3d
00000020: c44f b33d aa54 2bbd 22c9 a7bd 6ff4 6a3d
00000030: 5f6d 743d f8ea 90bd f21f 9e3d de61 05bd
00000040: 08f9 f23c 2893 b9bd eb3f 503d 1b29 003d
00000050: 034c b53c 09ac 98bd 9847 7e3d 12d4 e23c
00000060: bbce 2f3c 130e 2fbd c150 c1bd 35ed 50bd
00000070: c8f2 d5bd b9a8 0ebd 43be 0d3c 6e27 48bc
00000080: 0c42 c8bb eaaa 22bc 8462 23bd 4c22 4b3d
00000090: 2b15 8b3d d344 84bd 604f 58bd 5b85 693d
000000a0: 0baa 12be 81c9 4ebd ff1b 793d 3fde bc3c
000000b0: bed4 8dbd 3fa6 ad3d 4aba 77ba 8890 e03c
000000c0: a855 d43c d16c 913d f539 8cbd 33e6 3f3c
000000d0: 71eb 273d 4d5d babd 17b0 b1bd 8666 6bbd
000000e0: dfce 313d 2c0a b83c e0f0 f13b 30b1 363c
000000f0: 455c 78bc 524d c1bd e221 86bb 4e9d cbbc
00000100: f07d e23b 9733 1e3d d524 183b 5e93 debd
00000110: fa13 6abc 4e77 08bd a53d 4c3d f5c9 29bd
00000120: 2fcc 6b3c 1124 173d 0c6d e13c d658 fd3c
00000130: 628a ad3d 9b36 28bd f415 b8bd 6a79 cf3c
00000140: 477f 453d 6775 da3c 89b4 e13d 0529 f1bc
00000150: b082 a93d 5be3 193a 6a13 eb3b 0e9a 1bbd
00000160: 539a af3d ef40 c0bc 24be 8a3d f527 b33c
00000170: e008 3b3d 3a7e 753c 272e 603d 8773 65bd
00000180: e006 b03d 0459 41bd 5c5f 9dbd 6c39 13be
00000190: 20d5 8b3d 30ad 71bd 453d e83d 2cd2 8dbd
000001a0: 04d7 80bc ad28 fcbc 2f8f af3c f96f 8c3d
000001b0: 083f ea3c aca9 863c 2b65 9d3c 5606 033e
000001c0: 76e2 263c 2af7 ea3b cc10 d5bd 1d8e 38bd
000001d0: 7c00 f33d ca0b 9abc 1d81 92bd ad65 10be
000001e0: b677 fbbd ebc3 f33c c4e8 d0bd 2b33 55b9
000001f0: fa18 b9bd f847 923d 1b15 743d 6973 853c
00000200: 5c94 85bc 8822 5c3c cf7d 02bb 954b 9abd
00000210: 26af 953c 328a f7bd fe87 e4bd c445 8abd
00000220: f946 0ebd 49b2 19bd 3b80 fc3d 10c9 ef3d
00000230: 4ff3 113d 2464 92bd 813f 7d3c 86e9 c13b
00000240: eab3 883d c599 c6bc 4f88 983d 2787 20bd
00000250: 5e3a 5e3a b0a5 c2bd 6a93 ae3d c0c9 9dbd
00000260: 701e b0bd fe84 263d b1c9 283d 4185 003d
00000270: 0dfc ce3d c1a7 b8bd 38ff e1bd 9e6f 503d
00000280: 8b31 303c 0600 5e3c c6db d33d 6fcb 873b
00000290: f850 43bc 046e cabd 6861 a53b 21bd a73d
000002a0: dff4 2fbb 8575 b1bd e353 e93d 614a 69bd
000002b0: fc80 edba 4421 f4bd fe2e 8ebd dc23 813d
000002c0: 64b4 fdbc bbd8 8abd 82a3 70bd a66e b43d
000002d0: ee34 e43b d191 a63b 88f6 8f3c 05cb a8bd
000002e0: bd4d 4cbd 4bd5 a53d 7bd3 5b3d 301d a4bd
000002f0: 843e 373d e7bc fdbb 9305 7dbb 1f5a 733d
00000300: 1cfc 693c 0196 86bc 1ce1 c83d 2e73 d0bd
00000310: 0531 03bd fac2 c8bb 0e23 59bd e0d9 86bd
00000320: 523b 93bd 96c2 65bc 5b37 573d b81f 433d
00000330: b792 d33d 8bc5 8dbc 392d 69bd 5589 823d
00000340: 495f bb3b 7e2d a63c 6b37 f1bb 186e e43c
00000350: d11e 46bd 081b f33d 4831 873d c3af 95bc
00000360: 2d4d 8c3d 5c12 673d 14b0 ebbd 1adc 163d
00000370: a19b 563c 0843 f4bd 9a46 253b da65 ef3c
00000380: 0664 1fbd de08 3c3d 9b6f 7dbd 4bfd f5bd
00000390: 4ba9 6a3d b1d9 adba b502 ba3a 9784 d13b
000003a0: 0097 113d 2f11 4ebd 4d76 6abd 8241 853d
000003b0: 885c 89bd d650 b23c 9dcb e4bd dd24 5a3b
000003c0: cd73 febd e08e 02bd b817 82bb b8b7 b4bd
000003d0: 816e 873d 1a0f be3d f019 68bd 4d15 35bd
000003e0: 99d5 8c3d 1e5c 57bc 5458 f7bd 4244 e73c
000003f0: 1bd2 c3bd bdab b6bc b622 bd3d 7e86 a93d

mlp_head.0.bias f4 [64]
0.06092715 0.09499789 0.10967922 0.0908308 0.09212487 -0.00087932264 -0.018838678 0.08170154
0.06408435 0.08172941 -0.03948476 0.026285531 -0.008851841 -0.056660946 0.065661035 0.011517165
-0.052863497 -0.06298268 0.00035126405 0.06486431 0.113502964 -0.04607976 0.0055667576 0.06357613
-0.052117165 0.06551978 0.089768626 0.07579241 0.09625761 -0.015649622 -0.062202822 0.09149519
0.07041046 0.051634107 0.033214416 0.005692006 0.05927781 -0.030615194 0.053306513 -0.058491457
-0.057644542 0.015669102 0.06932212 0.024077699 0.045798387 -0.02036654 -0.041011292 0.07433184
-0.028961608 0.036863267 0.018178288 0.07397614 0.020173602 -0.023364156 -0.02694102 0.08659627
0.02570012 -0.01068875 0.011787165 -0.000656819 -0.05901817 0.034999534 -0.041218553 0.09152504
00000000: bf8e 793d 418e c23d 809f e03d 8005 ba3d
00000010: f7ab bc3d 5882 66ba 9253 9abc 2353 a73d
00000020: a83e 833d c061 a73d c6ba 21bd c154 d73c
00000030: 5007 11bc 4f15 68bd 4b79 863d 7eb2 3c3c
00000040: 6587 58bd 10fd 80bd dd29 b839 94d7 843d
00000050: 3e74 e83d 21be 3cbd 5969 b63b 3434 823d
00000060: cf78 55bd 3c2f 863d 9dd8 b73d 0d39 9b3d
00000070: b622 c53d a333 80bc 63c8 7ebd d561 bb3d
00000080: 5c33 903d 497e 533d d70b 083d 0284 ba3b
00000090: 4acd 723d b7cc fabc ee57 5a3d bd94 6fbd
000000a0: af1c 6cbd 7d5c 803c c1f8 8d3d 983e c53c
000000b0: 1797 3b3d bbd7 a6bc 75fb 27bd 4b3b 983d
000000c0: e540 edbc f0fd 163d a2ea 943c cd80 973d
000000d0: 1c43 a53c 3066 bfbc 6ab3 dcbc 6359 b13d
000000e0: 0f89 d23c de1f 2fbc f41e 413c 602e 2cba
000000f0: 09bd 71bd ac5b 0f3d c9d4 28bd 7b71 bb3d

mlp_head.2.weight f4 [64, 64]
-0.07538706 0.11985586 0.07422325 0.025229743 -0.06764904 -0.123038106 -0.008042037 -0.0064221337
0.12976731 -0.021376133 0.11986823 0.020473476 -0.046659485 -0.11360409 0.122144476 -0.043013595
0.060870785 -0.14630026 0.04294873 -0.081755914 0.019299971 -0.041545916 0.11960032 0.1473955
0.013743302 0.15715648 -0.0007198933 0.15431307 0.115095496 0.12398009 0.02522574 -0.025175005
-0.11853248 -0.056859393 0.0400175 -0.0066562262 0.029724015 0.1391228 -0.029539844 -0.081269816
0.06145817 -0.018176729 -0.06538959 0.08052852 -0.083213866 -0.018341877 -0.056372553 0.12057718
0.11455256 0.08599767 0.09290231 -0.08749182 0.006028659 0.08961936 -0.0020685128 0.040145423
0.09053185 -0.07556884 -0.056354526 0.08874927 -0.10864893 0.12823898 -0.027289685 0.078636214
-0.026545541 0.10123549 -0.044851776 0.057701822 -0.08624724 0.033245586 -0.08200414 -0.10165529
-0.05431699 -0.053448044 0.10544994 -0.09609329 -0.017275333 0.12942302 -0.08052159 0.08759576
-0.07522502 0.13674344 0.09578865 -0.048758257 -0.008592839 -0.043293193 -0.049103025 0.088807665
0.057807174 0.03968613 0.09567857 0.10624664 -0.04700975 -0.02503908 0.008160551 0.089241356
0.13163647 0.034298394 0.064483464 -0.007013211 -0.072132476 -0.07180397 0.052129805 0.12803063
-0.033836085 -0.02121359 -0.04549372 0.120890245 0.0075996104 -0.049350478 0.0872854 -0.08075541
-0.0025343709 0.01738489 0.058129396 0.060884494 0.1266742 -0.002050083 0.10649085 -0.007544205
0.0065748836 0.042923555 0.09430524 0.03187497 0.08684133 -0.080406584 0.0284894 0.104160175
0.053840596 -0.081630476 0.0029840926 -0.06612806 0.010578025 -0.028371906 -0.08267304 0.00067169644
-0.07608964 -0.04326832 -0.059309576 -0.12639862 0.07786939 0.0008698137 -0.10358864 -0.01425288
0.003994397 -0.12443712 -0.011682053 -0.0070962696 -0.123832986 -0.049934812 0.04459259 0.11979747
-0.036838777 -0.026569795 -0.056986608 -0.044040777 -0.10172226 -0.044451 -0.07679596 -0.030526387
-0.037114628 -0.0075748083 -0.05854307 -0.03454959 0.071154505 -0.12817349 -0.072058484 -0.0030742898
0.050049096 0.11635106 -0.0049489224 -0.06750713 0.08257732 0.06258464 0.059465162 -0.060395878
-0.034860414 -0.087217435 -0.03415495 -0.06267382 -0.112469636 -0.090864725 0.10744751 0.014004296
-0.0420199 0.011547817 0.002067769 -0.073680334 -0.05360307 -0.04753657 0.055535004 -0.027769763
0.08172123 0.023095267 0.06148163 0.14973259 -0.068028554 0.056861192 0.15538144 -0.031223843
-0.11372371 0.06414989 0.14385812 0.028473806 -0.118349545 0.14536436 -0.037207726 0.025850391
-0.12146409 0.08836778 0.027386256 0.016931646 0.08509731 0.1453918 0.024078548 -0.016360573
-0.09189498 -0.044367086 -0.0061304118 0.1012163 -0.05456913 0.056107745 -0.1257488 0.003803298
-0.025592895 0.04672279 0.11609051 0.0035405888 0.12770286 -0.06576578 -0.07815665 0.013628685
0.16634546 -0.0924202 0.13142633 -0.061087184 0.018879628 -0.00081169215 -0.05371308 -0.014804275
-0.04281937 0.12059674 0.13866381 0.059875235 0.062223136 -0.07431674 0.07106293 0.0054975743
0.019780787 0.018697303 0.028130712 0.115677185 -0.06496079 -0.08284694 0.06760614 0.05918981
00000000: 8864 9abd fd76 f53d 5c02 983d 9bae ce3c
00000010: 948b 8abd 67fb fbbd bfc2 03bc c370 d2bb
00000020: b9e1 043e 001d afbc 797d f53d feb7 a73c
00000030: 041e 3fbd 43a9 e8bd e226 fa3d 062f 30bd
00000040: a553 793d bccf 15be 02eb 2f3d a56f a7bd
00000050: f91a 9e3c 0d2c 2abd 03f1 f43d d9ee 163e
00000060: 962b 613c a1ed 203e 39b7 3cba 3f04 1e3e
00000070: 30b7 eb3d 46e9 fd3d 36a6 ce3c d03b cebc
00000080: 28c1 f2bd 65e5 68bd 64e9 233d 791c dabb
00000090: c77f f33c 3576 0e3e 8bfd f1bc ca70 a6bd
000000a0: 90bb 7b3d 5de7 94bc faea 85bd 23ec a43d
000000b0: 086c aabd b441 96bc e8e6 66bd 2bf1 f63d
000000c0: 889a ea3d 8c1f b03d 9143 be3d e92e b3bd
000000d0: 0f8c c53b 5b8a b73d e38f 07bb 876f 243d
000000e0: c368 b93d d6c3 9abd 01d4 66bd 2dc2 b53d
000000f0: 5583 debd 1451 033e 9e8e dfbc 060c a13d
00000100: 0976 d9bc 8d54 cf3d 7fb6 37bd bf58 6c3d
00000110: 65a2 b0bd 862c 083d c9f1 a7bd a630 d0bd
00000120: 7e7b 5ebd 56ec 5abd 23f6 d73d 8fcc c4bd
00000130: 0085 8dbc 7887 043e 81e8 a4bd 6865 b33d
00000140: 930f 9abd 7906 0c3e d72c c43d bdb6 47bd
00000150: fbc8 0cbc 3454 31bd 4120 49bd cbe0 b53d
00000160: 37c7 6c3d ec8d 223d 20f3 c33d d797 d93d
00000170: 4c8d 40bd c21e cdbc d5b3 053c 2cc4 b63d
00000180: b6cb 063e 797c 0c3d e80f 843d 14cf e5bb
00000190: 31ba 93bd f60d 93bd 1086 553d 761a 033e
000001a0: b597 0abd 1fc8 adbc 9f57 3abd 4e95 f73d
000001b0: 2706 f93b ba23 4abd b0c2 b23d 1863 a5bd
000001c0: b017 26bb c26a 8e3c 1719 6e3d 0562 793d
000001d0: e2b6 013e af5a 06bb e017 da3d 6135 f7bb
000001e0: 1f72 d73b 9cd0 2f3d 1b23 c13d 548f 023d
000001f0: ded9 b13d 35ac a4bd 9a62 e93c ee51 d53d
00000200: f587 5c3d e12d a7bd c490 433b 266e 87bd
00000210: 744f 2d3c 336c e8bc 7c50 a9bd c914 303a
00000220: e3d4 9bbd 1f3a 31bd 99ee 72bd a46e 01be
00000230: fd79 9f3d 3604 643a 4826 d4bd e984 69bc
00000240: 6ee3 823b e4d8 febd 1566 3fbc d387 e8bb
00000250: 269c fdbd 7288 4cbd b8a6 363d 6058 f53d
00000260: 42e4 16bd e6a8 d9bc ca6a 69bd 1a64 34bd
00000270: c353 d0bd 4012 36bd 3347 9dbd 7912 fabc
00000280: 8205 18bd 1936 f8bb dcca 6fbd df83 0dbd
00000290: 74b9 913d e93f 03be 6693 93bd 067a 49bb
000002a0: 4800 4d3d 7749 ee3d 922a a2bb 2e41 8abd
000002b0: 4c1e a93d 602c 803d be91 733d ab61 77bd
000002c0: cbc9 0ebd 0e9f b2bd 10e6 0bbd 225b 80bd
000002d0: 7b56 e6bd 4917 babd 710d dc3d 4672 653c
000002e0: 0f1d 2cbd 0e33 3d3c 6883 073b b7e5 96bd
000002f0: e58e 5bbd b5b5 42bd ac78 633d 6a7d e3bc
00000300: 765d a73d 4932 bd3c 29d4 7b3d 8053 193e
00000310: 8e52 8bbd 48e7 683d 501c 1f3e 25c9 ffbc
00000320: fae7 e8bd 0461 833d 8b4f 133e e641 e93c
00000330: 3f61 f2bd 65da 143e 2167 18bd 33c4 d33c
00000340: 2ac2 f8bd 2bfa b43d 2459 e03c 3cb4 8a3c
00000350: 8047 ae3d 97e1 143e 6040 c53c 9c06 86bc
00000360: 6f33 bcbd 43ba 35bd 9fe1 c8bb 7e4a cf3d
00000370: e183 5fbd 3cd1 653d 4bc4 00be c140 793b
00000380: 31a8 d1bc 6560 3f3d dcc0 ed3d 3909 683b
00000390: 8ac4 023e 36b0 86bd 9810 a0bd d94a 5f3c
000003a0: 7756 2a3e cd46 bdbd a094 063e 8e36 7abd
000003b0: 73a9 9a3c bdc7 54ba 3f02 5cbd a18d 72bc
000003c0: 5d63 2fbd 6cfb f63d e3fd 0d3e bc3f 753d
000003d0: b0dd 7e3d 6033 98bd 7189 913d ff24 b43b
000003e0: 510b a23c 162b 993c 6172 e63c 29e8 ec3d
000003f0: 2a0a 85bd a8ab a9bd 1775 8a3d 0471 723d

mlp_head.2.bias f4 [64]
0.026123006 0.09941223 0.024281846 -0.036439132 0.0858162 -0.09136249 0.13096066 -0.0281624
0.036883887 0.13304779 0.060961857 0.08525595 -0.10642089 -0.022581909 0.10947889 -0.045340627
0.0037323625 -0.043943502 -0.07842933 -0.10295887 0.13409424 -0.036821146 -0.095324986 0.09272256
0.039276253 -0.040914755 0.022909593 -0.07562701 0.1182052 0.034204245 -0.02014964 -0.12175539
-0.0905523 0.09340163 -0.026733736 -0.039044224 0.018974068 0.10941068 -0.10297304 -0.0019080135
-0.053459726 -0.02804626 0.06929422 -0.07234113 -0.12472472 0.12824237 0.14513606 0.055653755
-0.0300664 0.09673971 0.06583132 -0.08544328 -0.08850996 0.09945758 -0.01939003 0.004241752
0.03852223 -0.059117872 0.040836453 -0.070260145 0.13438195 -0.08833326 -0.10652259 0.089436494
00000000: eaff d53c a498 cb3d b9ea c63c 3341 15bd
00000010: 67c0 af3d 421c bbbd 8d1a 063e d5b4 e6bc
00000020: 8f13 173d ae3d 083e 24b3 793d ac9a ae3d
00000030: 32f3 d9bd b2fd b8bc 7836 e03d 18b7 39bd
00000040: a79a 743b 1afe 33bd 8e9f a0bd 1adc d2bd
00000050: 0050 093e c5d1 16bd bf39 c3bd 53e5 bd3d
00000060: 23e0 203d 3b96 27bd e6ac bb3c 55e2 9abd
00000070: 9115 f23d c019 0c3d dc10 a5bc e45a f9bd
00000080: 7c73 b9bd 5b49 bf3d b500 dbbc d6ec 1fbd
00000090: 816f 9b3c b512 e03d 87e3 d2bd 4f16 faba
000000a0: 96f8 5abd 45c1 e5bc 21ea 8d3d 9627 94bd
000000b0: ad6f ffbd f851 033e 8c9e 143e 31f5 633d
000000c0: d04d f6bc 781f c63d 92d2 863d e3fc aebd
000000d0: b644 b5bd 6ab0 cb3d d7d7 9ebc 65fe 8a3b
000000e0: 7cc9 1d3d 9525 72bd 2044 273d 8de4 8fbd
000000f0: 6c9b 093e 11e8 b4bd 8428 dabd 7b2a b73d

mlp_head.4.weight f4 [4, 64]
-0.072774656 0.07384906 0.10746617 0.07620864 -0.103791736 -0.012750135 -0.15003777 -0.03287571
0.09422216 -0.10808604 0.07161847 0.110553004 0.07239421 0.049844038 0.096997544 -0.09687441
0.045100506 -0.009844735 -0.05076106 0.06935373 -0.02764145 -0.13040525 0.067706935 0.03758733
-0.12753806 -0.009983878 -0.07635302 -0.0008352841 0.10293404 -0.04471685 0.11409274 0.034984265
-0.042650614 0.07394932 -0.011274209 0.06263697 -0.050661147 0.009682109 -0.0931114 0.09723961
0.055187475 -0.03980301 -0.15903331 0.1210643 0.06882618 -0.034953628 0.01565125 0.07453828
0.08019224 -0.1376618 -0.02773032 0.066115096 0.02387693 -0.058656093 0.11868773 -0.09203424
0.11321339 0.05114361 -0.05334513 -0.003745693 0.10073744 0.00026578904 0.17910078 0.12970637
-0.053093582 -0.014158789 0.03426061 0.1334708 -0.090039134 -0.022704862 -0.12302017 0.054058205
0.09245489 0.015083456 -0.09632942 0.11716711 0.13151374 0.0745447 -0.038897745 -0.05308717
0.14098954 0.013973736 -0.08424291 0.029872552 -0.08063678 0.02368546 -0.09936152 0.0048907883
-0.10605138 0.06267977 -0.07640398 0.06135759 0.11233033 -0.056016754 -0.08414457 0.042147424
0.09797356 0.09867064 -0.07638792 -0.16288738 -0.08806581 0.07148563 -0.004825686 -0.09325767
-0.020356927 0.10042996 0.07916029 -0.029418409 0.09415409 -0.1395125 -0.1381728 0.094962455
-0.06396943 -0.01717722 0.029030077 0.10922738 0.12049379 0.10284781 0.13636944 -0.010675884
0.099637724 0.07854975 0.044042565 0.027285721 0.02892442 -0.121696465 0.079333775 0.13515452
-0.16347405 0.114923544 -0.03090152 -0.015033767 0.07375556 0.018458981 -0.04179127 -0.08967441
0.0935279 0.056127355 -0.109368056 -0.0744798 0.09009625 0.025304712 0.1372071 -0.14272177
0.085907646 0.05088428 -0.11921285 -0.0083743185 -0.07441274 0.08545976 0.0579848 -0.1440945
-0.046961255 0.16058123 0.07957564 0.07838178 0.044308048 -0.01969379 -0.06549039 -0.052506838
0.15316162 0.0050548506 -0.06703072 -0.017322784 0.0088076405 0.10267895 0.0075376867 -0.079832375
-0.06446081 -0.07298571 -0.05941678 0.15062316 0.075031035 -0.030011466 -0.12560683 0.03529689
-0.034840852 -0.08203699 -0.10614408 0.028880898 0.055704504 0.037185315 0.0862996 -0.00642969
0.062081188 0.10481839 -0.15114717 0.03206644 0.047500193 -0.048910975 0.086750254 0.11257444
-0.114704505 0.037264824 -0.030471938 0.074849874 -0.04702512 0.050665177 0.09350206 -0.14248048
0.01965404 -0.10069831 -0.014731269 -0.02478874 -0.07250196 -0.1642586 0.13762955 0.058203362
0.17450911 0.08865761 -0.043492272 -0.071197346 -0.073981814 0.116271324 0.08212224 -0.06787245
-0.033150848 0.14558183 -0.1360325 -0.12591897 0.028430616 -0.13036445 0.07340458 0.07150146
0.0347626 -0.003422155 -0.14503899 -0.030119713 -0.096994676 0.11273623 0.07475479 -0.1579039
-0.00501409 0.07885053 0.009336652 0.08168752 0.09977886 -0.12959063 0.046263468 0.0118808225
-0.045008734 0.022936389 -0.15693016 0.08873508 -0.04028307 0.086123504 0.13662694 0.09813601
0.1682841 0.16789764 -0.1399879 0.04891091 -0.066150144 0.07605557 0.09858211 -0.0885942
00000000: e10a 95bd 2d3e 973d 3917 dc3d 4713 9c3d
00000010: c390 d4bd f1e5 50bc 80a3 19be aea8 06bd
00000020: 8cf7 c03d 375c ddbd b4ac 923d 9d69 e23d
00000030: 6a43 943d 4329 4c3d a6a6 c63d 1766 c6bd
00000040: 4fbb 383d d04b 21bc d4ea 4fbd 5409 8e3d
00000050: 5270 e2bc f488 05be efa9 8a3d 2cf5 193d
00000060: 5699 02be 6b93 23bc f95e 9cbd f8f6 5aba
00000070: 15cf d23d 0429 37bd 74a9 e93d a94b 0f3d
00000080: 69b2 2ebd be72 973d 76b7 38bc d047 803d
00000090: 1082 4fbd b5a1 1e3c 31b1 bebd 9025 c73d
000000a0: 430c 623d 7b08 23bd a1d9 22be 8ff0 f73d
000000b0: bef4 8c3d 892b 0fbd 0d37 803c 87a7 983d
000000c0: d43b a43d 37f7 0cbe b22a e3bc 5a67 873d
000000d0: 8d99 c33c 5f41 70bd 8d12 f33d 737c bcbd
000000e0: 6cdc e73d f67b 513d 6c80 5abd 4d7a 75bb
000000f0: 6e4f ce3d 9a59 8b39 3266 373e bfd1 043e
00000100: a878 59bd 44fa 67bc da54 0c3d 92ac 083e
00000110: 7066 b8bd 8cff b9bc 00f2 fbbd 236c 5d3d
00000120: fd58 bd3d 9a20 773c 5c48 c5bd 4ff5 ef3d
00000130: 8aab 063e e4aa 983d 3e53 1fbd ef71 59bd
00000140: 905f 103e 19f2 643c 8c87 acbd 48b7 f43c
00000150: e524 a5bd 0308 c23c 0d7e cbbd e842 a03b
00000160: 7731 d9bd 405e 803d b179 9cbd 1952 7b3d
00000170: 720d e63d d371 65bd fd53 acbd c7a2 2c3d
00000180: 5da6 c83d d513 ca3d 4571 9cbd f3cb 26be
00000190: d95b b4bd 0f67 923d ca20 9ebb e1fd bebd
000001a0: 92c3 a6bc 39ae cd3d ca1e a23d e0fe f0bc
000001b0: dcd3 c03d 5ddc 0ebe 2c7d 0dbe ad7b c23d
000001c0: 6802 83bd 3eb7 8cbc 7cd0 ed3c 9bb2 df3d
000001d0: 73c5 f63d dfa1 d23d 6ea4 0b3e e7e9 2ebc
000001e0: dd0e cc3d b1de a03d fa65 343d 4e86 df3c
000001f0: e8f2 ec3c ff3b f9bd bf79 a23d f265 0a3e
00000200: be65 27be 095d eb3d 2f25 fdbc 3050 76bc
00000210: 280d 973d 4a37 973c 532d 2bbd 38a7 b7bd
00000220: 8e8b bf3d cce5 653d 5cfc dfbd de88 98bd
00000230: 6284 b83d d44b cf3c 0580 0c3e a825 12be
00000240: 59f0 af3d 096c 503d de25 f4bd 7034 09bc
00000250: b565 98bd 8705 af3d 7881 6d3d 828d 13be
00000260: 725a 40bd 686f 243e 8ef8 a23d a086 a03d
00000270: 5b7c 353d df54 a1bc d31f 86bd 6911 57bd
00000280: 66d6 1c3e 29a3 a53b 6747 89bd 83e8 8dbc
00000290: ec4d 103c 5749 d23d b3fe f63b 287f a3bd
000002a0: 0704 84bd 8879 95bd 025f 73bd f53c 1a3e
000002b0: dfa9 993d 9bda f5bc 149f 00be 7993 103d
000002c0: 48b5 0ebd 0203 a8bd 1162 d9bd a297 ec3c
000002d0: 682a 643d a14f 183d d8bd b03d 26b0 d2bb
000002e0: d848 7e3d 06ab d63d 53c6 1abe 1958 033d
000002f0: 908f 423d e056 48bd 1eaa b13d 6e8d e63d
00000300: 32ea eabd 00a3 183d 49a0 f9bc e44a 993d
00000310: 6a9d 40bd 4a86 4f3d 027e bf3d 67e6 11be
00000320: 8201 a13c ea3a cebd 6c5b 71bc c111 cbbc
00000330: e87b 94bd 6833 28be c3ee 0c3e a666 6e3d
00000340: 84b2 323e 1f92 b53d f424 32bd eacf 91bd
00000350: c783 97bd a91f ee3d b42f a83d b600 8bbd
00000360: 2fc9 07bd 6713 153e 1b4c 0bbe e7f0 00be
00000370: 53e7 e83c 427e 05be 2455 963d 5c6f 923d
00000380: 3a63 0e3d 3c46 60bb 1a85 14be 9ebd f6bc
00000390: 25a5 c6bd 41e2 e63d 0a19 993d 8fb1 21be
000003a0: 3c4d a4bb 637c a13d c2f8 183c c94b a73d
000003b0: dc58 cc3d 68b3 04be c37e 3d3d c8a7 423c
000003c0: 145b 38bd 18e5 bb3c 4db2 20be bdba b53d
000003d0: dcff 24bd 8561 b03d efe7 0b3e 88fb c83d
000003e0: ab52 2c3e 5ced 2b3e fd58 0fbe ce56 483d
000003f0: ba79 87bd 06c3 9b3d 6be5 c93d e070 b5bd

mlp_head.4.bias f4 [4]
-0.014360203 -0.058426015 0.02329502 0.056981068
00000000: 0f47 6bbc 1e50 6fbd 33d5 be3c fb64 693d
