runs/4_hour_forecasting/280/best_model.pt (torch, 772985 bytes, 6 tensors)

net.0.weight f4 [64, 2937]
000000 df a1 82 3c cb 77 bf 3c cd d1 88 bb 0f 54 7b 3c
       0.015946327 0.023372551 -0.004175401 0.015339865
000010 ef 51 76 3b 59 c2 4b 3c 9d 69 7d b9 d5 4c 5b 3c
       0.0037585457 0.012436473 -0.00024167304 0.013385017
000020 f1 1d cc 3c 92 da 13 bc fd 4c 40 3c 8d dc 0d 3b
       0.02491662 -0.009024279 0.011737105 0.002164635
000030 0c c9 80 3c cf 05 d2 3b c7 79 fa 3b 38 a6 1c ba
       0.015720867 0.006409384 0.0076439115 -0.0005975696
000040 75 42 c4 3c de 94 db b9 2d 0e e7 bb b9 8f 80 3b
       0.02395747 -0.0004188185 -0.0070512504 0.003923383
000050 8a d6 03 ba 02 2d a0 bb 61 0b 97 bb f6 c4 3f 3c
       -0.0005029222 -0.004888178 -0.004609511 0.011704674
000060 74 e5 a4 bc 52 cb f8 bb fc 59 05 bc 3d d3 9f bc
       -0.020128943 -0.007592597 -0.00813913 -0.019509906
000070 35 36 6d 3c 95 ce 9f bc fa 51 93 3c 49 2a a4 bc
       0.014478256 -0.019507686 0.017983425 -0.020039694
000080 16 69 55 3c 4b 20 41 bb d2 eb 43 3c eb 45 6b 3c
       0.013025543 -0.002946871 0.011958079 0.014359931
000090 6a f0 6d 3b 22 82 6b 3c bc 1e c3 3b 90 5d 35 bc
       0.0036306628 0.014374288 0.0059545916 -0.01106967
0000a0 7e b6 47 3c 6e 6c 25 3c bf af 55 3c 0c 07 a1 3c
       0.012189506 0.010096652 0.013042389 0.01965668
0000b0 7a 3b a5 3c b0 f2 59 bc 47 ef 7c 3b 9d 62 e2 3b
       0.020169962 -0.01330249 0.003859477 0.0069087283
0000c0 8f 86 3f 3c ee 8f 0b bc 73 67 95 bc e3 0c cb bb
       0.011689796 -0.008518202 -0.018237805 -0.0061966046
0000d0 55 ac 76 bc 26 12 59 3c 27 d9 81 3b bd 98 01 3c
       -0.015055736 0.013248956 0.003962654 0.007909951
0000e0 5b 32 a0 3b 34 8d 22 3a 04 f6 60 3c 84 62 87 bc
       0.0048888153 0.00062008505 0.01373053 -0.016526468
0000f0 ee e2 78 3a da 7c 45 bc 49 25 a0 3b e0 24 01 bc
       0.00094942644 -0.012053693 0.0048872572 -0.007882327
000100 a8 c2 54 3b 40 c1 1b bb 39 7d 4f 3c 70 c2 27 bc
       0.0032464657 -0.002376631 0.012664133 -0.010239229
000110 dd 7b e5 bb ba c5 2b bc 1a d4 9b 3c b2 16 25 3c
       -0.007003291 -0.010484153 0.019022036 0.010076212
000120 ca c2 b1 3c 48 58 3a bc b1 59 71 bc 4c 74 42 bc
       0.021699328 -0.011373587 -0.014730857 -0.011868548
000130 ad e7 12 bc 5b af 26 3c b7 0e 2b 3c 09 04 96 3c
       -0.008966369 0.010173644 0.01044052 0.018312471
000140 2e b2 0a bc d3 8d 1b bc eb 1a 45 3c 1b a2 f3 bb
       -0.008465333 -0.009494263 0.0120303435 -0.007435096
000150 8f 1d 8e 3c 7c ea 83 3a c0 e4 27 3c af 7b 14 bc
       0.017348079 0.0010064389 0.010247409 -0.009062692
000160 9f 40 fb bb b6 0b ef 3b db 5e 3c 3c 2c 28 93 bb
       -0.0076676155 0.007295097 0.011497225 -0.004490873
000170 39 7e 1c 3c 9a e8 a1 3c 25 91 b3 bb d8 56 af ba
       0.009551578 0.019764233 -0.005479949 -0.0013377322
000180 88 42 92 3c 35 9c b3 3a 8c 6e 44 ba ce 8f a4 bc
       0.01785399 0.001370317 -0.00074932794 -0.020088103
000190 3b 18 36 bc 3d e5 03 3c 7d 7e e4 3a 37 aa 70 bc
       -0.011114175 0.00805026 0.0017432716 -0.01468902
0001a0 f7 f0 6f 3b c4 25 a4 bb 15 13 84 bc 12 55 17 bc
       0.0036612132 -0.005009385 -0.01612238 -0.009236591
0001b0 b2 ec 99 bc 36 3a e1 bb aa 02 77 3c a2 d7 b7 3b
       -0.018789623 -0.0068733944 0.015076319 0.005610422
0001c0 59 e5 d3 3b 50 dc c1 bc 21 4f 23 bc 3d 19 20 bc
       0.0064665494 -0.023664623 -0.009967596 -0.009771642
0001d0 51 51 4b bb ba d4 c6 bb b6 37 25 bc d2 7e f9 bb
       -0.003102381 -0.0060678395 -0.010084083 -0.007613995
0001e0 93 6b 28 bb 4e 4f 0d bc 91 44 9b bb c1 56 bf 3b
       -0.0025698885 -0.008624865 -0.0047383984 0.0058391993
0001f0 44 96 42 bc 5e f1 29 bc 69 7f c7 bb 0e e8 39 bc
       -0.011876646 -0.010372488 -0.0060881865 -0.01134683
000200 68 4a eb 3b 0a 09 a6 3b 0e d0 df 3c d9 33 d4 3b
       0.007180501 0.0050669955 0.027320888 0.0064759073
000210 37 f1 57 bc a3 02 a4 3c 39 50 33 bc 03 37 51 bc
       -0.013180069 0.020020789 -0.01094442 -0.0127694635
000220 b6 40 4b bc a9 97 9d bc 90 05 d1 3b 72 59 b9 bb
       -0.012405565 -0.019237356 0.006378837 -0.0056564147
000230 cb 3b 07 3c a9 14 82 bc a3 3a 41 3c 71 63 74 bc
       0.008254002 -0.015878992 0.011793765 -0.014916287
000240 03 e9 34 bb 43 fd 42 3b 4c d2 2d 3c 84 6b 6b 3c
       -0.0027604706 0.0029753007 0.010609221 0.014368895
000250 04 be 5d 3c 55 88 72 bc 56 ba ae 3b 48 a1 0f bc
       0.013534073 -0.014803012 0.0053322716 -0.00876648
000260 e3 a6 62 bb 65 b4 83 bc 20 19 96 3c de 48 86 bc
       -0.0034584336 -0.01607723 0.018322527 -0.016392168
000270 b7 84 2f 3c 93 c4 1f 3c 69 c6 ce 3b cf 6a fe bb
       0.010712794 0.009751457 0.0063102734 -0.0077641974
000280 0a 3a af 3c 7a e6 e9 3b 8c 18 a6 3b 56 4a 5a bc
       0.02138998 0.0071380707 0.005068844 -0.013323387
000290 e1 89 20 3c e5 b3 de 39 b6 f2 c9 bb 62 ee 9a 3c
       0.009798498 0.00042477172 -0.0061629666 0.018912498
0002a0 bd 83 e1 3b ba c4 26 bc 4d 71 c6 bb 93 30 75 38
       0.0068821595 -0.010178739 -0.006055987 5.845779e-05
0002b0 7f be 32 3c ec bc a6 b8 3b a1 ac bb 9c a9 ee bb
       0.010909676 -7.950686e-05 -0.0052682436 -0.0072834026
0002c0 7c 6f 0b bc 00 bd 06 3c 75 85 66 3c fc 9c 24 bc
       -0.008510467 0.008223772 0.014069905 -0.010047194
0002d0 e2 fb ae 3b 10 84 24 3c 95 92 18 3c dc d5 4f b9
       0.0053400854 0.010041252 0.009312292 -0.00019820727
0002e0 fb e3 9a 3c 8a e3 42 3c cc b7 3f 3c c8 4c 80 3b
       0.018907538 0.01189507 0.011701535 0.003915403
0002f0 1e 8f c1 bb 4d 29 92 3a 99 88 11 3a 29 53 b9 ba
       -0.0059069535 0.0011151225 0.00055516657 -0.0014139164
000300 a0 1b 08 3c 50 cf 98 3c 19 d0 ee 3a 4e 46 51 bb
       0.008307368 0.018653542 0.0018219977 -0.0031932774
000310 54 a6 be 3a 64 23 bc bb 91 db df 3b c5 45 02 3b
       0.0014545419 -0.0057415236 0.0068315943 0.0019878012
000320 ec 82 71 bc fc d3 88 bb e4 72 18 3c 25 40 07 3c
       -0.014740687 -0.004175661 0.009304736 0.008255039
000330 a7 4c 93 bb 3d 3f 7d bc 2e dc 57 bb 97 e1 9d bc
       -0.0044952217 -0.015456972 -0.0032937634 -0.019272609
000340 ca 6a 90 bb 0a 14 de 3b 13 fd 10 3c d4 5a 94 3b
       -0.0044072615 0.006777291 0.0088494 0.004527429
000350 bc d3 68 3b 7d 71 5c bc 81 89 79 bb 57 75 93 3c
       0.0035526594 -0.013454792 -0.0038076343 0.018000288
000360 22 20 a0 3b 88 35 81 bc d9 a1 49 3c 16 a1 e7 3a
       0.004886643 -0.015772596 0.012306654 0.0017671909
000370 50 75 6b bc 7c 05 4e 3c 79 b1 10 bb 1e bc 24 bc
       -0.014371231 0.01257455 -0.0022078438 -0.010054616
000380 81 82 c1 bc 5a 0e 70 3c 75 9e 34 3c 87 b4 e9 3b
       -0.0236218 0.014651859 0.011024107 0.0071321162
000390 09 f9 5d bc f0 f8 8b bc ce 5e 7f bc b6 18 42 3c
       -0.013548144 -0.017086476 -0.015586568 0.011846712
0003a0 4c 8c f5 3b 1a 2d 83 3c bd 17 11 3c ae 59 c0 3b
       0.0074935313 0.016012717 0.008855757 0.0058700657
0003b0 2a d8 12 ba 4c 86 8d bc 06 0f 83 bc 0a c4 86 bc
       -0.0005601669 -0.017275952 -0.015998375 -0.0164509
0003c0 fb 2a d9 3b 22 b1 2b bc 59 65 bf bb ec 25 15 bc
       0.006627438 -0.0104792435 -0.005840939 -0.00910328
0003d0 f5 4f d1 bb 64 ff 44 bc 2a 28 1d bc 5c 1c d2 3b
       -0.0063877054 -0.0120237805 -0.009592095 0.006412072
0003e0 63 cf 67 bb c7 5a 88 3c 02 9a 80 bb 18 b1 45 bc
       -0.0035371415 0.016644849 -0.003924609 -0.012066148
0003f0 4a 0a 84 ba 4c bb ef bb b7 6e 27 bb b0 23 80 bc
       -0.0010073867 -0.0073160287 -0.002554817 -0.015642017

net.0.bias f4 [64]
000000 b6 a7 fe 3b ac a5 7f 3b ba ef c5 b9 1b 39 d7 bb
       0.0077714575 0.003900866 -0.00037753378 -0.006568087
000010 bb 3b f0 bb 59 93 ba 3c 21 40 8f 3c de 7a 31 3c
       -0.007331339 0.022775339 0.017486634 0.0108325165
000020 d6 f1 0e bc 67 4a 1c 3c cd 90 c1 39 f4 63 89 3c
       -0.00872465 0.009539223 0.00036919714 0.016771294
000030 4e c0 bf bb 03 7f 02 3c 0b 8e 5e 3c 00 95 07 3c
       -0.005851782 0.007964852 0.01358367 0.00827527
000040 e6 3b 28 3c 4d 8f 5a 3c 54 3b 1b 3b d4 75 c5 3b
       0.010268187 0.01333983 0.0023686485 0.006026009
000050 58 dc 47 3c 47 d2 6c bc 64 09 61 3c 08 35 65 bc
       0.01219853 -0.014454431 0.013735149 -0.013989694
000060 a8 94 04 bc e9 fe 25 bc 17 96 7d 3c 5b 53 4c 3c
       -0.008092083 -0.010131576 0.015477679 0.012471045
000070 b4 e2 08 bc 80 33 84 3b 52 9a ae 3c 81 7a 71 ba
       -0.0083548315 0.0040344596 0.02131382 -0.0009211675
000080 35 fe 43 3c d1 8d ae bb ce 01 34 3c 0a 19 01 bc
       0.011962463 -0.0053269644 0.010986758 -0.007879505
000090 a9 15 ca ba 09 64 a8 bb 8d 07 9a 3a 14 dc 89 3c
       -0.0015417832 -0.0051388782 0.0011751518 0.016828574
0000a0 04 c1 c9 3c f4 a4 4a bc fd f8 a5 3c 91 05 04 bb
       0.02462817 -0.012368429 0.020260328 -0.002014492
0000b0 54 5c 87 3c 31 8c c0 3b 5b 2e ae 3b 5b 84 55 3c
       0.016523518 0.005876087 0.0053155846 0.013032044
0000c0 16 78 a8 3b 92 2e 76 3c 54 03 79 3c 96 9d 2b bc
       0.0051412685 0.015025752 0.015198547 -0.010474583
0000d0 ed bd 58 bc 0b 75 26 bc ba 3b ba 3a 6f 85 19 bc
       -0.013228876 -0.010159741 0.0014208474 -0.009370192
0000e0 f3 fe c8 3a 86 c0 45 ba d6 28 6a 3b 5c b3 af 3c
       0.001533477 -0.0007543642 0.0035729907 0.02144783
0000f0 7e f3 b5 3b e9 bc d4 3a 64 62 b5 bb 8e 97 50 3c
       0.005552708 0.0016230616 -0.0055354107 0.012731446

net.2.weight f4 [64, 64]
000000 77 77 c7 3d 9f 32 f0 3b f9 08 bb 3d c7 95 eb ba
       0.09739583 0.0073302533 0.09132571 -0.0017973714
000010 92 fb 4d bc a8 02 9b bd 59 b6 cf bd 61 ed 36 bd
       -0.012572186 -0.07568866 -0.10142202 -0.044659976
000020 c7 75 cd 3c 0d a2 d7 bd e5 34 af bd 32 ae ce 3b
       0.025080575 -0.105289556 -0.08555011 0.006307387
000030 9f 3c b5 bc 73 26 a4 3d 58 59 0b 3d 5e 00 ed 3c
       -0.022123633 0.08015146 0.03402075 0.02893084
000040 97 db da 3d eb d7 d1 3d 42 7c 95 3a 9d f9 06 bd
       0.10686415 0.10246261 0.001140483 -0.032952894
000050 b1 95 19 bd e4 95 09 3e dc ef e6 3c 84 07 a4 bd
       -0.037496272 0.13436085 0.028190546 -0.08009246
000060 46 ca cf bc f9 65 e3 3d 6d d3 07 3e ff 78 03 3e
       -0.025365006 0.11103434 0.13264246 0.12839125
000070 14 6b ce bc 3e 09 d3 3d dc 32 e0 bc 9e 4a a2 3d
       -0.025197543 0.10304497 -0.027368002 0.07924388
000080 4d 56 8f 3d 68 32 1b bd 02 5d 20 3c 47 c0 23 3d
       0.069988824 -0.037889868 0.0097878 0.03997829
000090 72 d4 89 bd cb b7 6b 3c ee c8 2c bd 87 78 6a 3d
       -0.06729974 0.014387081 -0.04218381 0.05724385
0000a0 d5 85 d0 bd 19 84 48 bd ff 09 ec 3d 64 64 91 3d
       -0.101817764 -0.048954103 0.11525344 0.07099226
0000b0 6b fa 06 be 1c dd c4 bc e5 e9 ae 3c fb a6 01 be
       -0.13181464 -0.024031214 0.021351764 -0.12661354
0000c0 3a 56 da 3c 8d 33 4c bd b5 5b 7d bc e2 27 82 3d
       0.026652444 -0.04985385 -0.015463759 0.06355263
0000d0 2f 64 e6 bd ab da ac bd 5e 9b 8d bd 71 f8 ac bc
       -0.11249577 -0.08440145 -0.069143996 -0.02111456
0000e0 ac 89 69 3d ae 85 c5 3d cb 13 c4 3a 91 db a3 bd
       0.05701606 0.09644638 0.0014959512 -0.08000863
0000f0 a7 30 0a 3d 9b ab fa 3d b6 73 18 3d a3 5e d9 3d
       0.033737805 0.122397624 0.037219726 0.10613754
000100 d3 86 ee 3d 45 17 a8 bb f2 c9 70 bc 18 67 b5 bd
       0.116468094 -0.005129727 -0.014696585 -0.08857554
000110 59 49 41 bd 18 2c dc 3c e5 34 00 3e f7 07 2e 3d
       -0.04718909 0.026876494 0.12520178 0.042488065
000120 27 60 2d bd ad 4e 77 bc 32 70 07 bd fe 20 92 3d
       -0.042328026 -0.015094441 -0.033065982 0.07135199
000130 4b d5 0c 3e 14 76 b8 bd ba bf 83 3d 29 79 55 3d
       0.1375324 -0.090068966 0.06433053 0.0521175
000140 9e 33 0a be 83 b0 c5 bd 05 21 a3 bc e5 61 9a 3d
       -0.13496253 -0.096528076 -0.019913206 0.07538203
000150 09 20 5d bd 5f cb 3f bb cd 76 94 3d 37 1b 8a 3d
       -0.05398563 -0.0029265506 0.07249222 0.06743472
000160 4c fd 8a 3c f0 9f 12 3c 58 74 a5 bd c6 bd 7d 3d
       0.016966484 0.008949265 -0.080788314 0.06194856
000170 4d 55 3d bd df d3 8f bd fb 86 12 3e b0 fd ad 3c
       -0.046223927 -0.07022833 0.14309303 0.021239132
000180 31 99 98 3d c3 cc ac bd 03 b6 76 3d ee 6b af 3d
       0.07451094 -0.08437493 0.060232174 0.08565508
000190 53 d6 c4 bc 17 e5 3c bd f4 1f 1c 3c db 47 da 3d
       -0.024027979 -0.046116915 0.009529103 0.106582366
0001a0 f1 5f 07 bd d4 7f b0 3d 91 23 09 bd ea 99 e5 3d
       -0.03305048 0.08618131 -0.033481184 0.112109974
0001b0 28 f5 b2 3d bd ff 3c 3c 53 ef e3 bd 07 cb 65 bd
       0.08738166 0.011535582 -0.11129632 -0.056101825
0001c0 43 15 f7 bd 1f a0 e2 bd 02 9b 3d 3d 05 97 22 3d
       -0.12064602 -0.11065697 0.046290405 0.039694805
0001d0 d2 4c ae bc 05 63 d3 bc f2 50 be bc 76 8c 8d 3d
       -0.021276865 -0.025804052 -0.023231957 0.069115564
0001e0 67 23 df 3b bd 7c 91 3d 9d bb f4 3d b1 ad 55 3d
       0.00680964 0.0710387 0.11949847 0.0521676
0001f0 f2 00 63 bd b1 a8 32 bd da 0b 65 3d 3f 7e 01 be
       -0.055420823 -0.043617908 0.055919506 -0.12645815
000200 e2 ef 11 bc 73 f8 86 38 64 9d 3e bd a6 61 9a bd
       -0.00890729 6.435895e-05 -0.04653682 -0.07538156
000210 ba 52 18 bc 43 d9 a2 bd ce d1 f9 3d 90 4e c5 3d
       -0.009297067 -0.07951596 0.1219822 0.09634125
000220 75 71 a4 bd 70 73 f6 3d 2a ab 08 3e 52 f9 d3 bd
       -0.08029453 0.12033737 0.13346544 -0.103502885
000230 80 14 a8 bd 51 fb f5 bb c2 c8 05 3d 23 1a 39 3b
       -0.08207035 -0.007506766 0.03266216 0.0028244338
000240 37 23 98 3d 51 15 ad bd 30 aa ec bd 67 a5 33 3c
       0.07428592 -0.084513314 -0.11555898 0.010964728
000250 84 cf e9 bd 2f af cb 3d f7 62 f8 3d bc 2b 87 bd
       -0.114165336 0.09945523 0.12128251 -0.066001385
000260 bc 55 8e 3d 6c 8b e6 bd ba 2c 9c 3d 65 ce 10 3d
       0.06949946 -0.11257061 0.076257184 0.035353083
000270 48 e0 37 3d e7 cc 0a bc eb aa dd 3c 2f 4f 10 bd
       0.044891626 -0.008471704 0.02705904 -0.035231765
000280 be 54 ab 3c 51 81 d1 3d 0d 6a 9d bd 7c c4 d0 bc
       0.020914432 0.10229743 -0.07686243 -0.025484316
000290 53 f0 51 3d d5 e9 51 bd 45 8e d3 bd d9 f5 7a 3d
       0.05125458 -0.05124839 -0.1032987 0.061269615
0002a0 47 cd 51 bd 60 bd f3 3c 6f 06 ab bd 3e 88 8a bd
       -0.05122116 0.029753387 -0.083508365 -0.067642674
0002b0 9d a3 a6 3d a3 e9 65 bd f4 af 39 3d 20 9e 05 3e
       0.081366755 -0.056131016 0.045333818 0.13048601
0002c0 f9 6b db 3d 29 48 27 3d ed e0 fd bb c1 24 77 bd
       0.107139535 0.0408403 -0.0077477605 -0.060337786
0002d0 02 f8 b8 3c 01 c6 86 3c fa 71 fa 3c 9f c6 b3 bd
       0.022579197 0.016451837 0.030571926 -0.08778118
0002e0 cf a5 e0 bd 80 a7 8b bd 06 1f d9 3d a3 45 88 3d
       -0.109691255 -0.068190575 0.106016204 0.06653907
0002f0 5b c3 b5 3d 70 59 11 bd c4 9a 10 bd cd 99 87 3d
       0.08875152 -0.035485685 -0.035303846 0.06621132
000300 51 f9 ac 3d 0e f5 e9 bb 39 45 37 3d b7 39 fe bd
       0.08445991 -0.0071398085 0.04474375 -0.12413352
000310 10 c7 bf bd 54 56 b9 bd 04 8d 95 bd 36 df 84 bd
       -0.0936414 -0.09049669 -0.07302287 -0.064878866
000320 0f 3c 9d bc 68 3e 90 3c 6c 63 1f 3c 3a fa ef bb
       -0.019193677 0.017607883 0.009728294 -0.0073235305
000330 3c 08 fb bc 41 d1 fe bc 70 a1 99 bc e6 19 76 3d
       -0.030643575 -0.03110564 -0.018753737 0.060083292
000340 fd c1 c8 bd 6e 84 4e bd 52 08 91 3c 38 fc 9f 3d
       -0.09802625 -0.050419264 0.017704163 0.07811779
000350 99 cb cb 3d 41 c8 ac 3c 56 46 5a bd a2 6b b3 bc
       0.099509425 0.021091582 -0.053289734 -0.02190191
000360 ff 9b f0 bd 8d 97 96 3c 96 d8 6e 3b 27 1b 1f 3d
       -0.11748504 0.018382812 0.0036445013 0.038844254
000370 80 f7 ff bd 8d de f4 bd e5 6a 1e bd 07 cf 37 bd
       -0.12498379 -0.11956511 -0.03867616 -0.04487517
000380 e0 bb a8 3c 94 7d 0b 3d de c2 e3 bd 68 5c ba bd
       0.020597398 0.034055308 -0.11121152 -0.09099656
000390 1a 62 22 bd 4d 49 bb 3d 73 dc 89 bd dc d1 4a 3a
       -0.03964434 0.091448404 -0.067315005 0.000773696
0003a0 e8 13 03 bd 58 3c d1 3d 56 72 ea bd d7 78 18 3d
       -0.032001406 0.10216588 -0.11447589 0.037224617
0003b0 12 9f c0 bc 8f fb f8 3c f1 9e 6d bd 42 a8 ea bd
       -0.02351335 0.03039339 -0.058012906 -0.11457874
0003c0 c1 5b 3d bc 3e d9 80 3d 3c 05 45 3b 7a 62 e3 bc
       -0.01155752 0.06291436 0.0030062934 -0.027756918
0003d0 f8 bf d8 3d 58 a3 81 3d db 85 60 bd 37 7b 08 3d
       0.1058349 0.063299835 -0.054815155 0.03332063
0003e0 e9 e2 db bd 3d b0 cb 3a 62 35 3e 3c a2 6f 9c bd
       -0.10736639 0.0015540194 0.011609407 -0.0763848
0003f0 b4 e6 b0 bd 38 ab fa bd bb 61 7e bd d0 8d a0 bc
       -0.08637753 -0.12239689 -0.06210492 -0.019598871

net.2.bias f4 [64]
000000 ae e5 cd 3d 70 d3 c3 3d f0 19 8d bd cc 8c 17 bb
       0.100535735 0.09561813 -0.06889713 -0.0023124693
000010 cd 66 b8 3c 5f 44 d7 bd 0f af 48 bd 3e 03 3a 3d
       0.022509957 -0.105110876 -0.048995074 0.04541325
000020 d7 9d 68 3c 27 58 cc bb f9 4c 10 3d e4 ee b9 bc
       0.014197788 -0.0062360945 0.035229657 -0.02269692
000030 62 24 71 bd a8 e9 81 3d b1 2e 1c bd 14 4f a4 bd
       -0.058872588 0.063433945 -0.038130466 -0.080228955
000040 bd bd 5c 3d 77 f3 a3 3b db c7 cd bd a0 cf 73 3d
       0.053891886 0.0050033885 -0.10047885 0.05952418
000050 c5 0e 94 bd f2 e8 ad 3a aa 01 23 3d e4 33 26 bc
       -0.072293796 0.0013268276 0.03979651 -0.010144208
000060 d8 5e f1 bd bd 01 9e bd 0e ae cf 3d b5 ca ca 3d
       -0.11785668 -0.07715175 0.1014062 0.099019445
000070 56 eb 64 bd 52 9c c3 3d 47 a5 ae bd b8 ee fd 3d
       -0.055888496 0.095513 -0.08527618 0.123990476
000080 cf b6 60 bd 7b 11 4e bd 07 dd db 3d 8d 13 68 3d
       -0.05486184 -0.05030964 0.10735517 0.05665927
000090 c6 99 d1 bd a1 a3 93 bb 7b ef 82 3d b5 4a d1 bd
       -0.10234408 -0.00450559 0.063933335 -0.10219327
0000a0 e0 49 e7 3c f6 67 15 bd 57 5b 24 bd 07 cc 84 bd
       0.028233469 -0.036476098 -0.04012617 -0.06484228
0000b0 4e f1 17 3d 98 b1 75 3c 1c c4 4b 3d bc 01 15 3c
       0.03709536 0.014995955 0.04974757 0.009094652
0000c0 a1 e4 61 3d 72 75 bc bd 9d 90 e2 3d d4 5d a8 3d
       0.05514968 -0.092020884 0.11062739 0.08221021
0000d0 6a 41 ef 3d c2 27 e7 3c 4d b9 8e bd 8a 8e b3 bd
       0.116823986 0.0282172 -0.06968937 -0.087674215
0000e0 97 0e 29 3d 62 43 20 bc 23 b1 00 be 26 6a d5 3c
       0.04127368 -0.00978169 -0.12567572 0.026051592
0000f0 0b 12 49 3d 40 ea 85 bd 36 e4 88 3d ad 76 d2 3d
       0.049089473 -0.0653882 0.06684153 0.10276542

net.4.weight f4 [4, 64]
000000 90 a1 a5 bc a1 30 0a be 7f 5d b6 3d 36 36 23 bd
       -0.02021864 -0.13495113 0.08904552 -0.03984662
000010 9a 4b fa bc 88 5b db bd 36 fb 8e 3d 3f ca 63 bd
       -0.030553628 -0.107108176 0.069815084 -0.0556128
000020 f6 cb 0e bd e1 1b 4e 3c fc bb de 3c c5 88 d7 bc
       -0.03486248 0.012579889 0.027189247 -0.026310334
000030 5c 34 f3 3d bc c2 35 bd dd 40 c2 3d cd 06 c3 3d
       0.11875221 -0.044375166 0.09485028 0.095227815
000040 45 3b 05 bd 71 73 54 3d ff 33 82 b9 00 a8 a6 bd
       -0.032527227 0.051867906 -0.00024834272 -0.08137512
000050 be e0 f9 3d 17 d8 ab bd 2f c0 8d bc 05 7a 09 be
       0.12201069 -0.08390825 -0.017303554 -0.13425453
000060 2b c3 57 3d 74 01 e6 bc 55 7d 73 bd a3 e0 b1 bd
       0.05267636 -0.028076865 -0.059445698 -0.08685424
000070 b1 15 84 bd b0 3e 0b 3e 3c 01 a6 3d 16 ee 48 3d
       -0.0644945 0.13598132 0.08105704 0.04905518
000080 7f bc e8 3c 1b 85 d7 bb 3a 0a 81 3d c1 97 50 3d
       0.028410194 -0.0065771467 0.06300779 0.050925974
000090 ac aa 23 bd 37 fc c5 bd ce 10 d0 3b 72 10 a9 3d
       -0.039957687 -0.09667247 0.0063496595 0.0825509
0000a0 95 4d ba 3d c6 c5 93 3d 1f 3b 25 bc a6 43 b3 3d
       0.09096829 0.07215457 -0.010084896 0.08753137
0000b0 91 5f f8 3d ac 20 01 bd d1 a5 3f 3d d1 10 42 bd
       0.12127603 -0.0315253 0.046788994 -0.04737932
0000c0 8e 11 df bd 64 d6 8d bd 1b fa 2e bd 5a 53 ce 3d
       -0.1089202 -0.069256574 -0.042718988 0.10074492
0000d0 61 00 b4 bc a0 98 82 3d c4 5c fd 3d b9 6b 32 3d
       -0.021972837 0.06376767 0.12371209 0.043559764
0000e0 e4 d8 2c 3d 01 69 01 3c 7a f4 e1 3d c9 4e 12 3e
       0.04219903 0.00789857 0.11032958 0.14287867
0000f0 5a e3 4c bd dc 9f cd 3b a1 61 08 3e 33 8f 8e bc
       -0.050021507 0.0062751602 0.13318492 -0.017402267
000100 e2 1b 77 3d 48 3a 9e bd c7 4f 0d 3e 2b e0 32 bd
       0.060329325 -0.0772596 0.13799964 -0.043670814
000110 af 02 96 bd f4 91 02 be 89 2f 1d bc 5a 62 0f be
       -0.073247306 -0.12750989 -0.009593853 -0.14002362
000120 8e 17 e7 3c e1 97 d3 3d 6a 42 ba bd 92 bf a1 3d
       0.028209474 0.10331703 -0.09094699 0.07897867
000130 fb 46 f4 3d 22 a8 f9 bd 6f 63 ff 3d 75 0f b3 3d
       0.11927601 -0.12190272 0.12470137 0.087431826
000140 4c a4 b5 3d 29 a6 8b ba 9c ee cc bd 48 5e d7 3d
       0.08869228 -0.0010654378 -0.100064486 0.105160296
000150 bf be c3 3d 7f a2 a0 3c ea 80 f0 bd 92 86 be bc
       0.09557866 0.019608734 -0.117433384 -0.023257528
000160 c3 2f 33 3c 91 fb 85 3d 92 fb c7 3d e8 df 29 bd
       0.01093668 0.06542123 0.0976478 -0.0414733
000170 e0 d0 1e 3c d3 57 d3 3d a8 20 94 bd be da d7 bd
       0.009693354 0.103194855 -0.07232791 -0.10539769
000180 62 ea 8f bd 3a 3b 1c 3c bf 52 19 bc 6d 82 c9 bd
       -0.07027127 0.009535605 -0.009358107 -0.0983933
000190 de 01 e1 3d 04 38 b4 bd de e9 bb 3d 4a 61 85 bc
       0.10986684 -0.08799747 0.09175466 -0.016281743
0001a0 72 e3 c2 3d f3 d5 a1 bd 42 8c 98 3d 33 5b 83 3c
       0.09516038 -0.07902136 0.07448627 0.016034698
0001b0 af 51 f1 3d 0d d2 a8 3d e3 04 bc 3d b0 5e 85 3d
       0.11783158 0.08243189 0.091806196 0.06512201
0001c0 b1 3e 2a bd 74 06 ce 3d d3 c2 8f bc fc c1 13 bd
       -0.041563693 0.100598246 -0.017548954 -0.03607367
0001d0 28 a2 04 3e 05 53 01 bd cf f5 48 3d b1 c4 5c bd
       0.12952483 -0.031573314 0.049062546 -0.053898517
0001e0 e8 eb 32 3c 57 48 90 3d 5a bd 0c 3e 33 f7 b6 bd
       0.010920502 0.07045048 0.13744107 -0.08933868
0001f0 8a bf fd bd 40 83 c4 3d f1 76 1a bc 1f 85 be 3c
       -0.12390049 0.095953465 -0.009427772 0.023256836
000200 63 e0 a6 3d a5 f8 ac bd b7 28 a7 bc b2 10 af bd
       0.08148267 -0.08445863 -0.020405157 -0.08548106
000210 76 eb 23 bd af 87 9c 3d 42 44 7d 3d e5 f3 c6 bd
       -0.040019475 0.07643067 0.061832674 -0.09714488
000220 61 4c 76 bd 83 11 83 bd ea 7f 91 bd 81 82 e9 bd
       -0.060131434 -0.063998245 -0.07104476 -0.11401845
000230 e5 cc a8 3b 55 98 a5 3b bc a6 4d bc 7b 27 63 3c
       0.0051513785 0.00505356 -0.01255196 0.013864393
000240 4e 80 8e bc f2 18 4b 3d a7 fc 67 bc 88 56 af bd
       -0.017395165 0.049584337 -0.014159358 -0.085614264
000250 fd 50 5e 3c a1 5f 61 3c 48 eb 94 bd ee 82 d4 bc
       0.013569114 0.01375571 -0.07271439 -0.025941338
000260 6e 59 db 3d 23 f6 e4 3d db d6 94 bd 93 1d 0d 3d
       0.10710417 0.11179759 -0.07267543 0.034452032
000270 20 36 de bd e9 6b 06 3e 93 22 e9 3d 27 67 e3 3a
       -0.10850167 0.13127102 0.11383548 0.0017349467
000280 2b da c0 bd 56 00 b6 3d 85 40 fa bc 5f 2c a0 bd
       -0.09416612 0.08886783 -0.030548343 -0.07820963
000290 01 a7 8a 3d d3 d7 80 bd 31 f2 83 3d 01 94 47 3d
       0.06770135 -0.06291165 0.06442679 0.048725132
0002a0 92 4a eb 3d 80 05 22 bd 2d 37 8a 3d 5a 36 a7 3d
       0.114888325 -0.039556026 0.06748805 0.081646636
0002b0 5d 05 97 bd 8c 9d 98 bc 8c 6c 49 3d e8 24 c3 3d
       -0.0737407 -0.018629812 0.049175784 0.09528524
0002c0 b1 5b e3 bd 40 aa 17 bc 2d da 09 3e dd 12 66 3d
       -0.11101473 -0.009256899 0.13462134 0.056170333
0002d0 b9 75 cc 3d d5 42 2b bd 0e e6 42 3b b7 b1 16 be
       0.09983391 -0.041811783 0.0029739174 -0.1471623
0002e0 50 57 ac 3c 30 56 0a 3e 0d 47 cd 3c 53 15 d2 3d
       0.021037728 0.1350944 0.025058294 0.102579735
0002f0 aa 96 5a bc 07 6f db 3c 18 a1 74 3d c9 a8 e7 3d
       -0.013341585 0.02678634 0.059723943 0.1131149
000300 0e a4 08 3d b7 72 8d bd 6c 33 0b 3e b2 ef af 3d
       0.03335958 -0.06906646 0.13593835 0.0859064
000310 3f f7 ed bd 2f 7e 5d bd 6c 5f 7e bd 4b c8 cd bd
       -0.11619424 -0.054075416 -0.06210272 -0.100479685
000320 7a f1 00 be 8c eb e4 3d 39 da f9 bd 79 97 0d bc
       -0.12592116 0.111777395 -0.12199826 -0.008642071
000330 26 ad 01 3e ec b2 e8 bd e0 91 9c 3d 0c 35 ad bd
       0.12663707 -0.11362252 0.07645011 -0.084573835
000340 56 c2 8b bd 90 0c ae 3d 20 ae e1 3d 95 fa c1 3d
       -0.06824176 0.0849849 0.1101954 0.09471623
000350 1d 99 7c bd 76 5f d7 bd 62 fc db bd 50 8b e3 bd
       -0.061669458 -0.105162546 -0.107414976 -0.11110556
000360 a6 6b b7 3d cc 23 83 3d 9d df 12 bd 41 a7 72 3c
       0.08956079 0.06403312 -0.035857785 0.014810384
000370 d0 f8 11 be 43 fd 0a 3e b2 95 f4 3d bd f2 6b 3d
       -0.1425507 0.13573174 0.119426146 0.05760454
000380 d1 0d 07 be be b8 8b bd 84 14 e4 3c b6 1f 01 be
       -0.13188864 -0.06822346 0.027841814 -0.12609753
000390 45 83 24 3e 69 2b fd bb 33 8d 06 3e ce f6 06 3e
       0.160657 -0.007726122 0.131398 0.13180086
0003a0 db b1 ad 3d 1e 2b 07 be 22 c0 8c 3d e6 61 50 3d
       0.08481189 -0.13200042 0.06872584 0.050874613
0003b0 e0 f8 2f 3d a3 d5 74 3c d7 d9 41 3c f3 48 da bd
       0.042961955 0.014943513 0.011831722 -0.10658445
0003c0 f1 ec 0d bd 24 a4 a8 3d cf 4e 0f 3e af 9f 85 3d
       -0.034649793 0.08234432 0.13994907 0.06524598
0003d0 48 f5 63 bc bb 70 cc bd 6f 2c ef 3d ed 9e cf 3c
       -0.01391346 -0.09982439 0.11678397 0.025344336
0003e0 de 6d c7 bd 7d b4 b5 3d e5 28 12 bd 7e c4 7a 3a
       -0.097377524 0.08872316 -0.03568353 0.0009566023
0003f0 6b e8 84 3d c3 bb ae 3d 29 09 59 bc 3e 9a 90 bd
       0.06489643 0.085319065 -0.013246813 -0.07060669

net.4.bias f4 [4]
000000 d7 9d d5 bc 73 ba 57 bd e8 ec 00 3d 84 72 6a bd
       -0.02607624 -0.052668046 0.03147593 -0.057238117
