runs/8_hour_forecasting/122/best_model.pt (torch, 637305 bytes, 6 tensors)

net.0.weight f4 [64, 2403]
0.011911835 0.009806478 -0.006357931 0.018568754 -0.008090317 0.0031102404 -0.00802531 0.006821673
0.0068200557 -0.014018974 0.034470793 0.003498112 0.0062058726 0.007751753 0.015809143 0.00816825
0.014362652 0.013979325 -0.007468747 0.009280715 -0.0022073172 0.0045335563 -0.0065222587 0.018692283
-0.010737955 -0.00845852 -0.008413985 -0.024878936 -0.0015609303 -0.018342357 0.024399806 -0.021061582
0.0033990454 5.930044e-05 0.001584963 0.012241569 0.0014064703 0.017195206 0.005758168 0.0016085769
-0.005680345 0.0023002643 0.007539737 0.029810417 0.011642354 -0.01359656 0.012246704 -0.0013394712
0.017220605 -0.006370402 -0.025248181 0.0032042763 -0.0041267895 0.0261339 0.014769017 0.019434469
0.01546113 0.009296195 0.027116572 -0.0044893315 0.011299984 -0.0042242114 0.01480436 0.0019613225
0.017898751 0.0071557136 0.026537225 -0.0007938899 -0.009606532 -0.008325276 0.019873194 0.0025263992
0.023523476 -0.009136178 -0.022845335 -0.016797403 -0.024369575 0.0016884519 0.007809045 0.010253107
-0.0117759155 -0.019737981 0.014243131 -0.013825485 0.009332217 -0.028096095 -0.007782713 -0.021243902
0.0044217296 0.0020955876 -0.0023268508 -0.007612515 0.0118083395 0.010730884 -0.01498186 -0.007396552
0.012229943 -0.016163154 -0.0074008256 -0.0012654936 -0.012224508 -0.0050493 0.00022667708 -0.009533855
0.010331501 -0.013567668 -0.006850637 -0.007121595 -0.0136450315 -0.004594124 0.026576541 0.0065459437
0.011036066 -0.014621255 -0.010463606 -0.0072332765 -0.010259775 -0.01862229 -0.007830314 -0.0057787183
-0.005804201 -0.016570708 -0.0069698817 -0.004997721 -0.011495288 -0.01217615 -0.0045299204 -0.013608209
0.02396107 -0.014620321 0.025836634 0.0047048056 -0.007624287 0.014037331 -0.008687801 -0.007980033
-0.022363624 -0.012623551 0.010616103 -0.009374556 0.018273793 -0.006176269 0.02359382 -0.0068979366
0.006510971 0.0122765275 0.019633442 0.026615651 0.027540863 -0.007080436 0.014194316 -0.0010863745
0.0057817013 -0.004696176 0.029037593 -0.006332901 0.021375744 0.008276909 0.011431822 -0.00749265
0.016388705 0.008498167 0.010533744 -0.020248415 0.008288642 -0.010400203 -0.014857908 0.017721059
-0.0040115276 -0.010958157 -0.013226619 0.0027790586 0.0066090203 -0.007935572 -0.0365256 -0.02430908
-0.020630518 0.021992587 0.011908566 -0.025506299 0.0009131434 0.010472093 0.0014603491 -0.007057247
0.015046736 0.0039818967 -0.002059583 -0.0037843713 0.010999142 0.002042096 -0.0125927925 -0.0028989287
0.015358727 0.025073772 -0.0013374946 0.0038835017 0.0060808947 0.001595293 0.013802619 0.012514701
-0.014799753 1.5451868e-05 0.020359153 0.010316136 -0.002016091 -0.023610827 -0.011291875 -0.018548232
-0.00012223433 0.0007389081 0.006820898 0.0017278226 -0.010437756 -0.010544273 -0.004980071 0.02312259
0.004388673 0.0005973504 0.00054357393 -2.3300792e-05 -0.012327696 0.02090435 -0.009236051 -0.006238727
-0.022056343 0.0048320433 0.02029055 0.013960947 -0.01782252 -0.010503328 -0.0069124866 0.022724517
0.017014595 0.026242184 0.017723532 0.013767672 0.00897453 -0.0076082423 -0.009300803 -0.0106061455
0.015190767 -0.0029172718 0.0053964714 -0.0022530714 0.003941002 -0.004722249 -0.012855866 0.011802328
-0.001772663 0.012195312 -0.002580068 -0.0075948727 -0.0059936084 -0.010323011 -0.010033944 -0.024204548
00000000: db29 433c 5aab 203c 3156 d0bb 801d 983c
00000010: 408d 04bc 2dd5 4b3b 977c 03bc 5788 df3b
00000020: c67a df3b d7af 65bc 3f31 0d3d 9540 653b
00000030: a25a cb3b 6b02 fe3b 2d82 813c 20d4 053c
00000040: 5451 6b3c 8a09 653c 64bc f4bb 240e 183c
00000050: a3a8 10bb 3a8e 943b acb8 d5bb 8f20 993c
00000060: 3fee 2fbc 9b95 0abc d0da 09bc e9ce cbbc
00000070: 2198 ccba b642 96bc 1ae2 c73c 5789 acbc
00000080: 85c2 5e3b 5db9 7838 89be cf3a dd90 483c
00000090: 5059 b83a f6dc 8c3c 04af bc3b e2d6 d23a
000000a0: 3022 babb 08c0 163b e60f f73b fa34 f43c
000000b0: 92bf 3e3c 1bc4 5ebc 66a6 483c 3291 afba
000000c0: 3a12 8d3c cebe d0bb 46d5 cebc d6fe 513b
000000d0: 053a 87bb c316 d63c bff9 713c 0935 9f3c
000000e0: ae50 7d3c 114f 183c 9323 de3c 3e1b 93bb
000000f0: 9123 393c 416b 8abb fd8d 723c 8889 003b
00000100: 67a0 923c 7a7a ea3b 9864 d93c 0d1d 50ba
00000110: b764 1dbc bd66 08bc 1ccd a23c f291 253b
00000120: 4eb4 c03c e8af 15bc 2426 bbbc b59a 89bc
00000130: b4a2 c7bc 0b4f dd3a 04e3 ff3b a6fc 273c
00000140: c5ef 40bc 8cb1 a1bc 055c 693c 4984 62bc
00000150: 28e6 183c c829 e6bc 2106 ffbb b107 aebc
00000160: 28e4 903b 2056 093b 147e 18bb 6772 f9bb
00000170: c477 413c 97d0 2f3c 7a76 75bc c65e f2bb
00000180: 1960 483c 9768 84bc a082 f2bb ebde a5ba
00000190: 4e49 48bc 9974 a5bb 2ab0 6d39 e333 1cbc
000001a0: 7545 293c ed4a 5ebc 4f7b e0bb 455c e9bb
000001b0: 698f 5fbc 4e8a 96bb 0cb7 d93c 5b7f d63b
000001c0: 9ed0 343c fd8d 6fbc 8b6f 2bbc 1f05 edbb
000001d0: 9e18 28bc c68d 98bc b84a 00bc 675b bdbb
000001e0: 2b31 bebb 4bbf 87bc 9b63 e4bb ecc3 a3bb
000001f0: bc56 3cbc 7a7e 47bc ba6f 94bb f7f4 5ebc
00000200: 024a c43c 128a 6fbc 59a7 d33c c52a 9a3b
00000210: 28d5 f9bb d5fc 653c 4757 0ebc afbe 02bc
00000220: eb33 b7bc 03d3 4ebc 2aef 2d3c bd97 19bc
00000230: ecb2 953c 4d62 cabb d447 c13c 1608 e2bb
00000240: fc59 d53b 7d23 493c 50d6 a03c 1109 da3c
00000250: 609d e13c 0103 e8bb 478f 683c ae64 8eba
00000260: 6d74 bd3b 61e2 99bb 3fe0 ed3c 3984 cfbb
00000270: 2f1c af3c df9b 073c 894c 3b3c e784 f5bb
00000280: 9b41 863c e53b 0b3c b995 2c3c 01e0 a5bc
00000290: 16cd 073c 9d65 2abc 956e 73bc c12b 913c
000002a0: 2273 83bb d789 33bc 76b4 58bc de20 363b
000002b0: 7b90 d83b 3404 02bc de9b 15bd d623 c7bc
000002c0: 5501 a9bc cc29 b43c 251c 433c 96f2 d0bc
000002d0: 0460 6f3a 2493 2b3c 2f69 bf3a 7b40 e7bb
000002e0: 9686 763c 927a 823b 12fa 06bb 3703 78bb
000002f0: bf35 343c b0d4 053b 0052 4ebc f4fb 3dbb
00000300: 2ca3 7b3c 8367 cd3c df4e afba 5982 7e3b
00000310: 3e42 c73b 2719 d13a 6124 623c 760a 4d3c
00000320: aa7a 72bc a29e 8137 3dc8 a63c 0305 293c
00000330: 6520 04bb 7e6b c1bc 8e01 39bc 76f2 97bc
00000340: 072c 00b9 48b3 413a d781 df3b 1b78 e23a
00000350: 1f03 2bbc e3c1 2cbc dd2f a3bb 966b bd3c
00000360: dcce 8f3b 8297 1c3a a17e 0e3a 1276 c3b7
00000370: 1bfa 49bc 993f ab3c ce52 17bc 3c6e ccbb
00000380: 81af b4bc 1e56 9e3b 5e38 a63c 75bc 643c
00000390: 8900 92bc 2716 2cbc 2482 e2bb c428 ba3c
000003a0: 3162 8b3c d9f9 d63c f130 913c cd91 613c
000003b0: e809 133c 904e f9bb 6562 18bc 66c5 2dbc
000003c0: b2e2 783c b32f 3fbb e2d4 b03b 44a8 13bb
000003d0: 8523 813b 19bd 9abb 69a1 52bc 8d5e 413c
000003e0: b358 e8ba d9ce 473c 5c16 29bb 69de f8bb
000003f0: 0866 c4bb d921 29bc 6965 24bc 9e48 c6bc

net.0.bias f4 [64]
0.009942665 -0.006808739 0.008618651 0.010950023 0.00401794 -0.010817241 0.019104961 0.009440574
-0.0021250916 -0.006417263 0.015624654 0.0014790052 0.028633123 0.020704906 -0.0065476564 0.011510169
-0.0006150711 0.0070851804 0.034360833 0.013869633 0.008324685 -0.016442494 0.00027668854 0.012173712
0.014089561 -0.0073464164 0.030209709 0.004717062 0.0033187123 -0.0073824585 0.0049826954 -0.003809997
0.009400159 -0.013786072 0.015887927 0.0006258086 -0.009255468 0.016617747 0.00441696 0.011784205
-0.011256989 0.02889133 0.0016429679 0.010263795 0.010253491 -0.01948342 -0.004345742 0.020558305
-0.001522732 0.021263482 0.0035278716 -0.007127768 0.017022664 -0.010337646 -0.0018207217 0.001045937
0.0001653677 0.006325732 0.012213523 0.02670712 0.0032022346 0.0037426327 -0.00037524852 0.020823706
00000000: 8fe6 223c d81b dfbb 3e35 0d3c ba67 333c
00000010: eca8 833b cc3a 31bc 0282 9c3c a3ac 1a3c
00000020: 1f45 0bbb e747 d2bb 8cfe 7f3c 2edb c13a
00000030: 0390 ea3c 569d a93c b98d d6bb 2695 3c3c
00000040: b93c 21ba cd2a e83b f2bd 0c3d 753d 633c
00000050: 4264 083c 69b2 86bc 8210 9139 4074 473c
00000060: e7d7 663c 35ba f0bb 5a7a f73c 9691 9a3b
00000070: c17e 593b 8de8 f1bb e145 a33b 25b1 79bb
00000080: 2003 1a3c fade 61bc 6627 823c 4e0d 243a
00000090: 3fa4 17bc f121 883c 25bc 903b 8a12 413c
000000a0: 3c6f 38bc 83ad ec3c db58 d73a 7a29 283c
000000b0: 42fe 273c b19b 9fbc ba66 8ebb e469 a83c
000000c0: 6896 c7ba c130 ae3c dd33 673b 0d90 e9bb
000000d0: 1d73 8b3c 3b5f 29bc 48a5 eeba d217 893a
000000e0: 8e66 2d39 1648 cf3b 3a1b 483c e4c8 da3c
000000f0: 95dc 513b f546 753b 01bd c4b9 7a96 aa3c

net.2.weight f4 [64, 64]
0.028762419 0.053523574 0.03511482 0.07941205 -0.032513145 0.056392636 0.041667283 -0.0797845
-0.095528945 -0.05019591 -0.080906905 -0.03325803 -0.11570738 0.06883597 0.06913284 -0.0076427185
-0.0052117975 -0.1285148 -0.06971155 -0.033316072 -0.10732258 -0.106689185 -0.008863535 -0.037247915
0.024134615 0.011248758 0.11384294 -0.018709652 0.11396435 -0.08298621 0.0010140376 0.08546584
-0.037317477 -0.036257632 0.09087904 -0.12637082 0.043141816 0.12337125 -0.12091303 0.01225759
0.084555425 0.01759512 0.051054332 -0.10788362 0.104161955 0.012289569 0.11978327 0.062985376
0.074221425 0.11006013 -0.106724545 0.0726125 -0.014289214 -0.11539202 -0.021901017 -0.05730716
0.06482483 -0.08159941 0.0070014 0.0436722 0.0026668946 -0.050461162 -0.10835837 -0.041214056
-0.051864788 0.103572085 0.06345889 -0.06979445 0.055891432 0.06836911 -0.01737488 0.091590255
-0.112891406 0.03692981 0.03354502 0.117596 0.03890386 0.006426238 0.009484985 0.10216019
-0.07822975 0.03936338 0.08137354 -0.026527481 0.020647176 -0.108545735 -0.0122152455 0.11297813
-0.024239117 0.03437435 0.0066481256 -0.12553203 0.038149517 0.091032624 0.0760513 0.029378595
-0.06055561 0.12386243 -0.07443761 -0.15612409 -0.032222584 0.05336645 0.1039717 0.08513909
-0.077108406 0.0014597027 -0.122206464 0.029862149 0.025029266 -0.033747934 0.10579661 -0.04682185
-0.11327551 -0.057061788 -0.0033481705 -0.08889692 0.0874392 -0.085589856 -0.044632368 0.09895681
-0.045636088 -0.13335982 0.093735196 -0.0838705 -0.09493759 0.08398452 0.09812305 -0.06610902
0.095760666 0.090452895 -0.099185295 0.005750106 -0.098374106 -0.028304968 0.056530263 -0.073789686
0.06657652 -0.011707251 -0.06772353 0.09870516 -0.04864339 -0.12548748 -0.053136542 -0.068948805
-0.124080755 -0.113545574 -0.03360792 0.051771943 0.025388598 0.10087067 0.024452578 0.08034961
0.010571305 -0.050191186 -0.03476011 -0.107328765 -0.072869755 0.018634768 0.035112593 -0.07743997
-0.10420203 -0.070530586 0.0044584004 -0.018765062 -0.08964092 0.04670988 -0.07401575 0.049183596
-0.05712678 -0.05950507 0.09996334 -0.044647563 0.033991296 0.033111114 -0.0050301948 -0.1200562
0.109360635 0.072383635 -0.032482732 -0.06656719 -0.06661336 -0.046084248 0.05589551 -0.09674138
0.06264103 -0.124091655 0.060028274 0.06347838 0.101000205 0.039640956 -0.0076540043 0.09674101
0.05043182 0.012759695 -0.08951674 0.12857977 0.0704296 0.082901865 0.0024367338 0.07309146
0.07954983 0.009136429 0.031021168 0.062406767 0.061959844 -0.031057646 -0.047055397 0.030683057
0.13123669 -0.039392073 -0.0696398 0.11596497 0.11680443 0.09078341 -0.09309006 0.003554091
0.09512432 -0.07366011 -0.026136152 -0.12115695 -0.10130282 -0.09331703 0.088019855 -0.089434505
-0.07127211 0.035024725 0.030422276 0.0145950755 0.0033636482 -0.066743635 -0.10421881 0.12560019
-0.08175091 -0.0041676047 -0.07872113 0.034504864 0.043528616 -0.026638009 -0.08956306 -0.0076725986
0.0486902 -0.021693597 0.11275116 -0.019992113 -0.042422503 0.016106484 0.057616975 -0.03809731
0.014507656 0.056864537 -0.020440707 0.014674762 0.016076516 -0.09560869 0.08452073 0.014406529
00000000: 2a9f eb3c 893b 5b3d 8fd4 0f3d c9a2 a23d
00000010: 812c 05bd f7fb 663d 50ab 2a3d 0e66 a3bd
00000020: aea4 c3bd 3a9a 4dbd 85b2 a5bd 9239 08bd
00000030: fef7 ecbd dff9 8c3d 8595 8d3d c56f fabb
00000040: bac7 aabb 6299 03be eec4 8ebd 6f76 08bd
00000050: f1cb dbbd dc7f dabd 5c38 11bc 4591 18bd
00000060: f5b5 c53c b64c 383c 7d26 e93d fc44 99bc
00000070: 2466 e93d adf4 a9bd 75e9 843a b708 af3d
00000080: 36da 18bd e282 14bd ca1e ba3d 5a67 01be
00000090: 79b5 303d 11aa fc3d 40a1 f7bd 0fd4 483c
000000a0: 652b ad3d a423 903c 591e 513d 16f2 dcbd
000000b0: dd52 d53d 305a 493c ee50 f53d 7afe 803d
000000c0: 6701 983d 3567 e13d 6692 dabd ddb5 943d
000000d0: 4f1d 6abc a752 ecbd c369 b3bc eaba 6abd
000000e0: e1c2 843d 971d a7bd 006c e53b 9fe1 323d
000000f0: 11c7 2e3b 5db0 4ebd feea ddbd 12d0 28bd
00000100: 2c70 54bd 9a1d d43d bcf6 813d 65f0 8ebd
00000110: 6aee 643d 1b05 8c3d c455 8ebc ac93 bb3d
00000120: 9c33 e7bd b643 173d 8166 093d 2cd6 f03d
00000130: a759 1f3d 3193 d23b e966 1b3c 5d39 d13d
00000140: eb36 a0bd 7f3b 213d 2ca7 a63d 2950 d9bc
00000150: 4424 a93c 3a4d debd 7422 48bc 1461 e73d
00000160: 1d91 c6bc 1ecc 0c3d 85d8 d93b 788b 00be
00000170: ab42 1c3d 506f ba3d c9c0 9b3d 61ab f03c
00000180: 2909 78bd 96ab fd3d bf72 98bd fede 1fbe
00000190: d4fb 03bd c796 5a3d 1def d43d 675d ae3d
000001a0: 03eb 9dbd 7f53 bf3a 6247 fabd 77a1 f43c
000001b0: 2d0a cd3c 463b 0abd e5ab d83d 45c8 3fbd
000001c0: fefc e7bd 9fb9 69bd fb6c 5bbb 970f b6bd
000001d0: 5313 b33d bc49 afbd 6ed0 36bd dea9 ca3d
000001e0: e8ec 3abd 7a8f 08be 3df8 bf3d 4cc4 abbd
000001f0: a46e c2bd 1300 ac3d bdf4 c83d 2a64 87bd
00000200: 2b1e c43d 5e3f b93d a921 cbbd 636b bc3b
00000210: 5d78 c9bd d2df e7bc 478c 673d 0c1f 97bd
00000220: 4559 883d c5cf 3fbc a2b2 8abd ee25 ca3d
00000230: 4b3e 47bd ca7f 00be b4a5 59bd 0835 8dbd
00000240: 0d1e febd 958a e8bd 75a8 09bd d10e 543d
00000250: c0fb cf3c 4895 ce3d c650 c83c 568e a43d
00000260: 4433 2d3c 4695 4dbd 9e60 0ebd 2fcf dbbd
00000270: bd3c 95bd f1a7 983c 39d2 0f3d d998 9ebd
00000280: e067 d5bd 5772 90bd c617 923b 30b9 99bc
00000290: a995 b7bd dc52 3f3d 9295 97bd bd74 493d
000002a0: c5fd 69bd 97bb 73bd 94b9 cc3d 5de0 36bd
000002b0: 753a 0b3d 859f 073d 55d4 a4bb 06e0 f5bd
000002c0: 78f8 df3d df3d 943d 9d0c 05bd 6154 88bd
000002d0: 966c 88bd d6c2 3cbd b1f2 643d 5820 c6bd
000002e0: f149 803d c423 febd 35e0 753d f400 823d
000002f0: 32d9 ce3d 8e5e 223d 71ce fabb 2720 c63d
00000300: 9991 4e3d 0a0e 513c 8d54 b7bd 6aaa 033e
00000310: 653d 903d 74c8 a93d 9cb1 1f3b fab0 953d
00000320: 05eb a23d f6b0 153c 1b20 fe3c 3d9e 7f3d
00000330: 9bc9 7d3d 9b6c febc 29bd 40bd 095b fb3c
00000340: e962 063e 9559 21bd 509f 8ebd 0b7f ed3d
00000350: 2937 ef3d a7ec b93d 00a6 bebd c1eb 683b
00000360: 8ad0 c23d 1ddb 96bd 7c1b d6bc 2321 f8bd
00000370: da77 cfbd 001d bfbd c143 b43d 7029 b7bd
00000380: 1df7 91bd 1676 0f3d 2338 f93c 2f20 6f3c
00000390: a770 5c3b e3b0 88bd ac70 d5bd 569d 003e
000003a0: 056d a7bd 6790 88bb 8b38 a1bd f954 0d3d
000003b0: 104b 323d f437 dabc d66c b7bd 6c6a fbbb
000003c0: 606f 473d c5b6 b1bc 15ea e63d 80c6 a3bc
000003d0: 38c3 2dbd bff1 833c c7ff 6b3d ed0b 1cbd
000003e0: 85b1 6d3c caea 683d 4573 a7bc 6a6e 703c
000003f0: e6b2 833c 7dce c3bd 3419 ad3d 5d09 6c3c

net.2.bias f4 [64]
-0.06549118 0.09375339 -0.08610394 -0.1138777 -0.13494843 -0.06673995 -0.021945389 0.037953243
0.06711101 -0.050459635 0.08669906 -0.10191451 -0.09483822 0.117254585 0.049412582 -0.09656077
0.03193238 0.014829088 -0.10892869 -0.053208966 0.039022725 -3.8119186e-05 -0.08668239 0.12867984
0.06539649 0.05885956 0.09429774 -0.08947782 0.108976655 -0.024803257 0.06573284 -0.11620924
-0.10746132 -0.03426196 -0.022823544 -0.06917535 0.113518305 0.121431574 -0.1103558 -0.06678843
0.05445022 -0.111909 0.018970853 -0.086429454 -0.11273246 0.053022526 -0.023218457 0.06589052
-0.1062687 -0.039277304 -0.044133335 -0.021447722 -0.12418591 -0.042021625 -0.03731499 0.056725085
-0.036738448 -0.028281959 0.022300068 -0.010813335 -0.052840874 0.007872685 -0.01670653 -0.054733645
00000000: 3d20 86bd c701 c03d 4357 b0bd b638 e9bd
00000010: ec2f 0abe f4ae 88bd d1c6 b3bc dc74 1b3d
00000020: 7f71 893d c3ae 4ebd 478f b13d 8eb8 d0bd
00000030: 8a3a c2bd 2c23 f03d d964 4a3d a7c1 c5bd
00000040: 87cb 023d b4f5 723c 0116 dfbd a5f1 59bd
00000050: 4bd6 1f3d 2ae2 1fb8 8986 b1bd a6c4 033e
00000060: 98ee 853d b916 713d 2c1f c13d 2640 b7bd
00000070: 272f df3d 3330 cbbc f09e 863d 1cff edbd
00000080: ae14 dcbd 4556 0cbd 71f8 babc ceab 8dbd
00000090: 497c e83d 1eb1 f83d 3902 e2bd 5fc8 88bd
000000a0: 3207 5f3d 8c30 e5bd c368 9b3c ed01 b1bd
000000b0: 47e0 e6bd 262e 593d a234 bebc 9cf1 863d
000000c0: 67a3 d9bd 3de1 20bd 28c5 34bd 22b3 afbc
000000d0: 2f55 febd de1e 2cbd 9ad7 18bd 9058 683d
000000e0: 0e7b 16bd 91af e7bc a2ae b63c 6a2a 31bc
000000f0: ac6f 58bd 6ffc 003c 22dc 88bc 6330 60bd

net.4.weight f4 [8, 64]
-0.12932204 -0.102996185 -0.060763795 0.031316962 0.041648265 -0.014104909 -0.014575771 -0.013886755
-0.007682348 -0.07966825 0.061816107 0.051320728 0.13419989 -0.08699659 -0.122840054 0.07431243
-0.123727396 0.12780732 -0.115613975 0.09038814 -0.00043492325 0.05504791 0.09442887 0.13335194
-0.0897942 -0.081981644 -0.036712896 -0.14366694 -0.07974757 0.04926061 0.048441514 -0.069522984
-0.070232674 0.00022453717 0.121467985 -0.12923822 0.05303982 0.09488589 -0.047753856 -0.099625885
0.10388693 0.032414734 -0.06999855 0.08808287 -0.07262748 -0.081958994 0.028449252 0.04937917
-0.059122466 -0.01750445 -0.07894497 -0.07651863 0.0060456553 -0.06716018 -0.0020971557 0.083073445
-0.09555124 0.12992449 0.021295125 0.10025218 0.14425804 0.13599665 0.08531946 0.03838653
-0.030716341 -0.062577546 -0.09470003 -0.0076382454 0.10048926 0.066752486 -0.04674424 0.0049830587
0.033052348 -0.052736286 -0.11070195 0.01046569 -0.021681823 -0.13386168 -0.011345431 -0.03708108
-0.05963815 0.11438989 0.07375631 -0.083955005 0.10933185 -0.09688832 0.07714765 -0.028683605
-0.03319103 -0.011094744 0.020782799 0.038970575 -0.03218799 0.12814945 0.13910605 0.0110097
0.060874842 0.011703821 0.034544338 0.017026009 0.053330325 -0.027714897 -0.06623791 0.085408516
0.07066315 -0.059489 -0.03715182 0.06672263 0.0340004 -0.07285758 0.06809476 -0.032152
-0.020330012 -0.114623845 0.053440887 0.018082507 0.027667843 -0.13529922 -0.10924746 0.029520338
-0.116922796 0.1088104 -0.12382119 0.056657825 0.1084759 0.058484774 0.12719186 -0.050873153
-0.01704483 0.11122236 0.08525668 0.00954199 0.030909088 0.0190045 0.053433456 0.09080178
-0.049195845 -0.08038941 -0.03668055 -0.031526662 -0.0017191123 -0.08137312 0.0078077526 -0.1350641
-0.14109422 0.06560506 0.054240167 -0.108973034 0.11830596 -0.030307494 -0.020163778 0.13172835
-0.05338602 -0.022702897 0.10134547 -0.00010061366 -0.007700525 -0.022495223 0.06625206 0.13471672
-0.030008184 0.05255752 -0.004793051 -0.02041488 0.0217492 0.017765531 -0.056210075 -0.014628506
0.01577472 0.0038930555 -0.07940577 -0.07526334 -0.10630172 0.012489593 0.036804274 -0.053433448
0.078349054 -0.06124845 0.09763445 -0.029992525 -0.01232125 -0.08118427 -0.11993398 -0.05098738
-0.13546757 0.08034341 0.035246186 0.07762211 0.13688523 -0.018515596 0.13470036 0.020166362
0.045263074 0.11053022 0.042788174 0.04807252 -0.09031362 -0.10065876 0.13691089 -0.0817684
0.09336679 -0.11316717 -0.014096872 -0.13713829 -0.038913943 -0.026179777 -0.10228969 -0.11016705
0.061792836 0.05176851 0.059947584 -0.036810085 0.086074024 -0.059861388 -0.053240143 0.0963008
0.039332766 0.12428387 0.13841753 -0.094558105 0.018498106 0.005455119 0.030116355 0.11322696
-0.12275346 -0.07170942 0.12158861 0.089224175 0.099346675 0.05918657 0.022154326 -0.033122372
0.09553462 -0.04152512 -0.10203196 -0.05329994 -0.13241944 -0.11407502 -0.08373385 -0.10482785
0.12868266 -0.07682745 0.1495383 -0.07213247 -0.06635018 -0.08924671 0.05428946 0.053042267
-0.02077747 0.06786493 -0.010956186 0.11965101 0.006298112 0.030002495 -0.055624206 0.07595819
00000000: ff6c 04be aaef d2bd 75e3 78bd 3746 003d
00000010: 5f97 2a3d 4718 67bc 37cf 6ebc 4685 63bc
00000020: 35bc fbbb 1c29 a3bd e332 7d3d af35 523d
00000030: b26b 093e 452b b2bd 9193 fbbd 1e31 983d
00000040: ca64 fdbd ecdf 023e 05c7 ecbd 6b1d b93d
00000050: 6906 e4b9 eb79 613d ec63 c13d 698d 083e
00000060: 06e6 b7bd fee5 a7bd 4360 16bd 6d1d 13be
00000070: b252 a3bd 7ec5 493d 9c6a 463d 1162 8ebd
00000080: 26d6 8fbd bd71 6b39 35c4 f83d 0657 04be
00000090: 4840 593d 8953 c23d 8c99 43bd a808 ccbd
000000a0: acc2 d43d 50c5 043d 665b 8fbd cb64 b43d
000000b0: b7bd 94bd 1eda a7bd 680e e93c d041 4a3d
000000c0: 662a 72bd 7e65 8fbc e7ad a1bd cdb5 9cbd
000000d0: a21a c63b 478b 89bd 6f70 09bb 6922 aa3d
000000e0: 5eb0 c3bd ed0a 053e 1d73 ae3c 0451 cd3d
000000f0: 61b8 133e b542 0b3e f8bb ae3d 323b 1d3d
00000100: d6a0 fbbc a828 80bd 17f2 c1bd 3f4a fabb
00000110: 50cd cd3d 87b5 883d e376 3fbd ed48 a33b
00000120: e661 073d 0102 58bd b4b7 e2bd 4978 2b3c
00000130: 149e b1bc 0913 09be 30e2 39bc 55e2 17bd
00000140: 2247 74bd 3f45 ea3d 8c0d 973d 9af0 abbd
00000150: 61e9 df3d 626d c6bd 96ff 9d3d e1f9 eabc
00000160: 51f3 07bd bbc6 35bc b040 aa3c 9c9f 1f3d
00000170: 8ed7 03bd 9c39 033e d171 0e3e 0762 343c
00000180: e657 793d 62c1 3f3c 5d7e 0d3d 217a 8b3c
00000190: e670 5a3d 5a0a e3bc bea7 87bd a9ea ae3d
000001a0: d7b7 903d bdaa 73bd 822c 18bd e0a5 883d
000001b0: 0144 0b3d 5b36 95bd 4475 8b3d d1b1 03bd
000001c0: 208b a6bc e8bf eabd d5e4 5a3d c421 943c
000001d0: aca7 e23c e18b 0abe 22bd dfbd a3d4 f13c
000001e0: 3875 efbd fdd7 de3d f795 fdbd 0912 683d
000001f0: 9d28 de3d bb8d 6f3d 953e 023e 5e60 50bd
00000200: 99a1 8bbc 8cc8 e33d 0e9b ae3d 0256 1c3c
00000210: 0e35 fd3c 53af 9b3c 0add 5a3d 49f6 b93d
00000220: 9581 49bd 34a3 a4bd 583e 16bd 1a22 01bd
00000230: d653 e1ba f3a6 a6bd 2dd8 ff3b 3e4e 0abe
00000240: 017b 10be f25b 863d f02a 5e3d 412d dfbd
00000250: 654a f23d 6c47 f8bc 822e a5bc cce3 063e
00000260: 4dab 5abd 6dfb b9bc 378e cf3d 8c00 d3b8
00000270: b054 fcbb e747 b8bc 29af 873d 2ef3 093e
00000280: b9d3 f5bc 8e46 573d 070f 9dbb 1b3d a7bc
00000290: 612b b23c 0589 913c 893c 66bd 67ac 6fbc
000002a0: fc39 813c a222 7f3b 7e9f a2bd aa23 9abd
000002b0: b7b4 d9bd 26a1 4c3c 14c0 163d 08dd 5abd
000002c0: 7875 a03d a8df 7abd 92f4 c73d e2b2 f5bc
000002d0: 11df 49bc f043 a6bd f29f f5bd 25d8 50bd
000002e0: 03b8 0abe 168b a43d 4e5e 103d 57f8 9e3d
000002f0: a42b 0c3e 05ae 97bc e4ee 093e ed33 a53c
00000300: c665 393d ab5d e23d a742 2f3d b1e7 443d
00000310: 59f6 b8bd 2e26 cebd 5e32 0c3e 3176 a7bd
00000320: 1637 bf3d 30c4 e7bd 91f6 66bc fb6d 0cbe
00000330: 3a64 1fbd f976 d6bc 427d d1bd 439f e1bd
00000340: 7c1a 7d3d 380b 543d 998b 753d 2cc6 16bd
00000350: 9447 b03d 3731 75bd 5612 5abd 5b39 c53d
00000360: 651b 213d 8b88 fe3d 53bd 0d3e aea7 c1bd
00000370: 5789 973c dbc0 b23b 93b6 f63c 89e3 e73d
00000380: 2b66 fbbd 63dc 92bd 7303 f93d 2abb b63d
00000390: 4576 cb3d 9e6d 723d fd7c b53c 53ab 07bd
000003a0: a8a7 c33d 3f16 2abd 22f6 d0bd 0a51 5abd
000003b0: f698 07be 2aa0 e9bd a77c abbd fcaf d6bd
000003c0: 63c5 033e b657 9dbd 9120 193e 30ba 93bd
000003d0: 9ae2 87bd fbc6 b6bd a05e 5e3d d942 593d
000003e0: 8335 aabc c5fc 8a3d 9381 33bc 970b f53d
000003f0: 6560 ce3b cbc7 f53c 35d6 63bd f88f 9b3d

net.4.bias f4 [8]
-0.020946331 -0.04801034 -0.10709719 -0.08354176 0.085755 0.108344465 -0.010840957 -0.045611612
00000000: a497 abbc 7ea6 44bd c655 dbbd f117 abbd
00000010: 51a0 af3d b4e3 dd3d 459e 31bc 3ed3 3abd
