runs/8_hour_forecasting/182/best_model.pt (torch, 503992 bytes, 10 tensors)

lstm.weight_ih_l0 f4 [512, 89]
0	0x3d6f1454	0.058368996
1	0x3d7e7d74	0.06213136
2	0xbcc78358	-0.024354622
3	0x3d959d89	0.07305438
4	0xbd07f4c7	-0.033192422
5	0x3c424a24	0.011858497
6	0xbd7a0617	-0.061040964
7	0x3d129e72	0.035795636
8	0x3d8c62f4	0.06854811
9	0xbd8f20f1	-0.06988705
10	0x3d82a04d	0.06378231
11	0xbc312925	-0.010813032
12	0x3d7245b7	0.059148517
13	0x3c25f5d2	0.010129409
14	0x3d11ad5d	0.035565723
15	0xbc95a4d1	-0.018267067
16	0x3d60cca1	0.05488265
17	0x3c977914	0.018490352
18	0xbd1e6522	-0.038670667
19	0x3c532dff	0.012889384
20	0xbd3766f0	-0.044775903
21	0xbb468c79	-0.003029613
22	0xbd27aae3	-0.040934455
23	0x3d8294e6	0.063760564
24	0xbd7015cc	-0.058614537
25	0xbd36b082	-0.044601925
26	0xbcc3b551	-0.02389017
27	0xbcf0017d	-0.029297585
28	0x3c0424f2	0.008065449
29	0xbda6cd87	-0.0814467
30	0x3d912fc9	0.070891924
31	0xbd99667a	-0.07490249
32	0x3d7a7be5	0.06115331
33	0x3cb8cb25	0.022557804
34	0xbd13aa78	-0.036051244
35	0x3cf08f5f	0.02936524
36	0x3c058a71	0.008150683
37	0x3d8df15e	0.06930803
38	0x3c855b62	0.016278926
39	0xbc9a219f	-0.01881486
40	0x3ca85d71	0.020552369
41	0xbcd3ea42	-0.025868539
42	0x3cd90001	0.02648926
43	0x3d9a7b13	0.07543006
44	0x3d3c18b4	0.045921996
45	0xbd12bc6e	-0.03582423
46	0x3d401143	0.046891462
47	0x3c0a1942	0.0084288735
48	0x3d829c2c	0.06377444
49	0xbd83e753	-0.06440606
50	0xbdc0a8c0	-0.094071865
51	0xbd45abc4	-0.04825951
52	0xbd9d2722	-0.076734796
53	0x3da50e03	0.08059313
54	0x3d088541	0.033330206
55	0x3d1a02b2	0.037600227
56	0x3d1a610f	0.03769022
57	0xbcab01c1	-0.02087486
58	0x3d863b84	0.065543205
59	0xbd67d7c8	-0.05660227
60	0xbb40921d	-0.0029383965
61	0xbda0849c	-0.07837793
62	0x3d1ce69a	0.038305856
63	0xbca4332f	-0.020043937
64	0x3cde2008	0.027114883
65	0xbc9fe180	-0.019516706
66	0x3da28203	0.07934954
67	0xbd6154dd	-0.055012573
68	0xbc8dd988	-0.017315641
69	0xbcb68954	-0.02228228
70	0x3db8ee54	0.090298325
71	0x3d882db2	0.06649341
72	0x3de3e9c5	0.111285724
73	0xbd66eaa2	-0.056376107
74	0xbd92cda5	-0.0716813
75	0xbd31c664	-0.04340209
76	0xbd0b9a14	-0.034082487
77	0x3d88510f	0.06656086
78	0x3d73fc7e	0.059566967
79	0x3dcb9631	0.09940756
80	0xbce05058	-0.02738206
81	0xbd2908b4	-0.041268066
82	0x3d9f91a1	0.077914484
83	0xbc9de18e	-0.019272592
84	0x3da7be2e	0.08190571
85	0xbcdce85a	-0.026966263
86	0x3d8a83e1	0.06763435
87	0xbd5c6a5c	-0.05381237
88	0xbce7e8fe	-0.028309342
89	0x3d229ec2	0.039702184
90	0x3d64bfe7	0.055847075
91	0x3c48c005	0.012252812
92	0x3d765eba	0.060148932
93	0x3dbf2158	0.09332532
94	0xbd57ba7e	-0.052668087
95	0xbd41feb0	-0.04736203
96	0x3de9e63a	0.11420865
97	0x3cdfa21b	0.027298978
98	0x3d853ac0	0.06505346
99	0xbda46027	-0.08026152
100	0xbbd7c864	-0.0065851677
101	0x3d4a8c9e	0.04945051
102	0x3cb43c8c	0.022001527
103	0xbd52850e	-0.051396422
104	0x3d165536	0.036702357
105	0xbd2cc6e7	-0.042181876
106	0xbd93288e	-0.071854696
107	0xbd63ce88	-0.055616885
108	0xbd90ce6f	-0.07070624
109	0xbd3d55e6	-0.046224497
110	0x3db3b1d6	0.08774154
111	0x3c7fb004	0.01560593
112	0x3c805951	0.01566759
113	0xbdac24d9	-0.08405466
114	0xbd2fed3d	-0.042950857
115	0xbcfa0cac	-0.03052362
116	0x3d1e44ab	0.038639706
117	0xbd968b9d	-0.07350848
118	0xbd028b83	-0.03187133
119	0xbd6439ce	-0.05571919
120	0x3a9530c9	0.0011382337
121	0xbc542d88	-0.012950309
122	0x3bdae58f	0.0066801975
123	0xbd9e8cf0	-0.077417254
124	0xbd6694f5	-0.0562944
125	0xbd7bf66b	-0.0615143
126	0xbce157b2	-0.027507637
127	0xbdb8bac9	-0.090200014
128	0x3d864fde	0.06558202
129	0xbc406237	-0.011742166
130	0x3d8d229d	0.068913676
131	0x3c51325f	0.012768357
132	0xbdb2a462	-0.0872276
133	0x3d8a6bec	0.06758866
134	0xbd10f4c2	-0.03538967
135	0xbd3a66ac	-0.04550807
136	0xbdb348dd	-0.08754132
137	0xbdc0a462	-0.094063535
138	0x3ca3487b	0.019932022
139	0xbd456b6e	-0.048198156
140	0xbb43a38c	-0.002985212
141	0xbdd329a6	-0.10310678
142	0x3d94d3d9	0.07266969
143	0xbd74e75e	-0.05979096
144	0xbcd8f440	-0.026483655
145	0x3ce456ea	0.027873475
146	0x3b90d320	0.0044196993
147	0x3d5041c3	0.050843965
148	0x3db3def2	0.08782758
149	0xbdd08a80	-0.10182667
150	0xbc9a0a39	-0.018803703
151	0xbcfe144f	-0.031015543
152	0x3ac6a8e8	0.0015156539
153	0xbd9eb38e	-0.07749091
154	0x3d87c8f9	0.06630129
155	0xbd7022ed	-0.058627058
156	0x3cf3e71c	0.029773287
157	0x3d05ce77	0.032667603
158	0x3cd5cc3e	0.026098367
159	0xbd20af32	-0.03922958
160	0x3d875106	0.06607251
161	0x3cc05d8a	0.023482103
162	0x3c7cd9f1	0.015432821
163	0xbd8693c0	-0.0657115
164	0x3ce2071c	0.02759128
165	0xbc3dd68c	-0.0115867965
166	0xbd3ab174	-0.04557939
167	0x3da832bc	0.08212802
168	0x3c03416b	0.008011202
169	0xbd59a73b	-0.053138
170	0xbd1c2f20	-0.03813088
171	0xbb6fc36f	-0.0036584993
172	0x3d5e3749	0.054251943
173	0xbce22e6c	-0.027610026
174	0xbd27b44e	-0.040943436
175	0xbd271968	-0.040795714
176	0xbd42e589	-0.047582183
177	0x3d8598fb	0.06523319
178	0x3dcace27	0.09902602
179	0xbdaba80a	-0.0838166
180	0x3cd2c532	0.025728796
181	0x3d981c24	0.074272424
182	0x3d30f34a	0.04320077
183	0xba5cded5	-0.00084255385
184	0x3cc5f0b8	0.024162635
185	0x3d6749a4	0.056466714
186	0x3baacc08	0.0052123107
187	0xbc5e8dd9	-0.013583624
188	0xbd0e3ef3	-0.034728
189	0x3d0a43f3	0.033756208
190	0xbb738667	-0.0037158967
191	0xbd1ecb48	-0.038768083
192	0x3d988e17	0.074489765
193	0x3d92f89d	0.071763255
194	0x3c64ae7e	0.013957618
195	0xba88dc94	-0.0010441714
196	0x3afcd31c	0.001928899
197	0xbc9789f9	-0.018498408
198	0x3c9b3b4a	0.01894917
199	0x3d07a8d4	0.03311999
200	0xbdc55a55	-0.0963637
201	0xbc91bc3b	-0.01778995
202	0x3d9698d5	0.07353369
203	0x3d02334b	0.031787198
204	0xbc45c334	-0.012070466
205	0xbd1038ba	-0.03521035
206	0xbd930e5f	-0.071804754
207	0xbd98d1d0	-0.074618936
208	0xbd09cf97	-0.03364524
209	0x3d00c4bb	0.031437617
210	0x3d7811e8	0.06056395
211	0x3d5dcf16	0.05415257
212	0xbda5e116	-0.08099572
213	0xbd9544f8	-0.07288545
214	0xbd2a1e90	-0.041533053
215	0x3db00d6f	0.08596312
216	0xbc1935ab	-0.009351174
217	0xbcb5c3cc	-0.02218809
218	0x3cf682e8	0.030091718
219	0xbd231e3a	-0.03982375
220	0xbd92b5a3	-0.07163551
221	0x3d714c28	0.05891052
222	0xbd18dcd4	-0.037319973
223	0xbc1b5eff	-0.009483098
224	0xbdccdab6	-0.10002653
225	0x3d069e63	0.032865893
226	0x3d9ff138	0.07809681
227	0x3c631ddf	0.013862102
228	0xbd832b74	-0.064047724
229	0xbdd6d0a3	-0.10489013
230	0xbda79aed	-0.081838466
231	0x3d95cf85	0.07314972
232	0x3d3bd74c	0.04585962
233	0x3d9a3695	0.07529942
234	0x3d644f6d	0.05573981
235	0x3b6a839e	0.0035784016
236	0xbb98f830	-0.004668258
237	0xbd641585	-0.055684585
238	0xbdb3f445	-0.08786825
239	0xbdd029a6	-0.10164194
240	0x3d21ea84	0.039530292
241	0xbd0369a5	-0.032083172
242	0xbc701f5e	-0.014655916
243	0xbd4d6de4	-0.050153628
244	0xbc30503d	-0.010761318
245	0xbd8327c9	-0.06404073
246	0xbd2f3994	-0.04277952
247	0x3d411ba0	0.047145486
248	0xbbc65ff3	-0.0060539185
249	0x3d442acb	0.047892373
250	0xbc03ba79	-0.008040064
251	0xbd6ba74f	-0.057532605
252	0x3c2356d9	0.009969437
253	0xbc9d25a4	-0.019182988
254	0xbb8fd1cc	-0.0043890234
255	0xbd5cf6c0	-0.053946257

lstm.weight_hh_l0 f4 [512, 128]
0	0x3c61e60e	0.0137877595
1	0xbd785cee	-0.0606355
2	0xbdb6606f	-0.08905112
3	0x3cbb3a1b	0.022854855
4	0xbc8970d2	-0.01677743
5	0xbd9b650b	-0.07587632
6	0xbc8a9fe9	-0.016921954
7	0xbdaba86f	-0.083817355
8	0xbba159f1	-0.004924052
9	0xbcb3b364	-0.021936126
10	0xbd4cd814	-0.050010756
11	0x3d7e3e26	0.062070988
12	0x3c9c1b4e	0.019055989
13	0x3d45c3b6	0.048282348
14	0xbd1908cd	-0.03736191
15	0xbd1d8200	-0.038454056
16	0x3daf21f0	0.08551395
17	0x3dc09f9d	0.09405444
18	0xbd79ab09	-0.060954127
19	0x3d57c6db	0.052679878
20	0x3c311790	0.01080884
21	0x3dbf74f5	0.0934848
22	0x3d949e5a	0.07256766
23	0x3d2fe599	0.04294357
24	0x3d85e265	0.06537322
25	0x3dc42477	0.095772676
26	0xbcaee320	-0.021348536
27	0xbc36b606	-0.011151796
28	0x3d470bd8	0.04859528
29	0x3b7954fe	0.0038045044
30	0x3de9324d	0.11386547
31	0x3cb0723d	0.021538848
32	0xbc2607e0	-0.0101337135
33	0x3d9daafe	0.0769863
34	0xbdbc2ab0	-0.091878295
35	0x3cec284b	0.028827807
36	0xbc0f9f20	-0.008765966
37	0x3c0f6d3d	0.008754072
38	0xbc3d06b0	-0.011537239
39	0xbda6fa2a	-0.08153184
40	0xbdbe56da	-0.09293909
41	0xbd38d953	-0.04512913
42	0x3b8c717e	0.0042859903
43	0xbd860022	-0.06542994
44	0x3d1b9835	0.037986953
45	0xbd9eddb2	-0.07757129
46	0x3b2764f5	0.0025542353
47	0xbdfa5554	-0.12223306
48	0xbd278016	-0.040893637
49	0x3d8cc78a	0.068739966
50	0x3d3a192a	0.045434155
51	0x3d8d79bb	0.06907984
52	0x3d7e963c	0.062154993
53	0x3dd4139e	0.10355304
54	0x3db52050	0.08844054
55	0xbd666c7b	-0.0562558
56	0xbd68625b	-0.056734424
57	0xbd884573	-0.066538714
58	0xbda80f2c	-0.08206019
59	0xbd297d17	-0.04137906
60	0xbdb8fb82	-0.09032346
61	0x39d9a63a	0.00041513314
62	0xbcdb5bdf	-0.026777206
63	0xbc31ca71	-0.010851488
64	0x3be0763e	0.006850033
65	0x3dcd65ab	0.10029157
66	0x3d9aa87f	0.07551669
67	0xbd575965	-0.052575488
68	0x3dd0b605	0.101909675
69	0xbcf093ed	-0.029367412
70	0xbd6fd164	-0.0585493
71	0xbc46e1bc	-0.01213878
72	0x3d46f517	0.04857358
73	0x3a75ce53	0.0009376753
74	0x3ccfd002	0.02536774
75	0xbd8831ed	-0.066501476
76	0xbdf0f7b4	-0.117659956
77	0x3d19caaa	0.03754679
78	0x3ce2c25f	0.027680574
79	0x3d9afd5e	0.07567857
80	0x3c93061a	0.017947245
81	0xbd821598	-0.06351775
82	0xbdeb659e	-0.11493991
83	0xbda52bb9	-0.0806498
84	0x3dc20691	0.09473909
85	0x3b684e4f	0.0035447066
86	0x3d8e50fb	0.069490395
87	0xbd50ad41	-0.050946478
88	0xbda1242d	-0.07868228
89	0x3d8fa1cd	0.07013283
90	0xbce5c92d	-0.02805003
91	0x3d06d01b	0.03291331
92	0x3d6223a8	0.055209786
93	0xbd028f45	-0.031874914
94	0x3cc4820b	0.02398779
95	0xbd0f7258	-0.035021156
96	0xbc92d8eb	-0.0179257
97	0xbb685532	-0.003545117
98	0xbd185e06	-0.037199043
99	0x3d5cf63d	0.05394577
100	0x3d74b9ff	0.059747692
101	0x3da5cbfa	0.08095546
102	0x3b055756	0.0020346246
103	0x3d2697c0	0.040672064
104	0x3dcc795c	0.09984085
105	0xbbf1582c	-0.0073652472
106	0x3c75e4fd	0.015008208
107	0x3de2fbc5	0.110831775
108	0xbd7e4e73	-0.062086534
109	0x3ce63f90	0.02810648
110	0xbd25ec90	-0.040508807
111	0x3d5f1da4	0.054471627
112	0x3d704684	0.058661
113	0xbd6341f2	-0.055482812
114	0xbc72b280	-0.0148130655
115	0x3dc9e2e6	0.098577306
116	0xbd0ea21f	-0.03482258
117	0x3d3e8ce0	0.046521068
118	0x3ca5fd80	0.02026248
119	0xbd515c3a	-0.051113345
120	0xbd922d66	-0.07137565
121	0xbd4edab6	-0.050501548
122	0xbc4e8512	-0.012604969
123	0xbdc176e2	-0.09446503
124	0xbc27fba2	-0.010252865
125	0x3d4b1555	0.04958089
126	0x3d82503c	0.0636296
127	0x3c3930c1	0.011303128
128	0x3dd20f2d	0.10256801
129	0xbbdca43b	-0.006733445
130	0x3dbb9ab1	0.091603644
131	0xbd230c4a	-0.03980664
132	0x3dbeb6d6	0.09312217
133	0xbc076471	-0.008263693
134	0x3c915128	0.017738894
135	0xbdc10a15	-0.09425751
136	0xbd6e59bb	-0.058191042
137	0xbc2983fb	-0.010346408
138	0x3daf2c46	0.08553366
139	0xbd645b76	-0.055751286
140	0xbbd3de69	-0.0064657223
141	0x3d25398f	0.040338095
142	0xbc991c55	-0.018690268
143	0xbdd0bb60	-0.10191989
144	0x3d0f0355	0.034915287
145	0xbcd5f4f2	-0.026117776
146	0xbd97b079	-0.07406706
147	0xbdc909fa	-0.09816356
148	0xbccd14d9	-0.025034355
149	0xbd0a0d03	-0.033703815
150	0xbd89e60a	-0.067333296
151	0x3dbe123d	0.092808224
152	0x3a7ab8d6	0.0009564286
153	0xbd5cc701	-0.053900722
154	0xbcdb0aba	-0.026738513
155	0x3b25f38c	0.0025322167
156	0xbca5b3e8	-0.020227388
157	0x3d453086	0.04814198
158	0x3c91c1c4	0.01779259
159	0x3ccb15d8	0.02479069
160	0xba82deb9	-0.0009984589
161	0x3cfa9193	0.030586993
162	0xbdfbff25	-0.12304524
163	0xbd749450	-0.059711754
164	0xbca82b20	-0.020528376
165	0xbdd0fbe2	-0.10204293
166	0xbd2d611c	-0.04232894
167	0xbd39a520	-0.04532349
168	0x3b0ca463	0.0021460287
169	0x3d73f4fa	0.0595598
170	0x3d197f3e	0.037474863
171	0xbd9a1cb7	-0.07525008
172	0xbbd169fc	-0.006390808
173	0x3d97d5ad	0.07413802
174	0xbdb58abb	-0.08864351
175	0xbddaf2c1	-0.10690833
176	0xbd29e040	-0.041473627
177	0xbd510982	-0.051034458
178	0xbdb20df3	-0.08694067
179	0x3d9c534a	0.07633074
180	0xbd1151d0	-0.035478413
181	0x3d16aeff	0.036787983
182	0x3d99b499	0.075051494
183	0xbcf6972e	-0.030101385
184	0xbd7f5bcb	-0.0623434
185	0x3cb5de78	0.022200808
186	0x3d966a7f	0.07344531
187	0xbdaf3b50	-0.08556235
188	0x3c1e04cd	0.009644699
189	0xbb7d647f	-0.0038664637
190	0xbd143ea2	-0.036192544
191	0xbcb820a1	-0.022476496
192	0x3cc291f0	0.023751229
193	0xbd06fa0d	-0.03295331
194	0x3d53bf9e	0.051696412
195	0xbc234823	-0.009965929
196	0x3d9edbd7	0.07756775
197	0xbd667c89	-0.05627111
198	0xbd45739b	-0.048205953
199	0x3d829bde	0.063773856
200	0xbd23e07a	-0.040009
201	0xbd5643a9	-0.05231062
202	0xbd02cf95	-0.031936247
203	0x3da7bb41	0.08190013
204	0x3cbaf0c8	0.022819892
205	0x3cfd7d59	0.03094356
206	0xbd815b76	-0.06316273
207	0xbcd19f31	-0.025588604
208	0xbd1adf21	-0.03781045
209	0xbdfe073c	-0.124037236
210	0xbd8412c7	-0.06448894
211	0xbd0bb26e	-0.03410571
212	0xbc86388f	-0.016384391
213	0xbd12ae9a	-0.035811044
214	0x3d1e4040	0.038635492
215	0x3d6e94b7	0.058247294
216	0xbcf00459	-0.029298948
217	0x3dde3ac0	0.108510494
218	0x3bc76035	0.006084467
219	0xbc1781f0	-0.009247288
220	0xbce0ae31	-0.027426811
221	0xbd4d12d6	-0.05006679
222	0xbd3fd78d	-0.046836425
223	0xbd9340d8	-0.07190102
224	0xbd39c49b	-0.045353513
225	0x3bb7bb26	0.0056070266
226	0xbd272ba9	-0.040813122
227	0x3d7fc912	0.062447615
228	0xbd8366ed	-0.06416116
229	0xbd342677	-0.043981995
230	0xbd545094	-0.051834658
231	0x3d69545e	0.056965224
232	0x3df3c10b	0.119020544
233	0xbbf0b9e0	-0.007346377
234	0x3cbe4e3c	0.023230664
235	0xbc07422d	-0.008255524
236	0x3da1d87a	0.07902618
237	0x3d226f9d	0.039657224
238	0xbd76b0c9	-0.06022719
239	0x3dd4a65e	0.103832945
240	0x3cd83bbd	0.026395673
241	0x3d2af9ba	0.041742064
242	0xbc839d27	-0.016066147
243	0xbc376f2e	-0.011195941
244	0xbc897212	-0.016778026
245	0xbd1c4917	-0.03815564
246	0xbc57a725	-0.013162409
247	0xbd2c2196	-0.042024218
248	0x3cb39e39	0.021926032
249	0x3d86133b	0.06546637
250	0x3d2c9487	0.042133834
251	0x3c126fc5	0.008937781
252	0xbd68576d	-0.056724
253	0x3bbb4099	0.0057144878
254	0xbc19b63d	-0.009381828
255	0x3c3ce6f2	0.011529671

lstm.bias_ih_l0 f4 [512]
0	0x3d212c1e	0.039348714
1	0x3d676777	0.056495156
2	0xbcecae51	-0.028891714
3	0x3dc40ad6	0.09572379
4	0x3d1e8b9e	0.038707368
5	0x3dbeb6ed	0.09312234
6	0x3b99e03f	0.0046959217
7	0x3c28c65c	0.010301199
8	0x3b353f50	0.0027656145
9	0xbc453159	-0.012035691
10	0xbc3454b9	-0.011006528
11	0xbbda7ef9	-0.0066679684
12	0x3db68110	0.089113355
13	0x3dbc195d	0.09184525
14	0x3cc61084	0.024177797
15	0x3dcba289	0.099431105
16	0x3d1be481	0.038059715
17	0x3d91c809	0.07118232
18	0x3d17d4b0	0.03706807
19	0xbbadcbe5	-0.005303847
20	0xbd3f1b1c	-0.046656713
21	0x3b1c9990	0.0023895241
22	0x3d26841f	0.040653344
23	0xbcd5fb4f	-0.02612081
24	0xbd36f2d3	-0.04466517
25	0x3ccfd955	0.025372187
26	0x3d14bf0d	0.036315013
27	0x3cd58f50	0.026069313
28	0xbd0d40ed	-0.034485746
29	0x3d58106b	0.052750032
30	0xbc6df6a2	-0.014524134
31	0x3ceff3bb	0.029291024
32	0xbc149005	-0.00906754
33	0x3df8609a	0.121278
34	0x3cf7af49	0.03023495
35	0xba0dacd2	-0.00054044754
36	0x3de0bd36	0.10973589
37	0xbcd99938	-0.026562318
38	0x3d12aac5	0.03580739
39	0xbc2681c2	-0.010162773
40	0x3d316c59	0.04331622
41	0x3de67a94	0.11253849
42	0x3cbc6b79	0.023000466
43	0x3d7a3263	0.06108321
44	0x3db9a52d	0.09064708
45	0xbd2b4ecb	-0.04182319
46	0x3dadd2a6	0.084874436
47	0x3ba42f4f	0.0050105224
48	0xbc926f14	-0.017875232
49	0x3d165d11	0.03670985
50	0x3d0d01e8	0.034425646
51	0xbd662b3f	-0.056193586
52	0x3d042eb0	0.032271087
53	0xbb2884a8	-0.0025713835
54	0xbc180c0f	-0.009280219
55	0x3dff9d8e	0.12481223
56	0xbc300724	-0.01074389
57	0xbd0f78b9	-0.03502724
58	0x3da6827a	0.08130355
59	0x3d34c9cf	0.044137772
60	0x3df3fd04	0.11913493
61	0xbb02493b	-0.0019880075
62	0xbc95e2c1	-0.018296601
63	0xbd287c9c	-0.04113446
64	0x3ce1da6c	0.027569972
65	0x3dd09257	0.10184162
66	0x3d12b472	0.035816617
67	0xbd3454d9	-0.04402623
68	0xba42db1e	-0.00074331637
69	0x3da2422b	0.07922777
70	0x3c34240d	0.010994923
71	0x3dc339d7	0.095325164
72	0x3d1cc914	0.0382777
73	0xbd00d068	-0.03144875
74	0xbd4650e8	-0.048417002
75	0x3d900e11	0.07033933
76	0x3d2d6c85	0.04233982
77	0x3bfcf172	0.007719212
78	0x3c214455	0.009842952
79	0x3c1af519	0.00945785
80	0x3dc9709b	0.09835931
81	0xbd20d045	-0.03926112
82	0x3d66e605	0.056371707
83	0xbd2d6ac3	-0.042338144
84	0x3b7e07cd	0.0038761974
85	0x3da97cdf	0.082757704
86	0xbb939d4a	-0.0045048343
87	0x3ca56ae8	0.020192578
88	0x3b1dc555	0.0024073918
89	0x3c15f880	0.009153485
90	0xbb7770b0	-0.0037756376
91	0x3dd5573a	0.10417028
92	0x3dc8cf03	0.09805109
93	0x3cf50f1d	0.029914433
94	0xbd4053eb	-0.04695503
95	0xbd6780f5	-0.056519467
96	0x3de9391b	0.11387845
97	0x3d95d1df	0.0731542
98	0x3db46111	0.088075764
99	0x3d99f2cc	0.07517013
100	0xbcf2abd7	-0.029622955
101	0xbcc4ac24	-0.024007864
102	0x3b317f67	0.0027083994
103	0x3de03e4b	0.109493814
104	0x3d549f97	0.05191001
105	0xbbf819e5	-0.0075714462
106	0x3dea199b	0.11430665
107	0xba5313a3	-0.00080519373
108	0xbb8164b8	-0.003948774
109	0xbb55991d	-0.0032592483
110	0x3dba2983	0.09089949
111	0x3debb930	0.11509931
112	0xbca0d997	-0.019635005
113	0xbc7a7ea6	-0.015288984
114	0x3df8467b	0.12122818
115	0x3db9aa23	0.09065654
116	0x3cbe76ae	0.02324995
117	0xbd322eeb	-0.043501776
118	0xbd77720a	-0.06041149
119	0x3dbdf361	0.092749365
120	0xbd864f93	-0.06558146
121	0x3ce2b342	0.027673367
122	0x3dc7d481	0.09757329
123	0xbd09e97b	-0.03366993
124	0x3dcd89a2	0.10036017
125	0xbc592b1d	-0.013254908
126	0x3d573dd0	0.052549183
127	0x3dab435b	0.083624564
128	0xbc96aeb4	-0.018393852
129	0xbd51eea7	-0.051252987
130	0x3d623792	0.055228777
131	0x3d443691	0.0479036
132	0x3d40dd9d	0.047086347
133	0x3cfdfc59	0.031004118
134	0x3d13b9fb	0.036066037
135	0xbb1ca60b	-0.002390268
136	0xbcfbce90	-0.030738145
137	0xbd3d9036	-0.04628011
138	0xbd42f60d	-0.047597934
139	0xbd120007	-0.035644557
140	0x3d0c4e35	0.03425427
141	0x3d67270a	0.056433715
142	0x3b873f1e	0.004127397
143	0x3d6a80db	0.057251792
144	0x3c68f169	0.014217713
145	0x3d684047	0.056701925
146	0x3d688f61	0.05677736
147	0xbd7f5a9b	-0.062342267
148	0x3d89886b	0.06715473
149	0x3da4ab88	0.080405295
150	0xbd816bea	-0.06319411
151	0x3db4a982	0.088213935
152	0x3c159275	0.009129156
153	0x3d8653d1	0.065589555
154	0xbd9e55c0	-0.07731199
155	0x3d737fb4	0.05944796
156	0x3dcc3c11	0.09972394
157	0x3cdefcc7	0.027220143
158	0xbd6feb31	-0.058573905
159	0x3d5e0339	0.054202292
160	0x3d7815cc	0.060567662
161	0x3d556952	0.052102394
162	0x3d524383	0.051333915
163	0xbd05ac54	-0.032635048
164	0x3da0ebc1	0.078574665
165	0x3ddb0681	0.106946
166	0xbc01dad5	-0.007925709
167	0x3c3e45bb	0.011613305
168	0xb9d3e69d	-0.00040416876
169	0x3d62da30	0.05538386
170	0xbb4275ab	-0.0029672186
171	0xbc4721c1	-0.012154044
172	0x3d70369f	0.05864584
173	0x3d00d678	0.031454533
174	0x3d127ed6	0.03576549
175	0xbd57dae9	-0.052699003
176	0x3d051c7f	0.03249788
177	0xbc709f7e	-0.014686463
178	0xbb79c894	-0.0038113939
179	0x3d9fdf76	0.07806294
180	0xbbc0be8f	-0.0058820914
181	0x3daf7fdb	0.08569308
182	0xbd1e0ff6	-0.03858944
183	0x3d39f7af	0.045402225
184	0x3c1cd711	0.00957276
185	0x3dfcf86e	0.12352072
186	0xbd5780a6	-0.052612923
187	0xbcd05721	-0.025432171
188	0x3d68e436	0.056858264
189	0x3c136ce9	0.008998134
190	0x3d93c4da	0.07215281
191	0x3d1c1d5b	0.038113933
192	0x3ca460fc	0.020065777
193	0xbcb3a921	-0.021931233
194	0xbd02ff12	-0.031981535
195	0x3c5e0e52	0.013553219
196	0xbd327a38	-0.043573588
197	0x3d692168	0.056916624
198	0x3dd27883	0.10276892
199	0xbcdad59c	-0.026713185
200	0x3d839449	0.064247675
201	0xbcf809b2	-0.03027806
202	0x3d9ef97e	0.077624306
203	0xbd37974c	-0.044822022
204	0x3e0528f8	0.1300391
205	0x3c1768ba	0.009241277
206	0x3d969e01	0.073543556
207	0xbd83ab9d	-0.06429217
208	0xbd9100e1	-0.07080246
209	0x3d188c05	0.037242908
210	0x3d3dccce	0.046337895
211	0x3d606535	0.05478402
212	0x3c0f9ca2	0.0087653715
213	0x3d151301	0.036395077
214	0x3b97fd63	0.0046383603
215	0xbd6897b0	-0.056785285
216	0xbd1a1134	-0.037614062
217	0xbd905478	-0.07047361
218	0xbd8057f4	-0.06266776
219	0xbcd668ad	-0.02617296
220	0xbd51583a	-0.05110953
221	0x3c3b1f20	0.011420995
222	0xbd79a0f7	-0.060944524
223	0xbca535e0	-0.020167291
224	0x3d81f235	0.063450254
225	0x3d299068	0.041397482
226	0x3bf3a24c	0.007435119
227	0x3d40739f	0.046985265
228	0x3d936877	0.071976595
229	0x3d1a1593	0.03761823
230	0xbc8117b1	-0.015758367
231	0xbcb9288a	-0.022602338
232	0x3dba5893	0.090989254
233	0xbcfe0f0c	-0.031013034
234	0xbd51c175	-0.051209886
235	0x3dbc9f41	0.09210063
236	0xbc601711	-0.013677374
237	0xbcd10f15	-0.025519887
238	0x3c084a7a	0.008318538
239	0x3c3c469d	0.011491445
240	0xbd28fa89	-0.041254554
241	0xbd280b6f	-0.04102653
242	0xbca8f6eb	-0.020625552
243	0xbcab6135	-0.020920375
244	0x3d3536c0	0.044241667
245	0xbd8fc87b	-0.070206605
246	0xbd6b4c6f	-0.05744594
247	0x3c3e5db5	0.011619021
248	0x3c6fe4df	0.014641969
249	0xbd90cdee	-0.07070528
250	0x3d81d58c	0.06339559
251	0x3db316c0	0.087445736
252	0x3d222de4	0.039594546
253	0x3d2f9c2c	0.042873546
254	0xba22d46c	-0.0006211463
255	0x3c5b6aed	0.013392192

lstm.bias_hh_l0 f4 [512]
0	0x3d73676a	0.059424795
1	0x3dcfc1ff	0.10144424
2	0x3d3f38d8	0.04668507
3	0x3dd7941a	0.10526295
4	0x3d0bb7d6	0.034110866
5	0x3c0defb3	0.008663106
6	0x3d5a87ce	0.05335217
7	0x3db44add	0.088033415
8	0x3d1eabd0	0.038738072
9	0x3db4b1ce	0.08822976
10	0x3ce375f9	0.027766215
11	0x3d6f3e62	0.058409102
12	0xbc997b1c	-0.018735461
13	0x3e0689cf	0.13138507
14	0xbd29e00b	-0.04147343
15	0x3da47bf2	0.08031453
16	0xbd0c6c63	-0.034283053
17	0x3d9fec3a	0.078087285
18	0x3c43e617	0.011956713
19	0xbce974b7	-0.028498037
20	0x3db6df3c	0.08929297
21	0xbce43e85	-0.027861843
22	0xbc97b04b	-0.01851668
23	0x3da6cfed	0.081451274
24	0x3deaef8e	0.11471473
25	0xbc556377	-0.013024203
26	0xbd5c2e4c	-0.05375509
27	0xbc89a07b	-0.016800156
28	0xbc20dac2	-0.009817781
29	0xbd23301c	-0.039840803
30	0x3dc47c76	0.095940515
31	0x3da44a25	0.080219544
32	0xbd319e8c	-0.043364093
33	0x3db60d1c	0.08889219
34	0xbc2ecd1b	-0.010669018
35	0x3cc2e72a	0.023791868
36	0xbca0d64b	-0.019633433
37	0x3db898d7	0.09013527
38	0xb9d4d445	-0.00040593944
39	0x3dbadc47	0.09124046
40	0x3d1c9767	0.038230326
41	0x3d91f968	0.071276486
42	0x3decc0cb	0.1156021
43	0x3b67e3f0	0.0035383664
44	0xbd038b86	-0.03211548
45	0x3db1bce3	0.086786054
46	0x3d94928f	0.07254516
47	0xbd55f93d	-0.052239645
48	0x3da00c15	0.078148045
49	0x3d685a15	0.056726534
50	0x3c3db1e3	0.011578056
51	0x3cbf4d0e	0.023352172
52	0x3c09971e	0.008397846
53	0x3ce7e511	0.02830747
54	0x3db66e67	0.08907776
55	0x3c8d610b	0.017258188
56	0x3ccab9d4	0.024746813
57	0x3b310a96	0.0027014366
58	0x3d937511	0.07200063
59	0x3c7bddd5	0.015372713
60	0x3d7f2226	0.062288426
61	0xbd12435b	-0.035708766
62	0x3db178aa	0.08665593
63	0x3c392ed1	0.011302666
64	0xbc36603b	-0.011131342
65	0x3d653b71	0.05596489
66	0x3df3f5a3	0.11912086
67	0xbbe40c16	-0.0069594486
68	0x3d8f942f	0.07010686
69	0xbc77a8a7	-0.015115893
70	0x3ccf64da	0.025316644
71	0xbd1879a3	-0.037225377
72	0x3d5eee4f	0.054426488
73	0x3debe59a	0.115184024
74	0xbd5c9095	-0.05384882
75	0x3d7f0cf5	0.062268216
76	0x3dddca7d	0.10829637
77	0xbce8670d	-0.028369451
78	0xbcd7046a	-0.026247222
79	0xbd6916d9	-0.056906555
80	0x3cf3288e	0.029682424
81	0x3cfb85a8	0.03070338
82	0xbd03785c	-0.032097206
83	0x3ddca337	0.10773318
84	0x3daa8c7b	0.08327576
85	0x3db3f4f1	0.08786953
86	0xbd095932	-0.03353233
87	0xbd1f0abd	-0.0388286
88	0x3dda88b3	0.106706046
89	0xbd4766e4	-0.04868211
90	0x3cfb73e5	0.030694911
91	0xbcd83416	-0.026392024
92	0x3ddfd68d	0.10929594
93	0x3de84aac	0.113423675
94	0xbd05feb8	-0.03271362
95	0xbced1762	-0.028941814
96	0xbc03c554	-0.008042652
97	0xbccb8de8	-0.02484794
98	0x3db537b7	0.088485174
99	0x3df60992	0.12013544
100	0x3dd3868d	0.10328398
101	0x3c19ebc6	0.009394592
102	0xbd5285e7	-0.05139723
103	0x3d87c8f6	0.06630127
104	0x3dedd1e5	0.116123
105	0x3dd3adca	0.10335882
106	0x3d9ece52	0.07754196
107	0x3c3bcbd8	0.011462174
108	0x3d76eec3	0.060286295
109	0xbd41da67	-0.047327425
110	0xbcd50ea1	-0.026007952
111	0xbc596cd5	-0.0132705765
112	0x3bcac7af	0.006188355
113	0x3ca79cf5	0.020460585
114	0xbcb087cb	-0.021549126
115	0x3d099175	0.033585984
116	0x3ce01752	0.02735487
117	0x3d9b372f	0.07578885
118	0xbd1fd74c	-0.039023682
119	0x3cb8a68d	0.022540355
120	0x3c0b13af	0.00848858
121	0xbb522138	-0.0032063257
122	0xbd4f8dba	-0.05067227
123	0xbc789425	-0.015172039
124	0x3ceccf13	0.028907334
125	0x3d3332c6	0.043749593
126	0xbd2c634a	-0.042086877
127	0xbcfbdb30	-0.030744165
128	0x3d14608e	0.036224894
129	0x3cc1d674	0.02366183
130	0x3c8e6f35	0.017387012
131	0x3cfb3b3e	0.030667897
132	0x3db27699	0.08714027
133	0x3d1fb359	0.0389894
134	0xbd8d17c7	-0.06889301
135	0xbcf0f36f	-0.029412953
136	0xbb8cfa4d	-0.004302299
137	0x3cb0f756	0.021602314
138	0x3cf210f0	0.029549092
139	0xbc1f3485	-0.0097171115
140	0xbd4df4be	-0.050282232
141	0x3cc5955d	0.024119074
142	0xbdac7b21	-0.084219225
143	0xbcc4ff26	-0.024047446
144	0xbd0eb4b4	-0.0348403
145	0x3d46cd1b	0.048535448
146	0x3cb4038e	0.021974351
147	0xbd66bd38	-0.056332797
148	0xbce12e28	-0.02748783
149	0x3d8cc1a3	0.06872871
150	0x3da6269f	0.08112835
151	0x3c9b2586	0.018938791
152	0xbd7ef10a	-0.06224159
153	0xbd0887e3	-0.033332717
154	0x3c4885de	0.012238948
155	0x3db90770	0.09034622
156	0xbc9f38b4	-0.019436218
157	0xbd8a6c25	-0.06758908
158	0xbc67abfd	-0.014140126
159	0x3da008ac	0.07814154
160	0x3db2ae5b	0.08724662
161	0xbd2c6554	-0.04208882
162	0xbd83945e	-0.06424783
163	0x3d98e14e	0.074648485
164	0x3da999f7	0.082813196
165	0x3b89ba56	0.004203121
166	0x3d09f96d	0.033685137
167	0x3d0af635	0.033926208
168	0x3d11fe54	0.035642937
169	0x3cf22349	0.02955784
170	0xbcdd9dd4	-0.027052797
171	0x3d591c35	0.053005416
172	0xbda8c85a	-0.08241339
173	0xbd9d1d76	-0.07671635
174	0x3cf8ad42	0.030356053
175	0x3ca1aa1c	0.019734435
176	0xbd37e146	-0.044892572
177	0x3d40e8ed	0.047097135
178	0x3a47f3b7	0.0007627564
179	0x3d05b82f	0.032646354
180	0xbc96a769	-0.018390374
181	0x3db2f039	0.08737225
182	0x3d7c19b5	0.061547954
183	0x3de556a0	0.11198163
184	0x3b96f527	0.004606861
185	0x3debecfe	0.11519812
186	0xbd34a7fe	-0.044105522
187	0x3d8f0906	0.06984143
188	0xbc189a38	-0.009314112
189	0x3dad74d0	0.08469546
190	0xbd833e9f	-0.064084284
191	0x3d57e463	0.05270804
192	0x3d2887db	0.041145187
193	0xbd00d8b2	-0.031456657
194	0x3dc2da21	0.09514261
195	0x3988fcc2	0.0002612826
196	0xbccd1ec7	-0.02503909
197	0xbbda9469	-0.006670524
198	0x3d5e1fe8	0.054229647
199	0xbc21e499	-0.009881162
200	0x3d6a52d5	0.0572079
201	0x3d75c72b	0.060004395
202	0x3d98e03e	0.07464646
203	0x3db56f63	0.08859136
204	0x3de7e459	0.11322851
205	0xbd5a4a09	-0.05329326
206	0x3c3a15e1	0.011357755
207	0xbd6b8c5a	-0.057506897
208	0x3d5c62cc	0.053805158
209	0x3de7dd3a	0.113214925
210	0xbd58cb86	-0.05292847
211	0xbce3f100	-0.027824879
212	0x3d7330b0	0.059372604
213	0x3d848467	0.06470566
214	0x3dbd9bdb	0.09258243
215	0x3da32613	0.079662465
216	0xbcda39f7	-0.026638968
217	0x3ce0f042	0.027458314
218	0xbd9650e6	-0.07339649
219	0xbd68ead2	-0.056864567
220	0x3c0f2dec	0.008738976
221	0xbd8f73b2	-0.07004489
222	0x3c68e461	0.014214606
223	0xbd2ab969	-0.041680727
224	0x3dae3f21	0.08508135
225	0x3d38163a	0.044943072
226	0x3df28f7f	0.11843776
227	0xbcdf329a	-0.027245808
228	0x3dc09ff2	0.09405507
229	0x3daa1c5f	0.083061926
230	0xbd499692	-0.04921586
231	0x3dc1d552	0.09464516
232	0x3caf00bc	0.021362655
233	0xbc096bb9	-0.0083874995
234	0x3dd9a036	0.10626261
235	0x3dc34997	0.095355205
236	0xbd1e1f51	-0.038604084
237	0x3cb54aad	0.022130335
238	0xbc58bfd6	-0.013229331
239	0xbd355016	-0.04426583
240	0xbda4ea00	-0.080524445
241	0xbd029741	-0.03188253
242	0x3d83df49	0.06439073
243	0xbd52d2f1	-0.0514707
244	0x3c63ea7a	0.013910884
245	0xbd6a0cc5	-0.057141084
246	0xbcf87255	-0.030327955
247	0xbbb7d1b3	-0.005609715
248	0x3d7c5134	0.06160088
249	0xbd9af920	-0.07567048
250	0xbc865ca5	-0.016401598
251	0x3d3b5903	0.045739185
252	0x3d7f8a74	0.0623879
253	0xbd32888d	-0.043587256
254	0xbd131993	-0.03591306
255	0x3d2c73fc	0.0421028

mlp_head.0.weight f4 [64, 128]
0	0xbd2bb113	-0.041916918
1	0xbdaa43e1	-0.08313728
2	0xbdd0b732	-0.10191192
3	0x3d0b0321	0.03393853
4	0x3d80190a	0.06254776
5	0xbb9c2e98	-0.0047662966
6	0x3dbb7dcf	0.091548555
7	0xbc9dc76b	-0.019260129
8	0x3dcf5941	0.10124446
9	0xbcf10331	-0.029420467
10	0xbdbf0c16	-0.09328477
11	0xbdc3c800	-0.09559631
12	0xbd0b8352	-0.034060784
13	0x3d984982	0.074358955
14	0xbd6d98b5	-0.05800696
15	0x3d65058a	0.055913486
16	0x3d920e09	0.07131583
17	0xbcfef5ad	-0.031123007
18	0x3c9abc84	0.01888872
19	0x3deb422d	0.114872314
20	0xbd8feb55	-0.07027308
21	0x3da6f105	0.081514396
22	0xbd3925c1	-0.04520202
23	0xbd196af6	-0.03745552
24	0x3db0bfe3	0.086303495
25	0x3d8a81c6	0.067630336
26	0xbd7e9869	-0.06215707
27	0x3cb27c8e	0.021787908
28	0xbd8e9b14	-0.069631726
29	0x3d4edb95	0.05050238
30	0xbd99dc01	-0.075126655
31	0x3d8f505a	0.06997748
32	0xbdd182b4	-0.10230008
33	0xbd529c78	-0.05141875
34	0xbbc39d79	-0.0059697
35	0xbc94a6fd	-0.018146032
36	0xbc484de4	-0.012225602
37	0xbd92434c	-0.07141742
38	0xbd36bb54	-0.044612244
39	0x3ab2e4bf	0.0013648494
40	0xbc648c39	-0.013949447
41	0xbd5c0073	-0.053711366
42	0xbd4c56f4	-0.049887612
43	0xbd21d827	-0.03951278
44	0xbd574ff1	-0.052566472
45	0x3d6d407c	0.057922825
46	0x3d3b1f99	0.04568443
47	0xbca3272f	-0.019916145
48	0xbd372304	-0.044711128
49	0x3d959f11	0.0730573
50	0xbb09d628	-0.0021032188
51	0x3c911de1	0.017714443
52	0xbc405a45	-0.011740272
53	0x3c8c8ca8	0.017156914
54	0xbc6f8598	-0.014619254
55	0x3d4be03d	0.049774397
56	0xbd6d21c1	-0.05789352
57	0xbc1ce2b3	-0.009575534
58	0xbdb16243	-0.0866132
59	0x3cc5714a	0.024101872
60	0xbd5bcd1d	-0.05366241
61	0x3c89b090	0.016807824
62	0xbdac6865	-0.08418349
63	0x3d91b3e4	0.071143895
64	0x3d0abccf	0.03387147
65	0xbcac6d84	-0.021048315
66	0x3bcb2d71	0.0062004854
67	0xbdaea5c1	-0.08527709
68	0x3ccc2244	0.024918683
69	0x3d8425f0	0.064525485
70	0x3d8f4b6b	0.06996807
71	0x3c7a7d66	0.015288686
72	0xbcb36a9b	-0.02190142
73	0x3dbb5ee8	0.09148961
74	0x3ce287ef	0.027652709
75	0x3d495ca6	0.049160622
76	0x3d129b7d	0.035792816
77	0xbc03747d	-0.008023378
78	0xbd772d86	-0.06034615
79	0xbd7f314a	-0.062302865
80	0xbc6c8eb6	-0.014438322
81	0x3dc0e262	0.09418179
82	0x3d47fbbd	0.04882406
83	0x3db32254	0.08746782
84	0xbd904b77	-0.07045644
85	0xbc11f8d4	-0.008909423
86	0x3cc068f3	0.023487544
87	0x3d8f0232	0.069828406
88	0x3d9b01ad	0.07568679
89	0x3d4f8645	0.05066516
90	0xbca2054a	-0.019777913
91	0xbd878ace	-0.06618272
92	0x3b679ebf	0.0035342423
93	0xbda96a7b	-0.08272263
94	0xbd9cb6d0	-0.07652056
95	0xbd16f3e5	-0.03685369
96	0x3dc8af85	0.09799103
97	0xbd9d2818	-0.07673663
98	0x3cf5757b	0.029963246
99	0x3cf3e9d5	0.029774586
100	0xbc2690a9	-0.010166326
101	0xbd2ea59b	-0.042638402
102	0xbd09ca44	-0.03364016
103	0xbda04fe4	-0.07827738
104	0x3a197e30	0.000585529
105	0xbd954cd7	-0.07290047
106	0xbd8e167d	-0.06937883
107	0xbd1d7e1c	-0.038450345
108	0x3b955717	0.004557501
109	0x3dadae29	0.08480484
110	0x3bfdf535	0.007750178
111	0x3d619c14	0.05508049
112	0x3d55c4cb	0.05218963
113	0xbd919347	-0.07108169
114	0xbdd1d08a	-0.10244854
115	0x3db59794	0.08866802
116	0xbce420e3	-0.027847713
117	0xbd002031	-0.0312807
118	0x3c7b5669	0.015340426
119	0x3dbb052a	0.09131844
120	0xbdcbf3fc	-0.09958646
121	0xbe04225c	-0.12903732
122	0xbc9081a6	-0.017639946
123	0xbd240ed2	-0.040053196
124	0x3d681866	0.056663893
125	0xbc98013b	-0.018555274
126	0xbdd20a8f	-0.1025592
127	0x3dd883c6	0.10572009
128	0xbd49e3e9	-0.049289618
129	0xb9f8a2a0	-0.0004742341
130	0x3cd0297f	0.025410412
131	0xbc25ae2c	-0.010112327
132	0xbccc825b	-0.024964502
133	0x3db5a9f8	0.088703096
134	0x3d1e4af3	0.038645696
135	0xbd46ef2d	-0.04856794
136	0xbca972f3	-0.020684695
137	0xbcf0762b	-0.029353222
138	0x3d892fa1	0.066985376
139	0x3d9d5c86	0.07683663
140	0x3c13452b	0.008988659
141	0x3cabc6f7	0.020968897
142	0x3dc8378e	0.09776221
143	0x3c544a24	0.01295713
144	0x3d567465	0.052357096
145	0xbd8f2b98	-0.06990737
146	0x3dd5c388	0.10437685
147	0xbd385094	-0.04499872
148	0x3b8068ae	0.003918729
149	0x3bc4b833	0.0060034036
150	0x3dc7fcf8	0.09765047
151	0x3d8c9e6e	0.068661556
152	0x3dc33baf	0.09532868
153	0xbd5e3b48	-0.054255754
154	0x3dcc6809	0.09980781
155	0xbd8f4271	-0.069950946
156	0xbcff67e6	-0.031177472
157	0xbd94cb71	-0.07265366
158	0x3d4104ea	0.047123827
159	0xbd58843c	-0.052860484
160	0xbd5e660e	-0.054296546
161	0x3d91d961	0.0712154
162	0x3d137819	0.036003206
163	0x3d9c2547	0.076242976
164	0x3d408ef1	0.04701132
165	0x3d12de12	0.035856314
166	0xbcdeeafc	-0.027211659
167	0xbdaf4b54	-0.085592896
168	0xbde0356f	-0.10947692
169	0xbc696fab	-0.014247815
170	0xbd62e3d3	-0.05539305
171	0xbc7cf177	-0.015438429
172	0x3c9b4fb6	0.018958908
173	0x3b90da5f	0.004420563
174	0xbd807766	-0.062727734
175	0x3cf744a5	0.0301841
176	0xbd483714	-0.04888065
177	0xbc7a3bde	-0.0152730625
178	0x3cbfdb9a	0.023420144
179	0x3d324afd	0.043528546
180	0xbcc45821	-0.023967804
181	0x3c9e6b57	0.019338293
182	0xbc88354c	-0.016626976
183	0xbcbe9e70	-0.023268908
184	0xbcacc729	-0.02109106
185	0x3d14b1a0	0.03630221
186	0x3d89654f	0.06708776
187	0x3c9a40f6	0.018829804
188	0xbdcabb8f	-0.09899055
189	0xbcd81623	-0.026377743
190	0x39bacf48	0.0003563112
191	0xbd831f4d	-0.064024545
192	0xbcfb29b3	-0.030659532
193	0x3cf13fe9	0.02944942
194	0x3d3dc5ea	0.046331324
195	0x3c1b4b5f	0.009478419
196	0x3d09e0b2	0.03366155
197	0xbd184a2c	-0.03718011
198	0xbd604fc4	-0.05476357
199	0xbda16357	-0.07880276
200	0x39d2d178	0.00040210388
201	0xbd153cbd	-0.036434878
202	0x3d92f055	0.07174746
203	0xbcf253cd	-0.029580975
204	0xbc1ffc95	-0.00976481
205	0xbd925b9d	-0.0714638
206	0xbceb66b6	-0.0287355
207	0xba7140ad	-0.0009203058
208	0x3c56306f	0.013073071
209	0x3d82c5fe	0.0638542
210	0x3db16758	0.086622894
211	0xbd871960	-0.06596637
212	0x3d79bbf5	0.060970265
213	0xbdce4ea7	-0.100735955
214	0xbd6d588a	-0.057945766
215	0x3df04ae2	0.11733033
216	0x3d11790f	0.03551584
217	0x3b26e59e	0.0025466452
218	0x3db2fee6	0.08740024
219	0xbdc2d841	-0.095139034
220	0xbbe36228	-0.0069391914
221	0x3d0bcaa3	0.034128796
222	0xbd13d7c5	-0.036094446
223	0xbd6ee09b	-0.05831967
224	0x3d48d808	0.04903415
225	0xbdc9caff	-0.098531716
226	0x3cdc0fe3	0.026863044
227	0xbd1f4334	-0.03888245
228	0xbd00748b	-0.031361144
229	0xbd0eeeef	-0.034895834
230	0xbc9dc923	-0.019260949
231	0x3d716660	0.058935523
232	0xbc54471a	-0.012956405
233	0xbd6c7ec7	-0.05773809
234	0x3cd78c1f	0.026311932
235	0xbbf9857d	-0.00761479
236	0xbd90cf32	-0.07070769
237	0x3d2008af	0.03907078
238	0xbc39af87	-0.011333353
239	0x3d20a8db	0.039223533
240	0x3860bbeb	5.3580774e-05
241	0xbd5cc993	-0.053903174
242	0x3d94ee85	0.072720565
243	0xbbdfc259	-0.006828588
244	0xbbdb6c67	-0.006696272
245	0xbcaa1f8b	-0.020766994
246	0xbd29ef0a	-0.04148773
247	0xbccea137	-0.025223358
248	0x3da23c78	0.0792169
249	0x3bf1f20c	0.0073835906
250	0x3c70c1a2	0.014694603
251	0xbcdbbc70	-0.026823252
252	0xbc48fb78	-0.012266986
253	0x3da0c341	0.07849742
254	0x3d728917	0.05921277
255	0x3d9bd6b5	0.076093115

mlp_head.0.bias f4 [64]
0	0xbd82da70	-0.0638932
1	0x3d0a2d3b	0.03373454
2	0xbb0d94e8	-0.0021603648
3	0x3dc2c285	0.09509758
4	0xbcd8bc1e	-0.026456889
5	0xbd026ecb	-0.03184394
6	0x3cb7db0b	0.022443315
7	0x3dbeb58c	0.09311971
8	0x3dd2e48f	0.102975
9	0xbb45ef52	-0.003020246
10	0xbd0d1e82	-0.034452923
11	0x3dbd5943	0.09245541
12	0xbcd3bcb1	-0.025846811
13	0x3dacb5bf	0.08433103
14	0x3cbf467b	0.023349037
15	0x3d9dbed4	0.07702413
16	0x3d478d54	0.048718765
17	0x3d13ec09	0.036113773
18	0xbb7e12d4	-0.0038768547
19	0x3d2aeb2b	0.04172818
20	0x3dd4e4de	0.103952155
21	0x3d12d3fc	0.035846695
22	0x3d3619a1	0.044458035
23	0x3db9f81a	0.09080525
24	0x3da8a3f0	0.082343936
25	0xbda594a9	-0.08084995
26	0x3d5fb4e2	0.054615863
27	0xbd5b2e8f	-0.0535112
28	0x3dc06ef9	0.09396166
29	0xbd5e881f	-0.054329034
30	0xbd0b0819	-0.03394327
31	0x3dbb1e89	0.091366835
32	0x3cf0db5b	0.029401472
33	0xbd13bc80	-0.03606844
34	0x3da5fe94	0.081051975
35	0x3dd53737	0.10410922
36	0x3d428497	0.04748973
37	0xbd217b34	-0.039424136
38	0xbd2e3eec	-0.042540476
39	0xbb96f5f4	-0.0046069566
40	0x3be8f0f8	0.007108804
41	0xbd0c1757	-0.034201946
42	0xbc998938	-0.018742189
43	0x3d85c22a	0.065311745
44	0x3d2bbb4f	0.04192668
45	0x3db2d461	0.08731914
46	0x3da2f175	0.079562105
47	0x3c77dc6e	0.015128238
48	0x3d35f821	0.044426087
49	0x3d26ee8b	0.040754836
50	0x3dc91540	0.09818506
51	0xbcb77a9e	-0.022397336
52	0x3c8d6749	0.017261164
53	0x3da84967	0.082171254
54	0x3d6335bc	0.055471167
55	0xbaf952ce	-0.001902187
56	0xbd34f82a	-0.04418198
57	0xbd2931b3	-0.041307162
58	0x3d6973b5	0.056995112
59	0x3d647dfd	0.055784214
60	0x3ddc7d73	0.10766115
61	0xbd41f0cf	-0.047348794
62	0x3da437ac	0.08018431
63	0x3dc4d9ea	0.09611876

mlp_head.2.weight f4 [64, 64]
0	0xbd8fd3b2	-0.070227996
1	0xbdd7fcdd	-0.10546277
2	0x3e20ebb3	0.15714912
3	0x3dc1d7aa	0.09464963
4	0x3d7b7c56	0.061397873
5	0x3cf84d44	0.03031028
6	0x3dc97853	0.09837403
7	0x3d6fbce6	0.058529757
8	0x3d8163ca	0.063178614
9	0xbdd82419	-0.1055376
10	0xbd0d47b5	-0.034492213
11	0x3d079c6b	0.033108156
12	0x3d23efdd	0.040023673
13	0x3dd4b69f	0.10386395
14	0xbd6b6f45	-0.05747916
15	0x3df4b533	0.119486235
16	0xbd83c3f6	-0.06433861
17	0x3e0ee811	0.13955714
18	0xbe0f835e	-0.14014956
19	0xbd89e470	-0.06733024
20	0x3debaed1	0.11507953
21	0x3de4b927	0.111681275
22	0x3d42f7d4	0.04759963
23	0x3e1d13cd	0.15339585
24	0x3e12d80b	0.14340226
25	0x3dca38df	0.098741286
26	0xbe0ad324	-0.13557106
27	0x3e25f0e5	0.16205175
28	0xbdc40412	-0.09571089
29	0xbd940c8a	-0.07228954
30	0x3d7aebf2	0.06126017
31	0xbe03e876	-0.12881646
32	0xbd029792	-0.03188283
33	0x3ddb25b6	0.10700552
34	0xbdf940e7	-0.12170582
35	0x3cafa45d	0.02144068
36	0xbd3e6f8a	-0.04649309
37	0x3c09d90d	0.008413565
38	0xbb9f97e6	-0.0048704026
39	0x3da82351	0.08209861
40	0xbe04e744	-0.12978846
41	0xbd032447	-0.03201702
42	0xbdc484f2	-0.0959567
43	0x3d30b19a	0.043138124
44	0x3d9c14ed	0.07621179
45	0x3dba8be0	0.0910871
46	0xbdc54786	-0.09632783
47	0xbdc2af7b	-0.095061265
48	0x3ba3af09	0.004995231
49	0xba3beaa7	-0.000716845
50	0x3d02015e	0.031739585
51	0x3defb80f	0.11705028
52	0xbdfe0f82	-0.12405302
53	0xbcc3bb6e	-0.023893084
54	0x3dbf360d	0.09336481
55	0xbc44eb96	-0.012019059
56	0x3e2871fa	0.16449729
57	0xbcafa456	-0.021440666
58	0x3cf3f316	0.029778998
59	0xbd0a076b	-0.03369848
60	0xbc088ae9	-0.0083339
61	0x3d512410	0.051059783
62	0x3de4dbf2	0.11174764
63	0xbc34948c	-0.011021744
64	0xbdc3fdb5	-0.09569875
65	0x3d414c7d	0.047192086
66	0x3d9d692a	0.07686074
67	0xbc18fd86	-0.009337788
68	0xbcd98c3c	-0.026556127
69	0x3d393bd3	0.04522307
70	0xbdedd0ef	-0.116121165
71	0xbdb951c6	-0.090488
72	0xbd7a4e18	-0.061109632
73	0x3d3a0e18	0.045423597
74	0x3dc07d2e	0.09398876
75	0x3d41b224	0.04728903
76	0xbdbff5e7	-0.09373074
77	0x3d42d3c6	0.047565244
78	0xbd9657c4	-0.07340959
79	0x3d45efbb	0.048324328
80	0x3dd6829f	0.10474133
81	0xbd7c933f	-0.061663862
82	0x3da6b546	0.08140044
83	0xbdbe7162	-0.0929897
84	0xbdbeb9a7	-0.09312754
85	0xbd98d25b	-0.07461997
86	0x39b8674f	0.00035172186
87	0x3c8a093a	0.016850103
88	0x3daa4fc1	0.08315993
89	0x3c3d7512	0.011563556
90	0x3d9284cc	0.07154235
91	0xbd654256	-0.055971466
92	0xbbf3369f	-0.007422283
93	0x3cef079b	0.029178431
94	0xbdd12532	-0.102121726
95	0x3d279641	0.040914778
96	0xbbea89be	-0.0071575334
97	0x3c231de0	0.009955853
98	0x3db88087	0.0900889
99	0xbcc2379e	-0.023708161
100	0x3d8bf026	0.06832914
101	0x3cb7368a	0.022364873
102	0xbcc583cd	-0.0241107
103	0xbc06a823	-0.008218798
104	0x3deb41cb	0.114871584
105	0x37276c8a	9.979247e-06
106	0x3d68ae86	0.056807064
107	0xbda8d65c	-0.08244011
108	0xbd3b919b	-0.045793157
109	0xbd2c3d87	-0.042050865
110	0x3d506c9f	0.05088484
111	0xbd3ee973	-0.046609353
112	0xbd697fd2	-0.057006665
113	0xbd78ccd1	-0.060742203
114	0x3de51887	0.11186319
115	0x3d8f6144	0.07000974
116	0x3d2561a3	0.040376317
117	0x3ca9cd45	0.020727763
118	0x3dd3e609	0.1034661
119	0xbd7eeca3	-0.062237393
120	0x3d0b8097	0.03405818
121	0xbdca65e7	-0.098827176
122	0xbde57928	-0.11204749
123	0xbdedca99	-0.11610908
124	0xbccf6bf6	-0.025320034
125	0xbdaad291	-0.083409436
126	0xbc882986	-0.016621362
127	0x3da176d4	0.07883993
128	0xbd4a4ebc	-0.049391493
129	0x3e063cd5	0.13109143
130	0xbdde8bcd	-0.10866509
131	0x3b6f698d	0.003653142
132	0xbd8e0c52	-0.06935944
133	0xbdae8ace	-0.08522569
134	0x3d297ca3	0.04137863
135	0xbdb6600e	-0.0890504
136	0xbdb840c3	-0.08996727
137	0x3de03f6d	0.109495975
138	0x3d533dae	0.051572494
139	0x3dbe2e5b	0.09286185
140	0x3de0e73e	0.10981606
141	0x3d1d79cd	0.038446236
142	0x3bfc25a4	0.007694917
143	0x3d78f87e	0.060783856
144	0xbd632cb8	-0.05546257
145	0xbd699152	-0.057023354
146	0xbd7b86ac	-0.06140773
147	0xbc91da45	-0.017804274
148	0x3d9d63d9	0.0768506
149	0xbe15cefc	-0.1462974
150	0x3d4680c7	0.048462655
151	0xbd0dd7c2	-0.03462959
152	0x3d49af72	0.049239583
153	0xbe0150fe	-0.12628552
154	0xbde43869	-0.11143572
155	0xbc6ea194	-0.01456489
156	0xbd83e91d	-0.06440947
157	0x3d68f2cd	0.056872178
158	0xbcc4e5c9	-0.024035351
159	0x3ddd090a	0.1079274
160	0xbd3d265e	-0.046179168
161	0x3dc0b41e	0.094093546
162	0x3dbb66ec	0.0915049
163	0xbcaaffd7	-0.020873947
164	0xbdffc8a4	-0.12489441
165	0x3dd5cc6f	0.10439383
166	0xbdb57b49	-0.088614054
167	0x3d95b1a1	0.07309271
168	0x3d9561a8	0.07294017
169	0x3d3c49c2	0.04596878
170	0xbcecfda2	-0.028929535
171	0xbd9dd751	-0.07707084
172	0xbd9e360d	-0.07725153
173	0x3c89bbe0	0.016813219
174	0x3dd0ddf2	0.10198583
175	0xbdc305c3	-0.09522583
176	0xbdbc90e5	-0.09207324
177	0xbda588d6	-0.0808274
178	0xbda77b0d	-0.08177767
179	0x3e04b5ec	0.12960023
180	0x3d9d6b53	0.07686486
181	0x3cc8840e	0.024477031
182	0xbd3118c0	-0.043236494
183	0xbd4bdae1	-0.049769286
184	0x3d842a02	0.06453325
185	0x3d975261	0.073887594
186	0x3d3c3c51	0.04595596
187	0xbd9f2959	-0.07771558
188	0x3df13567	0.11777764
189	0x3b2bd858	0.002622148
190	0x3d9a54b7	0.07535689
191	0x3d0c1c6b	0.03420679
192	0x3df2007d	0.118164994
193	0x3d7436ec	0.05962269
194	0x3cfb5720	0.030681193
195	0xbd4928c1	-0.04911113
196	0xbdd49878	-0.103806436
197	0x3d6e0e3c	0.058119044
198	0x3c94df04	0.018172748
199	0xbcd90832	-0.026493166
200	0xbdc3c632	-0.09559287
201	0xbd2fac2c	-0.042888805
202	0xbd5820bf	-0.052765604
203	0xbd64eb6d	-0.055888582
204	0xbd8ec806	-0.06971745
205	0x3d7568d9	0.059914444
206	0x3da88f93	0.082305096
207	0xbd05bb6b	-0.03264944
208	0xbca73442	-0.02041066
209	0x3d3c011b	0.04589949
210	0x3d05cd28	0.032666355
211	0xbdbfe114	-0.09369102
212	0x3d8b9de2	0.06817223
213	0x3d94bcde	0.07262586
214	0xbdb9801a	-0.090576366
215	0xbdb43ead	-0.08801017
216	0xbd8b3cb7	-0.0679869
217	0x3c715500	0.014729738
218	0x3dbea4df	0.093087904
219	0xbcc2d637	-0.023783786
220	0xbd9c9df1	-0.076473124
221	0xbce55793	-0.02799586
222	0xbddd9128	-0.10818702
223	0xbb979355	-0.0046257176
224	0x3d85cbf8	0.065330446
225	0xbdfac223	-0.1224406
226	0x3db2bb29	0.08727104
227	0xbc341f99	-0.010993862
228	0x3d5af3b2	0.053455062
229	0xbd9458d8	-0.07243508
230	0x3d551168	0.052018553
231	0xbd5dea77	-0.05417868
232	0xbde5528e	-0.11197387
233	0xbc242fd9	-0.010021173
234	0x3cd4028b	0.025880119
235	0x3c28aac9	0.010294625
236	0x3d2fa0e4	0.042878047
237	0xbd868c80	-0.06569767
238	0xbd84da24	-0.064869195
239	0x3caf9b9a	0.021436501
240	0xbdcf3685	-0.10117821
241	0xbbb5fb57	-0.0055536437
242	0x3d5375b7	0.051625933
243	0x3d1178df	0.035515662
244	0x3d87366f	0.06602179
245	0xbd44a263	-0.048006427
246	0x3c959238	0.0182582
247	0x3d9b74d4	0.075906426
248	0x3d841a82	0.064503685
249	0x3d33f479	0.04393432
250	0xbddf619d	-0.1090729
251	0xbda014e7	-0.07816487
252	0xbdee5296	-0.11636846
253	0x3d08fda7	0.033445027
254	0x3bb1d61a	0.005427134
255	0x3dbd10c6	0.09231715

mlp_head.2.bias f4 [64]
0	0x3e0198fb	0.12656014
1	0xb88424b0	-6.301084e-05
2	0xbd0b1fdc	-0.03396593
3	0xbd7e65de	-0.062108867
4	0x3d252b98	0.040324777
5	0x3dbe7ff6	0.0930175
6	0xbdf03bc2	-0.11730148
7	0x3b18943c	0.0023281714
8	0x3c206a57	0.009790978
9	0x3cc17d64	0.023619361
10	0x3c815a73	0.0157902
11	0xbcf06cca	-0.02934875
12	0x3c981aaa	0.018567402
13	0x3d7175ea	0.058950342
14	0x3d025740	0.03182149
15	0x3db59054	0.08865419
16	0xbc39f6a4	-0.011350308
17	0xbda90b32	-0.082540885
18	0xbc940d38	-0.01807271
19	0xbd81a929	-0.06331093
20	0xba3412ca	-0.0006869255
21	0x3d25f0c5	0.04051282
22	0xbd9e5684	-0.07731345
23	0x3cef18c4	0.029186614
24	0x3df366c4	0.11884835
25	0x3cfbe1ef	0.030747382
26	0xbcc5e707	-0.024158014
27	0xbb4a5c1b	-0.0030877653
28	0xbd9a6f5d	-0.07540772
29	0xbd59838f	-0.05310398
30	0xbca69403	-0.02033425
31	0xbd9ae432	-0.07563056
32	0xbd5640d4	-0.05230792
33	0xbdb706be	-0.08936833
34	0xbcb13ad1	-0.021634491
35	0x3def98b2	0.11699046
36	0xbdbc1d15	-0.091852345
37	0x3dfc93ae	0.12332855
38	0x3dee140e	0.11624919
39	0x3d6b769b	0.057486158
40	0xbd8bd4fc	-0.06827733
41	0x3bfcd01a	0.0077152373
42	0x3dd991b0	0.10623491
43	0x3ce07674	0.027400233
44	0xbcc8f18f	-0.024529247
45	0x3cf9424b	0.030427119
46	0xbd80f74f	-0.0629717
47	0x3e001070	0.1250627
48	0x3dc75970	0.09733856
49	0x3dd74908	0.105119765
50	0x3df95fb0	0.12176454
51	0x3da07575	0.07834903
52	0xbd1f6d16	-0.03892239
53	0x3c35e712	0.011102455
54	0x3d5cbb5e	0.053889625
55	0x3d989457	0.074501686
56	0xbc500063	-0.012695405
57	0x3d2a4bf8	0.041576356
58	0x3e02921b	0.12751047
59	0x3d93632a	0.071966484
60	0xbdb52675	-0.08845226
61	0x3c0ed454	0.008717615
62	0x3de11d78	0.10991949
63	0x3dbf4a7d	0.093403794
