runs/8_hour_forecasting/286/best_model.pt (torch, 381112 bytes, 10 tensors)

lstm.weight_ih_l0 f4 [512, 29]
0.12978129 0.09966257 0.007832422 0.109700546 0.0054524145 -0.0019148074 -0.061847083 0.028925411
0.037454143 -0.086564705 0.055334266 0.02169785 0.05622161 0.02383991 0.053826354 -0.013490011
0.07022197 0.023905108 -0.032121286 0.030859271 -0.054252718 -0.039559446 -0.04450399 0.050123807
-0.06841924 -0.036322195 -0.08126842 -0.06075017 -0.018582523 -0.079801105 0.10365637 -0.02276702
0.10035189 0.052509546 -0.01898237 0.046860103 0.0347485 0.07671474 0.01839357 -0.042932894
0.038393583 -0.057601858 0.01875155 0.07261713 0.0041890847 -0.07615773 0.047790937 0.0052629923
0.033810005 -0.096114054 -0.13847777 -0.109573364 -0.11738245 0.033488978 0.0364845 -0.021256551
0.08354923 -0.029573822 0.034812875 -0.07280747 -0.0021067525 -0.05926962 0.01940947 -0.018833175
0.0349847 -0.007852704 0.08079736 -0.04805717 -0.040175445 -0.061437696 0.05935016 -0.006646748
0.08378163 -0.09843375 -0.10251979 -0.044912744 -0.039594363 0.053354863 0.038233664 0.08139815
-0.031157913 -0.049594034 0.07101546 0.00080987933 0.20196834 0.05374785 0.08144245 -0.109148026
-0.06682631 0.0067862603 0.010543545 -0.024971869 0.050550025 0.057986397 -0.06649742 -0.06760205
0.085165635 -0.041980337 -0.054155994 -0.12653038 -0.057209305 0.042570334 -0.013786081 -0.053738195
0.062647246 -0.0037084792 -0.02159522 -0.07175869 -0.12148748 -0.07588752 0.065514095 0.001493836
0.06084344 -0.036414478 -0.048083335 0.002593762 0.08120064 -0.06712572 -0.014246824 -0.029511949
0.019636475 -0.07599988 -0.048310276 -0.09666833 -0.11387446 -0.105788395 0.002838859 -0.02228865
0.08551651 -0.0022616053 0.09713901 0.026088204 -0.0680745 0.08145389 -0.01564805 -0.03697723
-0.077375926 -0.07893307 0.02381731 -0.022419358 0.056421705 -0.062277183 0.082698785 -0.05094349
-0.021692542 0.012195929 0.048975933 0.10182932 0.10859475 -0.050808936 0.015714347 -0.045889705
-0.005780569 -0.058933098 0.08511907 -0.08061279 0.042021587 -0.0018246348 0.0041856756 -0.04876006
0.045878567 -0.0067530954 0.003368268 -0.090365596 0.022752218 -0.008610611 -0.03907338 0.08267084
0.035828263 -0.04693585 -0.05976914 -0.009232823 0.0627087 0.015301262 -0.08970232 -0.040457822
-0.07800792 0.029465804 0.066896036 -0.10954653 -0.0035208527 0.038034637 -0.01878943 -0.052229647
0.042371362 0.03918607 0.010198679 -0.036916215 -0.020350512 0.026026934 0.012991526 0.018849915
0.09673445 0.11085903 -0.038342196 -0.057001557 -0.02238893 -0.043433607 -0.02103652 0.05532321
-0.0151605755 -0.06453657 0.051097088 0.06355205 0.028808992 0.0075102793 0.0026644876 -0.019790683
-0.024810864 0.03411926 0.052017435 0.030103277 -0.09146016 -0.023691552 -0.031631786 0.0799152
0.004604455 -0.023529677 0.0045858985 -0.05670927 -0.04176968 0.06905289 -0.04548261 -0.01572126
-0.07853006 0.061905097 0.07885726 0.043113165 -0.049417026 -0.019529521 -0.06957369 0.11862797
0.118672 0.10246549 0.08602656 0.06259033 0.025931722 -0.022013465 -0.050742973 -0.039183546
0.04702214 -0.015494771 -0.03574352 -0.059216637 -0.034336828 -0.074451394 -0.08423636 -0.0062673036
-0.051387105 0.06692274 -0.023833793 -0.06565969 -0.04720376 -0.08333457 -0.061815314 -0.11670048
00000000: 63e5 043e e41b cc3d 8f53 003c aeaa e03d
00000010: 2baa b23b 46fa faba 5e53 7dbd fcf4 ec3c
00000020: 8469 193d d648 b1bd 2fa6 623d b1bf b13c
00000030: a248 663d ea4b c33c 0679 5c3d 3505 5dbc
00000040: 89d0 8f3d a5d4 c33c 9c91 03bd 95cc fc3c
00000050: 1938 5ebd 1609 22bd d149 36bd 9f4e 4d3d
00000060: 631f 8cbd 95c6 14bd 0f70 a6bd 2cd5 78bd
00000070: 603a 98bc c36e a3bd ca49 d43d e781 babc
00000080: 4b85 cd3d 4014 573d ea80 9bbc 61f0 3f3d
00000090: 7154 0e3d 9e1c 9d3d 1dae 963c 67da 2fbd
000000a0: 9742 1d3d edef 6bbd da9c 993c 4ab8 943d
000000b0: 9744 893b 95f8 9bbd 6ec0 433d 2e75 ac3b
000000c0: 5c7c 0a3d 72d7 c4bd 1ecd 0dbe 0068 e0bd
000000d0: 3666 f0bd bd2b 093d c570 153d 3822 aebc
000000e0: dc1b ab3d cd44 f2bc f297 0e3d 151c 95bd
000000f0: 7111 0abb b3c4 72bd 9c00 9f3c 0848 9abc
00000100: 1e4c 0f3d a1a8 00bc 1679 a53d 98d7 44bd
00000110: 028f 24bd 18a6 7bbd 2719 733d f7cc d9bb
00000120: b495 ab3d a297 c9bd e5f5 d1bd 6df6 37bd
00000130: b32d 22bd a18a 5a3d e79a 1c3d 13b4 a63d
00000140: e13e ffbc 1d23 4bbd 8e70 913d 154e 543a
00000150: cad0 4e3e b526 5c3d 4dcb a63d 0089 dfbd
00000160: 3bdc 88bd 475f de3b d5be 2c3c ce91 ccbc
00000170: 8b0d 4f3d 2583 6d3d cd2f 88bd f272 8abd
00000180: 526b ae3d 93f3 2bbd add2 5dbd 2e91 01be
00000190: 4e54 6abd 3b5e 2e3d 04df 61bc 951c 5cbd
000001a0: 334d 803d f509 73bb 75e8 b0bc 38f6 92bd
000001b0: 6ece f8bd eb6a 9bbd 412c 863d d2cc c33a
000001c0: f936 793d 5927 15bd 08f3 44bd 1bfc 293b
000001d0: 854c a63d 3679 89bd 836b 69bc 0bc3 f1bc
000001e0: acdc a03c d3a5 9bbd ffe0 45bd 0cfa c5bd
000001f0: 0337 e9bd 96a7 d8bd 270c 3a3b b096 b6bc
00000200: 4823 af3d 7137 14bb d1f0 c63d eeb6 d53c
00000210: a56a 8bbd 4cd1 a63d 5730 80bc 7075 17bd
00000220: 4577 9ebd a9a7 a1bd 851c c33c cda8 b7bc
00000230: 721a 673d 5c16 7fbd fb5d a93d 1faa 50bd
00000240: 8fb4 b1bc 6fd1 473c fd9a 483d e48b d03d
00000250: ed66 de3d 081d 50bd 60bb 803c d8f6 3bbd
00000260: ed6a bdbb d563 71bd e852 ae3d 5218 a5bd
00000270: d41e 2c3d 9628 efba fe27 893b a1b8 47bd
00000280: 2aeb 3b3d 1249 ddbb 29be 5c3b 9911 b9bd
00000290: dc62 ba3c 8513 0dbc 690b 20bd 544f a93d
000002a0: a8c0 123d ce3f 40bd 7cd0 74bd 4445 17bc
000002b0: 6b6d 803d 25b2 7a3c dab5 b7bd 1ab7 25bd
000002c0: 9ec2 9fbd 4562 f13c ca00 893d ee59 e0bd
000002d0: 1bbe 66bb 35ca 1b3d 4aec 99bc c1ee 55bd
000002e0: 988d 2d3d 9381 203d 5c18 273c 7535 17bd
000002f0: 1eb6 a6bc 7036 d53c 69da 543c 236b 9a3c
00000300: b61c c63d 0f0a e33d b50c 1dbd 777a 69bd
00000310: fd68 b7bc 70e7 31bd c854 acbc 979a 623d
00000320: 1064 78bc c02b 84bd 2e4b 513d 9427 823d
00000330: d600 ec3c ca18 f63b af9e 2e3b 1220 a2bc
00000340: 2740 cbbc a3c0 0b3d 3c10 553d 269b f63c
00000350: 774f bbbd c914 c2bc 5590 01bd 95aa a33d
00000360: f8e0 963b 4fc1 c0bc 4e45 963b fb47 68bd
00000370: af16 2bbd 9a6b 8d3d f94b 3abd dfc9 80bc
00000380: 5ed4 a0bd 3390 7d3d ea7f a13d 6e97 303d
00000390: 8269 4abd 60fc 9fbc a77c 8ebd 39f3 f23d
000003a0: 4e0a f33d 6dd9 d13d b12e b03d 5c2f 803d
000003b0: c36e d43c 9555 b4bc ddd7 4fbd ed7e 20bd
000003c0: 4a9a 403d c8dd 7dbc cc67 12bd 258d 72bd
000003d0: c6a4 0cbd f979 98bd 1d84 acbd f45d cdbb
000003e0: 497b 52bd ca0e 893d 163f c3bc 9678 86bd
000003f0: bb58 41bd 51ab aabd 0e32 7dbd a900 efbd

lstm.weight_hh_l0 f4 [512, 128]
-0.051512513 0.07871357 -0.10019481 0.075044215 0.027105184 0.07900386 -0.0193569 -0.07020138
0.08673545 -0.0050090766 -0.032818276 0.09345774 -0.010346202 -0.023463195 0.06263104 0.09825092
-0.02031796 0.0012851089 0.044108734 -0.037286907 0.08114584 0.010083819 0.017287668 -0.042813823
0.09661942 -0.020465422 -0.08874179 -0.050360296 -0.018715272 -0.11850466 -0.018912014 -0.031591848
0.023629975 0.013575039 -0.06410009 -0.026832394 -0.0849618 0.049641915 -0.07446846 -0.019776417
0.11207486 0.0014940287 -0.08663295 0.0030000294 0.030216672 0.0771178 0.0194126 -0.020892957
-0.023377843 -0.027027449 0.047179606 0.05815948 -0.032051064 0.020586263 0.07080494 -0.04544653
0.022366583 -0.060611974 0.011825796 -0.08496375 -0.07694429 -0.084916234 0.062058564 -0.023097822
0.004337446 0.055236 0.010094883 0.039920785 0.0009161426 -0.12074648 0.044181 -0.116909645
0.027236367 -0.03218014 -0.04970993 -0.05109366 0.07722989 -0.0017323935 -0.04958911 0.06375481
0.03805075 0.05322785 -0.06917743 -0.019876989 -0.060975034 -0.0066232574 0.063438 -0.06385743
-0.0016056186 0.036280442 0.01038596 0.02782917 -0.0693802 -0.030825062 0.050036304 0.065773994
0.085666694 -0.020064194 -0.017277686 -0.06255643 0.08073888 0.10258056 0.0022915981 -0.014476023
0.05306603 0.072791636 -0.081738524 -0.029735168 -0.055032227 -0.1025122 -0.004451884 -0.02408576
0.05606218 0.078172125 0.020570217 0.06029528 0.019228201 0.06805216 -0.049421832 -0.012355982
0.0026467347 0.10937852 0.048094157 0.012793851 0.09069857 -0.04114324 -0.029181138 -0.062857375
0.019769741 -0.010127455 0.009913235 0.0737316 0.062334847 0.07137082 0.099312104 -0.02120295
-0.010390434 0.07838472 0.023232443 0.030324677 0.007413436 -0.03897719 -0.09366223 0.030460078
-0.033180706 0.06134734 0.024719622 0.09666425 -0.011545527 0.05111824 -0.08921788 0.04100866
0.10120962 0.03890695 -0.09421105 -0.0044823214 -0.07442449 -0.012836349 -0.12375523 0.027093297
0.033489186 0.044335995 -0.08406979 -0.039346766 -0.10099032 0.04874779 0.039139908 -0.09936538
0.0314322 0.013065259 -0.11804632 -0.0021071408 -0.06644422 0.023613658 0.10853176 0.04416007
0.0032868271 -0.052286137 0.057501126 -0.13962334 -0.08044137 -0.013753453 -0.07247886 -0.014165135
-0.07077475 -0.028988596 -0.034018327 -0.024498215 -0.027590867 0.077880666 0.049694706 -0.05783119
0.055181555 0.010139235 -0.02650017 -0.054131225 -0.034458548 -0.0186874 -0.05891489 -0.007261695
0.076028414 -0.120986134 0.11996093 -0.101765394 0.02709004 -0.03221648 -0.08944706 0.05208502
0.11595708 0.013780349 -0.0650692 0.055069063 0.04460429 -0.019585142 0.053041555 0.08303565
-0.021620532 -0.050554603 -0.05891862 0.06624476 -0.10255138 -0.006760135 0.008664799 -0.047756396
0.061876874 -0.03707993 0.090743355 0.06331115 0.027042707 0.07119701 0.06590432 0.1011261
-0.10926301 0.118436195 0.017406903 0.025910014 -0.029062456 0.03829729 -0.08084388 0.033344343
-0.0047990973 -0.023430401 0.10314038 -0.0054678977 0.06113952 -0.05282391 0.0041389023 -0.13091561
0.035099916 0.06527345 -0.009523217 0.038236093 -0.030738218 0.05885523 0.033447754 -0.05359894
00000000: c9fe 52bd 9534 a13d f032 cdbd c8b0 993d
00000010: b10b de3c c7cc a13d 5d92 9ebc bec5 8fbd
00000020: 5ba2 b13d 2e23 a4bb 756c 06bd c666 bf3d
00000030: 1e83 29bc e335 c0bc b444 803d c737 c93d
00000040: da71 a6bc 1971 a83a 5cab 343d 28ba 18bd
00000050: ca2f a63d 9a36 253c de9e 8d3c 8c5d 2fbd
00000060: 67e0 c53d 1aa7 a7bc 41be b5bd 9946 4ebd
00000070: c550 99bc 92b2 f2bd 5eed 9abc 7466 01bd
00000080: a693 c13c d769 5e3c e846 83bd 9ccf dbbc
00000090: 7400 aebd 5255 4b3d ec82 98bd 2702 a2bc
000000a0: 8187 e53d 49d3 c33a 9e6c b1bd 249c 443b
000000b0: f488 f73c f0ef 9d3d 2c07 9f3c b527 abbc
000000c0: e482 bfbc ab68 ddbc 673f 413d a338 6e3d
000000d0: fa47 03bd 86a4 a83c 2e02 913d 2426 3abd
000000e0: 203a b73c 4344 78bd fcc0 413c 7901 aebd
000000f0: f894 9dbd 90e8 adbd 1f31 7e3d a537 bdbc
00000100: 2221 8e3b 253f 623d 0265 253c fa83 233d
00000110: 4a29 703a ee49 f7bd 23f7 343d 536e efbd
00000120: cd1e df3c 53cf 03bd a49c 4bbd 9647 51bd
00000130: b42a 9e3d 7b11 e3ba f31d 4bbd e291 823d
00000140: 1adb 1b3d 7205 5a3d e5ac 8dbd 11d5 a2bc
00000150: f5c0 79bd e907 d9bb c8eb 813d afc7 82bd
00000160: 9f73 d2ba cd9a 143d e029 2a3c 00fa e33c
00000170: 3517 8ebd d784 fcbc def2 4c3d 84b4 863d
00000180: 0572 af3d aa5d a4bc ef89 8dbc 961d 80bd
00000190: 6d5a a53d c215 d23d a32e 163b d72c 6dbc
000001a0: c45b 593d c813 953d 8766 a7bd 2b97 f3bc
000001b0: 7969 61bd ebf1 d1bd 1ce1 91bb 804f c5bc
000001c0: 75a1 653d b518 a03d df82 a83c 2ff8 763d
000001d0: 7684 9d3c ee5e 8b3d 8c6e 4abd bf70 4abc
000001e0: d774 2d3b d801 e03d 61fe 443d 4d9d 513c
000001f0: 2cc0 b93d d085 28bd 480d efbc 5ebb 80bd
00000200: 27f4 a13c a0ed 25bc 1f6b 223c 9800 973d
00000210: d352 7f3d dd2a 923d 2564 cb3d cfb1 adbc
00000220: a43c 2abc 2b88 a03d f751 be3c 756b f83c
00000230: 69ec f23b 8ca6 1fbd fcd1 bfbd 6a87 f93c
00000240: 7ee8 07bd 5947 7b3d ce80 ca3c e8f7 c53d
00000250: 7329 3dbc 5c61 513d ddb7 b6bd b2f8 273d
00000260: fd46 cf3d e55c 1f3d b9f1 c0bd 70e0 92bb
00000270: de6b 98bd 8d4f 52bc 6273 fdbd c3f2 dd3c
00000280: f52b 093d a999 353d c82c acbd 132a 21bd
00000290: 03d4 cebd c3ab 473d 2b51 203d 1480 cbbd
000002a0: 0dbf 003d ab0f 563c 45c2 f1bd f517 0abb
000002b0: e813 88bd 6e71 c13c e645 de3d 31e1 343d
000002c0: cf67 573b fd29 56bd 4d86 6b3d 6cf9 0ebe
000002d0: 72be a4bd 2a56 61bc cc6f 94bd e214 68bc
000002e0: 5af2 90bd 7e79 edbc cd56 0bbd 7bb0 c8bc
000002f0: 3e06 e2bc e67f 9f3d ad8c 4b3d 66e0 6cbd
00000300: 0e06 623d 091f 263c e216 d9bc b4b8 5dbd
00000310: 6824 0dbd 5116 99bc bd50 71bd 83f3 edbb
00000320: c9b4 9b3d 94c7 f7bd 13ae f53d 606a d0bd
00000330: eeeb dd3c 6df5 03bd 0530 b7bd 1a57 553d
00000340: e87a ed3d f9c6 613c 0043 85bd 1990 613d
00000350: fdb2 363d 0571 a0bc 1a42 593d 980e aa3d
00000360: 8b1d b1bc 5812 4fbd a754 71bd 55ab 873d
00000370: 7506 d2bd 1f84 ddbb cdf6 0d3c 369c 43bd
00000380: 9b72 7d3d 20e1 17bd a7d7 b93d 47a9 813d
00000390: ab88 dd3c bdcf 913d d8f8 863d 331b cf3d
000003a0: 49c5 dfbd ad8e f23d ec98 8e3c 3d41 d43c
000003b0: 6314 eebc 9fdd 1c3d 7a91 a5bd 1494 083d
000003c0: bf41 9dbb 1df1 bfbc 433b d33d 0d2c b3bb
000003d0: 6f6d 7a3d e25d 58bd a19f 873b be0e 06be
000003e0: eec4 0f3d 16ae 853d 4407 1cbc 739d 1c3d
000003f0: b7ce fbbc 2f12 713d 8300 093d 908a 5bbd

lstm.bias_ih_l0 f4 [512]
0.091893606 0.13564065 -0.015880916 0.07420144 0.09186807 0.074893944 0.12309941 0.0024700616
-0.016014768 0.0022662345 0.07319475 0.06030872 0.056097627 0.09452878 0.042034265 0.11213131
0.08279743 0.11623077 0.10317174 0.01948162 0.06515873 0.115999475 0.09495629 -0.05036061
0.09163173 -0.02971762 -0.0006745201 0.073040195 -0.017843066 0.011662117 0.054362435 0.029835789
0.075313665 0.05839618 0.0014301607 0.031473495 0.078636125 0.017434955 0.08758016 0.072457075
0.036674287 0.0766729 0.13592848 0.053505152 0.049923744 -0.0036808273 0.066765636 0.017224375
0.0712409 -0.021222252 0.09164918 0.023396794 0.02118496 0.05702285 0.11949739 0.10184054
0.1067328 0.06003487 -0.019659355 0.1475156 0.12217514 -0.03623635 0.022274911 0.1437508
-0.012101734 0.046618342 0.079050936 -0.038146164 -0.029779254 0.017016314 -0.0056459084 -0.016287385
0.08609741 0.09166831 -0.050674487 -0.065246835 0.079220876 0.046416003 -0.01518593 0.081407666
0.11510799 0.12105784 0.106369294 0.083824076 -0.04514995 0.01330121 -0.012622477 0.001408688
-0.026531981 0.071948566 -0.016434304 -0.032398958 0.01161499 0.07388096 0.0872132 0.1165772
0.0193876 -0.014794436 -0.04122442 0.09445584 0.06403921 0.09842897 0.063033655 0.034583833
-0.026683627 -0.0053739725 -0.023571549 0.055749223 -0.055304628 0.057669956 0.114368744 0.07518892
0.054861553 -0.013857184 0.0028674952 0.057986528 0.039325338 0.1251934 0.012612786 0.027071303
0.008696507 0.101691365 0.03629961 0.06336755 0.040642336 0.010292238 0.10067785 0.032748282
0.06135888 -0.0024755388 -0.03588773 0.07243001 0.02346703 -0.041515123 0.001309005 0.11175614
-0.011621318 0.113747075 0.0982674 0.021992508 -0.02896868 -0.022746747 0.046454474 -0.06438947
0.025467927 -0.0315927 0.057535153 -0.012504245 0.008247757 2.7765649e-05 -0.013083504 0.082700014
0.029565329 0.03784614 -0.029383527 0.056485396 0.08801578 0.025734162 -0.02650247 0.11001716
-0.011760379 -0.04912836 -0.038787622 0.09661338 0.074111484 0.1348543 -0.07619032 0.007745238
0.0071525336 0.041041706 0.10053525 0.054699708 0.11363058 -0.0021193074 0.00047598378 0.08055534
0.10290853 -0.051005904 0.0141112795 0.09965591 -0.061145093 0.010736839 -0.026591072 -0.022883648
-0.042135037 -0.052657764 0.04564133 -0.06684739 -0.066107914 -0.016368654 0.031867877 0.007947199
0.009050478 -0.009271272 -0.06443712 0.11135981 0.042504683 -0.0057305708 -0.06139712 0.048063505
-0.06122385 0.08557465 0.08361136 -0.06809609 -0.01723821 0.06577916 0.03901825 0.0320443
0.008911641 0.009244447 -0.05520097 -0.026449272 0.072373144 0.021946562 0.03581793 0.048388466
-0.07479584 0.092245 0.06381508 -0.0055242423 -0.0509489 0.035655476 -0.008132558 0.1025598
0.01772615 0.055067047 0.026982265 0.050200578 0.04824829 -0.03344963 0.006996216 -0.029720139
0.08078858 0.0942085 0.034207728 -0.037024543 -0.033292815 0.10630603 0.10039231 0.0028614774
0.047548518 0.108002156 0.070951566 0.018796733 0.04224147 0.036774367 -0.04627815 0.021981698
0.099943735 0.08432889 -0.0015828214 0.057334673 -0.023214154 0.0640372 -0.050574657 0.03480393
00000000: b732 bc3d 62e5 0a3e b218 82bc edf6 973d
00000010: 5425 bc3d ff61 993d 8b1b fc3d c2e0 213b
00000020: 6731 83bc 1b85 143b 21e7 953d 4706 773d
00000030: a0c6 653d 4e98 c13d 1f2c 2c3d 1aa5 e53d
00000040: b391 a93d 660a ee3d b54b d33d eb97 9f3c
00000050: f171 853d 2291 ed3d 7278 c23d ed46 4ebd
00000060: 6ba9 bb3d 5e72 f3bc 47d2 30ba 1996 953d
00000070: 9f2b 92bc 7712 3f3c 25ab 5e3d 2f6a f43c
00000080: 0d3e 9a3d d530 6f3d 3b74 bb3a 5aea 003d
00000090: fa0b a13d c0d3 8e3c 3a5d b33d 6064 943d
000000a0: c737 163d ae06 9d3d d630 0b3e 3828 5b3d
000000b0: d77c 4c3d 093a 71bb 6cbc 883d 221a 8d3c
000000c0: c0e6 913d 4ada adbc 91b2 bb3d a2aa bf3c
000000d0: 158c ad3c cb90 693d 0cbb f43d c691 d03d
000000e0: ba96 da3d 20e7 753d a80c a1bc 540e 173e
000000f0: f636 fa3d 916c 14bd e079 b63c 6933 133e
00000100: 5a46 46bc e0f2 3e3d 75e5 a13d 273f 1cbd
00000110: 9ff3 f3bc cc65 8b3c 5001 b9bb 1f6d 85bc
00000120: d753 b03d 98bc bb3d 0d90 4fbd 22a0 85bd
00000130: 8e3e a23d b51e 3e3d 68ce 78bc 10b9 a63d
00000140: bdbd eb3d 2ced f73d 25d8 d93d f5ab ab3d
00000150: 27ef 38bd 51ed 593c 81ce 4ebc baa3 b83a
00000160: 9959 d9bc c559 933d 3ca1 86bc c5b4 04bd
00000170: cd4c 3e3c e74e 973d d69c b23d 07c0 ee3d
00000180: bed2 9e3c 5d64 72bc f0da 28bd 1072 c13d
00000190: fd26 833d 2195 c93d ca17 813d c7a7 0d3d
000001a0: 9f97 dabc 2618 b0bb 1f19 c1bc 4c59 643d
000001b0: 1b87 62bd 5537 6c3d 293a ea3d a6fc 993d
000001c0: 82b6 603d 3e09 63bc 96ec 3b3b 4883 6d3d
000001d0: 9b13 213d b332 003e dca5 4e3c a3c4 dd3c
000001e0: cb7b 0e3c 9043 d03d e6ae 143d d9c6 813d
000001f0: 9478 263d c6a0 283c 3030 ce3d 1023 063d
00000200: 7353 7b3d a63c 22bb 03ff 12bd 2f56 943d
00000210: ee3d c03c c30b 2abd eb92 ab3a 67e0 e43d
00000220: 5767 3ebc 3af4 e83d 6b40 c93d a229 b43c
00000230: ba4f edbc 6357 babc 0c47 3e3d a0de 83bd
00000240: 1da2 d03c 5967 01bd fba9 6b3d 9bde 4cbc
00000250: 9a21 073c 47ea e837 315c 56bc a05e a93d
00000260: fd32 f23c 8e04 1b3d b9b5 f0bc 3b5d 673d
00000270: 9e41 b43d 73d0 d23c b51b d9bc ad50 e13d
00000280: 9bae 40bc d23a 49bd c5df 1ebd 3cdd c53d
00000290: c3c7 973d 3f17 0a3e ac09 9cbd c4cb fd3b
000002a0: cd5f ea3b 591b 283d 6de5 cd3d cd0c 603d
000002b0: 26b7 e83d 14e4 0abb 768d f939 33fa a43d
000002c0: b5c1 d23d 91eb 50bd ff32 673c 6618 cc3d
000002d0: 4773 7abd 91e9 2f3c 85d5 d9bc 7d76 bbbc
000002e0: ca95 2cbd abaf 57bd 67f2 3a3d 49e7 88bd
000002f0: 9663 87bd 8e17 86bc e487 023d f834 023c
00000300: 7548 143c 89e6 17bc 9cf7 83bd 9d10 e43d
00000310: 6419 2e3d 83c7 bbbb 8c7b 7bbd 3dde 443d
00000320: dcc5 7abd c341 af3d 6f3c ab3d f675 8bbd
00000330: 2637 8dbc 39b7 863d 9ad1 1f3d e240 033d
00000340: 2202 123c 0576 173c 6a1a 62bd 25ac d8bc
00000350: 5f38 943d 47c9 b33c d2b5 123d fc32 463d
00000360: 902e 99bd f2ea bc3d 7bb1 823d b404 b5bb
00000370: cbaf 50bd 7a0b 123d 6c3e 05bc df0a d23d
00000380: 6e36 913c fc8d 613d e909 dd3c 1f9f 4d3d
00000390: 00a0 453d 7b02 09bd 8340 e53b a677 f3bc
000003a0: 7c74 a53d 63f0 c03d 671d 0c3d 0ca7 17bd
000003b0: 0c5e 08bd fab6 d93d 7c9a cd3d a087 3b3b
000003c0: 3cc2 423d 3c30 dd3d 0e4f 913d 9bfb 993c
000003d0: 6405 2d3d b8a0 163d 288e 3dbd f612 b43c
000003e0: 4daf cc3d a0b4 ac3d ac76 cfba c3d7 6a3d
000003f0: 9c2b bebc ef25 833d 5f27 4fbd 918e 0e3d

lstm.bias_hh_l0 f4 [512]
-0.041544314 0.03937923 0.109112315 0.08767889 0.0907104 -0.02663408 -0.0010413106 0.13098861
0.00042030032 0.06744106 -0.01885102 -0.0089227855 0.0063397083 -0.050547156 0.06636574 0.15334393
0.07711057 -0.015699225 0.05236526 0.03908904 -0.029816194 0.08532362 -0.014579377 -0.0044299453
-0.0008025913 0.0048112413 -0.023530118 0.010557574 -0.017586244 0.09388338 0.08158198 0.043314014
0.027040984 -0.021991858 0.12539038 0.073945455 0.16710216 0.024190659 0.046290047 0.028254218
0.04400214 -0.023162344 0.13939686 0.084597036 0.04939162 0.11777017 0.009571268 0.007602175
0.046978496 0.035989355 0.047914702 0.11608228 0.016359203 0.081062816 0.046273693 0.012722344
0.09680161 0.08739904 0.077281795 0.046088494 0.029373145 0.108275644 0.0764717 0.014606763
0.063246496 0.004073241 0.051702812 0.028756084 -0.028941942 0.13628201 0.015991297 0.08485292
0.102218665 0.12305479 -0.029296163 0.037834134 0.052250825 0.056674533 0.110608846 0.0050656386
-0.0042165667 0.07739336 0.051657073 0.069318734 0.018441772 -0.02212217 -0.013844809 -0.017531926
-0.017485145 0.06781457 -0.032297257 -0.025176441 0.070408404 -0.013696006 0.006013862 0.101202056
0.07334303 0.09010972 0.032669317 0.02734012 0.11027788 0.014017179 0.13940002 0.0767648
-0.0050931745 -0.030988485 -0.021375535 0.07207339 0.053702544 0.08825268 0.086513914 -0.03568668
0.017458962 0.12029625 0.112151824 0.076221965 0.034423135 -0.027846577 0.024725946 0.07925052
0.14491004 0.06890353 -0.019932821 -0.029389402 0.07594458 0.08764357 0.02097601 -0.036019053
-0.03752019 0.060844637 0.0014942376 0.06951606 -0.046493053 -0.010229706 0.088176094 -0.012423526
0.017005533 0.036157787 0.1167588 0.045669712 -0.043763187 0.04541024 -0.011322577 0.0977046
0.040019907 -0.062487114 0.0098421825 -0.045816585 0.034575008 -0.020226687 -0.08712308 0.09596574
-0.025030665 0.016821625 -0.029984703 -0.01915349 -0.05443968 -0.01919526 0.039349392 0.12335473
-0.08237181 0.0032728584 0.031041346 -0.023941891 0.11297478 0.105280735 -0.023998618 0.09595251
0.04395291 -0.031552102 -0.012541156 -0.039644748 0.009492823 0.06520236 0.0049476423 0.0935681
0.012061316 -0.021811709 0.074458905 0.03725505 0.007471765 -0.013089451 0.041592393 -0.018878704
-0.07993905 -0.05458078 0.040408835 -0.073157616 -0.060686283 -0.028918618 0.008198809 0.10074083
-0.032387596 -0.08405691 -0.0021249314 0.08538354 0.05804161 0.046400156 -0.06548149 0.105390325
-0.056802068 0.049085468 -0.035283137 -0.056376353 0.082012735 -0.026107512 0.07464762 -0.027690006
-0.065605044 0.03117677 0.073714465 0.005255549 0.00883236 0.07616104 0.030101556 -0.058913462
-0.0125479605 -0.012969588 -0.07388238 -0.04037572 0.05058883 0.112018526 0.0016211091 -0.042659264
0.019722035 0.012064754 -0.064520255 0.044350445 -0.021614406 -0.0006335325 -0.013257986 -0.02071987
0.07496102 0.016043909 -0.03068757 -0.042666845 -0.021365311 0.07223401 0.08761383 0.02695676
-0.010839471 0.07091738 -0.007032752 -0.07220713 -0.038029406 -0.04398974 0.031328835 -0.04743844
0.035899293 -0.01928575 -0.030000161 0.1054597 0.10199722 0.013096849 0.033432167 -0.05722056
00000000: 5f2a 2abd 1e4c 213d 4776 df3d fd90 b33d
00000010: 60c6 b93d b72f dabc 967c 88ba e121 063e
00000020: c15b dc39 8a1e 8a3d 746d 9abc e030 12bc
00000030: 54bd cf3b 890a 4fbd c3ea 873d 3106 1d3e
00000040: 26ec 9d3d a99b 80bc f47c 563d d41b 203d
00000050: 1741 f4bc 26be ae3d 57de 6ebc 1329 91bb
00000060: fe64 52ba 9ea7 9d3b 3cc2 c0bc adf9 2c3c
00000070: 0711 90bc ee45 c03d 7414 a73d 096a 313d
00000080: 0e85 dd3c 4528 b4bc 5666 003e b770 973d
00000090: d41c 2b3e 7d2b c63c a29a 3d3d 6475 e73c
000000a0: 973b 343d f5be bdbc 0dbe 0e3e 3641 ad3d
000000b0: de4e 4a3d 7d31 f13d cfd0 1c3c ab1b f93b
000000c0: 866c 403d 9369 133d 3542 443d 8cbc ed3d
000000d0: bc03 863c 4304 a63d 7c89 3d3d 6171 503c
000000e0: ec3f c63d 45fe b23d eb45 9e3d 4ac7 3c3d
000000f0: f39f f03c 9fbf dd3d 329d 9c3d 3451 6f3c
00000100: 6187 813d d278 853b 54c6 533d e191 eb3c
00000110: a717 edbc 838d 0b3e 2e00 833c 5ec7 ad3d
00000120: 0558 d13d 2604 fc3d 82fe efbc f7f7 1a3d
00000130: f604 563d 8e23 683d e486 e23d a8fd a53b
00000140: 202b 8abb 6980 9e3d 5e96 533d fbf6 8d3d
00000150: 3313 973c 8e39 b5bc 56d5 62bc 1d9f 8fbc
00000160: 023d 8fbc 5ee2 8a3d 214a 04bd d33e cebc
00000170: 4832 903d 3665 60bc ee0f c53b 0643 cf3d
00000180: df34 963d 728b b83d 43d0 053d 63f8 df3c
00000190: 5fd9 e13d 4fa8 653c e1be 0e3e dd36 9d3d
000001a0: a5e4 a6bb 90db fdbc bf1b afbc 379b 933d
000001b0: 33f7 5b3d d2bd b43d 352e b13d 322c 12bd
000001c0: 1906 8f3c e15d f63d dbaf e53d 431a 9c3d
000001d0: 46ff 0c3d 811e e4bc 118e ca3c 194e a23d
000001e0: 4c63 143e 4b1d 8d3d 284a a3bc 0bc2 f0bc
000001f0: d588 9b3d 797e b33d e2d5 ab3c b788 13bd
00000200: c5ae 19bd 3a38 793d 4bda c33a 705e 8e3d
00000210: 806f 3ebd 7f9a 27bc ab95 b43d 0b8c 4bbc
00000220: 304f 8b3c 301a 143d 3d1f ef3d 2a10 3b3d
00000230: 0741 33bd 1600 3a3d 5482 39bc 5919 c83d
00000240: eaeb 233d 7df2 7fbd 1b41 213c 2caa 3bbd
00000250: 869e 0d3d 70b2 a5bc 966d b2bd b089 c43d
00000260: 1c0d cdbc 81cd 893c 7ba2 f5bc c8e7 9cbc
00000270: 24fc 5ebd 613f 9dbc d42c 213d 68a1 fc3d
00000280: 8db2 a8bd 747d 563b 6c4a fe3c c921 c4bc
00000290: 525f e73d 6d9d d73d c098 c4bc c082 c43d
000002a0: f707 343d c73c 01bd 6c79 4dbc 8862 22bd
000002b0: c987 1b3c d188 853d d51f a23b a2a0 bf3d
000002c0: d39c 453c 78ae b2bc e97d 983d c098 183d
000002d0: b5d5 f43b 2375 56bc c95c 2a3d 83a7 9abc
000002e0: 16b7 a3bd 1990 5fbd bc83 253d a9d3 95bd
000002f0: 2e92 78bd bde6 ecbc 4c54 063c 3551 ce3d
00000300: dba8 04bd 0726 acbd 6f42 0bbb 91dd ae3d
00000310: 0abd 6d3d 170e 3e3d 291b 86bd e2d6 d73d
00000320: 49a9 68bd d80d 493d 0d85 10bd e4ea 66bd
00000330: 4bf6 a73d 6cdf d5bc dae0 983d 27d6 e2bc
00000340: f05b 86bd 6d66 ff3c 9cf7 963d be36 ac3b
00000350: 9ab5 103c 52fa 9b3d 8a97 f63c 3e4f 71bd
00000360: f695 4dbc 657e 54bc a54f 97bd 0361 25bd
00000370: 3c36 4f3d f869 e53d 657b d43a 7bbb 2ebd
00000380: 1b90 a13c 3fab 453c 3223 84bd d0a8 353d
00000390: b210 b1bc a513 26ba 0638 59bc b8bc a9bc
000003a0: 2a85 993d 846e 833c 8064 fbbc 6ec3 2ebd
000003b0: 4e06 afbc 6def 933d e16e b33d 6cd4 dc3c
000003c0: 0998 31bc 223d 913d 0073 e6bb 55e1 93bd
000003d0: b9c4 1bbd 962e 34bd aa52 003d cf4e 42bd
000003e0: 230b 133d 26fd 9dbc e6c2 f5bc 41fb d73d
000003f0: ebe3 d03d 2b94 563c 2bf0 083d 1b60 6abd

mlp_head.0.weight f4 [64, 128]
-0.070397645 0.12843402 -0.074184805 -0.021023283 0.03330702 -0.025158782 0.034460545 -0.061421696
-0.030617965 -0.08282042 -0.02746971 0.092884496 -0.024403762 -0.025849849 -0.047411572 -0.03495313
-0.018817373 -0.020661172 -0.038883965 -0.033327807 0.012471323 -0.07836408 0.08137066 0.113783285
-0.087638915 -0.0042824396 -0.05753876 0.01717233 -0.073086865 0.07443497 0.024557041 -0.07322404
0.019883825 -0.05244169 -0.08444505 -0.05825407 0.0051883487 0.021200046 -0.06126022 -0.10734711
-0.006891781 -0.0064726816 -0.04228519 0.082492076 -0.11879643 0.0034701223 0.019092431 -0.035997957
-0.008154453 -0.043679126 0.09476119 -0.038038917 -0.0010841505 -0.07028679 -0.07455676 -0.14514591
0.029909246 -0.012959143 -0.039011266 0.09749782 0.07406053 -0.06609353 0.010040236 0.05412399
-0.008145145 -0.014421387 0.028666088 -0.070862874 0.019864101 -0.0332936 0.09712375 -0.09423529
0.10381304 -0.013937836 0.06874497 -0.07040296 0.023777457 -0.008501945 -0.0125301955 0.010606808
0.007975557 0.023379514 0.009958151 0.04243586 0.077609226 -0.00014102989 0.08356653 -0.0020233106
0.022407418 -0.049608335 0.08553912 -0.09139878 -0.122081965 0.023863543 -0.09103877 -0.006390078
-0.06870178 0.08468661 -0.016348882 0.0687903 0.040491827 -0.05159944 0.114341594 0.0902981
0.03721554 -0.08846532 -0.09665993 0.05276923 0.004262473 -0.10903206 -0.023169113 0.055335745
-0.050483167 0.057665564 0.016232908 0.04865258 -0.055684604 -0.012548397 -0.05928683 -0.03841182
-0.05139715 0.07844504 0.019411981 -0.08009811 0.039723236 -0.047983482 -0.05012466 0.075128384
0.016354045 0.01874595 0.04578715 0.04173599 0.080653146 0.061108533 0.08872673 0.11024933
0.03799008 -0.01606897 -0.022342842 -0.009145735 0.039271794 0.012249446 -0.07778175 -0.05385008
0.05698132 -0.035157435 0.07831111 0.01529219 0.0686689 -0.071193464 -0.013972665 -0.023463437
-0.022379795 -0.039129928 0.038598657 -0.07284185 -0.0893141 -0.06667809 -0.016165422 -0.08899327
-0.053230926 -0.04145231 0.0024546233 -0.08417612 -0.03122288 0.04570342 -0.054980397 -0.062440947
-0.011445855 0.042768806 -0.07254168 0.008261217 0.06825539 0.0749553 -0.01010673 0.10331601
-0.032573204 -0.06292711 0.01631598 0.039929107 0.06649081 -0.10892985 -0.03917343 0.013846497
-0.053416826 0.051209353 -0.11516849 0.08106209 -0.0062083015 -0.06835259 0.08588496 0.025461039
-0.009345184 0.07098528 0.030252803 -0.04806909 -0.059016705 -0.038215693 0.0061971913 0.055011667
0.04590954 -0.03363639 0.041753724 -0.06911117 -0.015780613 0.110978164 -0.015524817 0.008144148
0.027004115 0.053754695 0.018923812 0.09011521 0.08824814 -0.052737307 0.04373739 -0.024144674
0.051034227 -0.06762168 0.09500678 0.042350717 -0.01088525 0.059160776 0.032881647 -0.07953859
0.10280331 0.0485919 -0.038605735 0.07997373 -0.032350484 0.062873095 -0.047986656 0.041696563
0.0009371494 0.047094125 -0.050925173 0.025957238 -0.077259794 -0.007231085 -0.013045332 0.051612623
0.09101127 -0.0012013467 -0.03528758 0.07272939 0.05984274 -0.043024 0.014098885 -0.10043132
0.101028256 0.10972041 -0.026259162 0.0063711926 0.0638251 0.03497952 0.0967566 0.02132003
00000000: a42c 90bd 3584 033e 34ee 97bd 0539 acbc
00000010: f16c 083d ca19 cebc 8026 0d3d 5195 7bbd
00000020: 87d2 fabc c19d a9bd 2808 e1bc 3a3a be3d
00000030: 66ea c7bc 10c3 d3bc a332 42bd 032b 0fbd
00000040: e426 9abc 9e41 a9bc cb44 1fbd bd82 08bd
00000050: 8554 4c3c 597d a0bd a9a5 a63d 3607 e93d
00000060: 087c b3bd b553 8cbb c3ad 6bbd fcac 8c3c
00000070: 91ae 95bd 5d71 983d d92b c93c 7cf6 95bd
00000080: 67e3 a23c 19cd 56bd 87f1 acbd d29b 6ebd
00000090: 0603 aa3b b8ab ad3c ffeb 7abd cdd8 dbbd
000000a0: 73d4 e1bb ca18 d4bb 3c33 2dbd 9bf1 a83d
000000b0: 8b4b f3bd fe6a 633b bb67 9c3c 9872 13bd
000000c0: 419a 05bc e2e8 32bd 2812 c23d b2ce 1bbd
000000d0: 0e1a 8eba 85f2 8fbd 37b1 98bd 21a1 14be
000000e0: 3c04 f53c 9652 54bc 47ca 1fbd f0ac c73d
000000f0: 0cad 973d 0b5c 87bd cd7f 243c 1eb1 5d3d
00000100: 3773 05bc ae47 6cbc 25d5 ea3c 8e20 91bd
00000110: 0aba a23c df5e 08bd d1e8 c63d 6ffe c0bd
00000120: ee9b d43d 855b 64bc 2aca 8c3d 6d2f 90bd
00000130: f1c8 c23c be4b 0bbc 734b 4dbc 2dc8 2d3c
00000140: e9ab 023c 6586 bf3c 8327 233c 39d1 2d3d
00000150: 96f1 9e3d 6ce1 13b9 ee24 ab3d 8599 04bb
00000160: c38f b73c 1c32 4bbd 222f af3d 492f bbbd
00000170: 1c06 fabd 7a7d c33c 8972 babd dc63 d1bb
00000180: 85b3 8cbd 2c70 ad3d 17ee 85bc eee1 8c3d
00000190: c2da 253d ef59 53bd ed2b ea3d 36ee b83d
000001a0: 526f 183d 4e2d b5bd a4f5 c5bd 8c24 583d
000001b0: 37ac 8b3b 334c dfbd 27cd bdbc bca7 623d
000001c0: 70c7 4ebd ba32 6c3d e0fa 843c ed47 473d
000001d0: 8a15 64bd cb97 4dbc bfd6 72bd b655 1dbd
000001e0: d185 52bd cba7 a03d e005 9f3c 7a0a a4bd
000001f0: d5b4 223d 548a 44bd 844f 4dbd e9dc 993d
00000200: ebf8 853c 1b91 993c 4e8b 3b3d 5cf3 2a3d
00000210: 7a2d a53d f14c 7a3d 5cb6 b53d 67ca e13d
00000220: 7c9b 1b3d 13a3 83bc 5608 b7bc fed7 15bc
00000230: 76db 203d e6b1 483c 0a4c 9fbd e791 5cbd
00000240: 3f65 693d 3e01 10bd 9361 a03d 188c 7a3c
00000250: 48a2 8c3d e1cd 91bd 9bed 64bc 6536 c0bc
00000260: d555 b7bc b446 20bd a019 1e3d 1c2e 95bd
00000270: 50ea b6bd 868e 88bd 596d 84bc 1b42 b6bd
00000280: ac08 5abd e6c9 29bd bfdd 203b 8864 acbd
00000290: 20c7 ffbc 8233 3b3d 2033 61bd 14c2 7fbd
000002a0: 6587 3bbc 582e 2f3d bb90 94bd 0e5a 073c
000002b0: 7bc9 8b3d 2a82 993d b396 25bc 5897 d33d
000002c0: 7b6b 05bd eedf 80bd 17a9 853c b48c 233d
000002d0: 552c 883d 9d16 dfbd 5274 20bd 6bdc 623c
000002e0: 9acb 5abd e6c0 513d 75dd ebbd e203 a63d
000002f0: 026f cbbb 71fc 8bbd 74e4 af3d ab93 d03c
00000300: 8b1c 19bc bb60 913d bad4 f73c 18e4 44bd
00000310: 80bb 71bd 0f88 1cbd cf11 cb3b ea53 613d
00000320: a40b 3c3d 50c6 09bd f405 2b3d 288a 8dbd
00000330: 5846 81bc 8548 e33d cd5b 7ebc 086f 053c
00000340: bc37 dd3c e22d 5c3d 1c06 9b3c 538e b83d
00000350: 71bb b43d 1303 58bd fa25 333d 0dcb c5bc
00000360: 4409 513d 3c7d 8abd ea92 c23d f277 2d3d
00000370: 0c58 32bc 9252 723d e8ae 063d 21e5 a2bd
00000380: 8b8a d23d 4d08 473d 0c21 1ebd 44c9 a33d
00000390: f181 04bd 9cc3 803d a88d 44bd 04ca 2a3d
000003a0: 08ab 753a c5e5 403d ea96 50bd 46a4 d43c
000003b0: 623a 9ebd bdf2 ecbb 17bc 55bc c267 533d
000003c0: 1e64 ba3d 8276 9dba b689 10bd 25f3 943d
000003d0: a91d 753d ef39 30bd 02ff 663c f0ae cdbd
000003e0: e7e7 ce3d 18b5 e03d 741d d7bc 70c5 d03b
000003f0: bcb6 823d af46 0f3d 5328 c63d 58a7 ae3c

mlp_head.0.bias f4 [64]
0.11742461 0.062006157 0.05987533 -0.06674261 0.08451551 0.06254338 0.028857589 0.06838647
0.0074889576 0.06497972 -0.0636977 -0.07855904 -0.035994608 0.017942913 0.10293625 -0.0033601928
-0.025485188 -0.031596247 -0.022472909 -0.008846572 -0.052823894 -0.019404795 -0.05489013 -0.0054859873
0.10328001 -0.037221204 0.0684232 -0.06649729 0.048556186 -0.036111962 -0.012761108 0.06659127
0.025874363 -0.04048369 0.052509625 0.04639402 0.08525552 0.08303787 -0.029971786 0.1154004
0.015483574 0.041147605 -0.039300084 0.031014478 -0.05666122 -0.0033250467 0.0566151 -0.054208044
0.11074136 0.04321342 0.0028052428 0.017927984 0.036157887 -0.080316074 0.01472313 -0.028478846
0.07080424 -0.0057009086 -0.043787714 -0.028960364 0.095085025 -0.026054313 0.1145041 0.09559552
00000000: 507c f03d 2bfa 7d3d d63f 753d 59b0 88bd
00000010: 7816 ad3d be16 803d c066 ec3c 350e 8c3d
00000020: ee65 f53b 1614 853d f173 82bd 90e3 a0bd
00000030: 156f 13bd 04fd 923c 3ed0 d23d ae36 5cbb
00000040: 50c6 d0bc 116b 01bd 1b19 b8bc 36f1 10bc
00000050: de5d 58bd cef6 9ebc 79d4 60bd ccc3 b3bb
00000060: 7884 d33d 4375 18bd 7621 8c3d bb2f 88bd
00000070: dae2 463d 23ea 13bd f713 51bc 0161 883d
00000080: 79f6 d33c 3ad2 25bd 5514 573d a807 3e3d
00000090: 729a ae3d c20f aa3d 6487 f5bc 0b57 ec3d
000000a0: d1ae 7d3c 648a 283d 20f9 20bd 1312 fe3c
000000b0: 9815 68bd 07e9 59bb 3ce5 673d 4109 5ebd
000000c0: 5ecc e23d 8e00 313d 2ad8 373b b5dd 923c
000000d0: 4b1a 143d c17c a4bd 4839 713c 784c e9bc
000000e0: d001 913d b0ce babb bf5a 33bd 493e edbc
000000f0: f0bb c23d db6f d5bc 2081 ea3d 96c7 c33d

mlp_head.2.weight f4 [64, 64]
0.07973682 -0.049499556 0.06001618 0.0115686245 0.076768875 -0.098020256 -0.00059898174 0.08129225
-0.018748144 0.08146714 0.023450349 -0.03451905 -0.028499033 0.019585159 -0.049806524 -0.076075725
-0.033717625 -0.12955716 0.017913336 -0.076244704 0.06611195 0.079610296 -0.050164156 -0.064116314
-0.090210065 0.10628369 0.012592559 -0.024113793 0.0057677296 0.09263439 -0.046445437 -0.031300724
0.14566962 -0.097561166 -0.017675312 0.07597809 0.01775456 0.076625496 -0.008135836 0.05021704
0.115186356 -0.13389026 0.06389331 0.06443774 -0.11064053 -0.08778493 0.03159522 -0.058257874
-0.05359031 0.068221666 0.13861045 -0.008240979 -0.033730365 0.08154249 0.09063422 -0.09390993
-0.05225281 -0.021566283 0.11591888 0.021382809 -0.057364043 -0.008666819 0.05487831 0.044937566
0.08295384 -0.05124706 -0.01758026 0.16040157 0.11669058 0.029078044 0.06496688 0.042300347
-0.023478677 0.114834934 0.08795224 -0.049458835 -0.08844162 0.10070004 0.030262766 0.08661179
0.030551922 0.046793494 0.111185975 0.13085912 0.09102859 0.13572612 -0.12935646 -0.010895114
0.014627241 0.0628302 -0.08116293 0.16249335 -0.105594546 -0.06297757 -0.03578671 0.030939551
-0.05912671 -0.074975796 0.046947867 0.1545333 -0.013147293 0.12361537 0.1674858 0.08514226
0.088003285 0.029200604 -0.005154417 -0.06417845 -0.1463221 0.08144629 0.1401301 0.03730127
-0.09119439 -0.003816383 0.07856328 -0.02890806 0.09897558 -0.07401037 0.04835253 0.079990424
0.079725504 -0.057691354 0.09366879 0.0743917 -0.036736943 -0.04134926 -0.07543674 -0.023496337
0.03137253 0.04091381 -0.016809225 0.079374075 0.093523525 -0.09235804 0.028854722 -0.102267355
0.0726308 -0.05718213 -0.07689439 0.009708598 -0.019197086 0.037195005 -0.07952189 -0.114155635
-0.09073671 0.0760938 -0.100571 -0.037817277 0.03844523 -0.057479978 -0.033903465 0.06545627
-0.035051245 -0.039337993 0.109473445 -0.040802736 0.052951273 0.027843377 -0.029021677 0.09342343
0.089086935 0.028838934 -0.03819225 0.100877605 -0.053474844 -0.07917388 0.07648165 0.107790165
-0.039783474 -0.061456468 0.1192297 0.0029801563 -0.073795944 -0.016635066 0.02606176 -0.08991263
0.086937666 0.02692298 -0.06112652 -0.029655995 -0.12117699 0.061644718 -0.106385484 -0.09255201
0.10756944 -0.090954244 0.008350976 -0.09966832 0.05624523 0.081494816 -0.04030247 -0.030000767
-0.01798724 0.11131368 0.024601478 0.03850301 0.1408025 -0.11907347 0.04979019 0.07216654
0.056661975 0.028493453 0.04345041 -0.018722346 -0.13169982 0.04271877 -0.053223666 -0.08089285
0.0143441465 -0.027056552 0.08540475 -0.03725904 -0.014153625 -0.048102837 -0.17325005 -0.039292905
-0.038765114 0.06937912 0.15914619 0.0871141 0.059042323 0.121275865 -0.058052704 0.14885329
0.04993859 0.062461868 0.14853218 0.1243913 -0.11331579 -0.08702408 -0.04639407 0.072791204
0.014251943 0.005969456 -0.1065885 0.08600227 -0.10092222 -0.008326475 -0.0008057417 0.110233314
-0.06573134 0.14153764 0.13723657 -0.15692316 0.061114933 0.19616935 0.028933164 0.016552093
0.09098287 0.029155837 0.09116291 0.035021365 -0.14290507 -0.001708417 0.09126005 0.05534373
00000000: 0f4d a33d 0cc0 4abd 87d3 753d 548a 3d3c
00000010: 0039 9d3d d8be c8bd fc04 1dba 8d7c a63d
00000020: b595 99bc 3ed8 a63d f21a c03c d963 0dbd
00000030: ce76 e9bc 0e71 a03c ed01 4cbd 97cd 9bbd
00000040: 7e1b 0abd a2aa 04be fdbe 923c 2f26 9cbd
00000050: b465 873d b90a a33d ee78 4dbd 6a4f 83bd
00000060: 0ec0 b8bd 43ab d93d 0551 4e3c 4a8a c5bc
00000070: 39ff bc3b 19b7 bd3d 923d 3ebd 3035 00bd
00000080: 6b2a 153e 26ce c7bd d1cb 90bc 679a 9b3d
00000090: 0372 913c d4ed 9c3d 2b4c 05bc 62b0 4d3d
000000a0: d3e6 eb3d 871a 09be 7fda 823d eff7 833d
000000b0: 8197 e2bd 96c8 b3bd fd69 013d cf9f 6ebd
000000c0: 8381 5bbd cdb7 8b3d e6ef 0d3e 2c05 07bc
000000d0: da28 0abd c0ff a63d 6f9e b93d d953 c0bd
000000e0: 0b07 56bd c6ab b0bc e166 ed3d 002b af3c
000000f0: 8ff6 6abd 46ff 0dbc 14c8 603d 7410 383d
00000100: b4e3 a93d 70e8 51bd 7a04 90bc 4f40 243e
00000110: 79fb ee3d 1435 ee3c 5b0d 853d 2143 2d3d
00000120: 5b56 c0bc 942e eb3d 4e20 b43d 5995 4abd
00000130: e120 b5bd d33b ce3d 9fe9 f73c 8661 b13d
00000140: 0648 fa3c 89aa 3f3d 79b5 e33d efff 053e
00000150: 336d ba3d cafb 0a3e 0576 04be 6c81 32bc
00000160: 18a7 6f3c 1fad 803d c038 a6bd a864 263e
00000170: f441 d8bd 62fa 80bd 1695 12bd f174 fd3c
00000180: d92e 72bd e98c 99bd 684c 403d fa3d 1e3e
00000190: be67 57bc 0e2a fd3d 6681 2b3e 115f ae3d
000001a0: 113b b43d 1b36 ef3c 62e6 a8bb fe6f 83bd
000001b0: 76d5 15be 50cd a63d 447e 0f3e 37c9 183d
000001c0: 20c4 babd 481c 7abb c9e5 a03d 99d0 ecbc
000001d0: b5b3 ca3d c092 97bd 4d0d 463d 05d2 a33d
000001e0: 2047 a33d c54d 6cbd 6cd5 bf3d ad5a 983d
000001f0: 7a79 16bd d75d 29bd 947e 9abd 647b c0bc
00000200: 7b80 003d 3d95 273d 80b3 89bc e08e a23d
00000210: 4389 bf3d 3626 bdbd bd60 ec3c 8c71 d1bd
00000220: 75bf 943d cf37 6abd ce7a 9dbd d010 1f3c
00000230: 3543 9dbc ca59 183d 5fdc a2bd 6eca e9bd
00000240: 2bd4 b9bd 11d7 9b3d 2bf8 cdbd 4ae6 1abd
00000250: bf78 1d3d 2070 6bbd 5cde 0abd f00d 863d
00000260: e591 0fbd e020 21bd 9d33 e03d c520 27bd
00000270: 6fe3 583d cb17 e43c debe edbc c954 bf3d
00000280: 3673 b63d a13f ec3c 7a6f 1cbd eb98 ce3d
00000290: 7008 5bbd ea25 a2bd 69a2 9c3d 17c1 dc3d
000002a0: fff3 22bd c7b9 7bbd b32e f43d ba4e 433b
000002b0: 5422 97bd 4346 88bc 797f d53c 1d24 b8bd
000002c0: 600c b23d 958d dc3c cd5f 7abd 21f1 f2bc
000002d0: a42b f8bd 2c7f 7c3d a2e0 d9bd e98b bdbd
000002e0: 5e4d dc3d 3846 babd 88d2 083c e71e ccbd
000002f0: 6661 663d c1e6 a63d 3414 25bd 2bc4 f5bc
00000300: fa59 93bc 6df8 e33d 0a89 c93c 55b5 1d3d
00000310: 882e 103e cbdc f3bd ccf0 4b3d 0dcc 933d
00000320: 6316 683d 1a6b e93c 0ff9 313d 9b5f 99bc
00000330: 51dc 06be e1f9 2e3d 0f01 5abd 27ab a5bd
00000340: b603 6b3c b4a5 ddbc b0e8 ae3d ef9c 18bd
00000350: 9be4 67bc 7b07 45bd 7668 31be 99f1 20bd
00000360: 2bc8 1ebd a416 8e3d 38f7 223e e168 b23d
00000370: 5dd6 713d 7b5f f83d acc8 6dbd ff6c 183e
00000380: 688c 4c3d 04d8 7f3d d218 183e dec0 fe3d
00000390: 1c12 e8bd ae39 b2bd b507 3ebd 8e13 953d
000003a0: fb80 693c 6d9b c33b 124b dabd f521 b03d
000003b0: 4fb0 cebd c46b 08bc 6938 53ba 01c2 e13d
000003c0: 279e 86bd 3eef 103e be87 0c3e 77b0 20be
000003d0: a753 7a3d 9ee0 483e 3e05 ed3c 4198 873c
000003e0: 3a55 ba3d 39d8 ee3c 9fb3 ba3d 9072 0f3d
000003f0: b555 12be f6ec dfba 8de6 ba3d 1bb0 623d

mlp_head.2.bias f4 [64]
0.036030103 -0.0077000773 -0.094186224 -0.003436661 0.07110893 -0.1015946 0.009019418 -0.08335884
-0.034792718 0.07284118 0.038146492 0.03991978 -0.006573317 0.004472379 -0.020213433 0.015296319
-0.018636517 0.017418653 0.08403896 -0.042100538 -0.08297446 -0.11292262 -0.10137084 0.017995076
-0.044074584 0.11106354 0.13969515 0.060926042 0.12471547 0.03716022 0.12654017 0.08765303
-0.039328247 -0.11573368 0.10684993 -0.014114083 -0.012927412 0.10468858 -0.06116373 0.0022490206
0.08799228 -0.09247704 -0.012379169 0.069599755 -0.060109064 0.08364946 -0.05281944 0.069533154
0.13596103 0.12313158 0.10063014 0.070915595 0.096754715 0.04560843 -0.010251746 0.018634796
-0.039534353 -0.07265088 -0.114676446 0.03916534 0.0996234 0.05752656 -0.06147914 0.057926502
00000000: 4d94 133d ee50 fcbb b5e4 c0bd 9b39 61bb
00000010: 8fa1 913d d410 d0bd 2ec6 133c 0ab8 aabd
00000020: cf82 0ebd c22d 953d 7f3f 1c3d ec82 233d
00000030: fb64 d7bb 098d 923b a496 a5bc 699d 7a3c
00000040: 9cab 98bc 90b1 8e3c 9e1c ac3d 9d71 2cbd
00000050: 84ee a9bd f943 e7bd 849b cfbd 696a 933c
00000060: 8d87 34bd 4875 e33d 3f0c 0f3e 968d 793d
00000070: d36a ff3d 5135 183d bf93 013e 6f83 b33d
00000080: a816 21bd c805 edbd 23d4 da3d c13e 67bc
00000090: 7fcd 53bc f766 d63d d286 7abd 4e64 133b
000000a0: 4c35 b43d 9a64 bdbd 00d2 4abc 518a 8e3d
000000b0: ec34 76bd 6850 ab3d 3259 58bd 6667 8e3d
000000c0: 5e39 0b3e 692c fc3d 2d17 ce3d 323c 913d
000000d0: 5627 c63d e8cf 3a3d f0f6 27bc 00a8 983c
000000e0: c6ee 21bd fcc9 94bd 7cdb eabd d66b 203d
000000f0: 5a07 cc3d f8a0 6b3d 8dd1 7bbd 5744 6d3d

mlp_head.4.weight f4 [8, 64]
0.06307036 -0.03464235 -0.018514266 -0.019136202 -0.009882196 -0.010997444 -0.047082186 -0.102340534
-0.151644 0.18386084 -0.068108305 0.05798214 -0.013989697 0.107610255 0.12103245 0.15018888
-0.15389493 -0.16464606 0.10538745 -0.14717118 0.09238084 -0.06217873 -0.07022555 0.118174724
-0.12631173 -0.113583095 -0.075420454 -0.13828391 0.15231873 0.04434824 -0.12069372 -0.048034977
0.04273922 0.068278804 -0.056417655 -0.1285869 -0.074064896 -0.07971994 -0.14982368 -0.00968159
0.06731909 -0.1778045 0.0258816 -0.027141282 -0.11121133 -0.12369361 -0.1123242 0.18330695
-0.13979477 -0.086705156 -0.10761909 0.051082574 0.088494465 0.11576244 0.0053236154 0.15966654
0.027889987 0.062462687 -0.068415165 0.10573387 0.114087835 0.038563725 0.09192739 -0.027142942
-0.10942956 -0.08901843 0.063351825 -0.008874299 0.018254545 -0.01645954 -0.06074305 0.097533435
0.041678783 0.10931839 0.118226245 0.08276899 0.023717329 0.106685445 -0.06484977 0.050633118
-0.0062887794 -0.056602243 0.07400689 0.090029 0.05931756 -0.08869129 0.074033394 0.15021972
-0.10377172 0.08076048 -0.09945985 -0.0708015 0.1346048 0.15325597 -0.07521947 0.07363028
0.0421566 -0.07040812 0.03557019 -0.032157686 0.018351464 -0.11350722 -0.1702355 0.09042768
0.09994119 -0.07957736 0.117601626 0.064906806 -0.1645724 -0.036592964 -0.15082762 0.11555853
-0.03761085 0.034951262 -0.10341626 0.09423139 -0.06746446 -0.07324873 -0.1626772 0.01997442
-0.081717774 -0.065988794 0.043753415 0.030390877 -0.087118775 0.13542044 -0.05255215 0.10804195
-0.06973041 -0.013769036 -0.107743375 -0.067490906 0.0384821 0.07166946 0.13398519 -0.0618037
-0.011403409 0.112354875 -0.0015588199 0.017284919 -0.13245615 0.13529247 -0.047889184 0.17481406
0.08947866 -0.0437541 0.038302958 -0.05461483 0.037168328 0.051279433 -0.030555129 0.07679306
-0.078896426 -0.013947935 0.088992566 0.004746267 -0.0040126583 0.17193554 -0.09473984 0.020194026
0.099001646 0.078138575 -0.14933404 -0.062300965 0.16372107 -0.018941417 -0.11991909 0.05615155
-0.08429161 -0.09253223 -0.030981967 -0.11977339 -0.1594462 0.013429591 -0.08348026 0.0063679945
-0.09342516 -0.024151243 -0.14504634 0.14060089 0.093208924 0.09193252 -0.07186484 0.044736195
-0.12366196 -0.0061859787 -0.09260079 -0.055624567 -0.024257213 0.10243214 -0.050474003 0.06891284
0.06396606 -0.13451017 0.094134055 -0.07295729 -0.01509235 0.06884618 -0.012763304 0.016523212
-0.071913265 0.13318308 0.016782029 0.03077507 -0.07004813 -0.08523783 0.025090322 0.052840576
-0.049959682 0.081305064 -0.13873473 -0.07107081 -0.14917687 0.13180232 -0.07852517 0.13127404
-0.00857117 0.13777715 0.10419961 -0.105147496 0.14768547 0.1133485 -0.039991904 0.11157614
0.06763363 -0.07918604 0.05231198 0.0034287483 0.16126436 -0.06522314 0.059275556 -0.0022008051
-0.064285934 0.057432834 0.046288416 -0.095292345 -0.11382687 -0.15642442 -0.0025022584 -0.0705927
-0.095931105 -0.06361186 0.085403666 0.15236168 -0.09599129 0.07096405 -0.13004951 0.031348687
0.07416328 0.05581221 -0.0683039 -0.03531234 -0.009580306 0.0706731 0.07966054 -0.044738583
00000000: 082b 813d 23e5 0dbd 3bab 97bc 86c3 9cbc
00000010: efe8 21bc a02e 34bc 40d9 40bd ea97 d1bd
00000020: 9148 1bbe 0446 3c3e 5e7c 8bbd ae7e 6d3d
00000030: 0b35 65bc c462 dc3d dcdf f73d 1dcb 193e
00000040: a296 1dbe fa98 28be 60d5 d73d 0bb4 16be
00000050: 2a32 bd3d 20af 7ebd 6ad2 8fbd 9705 f23d
00000060: dd57 01be 419e e8bd 0a76 9abd 4c9a 0dbe
00000070: 71f9 1b3e 80a6 353d 452e f7bd 53c0 44bd
00000080: 520f 2f3d c2d5 8b3d 3316 67bd 49ac 03be
00000090: 56af 97bd 3544 a3bd 616b 19be 889f 1ebc
000000a0: 97de 893d 6212 36be a605 d43c 6557 debc
000000b0: c4c2 e3bd 1353 fdbd 3b0a e6bd d1b4 3b3e
000000c0: 5c26 0fbe 7992 b1bd 6667 dcbd f63b 513d
000000d0: 963c b53d dc14 ed3d b971 ae3b a07f 233e
000000e0: 8b79 e43c e0d8 7f3d 401d 8cbd 008b d83d
000000f0: e2a6 e93d fff4 1d3d 6d44 bc3d e05a debc
00000100: 9b1c e0bd 4b4f b6bd 9abe 813d 8265 11bc
00000110: 8e8a 953c 28d6 86bc b4cd 78bd 9cbf c73d
00000120: 5fb7 2a3d 52e2 df3d 9a20 f23d ca82 a93d
00000130: d84a c23c e67d da3d f5cf 84bd ac64 4f3d
00000140: 1b12 cebb c1d7 67bd ed90 973d 2061 b83d
00000150: f8f6 723d c7a3 b5bd d29e 973d 33d3 193e
00000160: 4486 d4bd c065 a53d 9bb1 cbbd 6000 91bd
00000170: d7d5 093e 22ef 1c3e aa0c 9abd 79cb 963d
00000180: 66ac 2c3d 2232 90bd 0cb2 113d c7b7 03bd
00000190: cf55 963c 7976 e8bd 3752 2ebe 2632 b93d
000001a0: f7ad cc3d 74f9 a2bd 1fd9 f03d dced 843d
000001b0: ab85 28be 81e2 15bd 8e72 1abe f3a9 ec3d
000001c0: d60d 1abd 0e29 0f3d e7cb d3bd 63fc c03d
000001d0: cf2a 8abd 6e03 96bd da94 26be 65a1 a33c
000001e0: a65b a7bd 2225 87bd c836 333d 4af6 f83c
000001f0: 546b b2bd a8ab 0a3e ec40 57bd 1945 dd3d
00000200: d1ce 8ebd 8697 61bc 8fa8 dcbd ac38 8abd
00000210: 689f 1d3d 70c7 923d 6a33 093e e025 7dbd
00000220: 5dd5 3abc 501a e63d 5151 ccba 1a99 8d3c
00000230: 96a2 07be 1c8a 0a3e 7327 44bd 7502 333e
00000240: 9640 b73d 8037 33bd 90e3 1c3d cdb3 5fbd
00000250: d13d 183d 620a 523d c04e fabc ae45 9d3d
00000260: 7394 a1bd e185 64bc bc41 b63d 9386 9b3b
00000270: 9e7c 83bb df0f 303e f606 c2bd f16d a53c
00000280: 60c1 ca3d 1e07 a03d 06eb 18be 4c2f 7fbd
00000290: 7fa6 273e 082b 9bbc 2498 f5bd 2bff 653d
000002a0: 14a1 acbd 8a81 bdbd e5cd fdbc c04b f5bd
000002b0: dd45 23be ca07 5c3c b3f7 aabd 9caa d03b
000002c0: b155 bfbd d4d8 c5bc 0787 14be aef9 0f3e
000002d0: 52e4 be3d 1e47 bc3d e02d 93bd 4d3d 373d
000002e0: 7b42 fdbd c0b3 cabb 7ca5 bdbd 96d6 63bd
000002f0: 10b7 c6bc f1c7 d13d d4bd 4ebd 2d22 8d3d
00000300: a300 833d 09bd 09be 5bc9 c03d a26a 95bd
00000310: e745 77bc 3aff 8c3d 2d1d 51bc b05b 873c
00000320: 4347 93bd 2561 083e 777a 893c 001c fc3c
00000330: 6575 8fbd 2c91 aebd 388a cd3c 5c6f 583d
00000340: 86a2 4cbd 4583 a63d 7a10 0ebe 938d 91bd
00000350: d2c1 18be 30f7 063e ced1 a0bd b46c 063e
00000360: 186e 0cbc 7415 0d3e 9b66 d53d 9257 d7bd
00000370: dc3a 173e 4223 e83d 8dce 23bd 0882 e43d
00000380: 8083 8a3d 4a2c a2bd 1645 563d dab4 603b
00000390: 7c22 253e b693 85bd edca 723d 623b 10bb
000003a0: 58a8 83bd b13e 6b3d ec98 3d3d a228 c3bd
000003b0: 101e e9bd b92d 20be eefc 23bb e892 90bd
000003c0: 8777 c4bd ef46 82bd 1ee8 ae3d b304 1c3e
000003d0: 1597 c4bd 9a55 913d b32b 05be 7b67 003d
000003e0: ebe2 973d 589b 643d eae2 8bbd aca3 10bd
000003f0: b7f6 1cbc 0fbd 903d 1125 a33d ce3f 37bd

mlp_head.4.bias f4 [8]
0.037376877 0.040775664 0.08884834 0.018068075 0.097305216 0.12914224 0.12180813 0.11060223
00000000: 7f18 193d 6204 273d 1ef6 b53d 8003 943c
00000010: f547 c73d dd3d 043e 8a76 f93d 6c83 e23d
