runs/1_hour_forecasting/44/best_model.pt (torch, 498104 bytes, 9 tensors)

lstm.weight_ih_l0 f4 [512, 87]
0	0x3d8b66d3	0.068067215
1	0x3d8a667b	0.06757828
2	0x3c15fd76	0.009154668
3	0x3dcec682	0.10096456
4	0xbca673f3	-0.02031896
5	0x3cc2cb62	0.023778621
6	0xbd1ddb41	-0.038539175
7	0x3d6a9d9f	0.057279225
8	0x3daa95ea	0.08329375
9	0xbd872819	-0.06599445
10	0x3d71c50a	0.0590258
11	0x3c856fdb	0.016288688
12	0x3dd1e1ae	0.10248123
13	0x3c95081a	0.01819234
14	0x3cf672a3	0.03008396
15	0x3bc10d69	0.005891491
16	0x3d965062	0.073395506
17	0xbb9ccad3	-0.0047849207
18	0xbd69d0ff	-0.05708408
19	0x3a58b287	0.0008266349
20	0xbd4b8e0d	-0.049696017
21	0xbd07fcd6	-0.033200108
22	0xbd3af927	-0.045647766
23	0x3d3f132c	0.046649143
24	0xbdc01760	-0.093794584
25	0xbcbdb446	-0.02315725
26	0xbd8a30c4	-0.067475826
27	0xbd8eebc5	-0.06978563
28	0xb84a5211	-4.8236983e-05
29	0xbde4e2d4	-0.111760765
30	0x3d9db47a	0.07700439
31	0xbdbb7abe	-0.091542706
32	0x3d73adb6	0.059491836
33	0xbcd8ccbd	-0.026464814
34	0xbc95947e	-0.018259283
35	0x3d87157f	0.06595897
36	0x3ccf7028	0.025322035
37	0x3dac1ed8	0.084043205
38	0x3cb57966	0.022152614
39	0xbcd71dfd	-0.026259417
40	0x3cc1bef2	0.02365062
41	0xbc1cf05c	-0.0095787905
42	0x3d252b63	0.04032458
43	0x3db1d62e	0.0868343
44	0x3d5c73ad	0.053821255
45	0xbbfea146	-0.00777069
46	0x3d532f9e	0.051559083
47	0x3c8635b5	0.016383031
48	0x3d49c972	0.04926438
49	0xbd1272f9	-0.035754178
50	0xbda46429	-0.080269165
51	0xbd240062	-0.040039428
52	0xbda0080a	-0.07814033
53	0x3d87b37a	0.06626029
54	0x3ca64672	0.020297263
55	0x3d0bfca9	0.034176502
56	0x3cd48037	0.025940044
57	0xbc399f50	-0.011329487
58	0x3d7a718e	0.06114345
59	0xbd9a51b8	-0.07535118
60	0xbb88633f	-0.0041622217
61	0xbd8fc75a	-0.07020445
62	0x3cc81242	0.024422769
63	0xbd0b52b9	-0.034014437
64	0x3c81df0c	0.015853427
65	0xbc9ad060	-0.018898189
66	0x3d8257fd	0.06364439
67	0xbd5e9674	-0.054342702
68	0xbd859554	-0.06522623
69	0xbd87b296	-0.066258594
70	0x3d8196de	0.06327604
71	0x3ca43275	0.020043591
72	0x3d8f911d	0.070101
73	0xbdc184de	-0.094491705
74	0xbdc58635	-0.096447386
75	0xbda0cf5d	-0.078520514
76	0xbd8ef80e	-0.069809064
77	0x3cee924f	0.0291225
78	0x3cc996d9	0.024608063
79	0x3d87c1b0	0.0662874
80	0xbd85fb80	-0.065421104
81	0xbd9aa8b4	-0.07551709
82	0x3ce7e4e3	0.028307384
83	0xbd47d7a4	-0.048789635
84	0x3d2f3f2c	0.042784855
85	0xbc739644	-0.014867369
86	0x3d9bfba8	0.07616359
87	0xbd6ec91d	-0.058297265
88	0xbd02609f	-0.031830426
89	0x3d61fcd7	0.055172767
90	0x3d10aec1	0.03532291
91	0xbc35cc5d	-0.011096087
92	0x3d890c35	0.066917814
93	0x3d95ae02	0.0730858
94	0xbd5ab7dc	-0.053398
95	0xbd027085	-0.03184559
96	0x3d997f33	0.074949645
97	0xbcff8391	-0.031190665
98	0xbc41dad5	-0.011831959
99	0xbd959407	-0.073036246
100	0xbd4b0228	-0.049562603
101	0x3ce92b52	0.02846304
102	0x3c568e1a	0.013095403
103	0xbd7a47bc	-0.061103567
104	0xba1a3346	-0.0005882274
105	0xbd872a3a	-0.06599851
106	0xbda1b031	-0.07894934
107	0xbd5beba5	-0.053691525
108	0xbdaab334	-0.083349615
109	0xbd5d6038	-0.05404684
110	0x3dc6ff28	0.09716636
111	0x3c2fe5f1	0.010735975
112	0x3ce394d5	0.02778093
113	0xbd9e384a	-0.0772558
114	0xbd58497d	-0.05280446
115	0xbd2c8ad6	-0.04212459
116	0x3c04237e	0.008065103
117	0xbda04989	-0.07826526
118	0xbd2125e8	-0.03934279
119	0xbd4d2e41	-0.05009294
120	0xbc211734	-0.009832192
121	0xbd11fd66	-0.03564205
122	0xbcf8bc93	-0.030363357
123	0xbda2f3a3	-0.07956626
124	0xbd8aea23	-0.06782939
125	0xbd0de91f	-0.03464615
126	0xbd1ac071	-0.037781183
127	0xbdb5a880	-0.088700294
128	0x3d9c9574	0.076456934
129	0xbc93e79d	-0.018054778
130	0x3dd0388d	0.10167036
131	0x3c115398	0.008870028
132	0xbd8cac19	-0.068687625
133	0x3d802f49	0.06259019
134	0xbd0aea3e	-0.033914797
135	0xbcf2f561	-0.029658021
136	0xbdb8d28e	-0.09024535
137	0xbd948f86	-0.072539374
138	0x398d31b4	0.00026930647
139	0xbd250a1c	-0.040292844
140	0x3d112828	0.035438687
141	0xbd95239a	-0.07282181
142	0x3d55a96c	0.052163526
143	0xbd80ba23	-0.06285503
144	0xbd2c05fb	-0.04199789
145	0xb9866c1d	-0.00025639022
146	0x3d3bcf0a	0.045851745
147	0x3d579ba5	0.05263867
148	0x3d5f0e2d	0.05445688
149	0xbd8bf450	-0.06833708
150	0x3cd8fe89	0.02648856
151	0xbd46a658	-0.04849848
152	0xbcd5b0ee	-0.026085343
153	0xbd882e8d	-0.06649504
154	0x3d807f9b	0.06274339
155	0xbd571a9d	-0.052515615
156	0x3d7cc00e	0.061706595
157	0x3d13f5e1	0.03612316
158	0x3d2dc9e4	0.042428866
159	0xbd25ec9e	-0.04050886
160	0x3db0f7d6	0.08641021
161	0x3cc3d3cc	0.023904704
162	0x3ce6577d	0.02811789
163	0xbd9ba38e	-0.07599555
164	0x3d270ade	0.040781848
165	0x39bca9a1	0.00035984538
166	0xbcc635ab	-0.024195513
167	0x3da33ec4	0.07970956
168	0x3cba0237	0.022706134
169	0xbd27c1e1	-0.04095638
170	0xbd17b444	-0.03703715
171	0x3bfb1b58	0.0076631717
172	0x3d3c522f	0.045976814
173	0xbcfa3c6d	-0.030546391
174	0xbd466bcd	-0.04844265
175	0xbcaaa47c	-0.020830385
176	0xbd843052	-0.06454529
177	0x3d1ab96c	0.03777449
178	0x3d83f4bd	0.064431645
179	0xbd9ca831	-0.076492675
180	0x3d1378a2	0.036003716
181	0x3d7edc2c	0.06222169
182	0x3ce6db3e	0.028180715
183	0xbc87f72a	-0.01659735
184	0x3d3a181e	0.045433156
185	0x3d8bd680	0.06828022
186	0x3cedfa19	0.02904992
187	0xbc1734e7	-0.0092289215
188	0xbc7dbde2	-0.015487166
189	0x3cd4a1e0	0.025956094
190	0xbc046d89	-0.008082756
191	0xbba04a9e	-0.0048917076
192	0x3d7ef5d2	0.06224615
193	0x3dc479a8	0.095935166
194	0x3c14cd26	0.009082114
195	0x39aeb55b	0.00033322987
196	0x3cad2bb6	0.021139007
197	0x3bf43f51	0.007453837
198	0x3d4077f0	0.04698938
199	0x3cc3aa75	0.023884991
200	0xbd5c1382	-0.05372954
201	0xbcc0ad47	-0.023520125
202	0x3db80738	0.08985752
203	0x3d71a16a	0.058991827
204	0xbb494536	-0.003071142
205	0xbd0d8247	-0.03454807
206	0xbd19cf37	-0.03755113
207	0xbd895317	-0.06705301
208	0xbccf7dd9	-0.025328564
209	0x3cfc2a4f	0.030781893
210	0x3d31f0c5	0.043442506
211	0x3cc9d94e	0.024639752
212	0xbd954581	-0.072886474
213	0xbd511ab0	-0.05105084
214	0xbcaaaeec	-0.020835362
215	0x3db41dc1	0.087947376
216	0x3cb26b64	0.021779723
217	0xbc2257ee	-0.009908659
218	0x3d523577	0.05132052
219	0xbd32af36	-0.043624125
220	0xbd885be4	-0.06658152
221	0x3d7f1a24	0.06228079
222	0xbcaf7c7b	-0.021421662
223	0xbc9c1175	-0.019051293
224	0xbd9350ad	-0.07193122
225	0x3d13f735	0.036124427
226	0x3d4e5b20	0.050379872
227	0x3cfd3fe6	0.030914258
228	0xbd84ea0e	-0.06489955
229	0xbdc6a0d4	-0.09698644
230	0xbd97d97d	-0.074145295
231	0x3d27bbd7	0.040950622
232	0x3cff1c91	0.031141551
233	0x3d936d00	0.071985245
234	0x3d03d69d	0.032187093
235	0xbac6765a	-0.0015141473
236	0xbb87eda2	-0.004148201
237	0xbd8b3047	-0.067963175
238	0xbdacc0fb	-0.084352456
239	0xbdc403e6	-0.09571056
240	0x3d0fbbe7	0.035091307
241	0xbd6a5753	-0.057212185
242	0xbd40a596	-0.047032915
243	0xbd999a4d	-0.07500134
244	0xbd5ec3ec	-0.054386064
245	0xbdc19e5e	-0.09454034
246	0xbdaf84d6	-0.08570258
247	0xbc03f857	-0.008054814
248	0xbd4a4977	-0.049386468
249	0x3c9e9677	0.019358857
250	0xbd545d0c	-0.05184655
251	0xbdd052e3	-0.101720594
252	0xbd321e27	-0.043485787
253	0xbd95b001	-0.07308961
254	0xbd86517f	-0.06558513
255	0xbddaec0c	-0.106895536

lstm.weight_hh_l0 f4 [512, 128]
0	0xbc006823	-0.007837328
1	0xbd2816f4	-0.041037515
2	0x3dba0cda	0.090844825
3	0xbda687c1	-0.08131362
4	0xbc3c92b6	-0.011509588
5	0x3c4dfe34	0.012572814
6	0x3b8ae8d4	0.004239181
7	0x3da340bc	0.079713315
8	0xbcecc78b	-0.028903743
9	0x3d8ec0bb	0.06970354
10	0xbd406505	-0.04697134
11	0x3d946f9f	0.072478525
12	0xbd180366	-0.037112616
13	0xbbf95069	-0.0076084626
14	0xbb1d57bc	-0.0024008593
15	0x3daa0a59	0.08302755
16	0xbc8c98a6	-0.017162632
17	0x3d569729	0.05239025
18	0xbcc9937c	-0.024606459
19	0x3d450f03	0.04811002
20	0xbcba2760	-0.022723854
21	0x3d854547	0.06507354
22	0x3b037c24	0.0020063007
23	0xbd855cd9	-0.0651185
24	0x3d69c6e2	0.057074435
25	0xbd81354b	-0.06308993
26	0xbd9b9ec8	-0.075986445
27	0xbd792033	-0.060821723
28	0xbdfda8cd	-0.12385712
29	0x3d35d191	0.04438931
30	0x3d1a5668	0.03768006
31	0xbda53c1d	-0.08068106
32	0x3d6cc141	0.05780149
33	0xbd9af907	-0.075670294
34	0xbd40de6e	-0.047087125
35	0xbd81cc8a	-0.06337841
36	0xbcd61e77	-0.026137574
37	0xbca1dedb	-0.019759586
38	0x3d11d895	0.03560694
39	0xbd443793	-0.047904562
40	0x3cfd30b2	0.030907009
41	0xbdaa0ca9	-0.08303196
42	0x3cf3295a	0.029682804
43	0xbdc2dfbc	-0.0951533
44	0xbae90ffc	-0.0017781253
45	0x3d5200a3	0.05127014
46	0x3d66a720	0.056311727
47	0xbd20ce1c	-0.03925906
48	0xbd64709c	-0.055771455
49	0x3c2a18ca	0.010381887
50	0x3db642e7	0.08899479
51	0x3b780741	0.003784612
52	0xbd68aa16	-0.05680283
53	0x3cb2419f	0.021759806
54	0x3d92a0ad	0.07159553
55	0x3db2f8fc	0.08738896
56	0xbd95859c	-0.073008746
57	0x3cde1a2b	0.027112087
58	0xbdb6abe6	-0.08919506
59	0xbd377722	-0.04479135
60	0xbd8f1340	-0.069860935
61	0xbb855971	-0.0040695
62	0xbd5c58b6	-0.05379554
63	0xbae9160c	-0.001778306
64	0x3c98a346	0.018632542
65	0x3dc5f673	0.09666147
66	0x3dc6dae0	0.09709716
67	0xbd7c4686	-0.061590694
68	0xbb0a8763	-0.0021137826
69	0x3d18ec2e	0.037334614
70	0xbda22beb	-0.07918533
71	0x3da92ccb	0.08260497
72	0x3cfcc480	0.030855417
73	0xbba8548d	-0.0051370324
74	0x3dd9a621	0.1062739
75	0xbbd1cc8b	-0.0064025573
76	0x3d8db0b7	0.06918471
77	0xbdb43791	-0.08799661
78	0x3d1fe6fc	0.039038643
79	0xbd657c9d	-0.056027044
80	0xbbc3b200	-0.005972147
81	0xbcc86032	-0.024459932
82	0xbc6dadb6	-0.014506748
83	0xbcd8db04	-0.026471622
84	0xbd7528dc	-0.05985342
85	0xba6e18b4	-0.00090826605
86	0xbd33c668	-0.043890387
87	0xbca7f162	-0.020500842
88	0x3db42b31	0.087973006
89	0x3d84bcd6	0.0648133
90	0xbc86de5e	-0.016463455
91	0xbd91b9cf	-0.07115518
92	0xbd897f48	-0.0671373
93	0xbdb41ade	-0.08794187
94	0x39871d4c	0.00025771034
95	0x3d511265	0.051042933
96	0xbb94efd4	-0.0045451913
97	0xbddf53a9	-0.10904629
98	0x3d9ac761	0.0755756
99	0x3d15b972	0.036553808
100	0x3d8defe6	0.069305226
101	0x3c43c287	0.011948234
102	0x3dbe3f42	0.09289409
103	0x3b70fd77	0.003677217
104	0x3c4fc986	0.012682324
105	0x3d3fdc39	0.04684088
106	0x3d53d252	0.05171425
107	0xbc0e6193	-0.008690256
108	0x3c384b9b	0.0112484945
109	0xbc9c25fe	-0.019061085
110	0x3d33be15	0.04388245
111	0xbd03e30d	-0.032198954
112	0xbd0c0548	-0.034184724
113	0xbd3a0a9b	-0.04542027
114	0x3c670f70	0.014102802
115	0x3d254eb6	0.040358268
116	0x3d1f7002	0.03892518
117	0xbcca9f33	-0.024734115
118	0x3c527770	0.012845859
119	0xbccfdb70	-0.02537319
120	0x3d2a2baf	0.041545566
121	0xbd03461f	-0.032049295
122	0xbd360dfa	-0.044446923
123	0xbd132cb2	-0.035931297
124	0x3db2d0c0	0.08731222
125	0xbda4dd6f	-0.080500476
126	0xbce10255	-0.027466932
127	0x3d84aa91	0.064778455
128	0xbd69761f	-0.056997415
129	0x3d1ad258	0.037798256
130	0x3cb8bb31	0.022550197
131	0xbcbe6d80	-0.023245573
132	0xbd79d237	-0.060991492
133	0xbd038a0c	-0.032114074
134	0x3dbddb81	0.09270383
135	0x3d197bfb	0.037471753
136	0xbae23096	-0.0017256911
137	0x3ae54a2d	0.001749342
138	0x3df7e990	0.121050954
139	0xbb329d4f	-0.0027254408
140	0x3cb8f690	0.022578508
141	0x3ca8a3fc	0.020586006
142	0x3d852c09	0.0650254
143	0x3be907c5	0.007111522
144	0x3d5141eb	0.051088255
145	0xbd79f436	-0.061023913
146	0x3d848b05	0.06471828
147	0x3c4eec31	0.012629555
148	0xbd4b7298	-0.049669832
149	0x3de0fa64	0.10985258
150	0x3cd4dc64	0.025983997
151	0x3dbac283	0.091191314
152	0xbd9e2d0c	-0.07723436
153	0xbacfa7d6	-0.0015842866
154	0x3c7ed502	0.015553715
155	0xbd83fcb2	-0.06444682
156	0xbd56c232	-0.052431293
157	0xbaa0e499	-0.0012275159
158	0x3dbf1d99	0.09331817
159	0x3da234b8	0.079202116
160	0xbd0e2039	-0.0346987
161	0x3d0f825c	0.03503643
162	0x3d8e0114	0.069337994
163	0x3d8aa952	0.067705765
164	0xbca5a2f7	-0.02021931
165	0xbd3ba738	-0.04581377
166	0xbce6d3f9	-0.028177248
167	0xbcb8db4f	-0.022565512
168	0xbd3466a4	-0.0440432
169	0xbca9f456	-0.020746391
170	0x3b79eb07	0.0038134472
171	0xbd37850b	-0.044804614
172	0x3d5eaa6b	0.054361742
173	0x3cc3e8b5	0.023914674
174	0xbd5ec2e5	-0.054385085
175	0xbcf2cac1	-0.029637696
176	0x3d43eeef	0.047835287
177	0xbd8ad2b6	-0.06778471
178	0x3c69669c	0.014245655
179	0x3d419eca	0.047270574
180	0x3c8fbb5f	0.0175454
181	0xbcca41f3	-0.02468965
182	0xbd0fd3e1	-0.035114173
183	0x3c3b5092	0.011432784
184	0x3d2ccc31	0.04218692
185	0x3ca50e02	0.020148281
186	0xbc8b750d	-0.017023588
187	0xbdb2e71c	-0.08735487
188	0x3d875f0d	0.066099264
189	0xbc494f66	-0.0122869965
190	0xbdbdf23a	-0.09274717
191	0x3d836948	0.06416565
192	0xbca12bde	-0.019674238
193	0xbbcbed90	-0.006223388
194	0xbcf78c21	-0.030218186
195	0xbd261284	-0.040545
196	0xbcc1ff8a	-0.02368142
197	0xbc8e1a1e	-0.017346438
198	0xbd094289	-0.03351072
199	0x3d8b0769	0.06788523
200	0xbcd6dc6b	-0.02622815
201	0x3e02004b	0.12695424
202	0xbc2bb6e1	-0.010480613
203	0xbcb5e56a	-0.02220412
204	0xbb4046b2	-0.0029339013
205	0xbda998e5	-0.082811154
206	0x3ceb0aa5	0.0286916
207	0xbd4868ca	-0.04892806
208	0x3d6d6d6a	0.057965674
209	0x3da64ab0	0.08119714
210	0xbd3ceded	-0.04612534
211	0xbcafc8aa	-0.021457989
212	0xbd733f54	-0.059386566
213	0x3d4563b6	0.048190795
214	0xbdc32a4b	-0.09529551
215	0xbd70b781	-0.058768753
216	0xbcd4556c	-0.025919639
217	0x3cdfee10	0.027335197
218	0x3d3e6b9f	0.046489354
219	0x3d503a67	0.050836947
220	0x3d9f7a2f	0.077869765
221	0x3dc58cc0	0.096459866
222	0x3d0e4acd	0.034739304
223	0xbd85336e	-0.0650395
224	0x3cd019df	0.025402961
225	0xbc11bb33	-0.008894729
226	0x3d8dddb2	0.06927051
227	0xbd4f69e7	-0.050638106
228	0xbd77dbe1	-0.060512427
229	0x3ba67716	0.005080114
230	0xbd241c53	-0.040066075
231	0xbc8e6b8a	-0.017385263
232	0xbc527d38	-0.012847237
233	0x3d7b0f76	0.06129404
234	0x3d9a4193	0.075320385
235	0x3ce73738	0.028224573
236	0x3c1a3e6c	0.009414297
237	0xbd8a5245	-0.06753973
238	0xbcbba4b5	-0.022905687
239	0xbcd5d30d	-0.026101613
240	0x3d919bbc	0.07109782
241	0x3d3004ea	0.042973436
242	0x3d9ea1b4	0.07745686
243	0xbd877599	-0.06614227
244	0x3b9b7f6a	0.0047454135
245	0xbcc8738d	-0.024469161
246	0xbca6325f	-0.02028769
247	0x3d4f1dce	0.050565533
248	0x3d2b9e15	0.041898806
249	0xbd841561	-0.0644939
250	0xbd26625b	-0.040621143
251	0xbbb70513	-0.0055853217
252	0x3db62db7	0.08895438
253	0x3a88e21f	0.0010443366
254	0x3d04a040	0.03237939
255	0xbd81f306	-0.06345181

lstm.bias_ih_l0 f4 [512]
0	0xbcb16feb	-0.021659812
1	0x3be17d02	0.006881357
2	0x3d8ef8d5	0.06981055
3	0xbd656be2	-0.05601109
4	0xbcb8ce7f	-0.022559403
5	0x3d2405f7	0.04004475
6	0x3d3151c6	0.043290876
7	0x3ddc9aed	0.10771737
8	0x3d7db23a	0.06193755
9	0xbcb2524e	-0.021767762
10	0xbd265720	-0.040610433
11	0xbd0977e9	-0.03356162
12	0xbd803c99	-0.06261558
13	0x3c1cb741	0.0095651755
14	0x3dea3f8e	0.11437903
15	0x3d965854	0.07341066
16	0x3db29504	0.08719829
17	0x3d8a808c	0.067627996
18	0xbc09d1e1	-0.008411855
19	0x3d6cb590	0.05779034
20	0xbd96ece5	-0.07369403
21	0x3dd2926a	0.102818325
22	0x3d951857	0.07280033
23	0x3c63820d	0.013885987
24	0x3c60d7f8	0.013723366
25	0xbd1ac4f3	-0.03778548
26	0xbbb9a108	-0.0056649484
27	0x3dbb3a59	0.09141988
28	0x3db81819	0.08988971
29	0xbd27aa86	-0.04093411
30	0xbd20c3eb	-0.039249342
31	0xbcebf408	-0.028802887
32	0x3daa3ef4	0.083127886
33	0xbb3299d6	-0.0027252338
34	0x3d53b4c6	0.05168607
35	0xbd7fd11e	-0.06245529
36	0x3c91419a	0.017731477
37	0x3bf12250	0.0073588267
38	0x3d1aa6c2	0.03775669
39	0xbd74fc74	-0.05981107
40	0xbd902cbb	-0.07039782
41	0x3d845a0f	0.0646249
42	0x3da106a5	0.078625955
43	0x3b3edc6a	0.0029123076
44	0x3d10fbe5	0.035396475
45	0xbd852192	-0.06500544
46	0xbb37b03c	-0.0028028628
47	0x3df629c8	0.12019688
48	0xbcfc540b	-0.030801794
49	0x3cb63f2d	0.022246921
50	0xbd661aa4	-0.05617775
51	0xbca6a984	-0.020344503
52	0xbc522bc4	-0.012827817
53	0x3d9ba139	0.0759911
54	0x3cc10b7e	0.02356505
55	0xbcdb42af	-0.026765196
56	0x3d53bf07	0.05169585
57	0xbcdb2dba	-0.026755203
58	0xbd50196c	-0.050805494
59	0x3db44c30	0.08803594
60	0x3ce42aa0	0.027852356
61	0x3dd0952f	0.101847045
62	0x3d02e72c	0.031958744
63	0xbccfd8d2	-0.025371943
64	0x3dbf4292	0.09338869
65	0xbd9a4acc	-0.075337976
66	0x3cdbf9b6	0.02685247
67	0xbb7bd59c	-0.0038426882
68	0x3cb21438	0.021738157
69	0x3dacede3	0.08443811
70	0x3957a7c8	0.00020566501
71	0x3de70105	0.11279491
72	0x3d91f1d6	0.07126205
73	0x3d9be073	0.0761117
74	0x3dcbf2a8	0.099583924
75	0xbc3c48e9	-0.0114919925
76	0xbc3e9000	-0.011631012
77	0x3db606af	0.088879935
78	0x3ad52585	0.0016261792
79	0xbcba7604	-0.022761352
80	0x3c4a570f	0.012349858
81	0x3c824b56	0.015905064
82	0x3c7176ed	0.014737827
83	0x3d0b70d5	0.034043152
84	0xbd55f0d5	-0.05223163
85	0x3da9a557	0.08283489
86	0xbd173867	-0.036919024
87	0x3ddc07b4	0.10743657
88	0x3936cdea	0.00017433582
89	0xbc8bcee6	-0.01706643
90	0x3dc7fd2c	0.097650856
91	0xbcb35a49	-0.021893637
92	0xbd322026	-0.04348769
93	0xbc9a4ca8	-0.01883538
94	0x3de575d5	0.11204115
95	0xbcce378e	-0.025172975
96	0x3daee2bf	0.08539342
97	0xbd570cc7	-0.05250242
98	0x3b74c43c	0.003734841
99	0x3d9ece79	0.07754225
100	0x3dad4b85	0.0846167
101	0xbba5a1f3	-0.0050547062
102	0x3ceddc47	0.0290357
103	0x3d18bbd3	0.037288498
104	0x3dca482a	0.098770455
105	0x3cdcd8db	0.026958873
106	0xbd314696	-0.043280207
107	0x3d60409f	0.054749127
108	0xbd8822b7	-0.06647246
109	0xbd01eacf	-0.03171807
110	0x3cc96e29	0.024588661
111	0x3d35c666	0.04437866
112	0x3d8b70a3	0.06808593
113	0x3db8df14	0.09026924
114	0xbd20d30f	-0.03926378
115	0xbd63b862	-0.055595763
116	0xbd16db7f	-0.03683042
117	0xbd503972	-0.050836034
118	0xbcfee55d	-0.031115228
119	0x3d6960c3	0.056977045
120	0x3d4bc5e5	0.049749274
121	0xbb88ab2e	-0.004170797
122	0xbd7fb79e	-0.06243097
123	0x3db918e7	0.09037953
124	0x3d90992c	0.07060465
125	0xbd7a41f1	-0.061098043
126	0xbd9240e9	-0.07141287
127	0x3dd28ccb	0.102807604
128	0x3d8c2224	0.06842449
129	0x3c7a2c65	0.015269374
130	0x3dc1476e	0.09437452
131	0xbc3436d6	-0.010999402
132	0x3d0f324c	0.034960076
133	0x3d80d882	0.062912956
134	0x3ceb3f1a	0.028716613
135	0xbcba65c3	-0.022753602
136	0x3d40af0b	0.047041934
137	0x3cd078d3	0.025448238
138	0xbd96951c	-0.07352659
139	0x3bffb7a6	0.007803875
140	0x3d8af84c	0.0678564
141	0xbc925fac	-0.017867886
142	0x3b1f3054	0.002429028
143	0xbd8592cf	-0.06522142
144	0xbb1f0666	-0.0024265288
145	0x3ca022b0	0.01954779
146	0xbd0797e8	-0.033103853
147	0x3c96fe40	0.018431783
148	0xbdd61578	-0.104533136
149	0xbd16717a	-0.036729313
150	0xbb3abf25	-0.0028495279
151	0x3d633d5d	0.055478442
152	0x3ce0468b	0.027377388
153	0xbd6d99a6	-0.05800786
154	0xbce0dafe	-0.027448174
155	0x3c2025f6	0.009774676
156	0x3d6f1e92	0.058378763
157	0xbd613679	-0.05498359
158	0x3d98f81e	0.074691996
159	0x3c1ea596	0.009683033
160	0xbd12254a	-0.035680093
161	0x3d306bf5	0.043071706
162	0xbd6b1921	-0.05739701
163	0x3cb565e6	0.022143316
164	0xbd30e436	-0.04318639
165	0x3d1c0022	0.038086064
166	0x3d1a20e6	0.03762903
167	0x3d6ecaca	0.058298863
168	0x3d940666	0.07227783
169	0xbcda5b88	-0.026654974
170	0xbd0cab52	-0.03434307
171	0x3d671dd2	0.056424923
172	0xbd8467fc	-0.06465146
173	0xbd84ee69	-0.06490786
174	0x3d825e68	0.06365663
175	0x3d9f995f	0.07792925
176	0xbd827211	-0.06369413
177	0x3db528ce	0.088456735
178	0x3c1a4acc	0.009417247
179	0x3abc5f50	0.0014371667
180	0xbd6d014a	-0.057862557
181	0xbd9bf4a7	-0.07615023
182	0x3d78da19	0.06075487
183	0xbd914bfa	-0.070945695
184	0xbcf273cf	-0.029596237
185	0xbda3337f	-0.079688065
186	0x3c487502	0.012234928
187	0x3d919f1d	0.071104266
188	0xbc1130c3	-0.008861723
189	0x3cb7220b	0.0223551
190	0x3c8aa97f	0.016926525
191	0xbca2bf5e	-0.019866642
192	0x3d58b475	0.052906472
193	0xba6bec44	-0.0008999745
194	0xbcdb2d9c	-0.026755147
195	0xbd833b9c	-0.06407854
196	0x3dc6d382	0.09708311
197	0xbd2ecdd6	-0.04267677
198	0x3daba81a	0.08381672
199	0x3c1cafce	0.0095633995
200	0x3c40fe07	0.011779315
201	0xbc93298f	-0.017964153
202	0xbd595a10	-0.053064406
203	0x3d31ab95	0.043376524
204	0x3cf8a0e7	0.030350162
205	0xbd6676ad	-0.05626552
206	0x3c4d402c	0.012527507
207	0x3c932002	0.017959598
208	0xbd7b27bd	-0.061317194
209	0x3d2ed104	0.0426798
210	0xbda8e882	-0.08247472
211	0xbd1725be	-0.036901228
212	0xbd4b5c86	-0.049648784
213	0xbd33ee71	-0.043928567
214	0x3d95a818	0.07307452
215	0xbce4819b	-0.027893832
216	0xbbc0b037	-0.0058803814
217	0x3c3b9c54	0.011450846
218	0x3c29e668	0.010369875
219	0x3dc11e04	0.09429553
220	0x3d163ab7	0.03667709
221	0x3dc1c112	0.09460653
222	0xbcac54bc	-0.021036498
223	0x3c5dce22	0.013537915
224	0x3c2b7f74	0.010467399
225	0x3d803174	0.062594324
226	0xbcc4ba16	-0.024014514
227	0xbd290205	-0.04126169
228	0xbda2d90c	-0.07951555
229	0xbc7c9808	-0.015417106
230	0x3d25d803	0.040489208
231	0x3d84457b	0.06458565
232	0xbda1f6df	-0.07908415
233	0x3de61c0a	0.11235817
234	0x3c7406bb	0.014894183
235	0xbb6459fc	-0.0034843674
236	0x3d33ed6a	0.043927588
237	0x3d39a43c	0.04532264
238	0xbd35cabf	-0.044382807
239	0xbd8aafea	-0.06771834
240	0xbd851909	-0.06498916
241	0x3ceb7f41	0.028747203
242	0x3b32c84e	0.0027280035
243	0xbda1e238	-0.07904476
244	0xbd8408ed	-0.06447015
245	0xbc7e1386	-0.015507584
246	0xbdab898e	-0.08375846
247	0xbd808f45	-0.062773265
248	0xbccfc829	-0.025363998
249	0xbd6cc5a2	-0.057805665
250	0xbdacb02f	-0.08432042
251	0x3c893905	0.016750822
252	0xbc990ff1	-0.01868436
253	0x3cbccb1c	0.023046069
254	0x3dab57db	0.083663665
255	0xbd6a731b	-0.05723868

lstm.bias_hh_l0 f4 [512]
0	0x3d1224f7	0.035679784
1	0x3d9ff9e3	0.07811334
2	0xbd72fcef	-0.059323248
3	0x399fe195	0.00030494915
4	0xbd61a429	-0.055088196
5	0xbb3739b8	-0.0027957987
6	0xbd5a0be2	-0.05323399
7	0xbce65b7f	-0.0281198
8	0xbd669b89	-0.056300674
9	0x3d6255a4	0.055257455
10	0xbd522aef	-0.051310476
11	0x3dece91b	0.11567899
12	0x3cd6aa8b	0.026204368
13	0x3dba57f0	0.09098804
14	0x3da8e50f	0.082468145
15	0xbc879b51	-0.016553553
16	0x3d7c9a56	0.061670624
17	0x3de95b21	0.113943346
18	0xbd715d38	-0.05892679
19	0xbcfba1b3	-0.030716753
20	0x3d96b562	0.07358815
21	0x3d5a9368	0.053363234
22	0x3d818966	0.06325035
23	0x3aa99fd6	0.0012941312
24	0xbd0d6926	-0.034524105
25	0x3ce3a83c	0.027790181
26	0xbcb80e30	-0.022467703
27	0xbd5379d4	-0.051629856
28	0x3bdae6ae	0.006680331
29	0x3d30d971	0.04317612
30	0x3d22e705	0.0397711
31	0x3dc1dfe3	0.09466531
32	0x3df740ab	0.12072881
33	0x3d91817b	0.071047746
34	0x3d975707	0.07389646
35	0xbd85e25b	-0.065373145
36	0x3dad8dfb	0.08474346
37	0x3d97a2b6	0.074040815
38	0xbd0aa06a	-0.03384439
39	0x3cafc272	0.021455023
40	0x3d43c353	0.047793698
41	0xbb3ced0c	-0.0028827814
42	0x3d92917f	0.071566574
43	0x3d12b97c	0.035821423
44	0x3cde77d1	0.027156742
45	0x3d1837ce	0.037162594
46	0xbc07b532	-0.008282946
47	0x3d1677ca	0.036735334
48	0x3c6d54a2	0.01448551
49	0x3cf9492a	0.030430395
50	0x3dcb00ef	0.099122874
51	0x3c0211f2	0.007938849
52	0x3d0bb5d7	0.034108963
53	0xbce91626	-0.028452944
54	0xbd8376f5	-0.06419174
55	0x3d6c2723	0.05765451
56	0x3d8f98f7	0.070115976
57	0xbd3082ba	-0.04309342
58	0x3d59f286	0.053209804
59	0x3d1fcd21	0.039013986
60	0xbc30354b	-0.0107548935
61	0xbd814dc1	-0.063136585
62	0x3d6ab144	0.05729796
63	0x3d6bb7f6	0.057548486
64	0x3d077787	0.033072975
65	0x3dc7cf91	0.09756387
66	0xb9a1d03c	-0.0003086346
67	0x3d92f890	0.07176316
68	0x3d6e940e	0.058246665
69	0x3df865c9	0.12128789
70	0x3d44fe72	0.04809422
71	0xbcf3a54d	-0.029741907
72	0x3cc69d41	0.024244906
73	0x3c4d4722	0.012529166
74	0x3cc0dd95	0.023543159
75	0x3d02091c	0.03174697
76	0xbd8fbafc	-0.07018086
77	0x3dc92810	0.098220944
78	0x3cd2472e	0.025668707
79	0xbad2819c	-0.0016060355
80	0x3d820bdf	0.063499205
81	0xbd948c42	-0.072533146
82	0x3d904509	0.070444174
83	0x3bb8ee70	0.0056436583
84	0x3db329ce	0.08748208
85	0x3d70f9c2	0.058831938
86	0xbcf3b909	-0.029751318
87	0xbc982b49	-0.018575327
88	0xbd872239	-0.06598324
89	0x3cd34a2c	0.025792204
90	0xbd1c17a7	-0.038108494
91	0xbd35986e	-0.04433482
92	0xbc634b23	-0.013872894
93	0x3d7d037c	0.0617709
94	0x3dc60b49	0.09670121
95	0x3dd215f5	0.10258094
96	0x3cc88c94	0.024481095
97	0x3d30d23d	0.04316925
98	0x3df9d35d	0.121985175
99	0x3dce0a74	0.100605875
100	0x3d94459e	0.07239841
101	0x3d0cba87	0.034357574
102	0x3d29658d	0.041356612
103	0xbae99c8d	-0.0017823145
104	0xbd91f6d7	-0.07127159
105	0x3c7d7991	0.015470878
106	0x3caf75ad	0.021418417
107	0x3da5a219	0.08087558
108	0xbd7116de	-0.0588597
109	0xb9a1c33c	-0.00030853774
110	0xbcbd57a4	-0.02311308
111	0xbd2afcab	-0.04174487
112	0x3d9e734e	0.077368364
113	0x3be12553	0.0068709045
114	0x3c314cfe	0.010821579
115	0xbcb379d0	-0.02190867
116	0xbc6936f8	-0.014234297
117	0x3b078a77	0.0020681897
118	0x3d95c28c	0.073124975
119	0x3d520c0b	0.051281016
120	0x3da4512f	0.08023297
121	0xbd29f55d	-0.041493762
122	0x3b5fc30d	0.003414336
123	0xbcee1040	-0.029060483
124	0xbd680ae6	-0.05665102
125	0x3c4652dd	0.012104717
126	0x3d1f99b6	0.03896495
127	0x3c0af5ee	0.008481486
128	0xbc75b1ed	-0.014996034
129	0x3d6d3516	0.057911955
130	0x3db9b1e6	0.090671346
131	0x3c83bc84	0.016081102
132	0x3be35a3c	0.006938247
133	0xbdbae8f8	-0.091264665
134	0x3d939e28	0.072079
135	0xbbb059cc	-0.0053817984
136	0xbd1fbea3	-0.039000165
137	0xbc2ea0fc	-0.010658499
138	0xbd5ac500	-0.05341053
139	0x3d974c00	0.07387543
140	0x3d900eeb	0.070340954
141	0xbca0aa35	-0.019612411
142	0xbd7dfbc4	-0.06200768
143	0x3d3cc16b	0.046082895
144	0xbd117a47	-0.035517003
145	0xbd540536	-0.051762782
146	0xbcbf5029	-0.023353653
147	0xb93be93d	-0.00017920598
148	0x3d67c00f	0.056579646
149	0xbd76d364	-0.06026019
150	0xbda7fd8b	-0.08202656
151	0x3d7a133a	0.061053492
152	0x3d8a8b33	0.067648314
153	0x3b7a4f39	0.0038194193
154	0x3d01055b	0.031499248
155	0xbd525b90	-0.051356852
156	0xbd405cdf	-0.04696357
157	0x3bbcc260	0.005760476
158	0x3d61cc4f	0.055126484
159	0x3d11f5e3	0.035634886
160	0xbc384af3	-0.011248338
161	0xbd620597	-0.055181112
162	0x3d99a595	0.075022854
163	0xbbcbef7b	-0.0062236167
164	0xbc87f9b9	-0.01659857
165	0x3d924c5e	0.07143472
166	0x3d03d8ae	0.032189064
167	0x3d2a99c1	0.041650537
168	0x3ccc6d99	0.024954604
169	0x3d82e546	0.06391387
170	0x3d27c90d	0.04096322
171	0xbd4af17b	-0.0495467
172	0xbd035a82	-0.032068737
173	0xbd73acec	-0.059491083
174	0xbc7a5cad	-0.015280885
175	0x3d2f9dae	0.042874984
176	0xbd876232	-0.06610526
177	0x3db7b302	0.0896969
178	0x3d242c15	0.040081102
179	0xbd6d8bb4	-0.05799456
180	0xbd2b7d3f	-0.04186749
181	0x3cbcf28a	0.02306487
182	0xbcd2e837	-0.025745494
183	0xbc196736	-0.009362986
184	0x3d019b21	0.031642083
185	0xbd589587	-0.052876975
186	0xbc6a4d12	-0.014300602
187	0x3da2383d	0.07920883
188	0x3d5e30d5	0.05424579
189	0xbd085479	-0.033283684
190	0x3da6a82c	0.08137545
191	0xbc880c9f	-0.01660758
192	0xbdaa960d	-0.08329401
193	0xbd9631d4	-0.07333723
194	0xbd336b6e	-0.043803625
195	0x3d95a9f8	0.073078096
196	0xbce1e48b	-0.027574798
197	0xbdaf82e1	-0.08569885
198	0xbc976fe7	-0.018485976
199	0x3d9c086f	0.07618796
200	0x3cf11c3b	0.029432407
201	0x3be7c829	0.0070734215
202	0x3d92af38	0.071623266
203	0xbceb9c9d	-0.028761202
204	0xbd80aead	-0.06283317
205	0x3dbf2524	0.09333256
206	0x3d65f1c4	0.05613877
207	0x3d9bc878	0.07606596
208	0xbb943baf	-0.0045237164
209	0xbc5947ed	-0.013261777
210	0x3ba33836	0.004981066
211	0xbd8a898f	-0.067645185
212	0x3da0f3d6	0.07859008
213	0x3d3c1276	0.045916043
214	0x3de6bc4d	0.11266384
215	0x3dcd05ce	0.10010873
216	0x3da7aca9	0.08187229
217	0x3d343e7e	0.04400491
218	0x3ac347de	0.0014898737
219	0x3d848d5c	0.06472275
220	0x3cb1bf92	0.021697793
221	0x3d20ea03	0.03928567
222	0x3cc30d2b	0.02380999
223	0x3d926090	0.07147324
224	0x3d352017	0.044220056
225	0xbd6c54aa	-0.05769793
226	0x3d984670	0.0743531
227	0xbd60809b	-0.054810148
228	0xbd6c1ddb	-0.05764566
229	0x3d9f29f7	0.07771676
230	0x3d667177	0.056260552
231	0x3dce4341	0.100714214
232	0x3d093522	0.033497937
233	0xbd6dff81	-0.058104996
234	0x3da5264e	0.08063947
235	0xbd927b88	-0.07152468
236	0xbd10ca37	-0.035349097
237	0x3d19545d	0.03743397
238	0x3bb8fa40	0.0056450665
239	0xbd8bd625	-0.06827954
240	0xbb574932	-0.0032850024
241	0x3d6a4e4c	0.057203576
242	0x3d88ce37	0.06679957
243	0x3daf1514	0.08548942
244	0xbd92a7bd	-0.071609
245	0x3cf322fd	0.02967977
246	0x3c3843e9	0.01124666
247	0xbdcee796	-0.10102765
248	0x3d476c84	0.048687473
249	0x3da71f82	0.081603065
250	0x3d265150	0.04060489
251	0x3d53c983	0.05170585
252	0xbd33fcb7	-0.04394218
253	0x3cf54be6	0.029943418
254	0x3c922872	0.017841551
255	0xbd3c7463	-0.046009433

mlp_head.0.weight f4 [64, 128]
0	0x3ccabf24	0.024749346
1	0xbc1c5335	-0.0095413225
2	0xbd38fcae	-0.04516285
3	0x3d1e01d0	0.038575947
4	0x3c9c2197	0.019058986
5	0x3d73a490	0.05948311
6	0xbc80797b	-0.015682926
7	0xbd7419a5	-0.05959477
8	0xbd80e8ce	-0.06294404
9	0xbd901c5c	-0.07036659
10	0xbd7e4dfb	-0.062086087
11	0xbda10849	-0.078629084
12	0x3d3f37cb	0.046684068
13	0x3d880b20	0.06642747
14	0x3d24f89b	0.04027615
15	0x3d224df2	0.039625116
16	0xbd085fa6	-0.033294342
17	0x3cfff07e	0.031242605
18	0x3d1cdcc8	0.03829649
19	0xbd5fadbe	-0.054609053
20	0xbd97a6d1	-0.074048646
21	0xbcfe0558	-0.031008407
22	0x3d02c1a6	0.03192296
23	0xbd462a77	-0.04838034
24	0xbdc69ca6	-0.09697847
25	0x3d04d0e5	0.03242578
26	0x3c4d09b6	0.012514522
27	0x3d043d86	0.032285236
28	0xbd76686d	-0.060158182
29	0x3ca07f9e	0.019592103
30	0xbcef7883	-0.02923227
31	0x39a2e165	0.0003106698
32	0xbc8e1f26	-0.017348837
33	0x3d999fb2	0.075011626
34	0x3d08ec66	0.033428572
35	0xbcfe424c	-0.031037472
36	0x3dbc005e	0.091797575
37	0xbd489e4d	-0.048979092
38	0xbab9f058	-0.0014186008
39	0xbd9e32a7	-0.07724505
40	0x3bc63b60	0.0060495585
41	0x3da1aefb	0.07894703
42	0xbd17ed3e	-0.037091486
43	0x3d5e03a1	0.05420268
44	0x3d98d2af	0.0746206
45	0xbd0fbd4b	-0.035092633
46	0x3d978960	0.07399249
47	0xbd2dc42f	-0.042423423
48	0xbd173fe0	-0.03692615
49	0x3c69d771	0.014272557
50	0x3cab1288	0.02088286
51	0xbd7b3bb7	-0.061336245
52	0xbd1c2941	-0.03812528
53	0xb90b3879	-0.0001327711
54	0xbd7e8b94	-0.06214483
55	0x3d7a67aa	0.061134018
56	0xbd185edc	-0.03719984
57	0xbc8be445	-0.01707662
58	0x3d08a73b	0.03336261
59	0x3d05b97a	0.032647587
60	0x3d9451a6	0.07242136
61	0xbcb5fa2b	-0.022214016
62	0xbd19dc0c	-0.03756337
63	0xbd93c11e	-0.072145686
64	0xbc0bdcb1	-0.008536504
65	0x3dcc7486	0.099831626
66	0xbb1aed10	-0.0023639835
67	0xbd91886e	-0.071061
68	0xbd0f6698	-0.03500995
69	0x3daa58f5	0.083177485
70	0xbd696bb9	-0.056987498
71	0x3d8d16cc	0.06889114
72	0x3c43d912	0.011953609
73	0xbd46726a	-0.048448958
74	0xbda2b2c2	-0.079442516
75	0x3d4b72df	0.049670096
76	0x3aeef0fb	0.0018229777
77	0xbcf7edce	-0.030264761
78	0xbcdab741	-0.02669871
79	0xbd1a2850	-0.0376361
80	0x3de0ea57	0.10982197
81	0xbdaa4521	-0.083139665
82	0x3d636a78	0.05552146
83	0xbdb0cb04	-0.08632472
84	0x3b1ed738	0.0024237167
85	0x3d84c4ac	0.06482825
86	0xbd22c8ac	-0.039742157
87	0xbcc80295	-0.024415294
88	0xbd6b8d57	-0.05750784
89	0x3b8dc5b4	0.0043265466
90	0xbcbce85f	-0.023060022
91	0x3da47901	0.08030892
92	0x3d8d58c5	0.06901697
93	0xbbde38dc	-0.0067816805
94	0xbddbf9a5	-0.10740975
95	0xbdb073ce	-0.08615838
96	0x3d964f88	0.07339388
97	0x3d68d30b	0.05684189
98	0x3db0e6f0	0.08637798
99	0x3cbc5261	0.0229885
100	0xbdbb257a	-0.091380075
101	0xbd6e4108	-0.058167487
102	0xbb115500	-0.0022175908
103	0x3db4d4fc	0.08829686
104	0x3cc68a60	0.024235904
105	0xbca30ea4	-0.019904442
106	0x3ddad268	0.10684663
107	0xbd29b18e	-0.041429095
108	0xbd49e3a4	-0.04928936
109	0xbc5aef95	-0.013362785
110	0x3d684ba1	0.05671275
111	0x3dbc9273	0.092076205
112	0xbd13febd	-0.03613161
113	0xbd0d5912	-0.034508772
114	0x3dc72af3	0.09724989
115	0x3d291164	0.04127635
116	0x3ce41676	0.027842741
117	0xbdb9d267	-0.09073334
118	0xbd8b6f07	-0.06808286
119	0x3d88f13c	0.06686637
120	0xbdb72fa0	-0.089446306
121	0xbbd2ea99	-0.0064366576
122	0x3d7e9b66	0.06215992
123	0xbd17aef7	-0.037032094
124	0x3d669b2e	0.056300335
125	0xbd31b589	-0.043386016
126	0x3bfc1397	0.007692765
127	0x3cec6a1a	0.028859187
128	0xbcbb1e67	-0.022841645
129	0xbdb8e69d	-0.09028361
130	0x3d29dafd	0.04146861
131	0x3ce168b2	0.027515743
132	0x3cf5cfff	0.030006407
133	0x3ce932cd	0.028466607
134	0x3c68a0b7	0.014198474
135	0xbd2aa12a	-0.041657604
136	0xbd6d446c	-0.05792658
137	0xbd676569	-0.056493197
138	0xbd9c5838	-0.07634014
139	0xbda88db3	-0.08230152
140	0x3c5e3376	0.013562074
141	0x3dca06c8	0.09864575
142	0x3d14df6c	0.036345884
143	0x3cad78e0	0.021175802
144	0xbd34daab	-0.04415385
145	0x3beab53e	0.007162719
146	0x3d730984	0.059335247
147	0xbda340ba	-0.0797133
148	0x3d687b7f	0.0567584
149	0x3d8d2100	0.0689106
150	0xbd780c26	-0.06055846
151	0x3d4e3129	0.05033985
152	0xbc8c29f2	-0.017109845
153	0x3d855738	0.06510776
154	0xbdb4902e	-0.088165626
155	0x3d9d9873	0.07695093
156	0x3db5ffbc	0.08886668
157	0x3c3febc3	0.011713925
158	0xbda31d9c	-0.07964632
159	0x3d5464b2	0.051853843
160	0x3d66aa82	0.056314953
161	0x3ce4af32	0.02791557
162	0x3d4314a5	0.04762711
163	0xbd54287c	-0.05179642
164	0x3db82332	0.08991088
165	0x3dc112dc	0.09427425
166	0xbccfe201	-0.025376322
167	0xbc97e749	-0.018542903
168	0xbc77e517	-0.015130303
169	0x3d42d52a	0.04756657
170	0xbb70a532	-0.0036719558
171	0xbc8ae15b	-0.016953161
172	0x3da38d6d	0.07985959
173	0x3d48e553	0.049046826
174	0x3d3634d7	0.044483986
175	0xbdb64e55	-0.089016594
176	0x3d67de57	0.056608524
177	0xbcb8518d	-0.022499824
178	0xbce5f7d3	-0.028072273
179	0x3d93e5dc	0.072215766
180	0xbd5c0898	-0.053719133
181	0x3db1a376	0.08673756
182	0xbdb81dbe	-0.08990048
183	0xbbc26495	-0.0059324005
184	0xbc973e09	-0.018462198
185	0x3dcb26a0	0.099194765
186	0xbdc036f8	-0.093854845
187	0xbd592b49	-0.053019796
188	0x3d2c92d3	0.04213221
189	0x3cb82d40	0.022482514
190	0x3dc03384	0.09384826
191	0x3c937868	0.01800175
192	0xbcfcd9f0	-0.03086564
193	0xbc3ab589	-0.01139582
194	0xbd7d166f	-0.061788972
195	0x3b7dc409	0.0038721582
196	0xbd7b860e	-0.06140714
197	0x3d8be20d	0.06830225
198	0x3d5cd2d0	0.053911984
199	0x3bffd7d7	0.0078077125
200	0x3d727740	0.059195757
201	0xbd3dc300	-0.046328545
202	0x3d94f72d	0.072737075
203	0xbd5d7fbc	-0.054076895
204	0x3dac4a29	0.084125824
205	0xbb41e1da	-0.002958408
206	0x3d5d4edd	0.054030288
207	0xbdbe90f7	-0.093049936
208	0xbd4c7210	-0.049913466
209	0x3cb2ef24	0.021842547
210	0x3d15a906	0.036538146
211	0x3c66f477	0.014096371
212	0x3cb624b7	0.022234304
213	0x3d2f3168	0.042771727
214	0xbcd81f54	-0.026382126
215	0xbdabd3fc	-0.08390042
216	0xbcbb5371	-0.022866936
217	0xbd5a42ec	-0.053286478
218	0xbd7bf793	-0.061515402
219	0xbd1f3a19	-0.038873766
220	0xbda494a8	-0.080361664
221	0x3c820281	0.015870335
222	0xbdcf96d4	-0.1013619
223	0xbd34c201	-0.04413033
224	0x3ce5e17d	0.028061623
225	0x3d5da785	0.054114837
226	0xbc36716b	-0.011135439
227	0x3d1508a9	0.036385212
228	0x3bb7f58d	0.0056139887
229	0x3b977780	0.0046224
230	0xbcf8100c	-0.03028109
231	0xbcda8535	-0.026674846
232	0x3d2bba93	0.041925978
233	0xbcc1caf3	-0.023656344
234	0xbd8c5016	-0.06851213
235	0x3d7b5e34	0.061369136
236	0xbd41f78f	-0.04735523
237	0xbd0522fe	-0.032504074
238	0xbba8e9e1	-0.0051548337
239	0x3b1a5493	0.0023548945
240	0xbcb16b41	-0.021657588
241	0xbd0b7038	-0.034042567
242	0xbd382d85	-0.044965286
243	0xbd51549f	-0.05110609
244	0x3d2cdf89	0.042205367
245	0xbda9b715	-0.08286873
246	0xbd44c4d0	-0.048039258
247	0x3a7ebd62	0.00097175513
248	0x3c636fc1	0.013881625
249	0xbd4c1975	-0.049828965
250	0x3d5aeabd	0.05344652
251	0x3dad704f	0.08468687
252	0x3c739f67	0.014869547
253	0x3c67cb32	0.014147567
254	0xbc8430e5	-0.016136596
255	0x3c8e52eb	0.017373523

mlp_head.0.bias f4 [64]
0	0x3d08fe56	0.03344568
1	0xbd462a59	-0.04838023
2	0xbd98ce12	-0.0746118
3	0x3d61adb9	0.055097315
4	0x3db96e10	0.09054196
5	0x3d45c0e7	0.04827967
6	0xbd6af22f	-0.05735987
7	0xbd435777	-0.047690835
8	0xbd1af03e	-0.03782677
9	0x3cc8ac84	0.024496324
10	0xbbfd1239	-0.0077231196
11	0x3d110e7a	0.035414197
12	0xbce9aa03	-0.02852345
13	0x3d3e157a	0.0464072
14	0xbc544f2c	-0.012958329
15	0xba17a91b	-0.00057853915
16	0xbc2db370	-0.010601863
17	0x3bd5119c	0.0065023433
18	0x3b8bdd30	0.004268311
19	0xbd9fbc75	-0.07799617
20	0x3d6a64bd	0.057224978
21	0xbc1f9331	-0.009739683
22	0xbd4823e6	-0.04886236
23	0x3d591083	0.052994262
24	0xbc9e3f8b	-0.019317409
25	0xbd807885	-0.06272987
26	0x3dab25b9	0.083568044
27	0x3c48ecc2	0.012263479
28	0x3d709266	0.058733366
29	0x3cdda836	0.027057748
30	0xbd7eb934	-0.062188342
31	0xbd40c150	-0.047059357
32	0xbd8b2b23	-0.06795337
33	0xbcd213ce	-0.02564421
34	0x3d8331b6	0.06405966
35	0xbd411eed	-0.047148634
36	0xbd92efd1	-0.071746476
37	0xbd17a24d	-0.037020016
38	0x3bc7951f	0.0060907747
39	0xbcfabb9b	-0.030607035
40	0xbbbc9d88	-0.005756084
41	0xbd708dd4	-0.058729008
42	0x3db19aec	0.08672127
43	0xbc3b877e	-0.011445878
44	0x3d60a0b0	0.054840744
45	0x3d79f9a8	0.061029106
46	0xbd391483	-0.045185577
47	0x3d3f5b5f	0.046717998
48	0x3d665756	0.056235634
49	0x3caf9bdc	0.021436624
50	0xbc460749	-0.012086698
51	0x3daf2b79	0.085532136
52	0xbc34501d	-0.011005429
53	0x3db7ece6	0.08980732
54	0x3ce74172	0.028229449
55	0xbc7e60a0	-0.015525967
56	0x3dac6e78	0.08419508
57	0x3cb1ce23	0.021704739
58	0x3dd19cfe	0.10235022
59	0x3c0a752f	0.00845079
60	0xbd855c9a	-0.06511803
61	0xbd4c70ef	-0.04991239
62	0x3ca4bbad	0.020109022
63	0xbd641c49	-0.055691037

mlp_head.2.weight f4 [64, 64]
0	0xbcfb1f4c	-0.030654572
1	0x3d81b23f	0.06332826
2	0x3d03ef8f	0.032210883
3	0x3c9abf39	0.01889001
4	0xbd9dda7e	-0.0770769
5	0xbd364518	-0.044499487
6	0x3d6ca32a	0.057772793
7	0xbd920bc4	-0.0713115
8	0xbd894beb	-0.06703933
9	0x3bc5c15a	0.006035012
10	0xbae06b4f	-0.0017121824
11	0x3db3209d	0.08746455
12	0x3d316e2c	0.04331796
13	0x3bce9f65	0.0063056224
14	0x3cdbdeb5	0.026839593
15	0x3d20f945	0.039300222
16	0x3cc91a3f	0.024548648
17	0xbde2a62a	-0.110668495
18	0x3e1e926c	0.15485543
19	0xbd8d3090	-0.06894028
20	0x3d858e9e	0.06521343
21	0x3d8ed701	0.069746025
22	0xbd924b65	-0.071432866
23	0xbd695415	-0.056964952
24	0x3d326c2e	0.0435602
25	0xbdaf94a5	-0.085732736
26	0xbca1a691	-0.019732745
27	0x3db29b18	0.08720988
28	0xbd8c1826	-0.068405434
29	0x3df5767a	0.11985488
30	0xbde49505	-0.11161236
31	0x3dc7d396	0.09757154
32	0xbd3d520f	-0.046220835
33	0xbd95b05d	-0.07309029
34	0x3de98261	0.11401821
35	0x3df2ed0e	0.11861621
36	0xbd80be8b	-0.06286343
37	0x3dbfe848	0.09370476
38	0xbdcc116b	-0.0996426
39	0xbdb6c007	-0.08923345
40	0x3dbfe79d	0.093703486
41	0x3e100766	0.14065322
42	0xbe06335a	-0.13105527
43	0x3e136304	0.1439324
44	0xbe02b6a9	-0.12764992
45	0x3dc67e9a	0.09692116
46	0xbdca38c2	-0.09874107
47	0xbde98395	-0.114020504
48	0xbc3a875e	-0.011384813
49	0x3d405379	0.046954606
50	0xbd8206dd	-0.06348965
51	0xbdb67f55	-0.089110054
52	0x3d93fd13	0.072260045
53	0xbdb647bc	-0.08900401
54	0xbda1614a	-0.078798845
55	0xbd8ea43a	-0.069649175
56	0x3cfb99fc	0.030713074
57	0x3d8900e1	0.06689621
58	0x3c4379f6	0.011930933
59	0x3c369483	0.011143806
60	0x3d2ff099	0.04295406
61	0xbc735c42	-0.014853539
62	0x3c6b9c11	0.014380471
63	0x3dca38ee	0.0987414
64	0x3dcfd5a6	0.10148172
65	0x3d81b704	0.063337356
66	0xbdeb7b5c	-0.11498138
67	0xbde418f8	-0.11137575
68	0x3c04161e	0.008061914
69	0xbe08ddff	-0.13365935
70	0xbdcbdc20	-0.09954095
71	0x3cc4a9aa	0.024006683
72	0xbd8bc450	-0.06824553
73	0x3da7e25f	0.08197474
74	0xbdf38c77	-0.11892026
75	0x3d5caec1	0.053877596
76	0xbd3e180a	-0.046409644
77	0x3db111d1	0.08645976
78	0x3b74e40d	0.0037367374
79	0x3ce7e906	0.028309356
80	0xbb839127	-0.0040151062
81	0xbdc86c75	-0.097863115
82	0x3dbbc9ee	0.091693744
83	0x3d5ac912	0.05341441
84	0xbdd69830	-0.10478246
85	0x3a9f460e	0.0012151615
86	0xbbdde4f0	-0.0067716762
87	0xbc72361f	-0.014783411
88	0xbdeda769	-0.116041966
89	0xbdca609e	-0.098817095
90	0xbdc142e8	-0.094365895
91	0x3d0db59a	0.034597017
92	0x3da7e67c	0.08198258
93	0xbdbdf3cc	-0.09275016
94	0xbdd84b69	-0.10561258
95	0xbd917819	-0.07102985
96	0xbdd79a6a	-0.10527499
97	0x3dcda8ea	0.100419834
98	0x3d898cec	0.06716332
99	0x3db524cb	0.08844908
100	0x3c839972	0.01606438
101	0x3d5f9edc	0.05459486
102	0xbe0a2922	-0.13492253
103	0xbd57e3e4	-0.052707568
104	0x3daf0447	0.08545738
105	0xbcd071a9	-0.025444822
106	0x3d531e20	0.0515424
107	0xbdee6b15	-0.11641518
108	0xbd3d6e75	-0.04624792
109	0xbe0be31e	-0.13660857
110	0x3dc8233a	0.09772344
111	0x3d90032d	0.07031856
112	0xbdfcf1f6	-0.12350838
113	0xba6088c1	-0.00085653
114	0xbdc050c3	-0.09390404
115	0xbc99659a	-0.018725205
116	0x3dd600dc	0.10449383
117	0xbaa3e4ba	-0.0012504079
118	0x3ccd7e8b	0.025084754
119	0x3d8ec4ee	0.06971155
120	0xbd8b5353	-0.06803002
121	0xbd87d7bc	-0.06632945
122	0x3d5928b8	0.053017348
123	0xbd11d05b	-0.035599094
124	0xbdc5e284	-0.09662345
125	0x3cb78f4e	0.0224072
126	0x3de80056	0.11328189
127	0xbb3005fc	-0.0026859036
128	0x3c5e18c6	0.013555711
129	0x3dc836d7	0.09776085
130	0x3d987424	0.07444027
131	0x3d79bfa3	0.060973775
132	0x3dc8f195	0.09811703
133	0xbd5a795c	-0.053338394
134	0x3d052134	0.032502368
135	0xbd505310	-0.050860465
136	0x3dbd634e	0.092474565
137	0x3d5cf83c	0.053947672
138	0x3d426598	0.04746017
139	0x3dce85de	0.10084127
140	0x3d91fc4c	0.071282
141	0x3cd39edd	0.025832588
142	0x3cb1f94d	0.021725321
143	0xbcdbe720	-0.026843607
144	0xbda7c3f2	-0.081916705
145	0xbb9bd688	-0.0047557987
146	0x3c8e6b5f	0.017385183
147	0xbda59811	-0.08085645
148	0x3d424ef3	0.047438573
149	0xbd95540b	-0.072914205
150	0x3d28d132	0.04121513
151	0x3d63f8ce	0.0556572
152	0xbd231b2b	-0.03982083
153	0xbd69e281	-0.057100777
154	0x3ced2965	0.028950403
155	0xbe1248e1	-0.14285614
156	0xbe0663fa	-0.13124076
157	0xbddb35f9	-0.10703654
158	0xbcaca99e	-0.021076974
159	0x3de9ac59	0.11409826
160	0x3d176432	0.036960788
161	0x3d7231da	0.059129573
162	0x3d33b215	0.043871004
163	0x3c7c7122	0.015407832
164	0xbd91e644	-0.07123998
165	0x3de7a612	0.11310972
166	0x3d048038	0.03234884
167	0x3daeff95	0.08544842
168	0xbd073109	-0.033005748
169	0xbddd5d48	-0.108088076
170	0x3d7d387b	0.061821442
171	0x3d84bdc1	0.06481505
172	0xbcdbd542	-0.026835088
173	0x3d5c51e1	0.053789023
174	0xba64110c	-0.000870005
175	0xbcb0f2e6	-0.021600198
176	0x3dfaf848	0.12254387
177	0x3c26fa2a	0.01019148
178	0x3da636f9	0.08115954
179	0x3c5a1ce6	0.013312554
180	0x3de10507	0.10987287
181	0x3d405ea9	0.046965275
182	0x3dde7346	0.108618304
183	0x3d2a3e4a	0.04156331
184	0xbddd6c1e	-0.10811637
185	0xbe0af923	-0.135716
186	0x3dac6baf	0.084189765
187	0xbe004384	-0.12525755
188	0x3cc46f92	0.023978982
189	0x3db5bf6a	0.088744
190	0x3c992097	0.018692298
191	0xbc81753f	-0.015802978
192	0xbc65ccce	-0.01402588
193	0xbbf6ae10	-0.007528074
194	0x3c903c6f	0.017606942
195	0x3bfad563	0.007654832
196	0xbdeb46c2	-0.11488105
197	0xbd636720	-0.05551827
198	0x3dc1f1ee	0.094699726
199	0xbd21adca	-0.03947238
200	0xbceda617	-0.029009862
201	0xbdbd06eb	-0.09229835
202	0xbe0960ee	-0.13415882
203	0x3df9a1e4	0.12189081
204	0x3db2ac35	0.08724252
205	0x3d47e943	0.04880644
206	0x3dbfdc9f	0.09368252
207	0x3e0fa889	0.14029135
208	0xbd9ff1fc	-0.07809827
209	0xbd4fd17e	-0.050736897
210	0x3e2034f4	0.156452
211	0x3d67a67d	0.05655526
212	0x3e236d97	0.15959774
213	0x3e1628fb	0.1466407
214	0x3d1d394c	0.03838472
215	0xbd80e0c8	-0.062928736
216	0xbc7219cf	-0.014776661
217	0x3d94428c	0.07239255
218	0xbde0a001	-0.10968018
219	0x3cb78cce	0.022406008
220	0xbdb0132d	-0.085974075
221	0xbd777ac9	-0.06041983
222	0x3db4fd5f	0.08837389
223	0x3dd5f2e6	0.1044672
224	0xbc88217a	-0.016617525
225	0x3d5b03fd	0.0534706
226	0x3d949d49	0.07256562
227	0x3e0958be	0.13412759
228	0xbd470c66	-0.04859581
229	0xbdc758bd	-0.09733722
230	0x3dd1fcda	0.10253306
231	0x3db201f4	0.08691779
232	0xbdb44bde	-0.08803533
233	0x3c277a5b	0.010222043
234	0xbbd242af	-0.0064166407
235	0x3dd73499	0.10508079
236	0xbd59dd3d	-0.053189505
237	0x3d9b64cb	0.07587584
238	0xbd37b093	-0.04484613
239	0xbc68b7ae	-0.014203949
240	0xbd8675a7	-0.06565409
241	0x3d98c42f	0.07459294
242	0x3c18471b	0.009294297
243	0xbd61b320	-0.055102468
244	0x3bed6953	0.0072452216
245	0xbd8ed99d	-0.069751
246	0xbc09173d	-0.008367357
247	0x3de68124	0.112551
248	0xbdb0e5df	-0.086375944
249	0x3d2dc797	0.04242667
250	0x3c57f8bf	0.013181864
251	0x3deb724d	0.114964105
252	0x3dbbd972	0.09172334
253	0x3dcf149d	0.101113535
254	0x3c8be701	0.017077925
255	0x3deedee0	0.11663604

mlp_head.2.bias f4 [64]
0	0x3e069c20	0.13145494
1	0xbde8ac61	-0.11361004
2	0xbd27dce9	-0.04098216
3	0xbd057273	-0.03257985
4	0xbc27f0f3	-0.010250318
5	0x3d0afc66	0.033932112
6	0xbc90b863	-0.017666047
7	0xbdbe79ce	-0.09300576
8	0x3dd49330	0.10379636
9	0xbd32b028	-0.043625027
10	0x3dda17e7	0.1064909
11	0x3c68eed9	0.014217102
12	0xbdb619cd	-0.0889164
13	0xbdec43e0	-0.11536384
14	0x3e0059e4	0.1253429
15	0x3cbf3bb1	0.023343893
16	0xbd9d7dae	-0.07689987
17	0x3cc492c2	0.02399576
18	0xbdeb7ab5	-0.11498014
19	0xbdbfe83a	-0.093704656
20	0x3dacd28f	0.08438598
21	0x3d575a79	0.052576516
22	0xbd83bf06	-0.06432919
23	0x3dffe710	0.124952435
24	0xbd4b9337	-0.049700942
25	0x3cd9cb4a	0.026586194
26	0xbdf5a410	-0.11994183
27	0x3d893f6e	0.067015514
28	0x39b2766c	0.00034039037
29	0x3dc97eab	0.09838613
30	0xbd542d6b	-0.051801126
31	0x3cc02f5a	0.023460079
32	0xbd181fc7	-0.03713968
33	0x3dec5eda	0.11541529
34	0x3d674d5f	0.05647027
35	0x3dda2e36	0.10653345
36	0xbce1d167	-0.027565671
37	0x3d5e57f1	0.054283086
38	0xbc916786	-0.01774956
39	0xbcc2582b	-0.023723682
40	0x3d32414a	0.043519296
41	0xbac81ee1	-0.0015267992
42	0x3d5730e2	0.052536853
43	0x3da28163	0.07934835
44	0x3d7952fd	0.06087016
45	0x3da4f331	0.080541976
46	0xbcd8acc9	-0.026449578
47	0x3d99467c	0.07484147
48	0xbdb87682	-0.090069786
49	0x3cd7693d	0.026295299
50	0x3de74f73	0.112944506
51	0xbd96de92	-0.07366671
52	0xbdd24750	-0.10267508
53	0x3d83ede3	0.06441858
54	0x3cab1abd	0.020886773
55	0xbc727478	-0.014798276
56	0xbce1cb6e	-0.027562823
57	0x3de65e9d	0.11248515
58	0xbd797d00	-0.060910225
59	0xbd02fc6e	-0.031979017
60	0x3df48b0f	0.11940586
61	0xbc223c4f	-0.009902074
62	0x3d2d032d	0.042239357
63	0x3d76c78f	0.060248908

mlp_head.4.weight f4 [1, 64]
0	0xbe170e29	-0.14751495
1	0x3d2e7547	0.042592313
2	0x3d98c6a4	0.07459763
3	0xbd011d68	-0.031522185
4	0x3de447fc	0.111465424
5	0xbd711508	-0.058857948
6	0x3dca26bc	0.09870669
7	0xbdb1e6ec	-0.08686623
8	0x3e12347d	0.14277835
9	0xbd87848b	-0.066170774
10	0xbe07ff03	-0.13280873
11	0x3d77a818	0.06046304
12	0xbe145406	-0.14485177
13	0x3d83e406	0.064399764
14	0x3d4d4e43	0.050123464
15	0xbdc08f58	-0.09402341
16	0xbd501684	-0.050802723
17	0x3dd6a17c	0.104800195
18	0x3d800567	0.062510304
19	0x3daa0462	0.08301617
20	0x3e0235e1	0.12715866
21	0x3e050e9d	0.12993856
22	0x3da4897f	0.08034038
23	0xbd48b45d	-0.049000133
24	0xbcf02f18	-0.029319331
25	0x3d10530c	0.03523545
26	0xbd0ea27a	-0.03482292
27	0xbd7a2bb2	-0.061076827
28	0x3d2055ee	0.03914445
29	0xbe0113e3	-0.12605242
30	0xbdcc3a5d	-0.099720694
31	0xbda3609f	-0.079774134
32	0xbdc05fd0	-0.09393275
33	0xbd30cda0	-0.04316485
34	0x3e1cf4a4	0.15327698
35	0xbe199380	-0.14997673
36	0x3e1ab7c3	0.15109162
37	0x3def23e7	0.1167677
38	0xbd7d71d2	-0.061876126
39	0x3ddaaa00	0.10676956
40	0xbdb0c0fb	-0.08630558
41	0x3e01b540	0.12666798
42	0xbdd814d8	-0.10550851
43	0x3df2848b	0.11841687
44	0xbe010e5b	-0.12603132
45	0x3e169295	0.14704354
46	0xbd386ced	-0.045025755
47	0xbcc6f352	-0.024285946
48	0x3e2314ad	0.15925856
49	0x3e04719e	0.12933967
50	0x3d89ba14	0.06724945
51	0xbe117ad7	-0.14207016
52	0x3d8fe4ca	0.0702606
53	0x3e15d5b6	0.14632306
54	0xbd1fd973	-0.039025735
55	0x3dbc9822	0.092087045
56	0x3d96899d	0.073504664
57	0xbdaa32ba	-0.083104566
58	0xbd2fbb6f	-0.04290336
59	0x3db07061	0.086151846
60	0x3cd28c4e	0.025701668
61	0x3da93203	0.08261492
62	0x3d6fbdfd	0.058530796
63	0x3de70be9	0.112815686
