runs/8_hour_forecasting/257/best_model.pt (torch, 340152 bytes, 10 tensors)

lstm.weight_ih_l0 f4 [512, 9]
0.12365423 0.05169726 -0.053212166 0.052201193 -0.0065456047 0.050849438 -0.041691523 0.07221168
0.07620607 -0.010277283 0.002669138 -0.0040436145 0.021311354 0.0408273 0.11250786 0.024867432
0.07239026 0.0025125241 -0.07680299 0.049507685 0.0072002537 0.02145524 -0.03116203 0.06015899
-0.013827518 -0.042847008 0.01755847 -0.046115436 -0.045825947 -0.079027705 0.10457898 -0.121673316
0.028617928 -0.04566799 -0.015497905 0.0033099267 0.015339169 0.030491523 -0.000540548 -0.05849821
0.047403898 -0.055873867 0.06533971 0.0825896 0.06456129 0.02943769 -0.024477344 -0.07318387
0.029203573 -0.09753903 -0.09494221 -0.15314929 -0.057236027 0.021895034 0.0059274454 0.030103382
0.034337826 0.0022309548 0.09681419 -0.09411986 0.08121487 -0.028687116 0.039645027 0.025517419
0.039629 0.026998738 0.048074808 -0.05008335 -0.07491315 -0.08419658 0.10909472 0.081305884
0.12414397 -0.060114574 -0.14242303 -0.09491689 -0.09076008 0.06555432 -0.00093359454 0.08681444
-0.024217676 -0.045024756 0.045785137 0.04543232 0.02953705 0.015540191 0.10223326 -0.011212904
-0.02504619 0.100880384 0.057138562 -0.048170034 0.0174956 0.027546946 -0.07311245 -0.080798306
0.06430643 -0.004197976 -0.025252733 -0.12087788 -0.03439096 -0.0004896316 0.033348165 -0.12099897
-0.0049172305 -0.047419906 -0.09730262 -0.1034233 -0.03050612 -0.0883502 0.07880878 -0.018084083
0.05040216 -0.0019390389 -0.021979664 -0.007031936 0.058378514 -0.041363183 -0.06331555 -0.07278213
-0.024883049 0.009097023 0.014225709 -0.061555576 -0.03991454 -0.046340708 -0.0053975796 -0.068766385
0.09056862 -0.040485106 0.06918343 0.09028954 -0.05644591 0.08114705 -0.03714337 -0.113411404
-0.096373 -0.097784184 0.08729294 -0.005980726 0.041920036 -0.027372522 0.04782123 -0.04675446
-0.0008648151 0.011272393 0.052599 0.04525905 0.09415124 -0.07787523 0.06320321 -0.0074555846
0.00037084045 -0.08553553 0.04373119 -0.019937564 0.055390835 -0.034368563 0.09106314 -0.035349634
0.0969115 -0.025013423 0.077207014 -0.09820431 0.008887321 -0.06176312 0.002135737 0.08367104
0.025236545 -0.03213106 0.0020037973 -0.014588836 0.049312834 -0.032592688 -0.026531247 -0.0432501
-0.081811845 0.0017396898 0.06964102 -0.07502404 0.056625113 0.011768547 -0.00952776 -0.06535345
0.08715531 0.06083039 0.029577069 0.03249026 0.008833207 -0.03617722 -0.023821363 -0.017110763
0.10810445 0.11410962 -0.015011842 0.02525761 0.00055040466 0.01125568 0.03432381 0.012614205
-0.10797907 -0.07276952 0.085278444 -0.0029546018 0.008180988 -0.025513727 0.00996847 -0.10334655
-0.016580757 0.012255407 0.0497673 0.052945577 -0.08465558 -0.07187964 -0.03661038 0.12015666
0.018158266 -0.039370075 0.047207188 -0.02874665 -0.095021695 0.036135998 -0.050476998 -0.00501584
-0.12370643 0.087930895 0.05314862 0.101745866 -0.0016716532 -0.15739149 -0.02101118 0.09499727
0.087450124 0.03668834 0.07315795 -0.04235058 -0.006446648 -0.08465456 -0.06304511 -0.16251113
0.01858177 -0.02957352 -0.029015025 -0.022023503 -0.020705167 -0.07981343 -0.08268659 -0.0017081576
-0.024227113 0.0657628 -0.014042316 -0.030789036 -0.0055337786 -0.07877597 -0.029525053 -0.101369806
00000000: 6e3e fd3d 82c0 533d 00f5 59bd ebd0 553d
00000010: 837c d6bb 8047 503d bbc4 2abd b8e3 933d
00000020: ee11 9c3d 0d62 28bc b4ec 2e3b 4c80 84bb
00000030: 2695 ae3c 873a 273d 856a e63d c9b6 cb3c
00000040: 5841 943d 29a9 243b e34a 9dbd 92c8 4a3d
00000050: 1bf0 eb3b e6c2 af3c 8347 ffbc 4669 763d
00000060: d08c 62bc 5880 2fbd c8d6 8f3c 8ae3 3cbd
00000070: fdb3 3bbd 47d9 a1bd 812d d63d dc2f f9bd
00000080: 2570 ea3c 5c0e 3bbd edea 7dbc 5beb 583b
00000090: 2351 7b3c 5cc9 f93c 90b3 0dba d29b 6fbd
000000a0: 972a 423d ffdb 64bd d3d0 853d bc24 a93d
000000b0: b638 843d 4f27 f13c b684 c8bc 6de1 95bd
000000c0: 553c ef3c 8bc2 c7bd 1071 c2bd 2bd3 1cbe
000000d0: 5370 6abd 375d b33c 043b c23b 5e9b f63c
000000e0: d2a5 0c3d 3635 123b 8546 c63d eac1 c0bd
000000f0: fb53 a63d 3e01 ebbc d362 223d e809 d13c
00000100: 0552 223d 752c dd3c 17ea 443d 3324 4dbd
00000110: 116c 99bd 426f acbd 0d6d df3d b383 a63d
00000120: 323f fe3d b33a 76bd 58d7 11be c963 c2bd
00000130: 6ce0 b9bd 5841 863d 78bc 74ba c5cb b13d
00000140: 2664 c6bc e16b 38bd 3289 3b3d 3e17 3a3d
00000150: aff7 f13c 499c 7e3c ac5f d13d 54b6 37bc
00000160: ab2d cdbc 609a ce3d 200a 6a3d f14d 45bd
00000170: ef52 8f3c 22aa e13c fbbb 95bd 9579 a5bd
00000180: 17b3 833d 2d8f 89bb d2de cebc d28e f7bd
00000190: 89dd 0cbd 9f5a 00ba 1698 083d 4fce f7bd
000001a0: b820 a1bb 603b 42bd 9946 c7bd 98cf d3bd
000001b0: f8e7 f9bc f3f0 b4bd 7f66 a13d 1225 94bc
000001c0: 7f72 4e3d 5927 feba b20e b4bc 286c e6bb
000001d0: 4f1e 6f3d 716c 29bd 95ab 81bd cc0e 95bd
000001e0: 89d7 cbbc ae0b 153c f312 693c b321 7cbd
000001f0: 6e7d 23bd c1cf 3dbd 2ede b0bb 64d5 8cbd
00000200: 0a7c b93d b6d3 25bd 0bb0 8d3d b9e9 b83d
00000210: d433 67bd 6d30 a63d a523 18bd 3d44 e8bd
00000220: 355f c5bd 1343 c8bd a4c6 b23d f7f9 c3bb
00000230: 58b4 2b3d 573c e0bc 32e0 433d 9b81 3fbd
00000240: c2b4 62ba d8af 383c 0d72 573d 8e61 393d
00000250: 5ed2 c03d 0c7d 9fbd af70 813d fa4d f4bb
00000260: 5d6d c239 402d afbd 7a1f 333d 1a54 a3bc
00000270: 80e1 623d 0dc6 0cbd 507f ba3d c7ca 10bd
00000280: 8979 c63d f3e8 ccbc b61e 9e3d 571f c9bd
00000290: 209c 113c 53fb 7cbd b9f7 0b3b b95b ab3d
000002a0: dfbc ce3c dc9b 03bd 2452 033b 0306 6fbc
000002b0: 41fc 493d e97f 05bd 0f58 d9bc 0427 31bd
000002c0: f88c a7bd 4e06 e43a f39f 8e3d 34a6 99bd
000002d0: bcef 673d ddd0 403c 521a 1cbc 08d8 85bd
000002e0: 7c7e b23d 4929 793d 9c4b f23c 8214 053d
000002f0: 28b9 103c 912e 14bd 0525 c3bc df2b 8cbc
00000300: de65 dd3d 4eb2 e93d 3bf4 75bc 0ce9 ce3c
00000310: 0849 103a be69 383c 2097 0c3d cfab 4e3c
00000320: 2124 ddbd 3008 95bd 77a6 ae3d fea1 41bb
00000330: 8d09 063c 2a02 d1bc cb52 233c 5ba7 d3bd
00000340: 5ed4 87bc e7ca 483c ccd8 4b3d 76dd 583d
00000350: e85f adbd a235 93bd c4f4 15bd b214 f63d
00000360: a5c0 943c 8442 21bd 535c 413d 187e ebbc
00000370: bc9a c2bd 5703 143d f8c0 4ebd ea5b a4bb
00000380: cc59 fdbd 1d15 b43d 5eb2 593d 2360 d03d
00000390: 601b dbba 3c2b 21be a31f acbc ee8d c23d
000003a0: 0d19 b33d 8346 163d d6d3 953d cd77 2dbd
000003b0: 673e d3bb 5f5f adbd cb1d 81bd 5169 26be
000003c0: cc38 983c 2b44 f2bc ebb0 edbc a26a b4bc
000003d0: e29d a9bc 3975 a3bd 9657 a9bd 42e4 dfba
000003e0: f077 c6bc a6ae 863d be11 66bc 4a39 fcbc
000003f0: b354 b5bb 4c55 a1bd 86de f1bc f99a cfbd

lstm.weight_hh_l0 f4 [512, 128]
0.030871442 -0.051318664 0.021677753 -0.06356947 -0.01364815 0.07240173 0.11000418 0.020987174
-0.09167417 -0.047386933 -0.040735167 -0.045236416 0.11404946 -0.08566617 0.08440252 0.054725464
-0.056946576 0.11375931 0.07395292 -0.014410002 -0.022933338 0.022022204 -0.003043002 0.060101423
-0.008550183 0.012464619 -0.083338976 0.040558722 0.068108805 0.02247478 -0.032035947 0.08147795
0.016604425 0.011834713 0.05257747 -0.08770964 0.01979881 0.06504512 -0.08790375 0.07718507
0.09061905 0.102567166 0.028057253 -0.03780166 -0.037251376 0.024605356 -0.016601384 0.06603512
0.093382046 0.026992079 -0.029907621 0.056465823 0.073631115 -0.023126535 -0.072300866 0.0008593351
-0.0071741706 -0.07250177 0.05071704 0.06402266 0.011299412 -0.04840569 -0.025434695 0.042100925
0.061961647 0.027669113 0.03210719 0.043003142 0.08303996 -0.007663617 -0.06902367 0.06876897
-0.007354101 -0.02047216 -0.040878553 -0.0243832 0.046316043 -0.026137095 0.040177744 0.067696735
-0.12260653 0.04068111 -0.08864122 -0.031685434 0.06933556 -0.008718633 0.034882028 -0.008538776
0.08412444 -0.045063928 -0.0072495006 0.025556497 0.07808244 -0.011341296 0.03434719 -0.013202537
0.03695842 -0.020083258 0.015211567 0.056846697 -0.052912895 -0.06979944 0.067157164 0.010926352
-0.105120726 0.0049899356 -0.13189173 -0.042208437 0.006369889 0.03199316 -0.04913198 0.10756104
0.124153756 0.09695795 -0.053500574 -0.057689108 -0.017963365 0.044163812 -0.0441297 0.04765085
0.0128480615 -0.02358631 -0.06714452 0.08921157 0.025192888 0.041655805 -0.10643279 -0.059802167
0.1363814 0.0027697878 -0.026534751 -0.04661266 0.14741784 -0.029938342 0.054785315 -0.026137043
-0.10625748 -0.0811243 -0.13705885 -0.051029854 0.01390986 0.0052933306 0.070636265 0.122906804
-0.077771984 0.07013687 0.13139799 -0.061402872 0.02627579 0.15074477 -0.0778117 -0.062862016
0.06064654 0.009103191 0.013688541 -0.05502164 0.0424831 -0.087981544 -0.0147935115 -0.015142751
0.10249739 0.00347888 -0.06164724 -0.060882162 -0.095894314 0.107412525 0.13645591 -0.087947115
0.023368461 0.08775462 0.00532886 0.009532542 0.08285605 0.079798155 0.015463558 -0.028589042
-0.04605652 -0.006666264 0.06393908 0.022657415 0.08307647 -0.08918877 -0.030670166 -0.0273347
-0.030680321 0.13667837 -0.030780597 0.035458453 0.040959295 -0.13032687 -0.08299897 0.0150833335
0.03135576 0.08857803 0.04737845 0.04942719 0.08579796 -0.015641175 0.013989379 0.13860573
-0.024304112 0.037588917 -0.030004585 0.018226918 0.030467825 -0.0124958735 0.03278822 -0.054238986
-0.002417842 -0.043103307 -0.09279025 0.04799773 -0.025687426 0.018309083 0.10751014 0.07275541
-0.04317234 -0.024834218 -0.11224663 0.0037150264 0.039681654 -0.0670427 -0.0013126313 -0.008093482
-0.078167595 -0.030642034 0.06767225 -0.0660875 0.017687302 0.009740736 -0.007850746 -0.1245192
0.033376 -0.10495315 0.022219285 -0.0633113 -0.055322867 -0.061581414 -0.08134028 0.13596804
0.0071788533 0.006468088 0.056700695 0.015809014 -0.01876941 0.050444994 -0.012525756 0.13740711
-0.091295905 0.02212194 -0.022991015 0.036961216 -0.04815775 0.00036315125 -0.022920435 -0.04326396
00000000: 1be6 fc3c 8533 52bd 8b95 b13c b630 82bd
00000010: 7d9c 5fbc 5c47 943d df49 e13d 4bed ab3c
00000020: abbf bbbd cd18 42bd ebd9 26bd d249 39bd
00000030: c392 e93d bf71 afbd 3adb ac3d cf27 603d
00000040: d040 69bd a4fa e83d a174 973d ee17 6cbc
00000050: b2de bbbc e967 b43c 1a6d 47bb e92c 763d
00000060: 1116 0cbc 6738 4c3c a0ad aabd e720 263d
00000070: a17c 8b3d 081d b83c 2038 03bd e9dd a63d
00000080: 0106 883c 62e6 413c 795b 573d 1da1 b3bd
00000090: 1d31 a23c 6036 853d e206 b4bd 3513 9e3d
000000a0: 7b96 b93d bc0e d23d 53d8 e53c ead5 1abd
000000b0: e694 18bd 2c91 c93c a0ff 87bc 6c3d 873d
000000c0: 163f bf3d 7e1e dd3c d400 f5bc b548 673d
000000d0: e9cb 963d dc73 bdbc 7a12 94bd 0145 613a
000000e0: 4e15 ebbb cf7b 94bd acbc 4f3d 501e 833d
000000f0: 2b21 393c 0b45 46bd 6c5c d0bc 0572 2c3d
00000100: 7fcb 7d3d 56aa e23c d482 033d 1024 303d
00000110: db10 aa3d 141f fbbb 485c 8dbd bfd6 8c3d
00000120: acfa f0bb 3bb5 a7bc 4570 27bd 47bf c7bc
00000130: e4b5 3d3d 761d d6bc 6b91 243d 96a4 8a3d
00000140: 2219 fbbd 3ca1 263d 8789 b5bd 96c8 01bd
00000150: cdff 8d3d 99d8 0ebc 75e0 0e3d 39e6 0bbc
00000160: 6f49 ac3d f494 38bd 388d edbb dc5b d13c
00000170: b0e9 9f3d d8d0 39bc a4af 0c3d 744f 58bc
00000180: b661 173d a585 a4bc f039 793c 15d8 683d
00000190: 31bb 58bd 02f3 8ebd b289 893d 7104 333c
000001a0: 8949 d7bd 9d82 a33b a00e 07be c1e2 2cbd
000001b0: 80ba d03b 420b 033d 9d3e 49bd f648 dc3d
000001c0: 5344 fe3d e491 c63d 6b23 5bbd 6a4b 6cbd
000001d0: e827 93bc 1de5 343d 58c1 34bd 8a2d 433d
000001e0: ad80 523c 1438 c1bc 1183 89bd 8eb4 b63d
000001f0: 5161 ce3c 479f 2a3d 6ff9 d9bd 1ef3 74bd
00000200: 91a7 0b3e 5485 353b 685f d9bc ebec 3ebd
00000210: b4f4 163e 4141 f5bc 9166 603d 5a1d d6bc
00000220: 869d d9bd 7f24 a6bd 2859 0cbe ae04 51bd
00000230: 2ee6 633c ad73 ad3b bfa9 903d 90b6 fb3d
00000240: eb46 9fbd eba3 8f3d 328d 063e 9481 7bbd
00000250: 5340 d73c d65c 1a3e be5b 9fbd cdbd 80bd
00000260: 8268 783d 8d25 153c e745 603c 5f5e 61bd
00000270: c202 2e3d ab2f b4bd 7c60 72bc 4d19 78bc
00000280: 27ea d13d ecfd 633b d181 7cbd 935f 79bd
00000290: 3d64 c4bd 19fb db3d 19bb 0b3e 9e1d b4bd
000002a0: 376f bf3c b2b8 b33d b89d ae3b 612e 1c3c
000002b0: 6fb0 a93d 376d a33d dd5a 7d3c 9133 eabc
000002c0: c3a5 3cbd ad70 dabb 7ef2 823d 0b9c b93c
000002d0: ff23 aa3d 9aa8 b6bd 0040 fbbc 05ed dfbc
000002e0: 4c55 fbbc 6af5 0b3e 9727 fcbc e23c 113d
000002f0: efc4 273d 6874 05be 5dfb a9bd 1620 773c
00000300: e66e 003d 6668 b53d e80f 423d 2a74 4a3d
00000310: d7b6 af3d ec21 80bc b533 653c a9ee 0d3e
00000320: 6b19 c7bc d6f6 193d 2dcc f5bc 9e50 953c
00000330: a997 f93c 7ebb 4cbc f14c 063d b329 5ebd
00000340: a874 1ebb 188d 30bd d108 bebd 4599 443d
00000350: 706e d2bc eefc 953c 472e dc3d ca00 953d
00000360: 7bd5 30bd 2171 cbbc 90e1 e5bd cd77 733b
00000370: 3b89 223d af4d 89bd 990c acba 869a 04bc
00000380: 5516 a0bd 0105 fbbc c097 8a3d e258 87bd
00000390: f6e4 903c 9c97 1f3c 6aa0 00bc ec03 ffbd
000003a0: 46b5 083d adf1 d6bd 3805 b63c 5ba9 81bd
000003b0: 3b9a 62bd cb3c 7cbd bc95 a6bd 353b 0b3e
000003c0: 963c eb3b 41f2 d33b fd3e 683d e881 813c
000003d0: 4ec2 99bc 699f 4e3d d438 4dbc 73b4 0c3e
000003e0: 59f9 babd 1239 b53c a757 bcbc a564 173d
000003f0: 1041 45bd 5665 be39 a3c3 bbbc 8d35 31bd

lstm.bias_ih_l0 f4 [512]
-0.0054263296 -0.004403998 0.015402308 0.06422151 -0.04374376 0.043737758 0.05024326 0.13798591
0.08274403 0.07569665 -0.04131734 -0.0057836347 -0.014298985 0.115375705 0.032002956 0.04428489
0.09141532 0.05509735 0.12674648 0.034192678 0.01900532 0.01409365 0.14680241 0.0043844804
0.08285469 -0.030378243 0.044567835 0.009540705 -0.03422013 0.046167072 0.008597245 -0.013950702
0.10328023 0.05473828 -0.013282004 0.04134581 -0.009673524 0.043202218 -0.01347939 0.10047183
0.04457276 -0.0149325235 0.04204127 0.017486107 0.05739785 -0.014684894 0.010226393 0.078693524
-0.034207705 -0.029064527 0.046069305 0.023120943 -0.005777326 0.016649358 -0.028311314 -0.015878387
0.1317457 0.070830986 0.07598355 0.10067173 0.054252964 0.035815377 0.053307455 0.08420023
0.05355654 0.010505083 0.0105820615 0.134387 -0.04490294 0.09617854 0.052926373 0.104804024
0.11492805 -0.027390938 -0.024672262 0.10732666 0.09937612 -0.0052705766 0.095545664 0.09022899
0.08220249 0.008547967 0.096975036 -0.00883501 -0.00090465375 -0.05831185 0.010995265 -0.015334094
-0.0052301674 0.08653971 0.119780876 -0.012366046 0.06275192 0.078510396 -0.018957425 0.07419933
-0.012303966 0.038102094 0.08169966 0.035566572 0.08529439 0.06831621 0.0688233 0.09663333
0.00759825 0.14700375 -0.0060749967 0.01677839 0.14366077 0.0035580618 0.027016904 0.070527874
0.09282888 0.038241383 -0.04049765 0.075373836 -0.020406043 -0.044986997 -0.028569574 0.14188477
-0.026157215 0.12634358 -0.031540446 0.084123746 -0.0016855008 0.051001735 0.067930065 0.06361857
0.022026662 -0.035992745 -0.018663533 -0.014557347 0.07021913 0.014211108 -0.009928584 -0.007643875
0.07219481 -0.06529384 -0.024558708 -0.021215374 0.010708851 -0.059750095 -0.046141278 -0.018306475
0.05054768 0.12013166 -0.065059714 -0.037530314 0.1415281 0.09195555 -0.019744799 0.01565444
-0.053465527 0.02025641 0.046472207 -0.01890456 0.0057242056 -0.058970176 -0.062300824 -0.008808004
-0.0008309433 0.11155417 0.05957215 0.03189502 -0.010516841 -0.02762067 -0.025386589 0.027208231
0.1058905 -0.043908242 0.025024304 0.08373485 0.07862494 0.047558993 0.05258293 0.014787841
-0.06850928 -0.007880346 -0.042259075 -0.040713143 -0.06719032 0.070068546 0.09052374 0.114004545
0.05479154 0.04239505 0.054953277 0.021307198 0.057319645 -0.03676261 0.043543354 0.016065607
0.1084939 -0.085071996 -0.011240396 0.023031784 -0.069345914 0.00249006 -0.012660771 0.0893759
-0.03122292 0.08414506 0.025404565 0.026987974 -0.04155353 -0.025562355 -0.024001332 0.03635652
0.07703278 -0.0369174 -0.050418645 0.012669715 0.08247377 0.023906918 -0.042026054 -0.061851624
0.064434595 0.029361658 -0.064569965 -0.022307534 0.008188697 0.03376125 0.009686083 0.031173911
-0.030111456 0.07744776 0.047855925 0.07642627 -0.061063293 0.0059313145 0.03626684 0.02913409
0.05468013 -0.0064959046 0.05309782 -0.007679984 0.07599465 0.03181068 0.05020847 0.104359604
-0.0071361926 -0.03872603 0.021173641 0.0919524 0.09059666 -0.017941838 0.02667792 0.003978135
0.09603168 0.12048787 -0.015279224 -0.04961645 -0.029432125 0.09438756 -0.021943739 -0.052775454
00000000: 5acf b1bb 6a4f 90bb f659 7c3c 9186 833d
00000010: a82c 33bd 5d26 333d e0cb 4d3d 2e4c 0d3e
00000020: b475 a93d d806 9b3d 5f3c 29bd a584 bdbb
00000030: 4a46 6abc 194a ec3d 8815 033d 1364 353d
00000040: f537 bb3d c2ad 613d d4c9 013e 9f0d 0c3d
00000050: 0bb1 9b3c 0de9 663c 5f53 163e b0ab 8f3b
00000060: b8af a93d cbdb f8bc c38c 363d 9e50 1c3c
00000070: 682a 0cbd af19 3d3d 76db 0c3c 7c91 64bc
00000080: 9684 d33d 3f35 603d c39c 59bc 395a 293d
00000090: b37d 1ebc cff4 303d a9d8 5cbc 2dc4 cd3d
000000a0: ed91 363d 8ba7 74bc 7733 2c3d 063f 8f3c
000000b0: 021a 6b3d e998 70bc 9a8c 273c 122a a13d
000000c0: 611d 0cbd bb18 eebc 2bb3 3c3d 2268 bd3c
000000d0: b94f bdbb 3c64 883c 21ed e7bc 6413 82bc
000000e0: 58e8 063e d60f 913d 439d 9b3d fb2c ce3d
000000f0: 5b38 5e3d 25b3 123d eb58 5a3d 2c71 ac3d
00000100: 1a5e 5b3d 831d 2c3c 6260 2d3c bf9c 093e
00000110: 25ec 37bd 41f9 c43d 53c9 583d 7ea3 d63d
00000120: 665f eb3d f662 e0bc 7c1d cabc 14ce db3d
00000130: b585 cb3d cdb4 acbb 72ad c33d fac9 b83d
00000140: c759 a83d c60c 0c3c d99a c63d b8c0 10bc
00000150: 4926 6dba 68d8 6ebd 7c25 343c da3b 7bbc
00000160: d361 abbb bb3b b13d ad4f f53d f59a 4abc
00000170: 1484 803d 0fca a03d 9a4c 9bbc d1f5 973d
00000180: 9396 49bc f110 1c3d 2752 a73d 41ae 113d
00000190: d3ae ae3d 5ee9 8b3d 3bf3 8c3d b2e7 c53d
000001a0: befa f83b 2788 163e c410 c7bb d672 893c
000001b0: cf1b 133e 5f2e 693b 8e52 dd3c eb70 903d
000001c0: 111d be3d ffa2 1c3d dde0 25bd 995d 9a3d
000001d0: 932a a7bc 4944 38bd bd0a eabc 3e4a 113e
000001e0: a847 d6bc 3660 013e 8e30 01bd 1249 ac3d
000001f0: 06ec dcba 32e7 503d eb1e 8b3d 744a 823d
00000200: 4271 b43c 216d 13bd 44e4 98bc f081 6ebc
00000210: 0ccf 8f3d b5d5 683c 80ab 22bc 7979 fabb
00000220: dfda 933d c7b8 85bd 582f c9bc ddcb adbc
00000230: 2d74 2f3c 84bc 74bd a3fe 3cbd 76f7 95bc
00000240: 160b 4f3d 9607 f63d 073e 85bd 63b9 19bd
00000250: beec 103e 3153 bc3d d8bf a1bc bd3d 803c
00000260: abfe 5abd c5f0 a53c a459 3e3d bcdd 9abc
00000270: 1e92 bb3b b68a 71bd 262f 7fbd 724f 10bc
00000280: a9d3 59ba 8376 e43d ed01 743d 5aa4 023d
00000290: d44e 2cbc be44 e2bc 89f7 cfbc cce3 de3c
000002a0: 1edd d83d 21d9 33bd c5ff cc3c 2d7d ab3d
000002b0: 1d06 a13d 38cd 423d 3361 573d b348 723c
000002c0: 984e 8cbd 911c 01bc da17 2dbd d3c2 26bd
000002d0: 149b 89bd 1980 8f3d 8364 b93d 377b e93d
000002e0: 186d 603d 6fa6 2d3d b016 613d 6f8c ae3c
000002f0: 01c8 6a3d 6494 16bd 845a 323d 059c 833c
00000300: 0d32 de3d 3a3a aebd a329 38bc 27ad bc3c
00000310: 3b05 8ebd 4630 233b 1f6f 4fbc b60a b73d
00000320: 36c7 ffbc 3f54 ac3d 3c1d d03c e215 dd3c
00000330: 0934 2abd 2568 d1bc 719e c4bc 93ea 143d
00000340: 5dc3 9d3d b336 17bd c883 4ebd a394 4f3c
00000350: 02e8 a83d 71d8 c33c 8323 2cbd 2158 7dbd
00000360: 49f6 833d dc87 f03c 423d 84bd 4abe b6bc
00000370: e229 063c 3d49 0a3d 60b2 1e3c 6e60 ff3c
00000380: 4dac f6bc ee9c 9e3d 9304 443d 6085 9c3d
00000390: 811d 7abd 795b c23b 8a8c 143d 9daa ee3c
000003a0: 46f8 5f3d 99db d4bb 1a7d 593d 60a8 fbbb
000003b0: 15a3 9b3d ea4b 023d 66a7 4d3d 7dba d53d
000003c0: b9d6 e9bb 309f 1ebd 5874 ad3c 8a51 bc3d
000003d0: be8a b93d c3fa 92bc a78b da3c 045b 823b
000003e0: 42ac c43d 58c2 f63d b655 7abc 9e3a 4bbd
000003f0: a41b f1bc 444e c13d 5bc3 b3bc 132b 58bd

lstm.bias_hh_l0 f4 [512]
-0.04781732 0.05063877 -0.0012861561 -0.022483543 0.07527385 0.057411924 0.06593755 -0.020217935
0.08262802 -0.03422808 0.021074194 0.09706984 0.093310714 0.029832233 0.06556811 0.008597764
-0.02086117 0.034108404 0.023541724 -0.045319125 -0.021418024 -0.012205448 0.09313589 0.012236316
-0.057153624 0.0459465 -0.0044865827 -0.015148743 0.093531154 -0.025732832 0.09295097 0.013153714
-0.015475292 0.03558498 0.11891483 0.026869047 0.08906466 0.09463348 0.07900223 0.040143624
0.05117059 0.11069768 -0.00123302 -0.058047585 0.060696997 0.043433066 0.11724752 0.10209166
0.07845091 -0.03572487 -0.030439928 -0.034790356 0.072534576 -0.0067952806 0.0006499917 0.066312164
0.07427859 -0.03629978 0.043608855 0.10180204 0.08460674 0.04017597 0.11828088 0.10332678
0.06830163 0.0872096 -0.017721144 0.09129295 0.05403041 0.04861747 -0.0013632985 0.045262553
0.13252725 0.04331789 -0.009878071 0.09974493 0.109396465 0.09586043 0.14411908 0.060091782
-0.039182425 0.052891478 0.07640071 0.03585757 0.029222237 0.114847206 -0.020076906 0.1260272
-0.03961414 0.10144024 0.118719004 0.111499876 0.02902863 -0.03155957 0.13505071 -0.015621221
0.08661081 0.010059732 0.00826204 -0.026787208 -0.04509886 0.015036365 0.030293936 0.0836384
0.06659247 0.00812713 0.1020733 0.060360402 0.07500423 0.11984483 0.0037580263 -0.029306263
0.08470064 0.058844708 -0.048578624 0.032683343 0.04827992 -0.004561377 0.08675308 0.029675212
0.04014432 0.104589954 0.060072012 0.092656165 0.03753739 0.025127742 -0.020566449 0.07340564
0.04879636 -0.0022969306 -0.043104187 -0.037249982 -0.05363976 0.03609102 0.112678245 0.013316986
-0.064537786 0.034645494 0.066117324 -0.030594086 0.07648339 0.017296528 0.049644887 0.1079364
0.104330875 0.01856078 -0.011481354 -0.08718225 -0.021907717 0.016542293 0.0093927635 0.035844248
-0.044758584 0.09123787 -0.0369959 0.04645324 0.012965553 0.0011588294 0.023378326 0.078926295
0.00515287 0.14108479 -0.03200528 0.08489224 -0.02538352 0.097652934 0.012448092 0.09508926
0.054030716 -0.024726091 0.11503116 -0.01856508 -0.07513099 0.056384683 0.012644392 -0.040988605
-0.038976025 -0.016486274 0.038636852 0.06108657 0.008007729 0.024789965 0.10546044 0.087592244
-0.024979675 -0.049419466 0.01610471 -0.017028686 0.02743565 0.033935845 -0.000112641676 -0.016177446
0.10303996 -0.0675551 0.053816613 0.018615946 0.053670324 0.016327078 -0.07199051 -0.010681914
-0.00073667767 0.084891565 -0.024176506 0.09135486 -0.043416582 0.10012188 -0.013961487 -0.085893095
-0.03873139 0.09088726 0.055546504 -0.03772569 0.093360566 -0.036021013 0.09444507 0.09358735
-0.01933423 0.020397054 -0.06356673 0.05120372 -0.041065928 -0.029768996 -0.010121434 -0.03225164
0.042637676 0.09123486 -0.03803503 -0.057580337 0.09774469 0.039702363 -0.0015185106 0.0051625283
-0.06502886 0.083182395 0.042022668 -0.039803993 0.051598374 -0.036661573 0.06981838 -0.030216942
0.07101149 -0.043899383 0.07125648 0.04752473 -0.018736193 -0.064074665 -0.02489754 0.124665864
-0.0069063012 0.01422666 0.06835361 0.08512225 0.01880372 0.06472276 0.05310012 0.05398482
00000000: 18dc 43bd 996a 4f3d 3d94 a8ba 682f b8bc
00000010: 2d29 9a3d c428 6b3d 440a 873d 15a0 a5bc
00000020: e138 a93d be32 0cbd caa3 ac3c 8dcc c63d
00000030: b019 bf3d ba62 f43c 9348 863d a3dd 0c3c
00000040: 0be5 aabc 41b5 0b3d 93da c03c 8ca0 39bd
00000050: da74 afbc 5cf9 47bc 08be be3d d47a 483c
00000060: eb19 6abd 6632 3c3d 2f04 93bb 6f32 78bc
00000070: 438d bf3d a9cd d2bc 145d be3d ad82 573c
00000080: 148c 7dbc 8ec1 113d 9e89 f33d 7a1c dc3c
00000090: 8867 b63d 33cf c13d eccb a13d a46d 243d
000000a0: 4198 513d 77b5 e23d 499d a1ba 4ec3 6dbd
000000b0: 6a9d 783d dfe6 313d 781f f03d 6f15 d13d
000000c0: dfaa a03d 3e54 12bd 285d f9bc 5580 0ebd
000000d0: 028d 943d f2aa debb 3464 2a3a acce 873d
000000e0: 601f 983d 14af 14bd 339f 323d 977d d03d
000000f0: 4c46 ad3d 8f8f 243d 3f3d f23d fe9c d33d
00000100: bae1 8b3d f29a b23d ef2b 91bc ccf7 ba3d
00000110: fe4e 5d3d 1d23 473d b5b0 b2ba 3a65 393d
00000120: 39b5 073e 1a6e 313d a2d7 21bc 1247 cc3d
00000130: 410b e03d 7952 c43d f493 133e cd22 763d
00000140: c07d 20bd bca4 583d fa77 9c3d 63df 123d
00000150: 7963 ef3c 0335 eb3d 5378 a4bc 460d 013e
00000160: 7042 22bd e7bf cf3d f322 f33d 0c5a e43d
00000170: 73cd ed3c 9c44 01bd bc4a 0a3e 26f0 7fbc
00000180: 0261 b13d 93d1 243c 825d 073c d970 dbbc
00000190: 95b9 38bd 165b 763c fd2a f83c 9c4a ab3d
000001a0: a261 883d a727 053c ce0b d13d 783c 773d
000001b0: d19b 993d 3571 f53d 3849 763b b013 f0bc
000001c0: 8777 ad3d 2607 713d 61fa 46bd f8de 053d
000001d0: 2ac1 453d 9b77 95bb 99ab b13d 6e19 f33c
000001e0: 5f6e 243d 4233 d63d 120e 763d 84c2 bd3d
000001f0: cec0 193d b2d8 cd3c f87a a8bc b255 963d
00000200: b1de 473d 1a88 16bb 048e 30bd 7093 18bd
00000210: 5db5 5bbd 2dd4 133d dac3 e63d 7d2f 5a3c
00000220: 632c 84bd 6fe8 0d3d 8568 873d 73a0 fabc
00000230: 53a3 9c3d 73b1 8d3c 7058 4b3d c20d dd3d
00000240: 6dab d53d c70c 983c 4a1c 3cbc 9c8c b2bd
00000250: d077 b3bc b483 873c 1be4 193c 6bd1 123d
00000260: c754 37bd ecda ba3d 0389 17bd c145 3e3d
00000270: 796d 543c dde3 973a e783 bf3c 1ca4 a13d
00000280: 68d9 a83b 8878 103e f817 03bd fcdb ad3d
00000290: 1af1 cfbc 43fe c73d 15f3 4b3c 28be c23d
000002a0: 504f 5d3d 5f8e cabc 7595 eb3d cb15 98bc
000002b0: 47de 99bd a0f3 663d 6d2a 4f3c abe3 27bd
000002c0: 53a5 1fbd 390e 87bc ad41 1e3d e935 7a3d
000002d0: da32 033c 5314 cb3c a5fb d73d 9063 b33d
000002e0: 2da2 ccbc 116c 4abd 06ee 833c be7f 8bbc
000002f0: bac0 e03c 5000 0b3d 0a3a ecb8 9086 84bc
00000300: 9d06 d33d 545a 8abd cf6e 5c3d 7880 983c
00000310: 6ad5 5b3d 5dc0 853c c36f 93bd 3203 2fbc
00000320: 9a1d 41ba a1db ad3d cf0d c6bc 4218 bb3d
00000330: 96d5 31bd b30c cd3d b9be 64bc b8e8 afbd
00000340: cea4 1ebd 1a23 ba3d bb84 633d 4186 1abd
00000350: d333 bf3d c58a 13bd 6b6c c13d b9aa bf3d
00000360: d262 9ebc b917 a73c 462f 82bd feba 513d
00000370: bf34 28bd 1cde f3bc 5fd4 25bc 4c1a 04bd
00000380: d8a4 2e3d 58d9 ba3d 9fca 1bbd 5cd9 6bbd
00000390: 5e2e c83d f29e 223d c308 c7ba 6d2a a93b
000003a0: da2d 85bd 885b aa3d f61f 2c3d 8309 23bd
000003b0: d158 533d 722a 16bd f0fc 8e3d 8589 f7bc
000003c0: 796e 913d d7cf 33bd ebee 913d 4ba9 423d
000003d0: a57c 99bc 9439 83bd edf5 cbbc d150 ff3d
000003e0: 414e e2bb f016 693c fafc 8b3d 9354 ae3d
000003f0: 420a 9a3c 5e8d 843d 837f 593d 301f 5d3d

mlp_head.0.weight f4 [64, 128]
0.036618832 -0.05978573 -0.13231562 -0.0061588557 -0.053001154 0.08458451 0.045338135 0.02014614
0.034652933 -0.1134858 -0.05427944 0.092271365 0.03060041 0.013004132 0.03146629 0.06761151
0.002593796 -0.054513644 -0.098342106 -0.019859947 -0.03531303 0.10526885 -0.044969257 0.028267756
0.007268606 0.03994001 0.028126365 0.024143789 -0.065604694 0.047419507 -0.07009086 -0.016060758
-0.023134282 -0.020683989 -0.124118164 0.12073295 -0.088175 0.07952462 0.015592521 0.0790421
-0.08512183 0.047326453 -0.048664942 0.03438299 -0.09382575 0.01093642 0.110976554 0.055102557
-0.03758256 -0.074732 0.011196894 -0.028522896 0.0922347 -0.045174453 0.011680345 0.09423172
-0.01255544 0.058443516 0.033564463 -0.05641851 -0.031875685 -0.069492646 -0.047735926 -0.1191884
0.113624066 -0.042428374 -0.077748604 0.013701016 0.072951145 0.012595447 0.025237646 0.0433649
0.06022984 0.018970704 -0.016304081 -0.06521899 -0.0151623115 0.048799634 0.025877202 0.044457
-0.10715826 0.102485426 -0.066335246 0.037002858 -0.027135264 -0.082798764 -0.058896583 0.040632173
-0.024348194 -0.07008693 0.055493046 0.051600505 -0.05350224 0.051159345 -0.021453464 -0.0106010595
-0.02541519 0.0751983 -0.02726392 -0.016087871 -0.0109925885 -0.029082865 0.0073423055 -0.017112276
0.038745806 0.047114234 -0.016758017 -0.026528083 -0.045075644 -0.09909822 0.04530133 -0.032887995
-0.0030110567 0.09109535 0.064092286 -0.010128749 0.07683693 0.06121926 -0.048462823 0.07969056
0.0071636047 0.07757923 -0.039955065 -0.10747565 0.07229784 -0.07303554 0.058134343 0.047225334
0.04417838 -0.05138815 -0.036734074 0.0780456 -0.11680846 0.02128208 0.040882383 -0.0015100032
0.036980588 -0.02010464 0.0849677 -0.046931814 -0.08385655 0.07151385 -0.022147428 0.113383755
-0.047024433 0.042553887 -0.030178096 -0.0216126 0.09309702 0.09006112 -0.032219242 -0.03884047
0.04498642 -0.09424788 -0.0030039044 -0.12007425 0.07447527 0.012404464 -0.12836389 0.11151833
-0.040477026 -0.08410657 -0.12800497 0.059059992 0.0105763655 0.112523325 -0.029388042 -0.02588208
-0.014915569 0.030607717 0.013663852 -0.032371283 -0.093484215 -0.069553114 0.10144256 0.10625248
-0.078225 -0.11538629 0.09890508 -0.10630336 0.04556977 0.02335616 -0.04840104 0.07300792
-0.11404499 -0.030188369 -0.121134914 -0.015287165 -0.041503463 0.062243108 -0.035511438 -0.10704098
0.11738552 0.05359487 0.011505624 0.038119655 0.032789048 0.068018265 0.07638785 -0.005946579
0.0024848478 0.060850065 0.017654477 0.056862533 0.010553137 -0.11440461 -0.036094453 0.04916165
0.028461121 0.0018489569 -0.055010118 -0.003934137 0.0834799 0.029401105 -0.038572583 0.008136427
0.11294876 -0.01559777 0.059459556 0.09759011 -0.10757127 -0.013093856 -0.05516217 0.0076458985
0.04361444 -0.047453653 -0.09673889 -0.08259541 -0.06275387 -0.002630423 -0.0798965 -0.07971027
0.06597365 0.024439905 0.06496947 0.002674963 -0.08082109 -0.060900506 0.0009026638 0.009508095
0.06447835 0.022630887 0.06297004 -0.024763778 0.03640173 0.03429118 -0.032181952 0.028359557
-0.060258955 0.033216268 -0.12814112 -0.016824178 -0.05247619 -0.04736939 -0.059211653 -0.07203771
00000000: a1fd 153d e2e1 74bd bf7d 07be 3ad0 c9bb
00000010: bd17 59bd a53a ad3d 7bb4 393d 8509 a53c
00000020: 3cf0 0d3d 3e6b e8bd 1e54 5ebd c5f8 bc3d
00000030: b6ad fa3c 480f 553c cce2 003d e777 8a3d
00000040: adfc 293b b349 5fbd 9667 c9bd 54b1 a2bc
00000050: 65a4 10bd 3297 d73d af31 38bd c891 e73c
00000060: 7d2d ee3b 2398 233d 4369 e63c 32c9 c53c
00000070: c15b 86bd f53a 423d cc8b 8fbd da91 83bc
00000080: 1b84 bdbc 7871 a9bc aa31 febd d642 f73d
00000090: 1895 b4bd cedd a23d c677 7f3c d3e0 a13d
000000a0: 5b54 aebd 62d9 413d e454 47bd 2ed5 0c3d
000000b0: b727 c0bd ac2e 333c ad47 e33d 38b3 613d
000000c0: 2cf0 19bd 170d 99bd 2d73 373c d9a8 e9bc
000000d0: 8ce5 bc3d d908 39bd eb5e 3f3c 8ffc c03d
000000e0: 55b5 4dbc 7862 6f3d e47a 093d 1817 67bd
000000f0: 1490 02bd 2952 8ebd bf86 43bd 0c19 f4bd
00000100: bcb3 e83d 60c9 2dbd a93a 9fbd 3a7a 603c
00000110: 6967 953d 225d 4e3c 2ebf ce3c 659f 313d
00000120: 91b3 763d 7368 9b3c 2390 85bc 8991 85bd
00000130: 586b 78bc 20e2 473d 6dfc d33c 8b18 363d
00000140: ca75 dbbd e1e3 d13d c6da 87bd 4f90 173d
00000150: c64a debc 6692 a9bd 8b3d 71bd ec6d 263d
00000160: dd75 c7bc bd89 8fbd ad4c 633d 0d5b 533d
00000170: 2a25 5bbd 768c 513d 2dbf afbc 11b0 2dbc
00000180: 8433 d0bc 9101 9a3d 9658 dfbc b6ca 83bc
00000190: 421a 34bc 303f eebc b997 f03b 0b2f 8cbc
000001a0: ecb3 1e3d dbfa 403d 1c48 89bc 6c51 d9bc
000001b0: 3da1 38bd 02f4 cabd e38d 393d 90b5 06bd
000001c0: 2655 45bb 3390 ba3d d142 833d 0df3 25bc
000001d0: ae5c 9d3d 0cc1 7a3d f480 46bd ce34 a33d
000001e0: acbc ea3b dce1 9e3d eca7 23bd 321c dcbd
000001f0: e410 943d a893 95bd 471e 6e3d 5a6f 413d
00000200: 64f4 343d 617c 52bd 7876 16bd 5fd6 9f3d
00000210: 4639 efbd c257 ae3c 4974 273d 4deb c5ba
00000220: f578 173d 7cb2 a4bc 8c03 ae3d 933b 40bd
00000230: fcbc abbd da75 923d 866e b5bc be35 e83d
00000240: b19c 40bd fc4c 2e3d 0e38 f7bc e80c b1bc
00000250: a7a9 be3d f771 b83d 53f8 03bd 2f17 1fbd
00000260: ae43 383d 0805 c1bd 27dd 44bb 7de9 f5bd
00000270: 7e86 983d 183c 4b3c d371 03be b963 e43d
00000280: 3dcb 25bd 1140 acbd bc13 03be e4e8 713d
00000290: 7e48 2d3c a172 e63d 31bf f0bc a806 d4bc
000002a0: 6e60 74bc 09bd fa3c 59de 5f3c c097 04bd
000002b0: a774 bfbd dd71 8ebd 1ec1 cf3d e69a d93d
000002c0: 6e34 a0bd a64f ecbd bf8e ca3d 93b5 d9bd
000002d0: 5ea7 3a3d 6b55 bf3c 2b40 46bd 2d85 953d
000002e0: 6b90 e9bd 994d f7bc 9515 f8bd 0477 7abc
000002f0: 89ff 29bd a1f2 7e3d 7174 11bd 4d38 dbbd
00000300: d267 f03d 4b86 5b3d 1682 3c3c 5b23 1c3d
00000310: cf4d 063d 294d 8b3d 3c71 9c3d 85db c2bb
00000320: d4d8 223b eb3d 793d 1fa0 903c b0e8 683d
00000330: 11e7 2c3c f74c eabd c7d7 13bd ba5d 493d
00000340: 4c27 e93c b358 f23a 4a52 61bd efe9 80bb
00000350: 83f7 aa3d 96da f03c 49fe 1dbd a64e 053c
00000360: ae51 e73d ca8d 7fbc dd8b 733d 53dd c73d
00000370: 534e dcbd 9d87 56bc baf1 61bd 728a fa3b
00000380: 0ea5 323d c35e 42bd 0a1f c6bd c827 a9bd
00000390: 1a85 80bd 2d63 2cbb c7a0 a3bd 233f a3bd
000003a0: 311d 873d 3236 c83c b70e 853d 6f4e 2f3b
000003b0: 8785 a5bd cf72 79bd bea0 6c3a d7c7 1b3c
000003c0: 3a0d 843d 6964 b93c 70f6 803d 68dd cabc
000003d0: fb19 153d e974 0c3d 39d1 03bd 4d52 e83c
000003e0: 18d2 76bd c80d 083d 6d37 03be dcd2 89bc
000003f0: 46f1 56bd 6806 42bd eb87 72bd 8288 93bd

mlp_head.0.bias f4 [64]
0.06607974 -0.009572854 -0.05188008 -0.014503831 0.054387987 -0.0081115775 -0.023207799 -0.040974222
0.035206147 -0.04816119 0.007941361 -0.007363411 -0.03864332 0.049055755 0.00622207 0.037234496
-0.017756406 0.07235882 0.06680311 0.1025986 -0.03778727 -0.073051065 0.10192738 8.258979e-05
0.032102074 0.06599213 0.0045309067 -0.046668164 0.0034043614 0.010930988 0.09671604 0.03778577
-0.041731026 0.10322162 -0.031131078 -0.06316687 -0.05884891 0.080846824 0.04141473 0.08114886
0.032963563 0.08122236 -0.060510408 0.038871203 -0.06000959 -0.0022875085 -0.037717246 -0.07772861
0.07028802 0.061029933 -0.03958108 0.032474726 0.10280327 0.06550311 0.018417438 -0.050028533
0.018909125 0.08159148 0.03969216 0.0019681305 -0.048813056 0.0862393 0.100093566 -0.0037988096
00000000: d154 873d 76d7 1cbc 3580 54bd 7aa1 6dbc
00000010: f0c5 5e3d 6ce6 04bc 481e bebc 96d4 27bd
00000020: 5234 103d ab44 45bd 7b1c 023c c548 f1bb
00000030: 7548 1ebd b0ee 483d 82e2 cb3b 3383 183d
00000040: e275 91bc dc30 943d 12d0 883d 371f d23d
00000050: d3c6 1abd cc9b 95bd 4dbf d03d 0e34 ad38
00000060: 777d 033d e226 873d 0078 943b 1e27 3fbd
00000070: b51b 5f3b e317 333c 0f13 c63d 40c5 1a3d
00000080: 27ee 2abd db65 d33d 9a06 ffbc a25d 81bd
00000090: 8e0b 71bd 0593 a53d 7ea2 293d 6031 a63d
000000a0: cd04 073d e957 a63d c3d9 77bd 6937 1f3d
000000b0: 9ecc 75bd 06ea 15bb 667d 1abd 2d30 9fbd
000000c0: 2af3 8f3d 86fa 793d c51f 22bd 3804 053d
000000d0: 858a d23d 7f26 863d 2be0 963c b8ea 4cbd
000000e0: 4fe7 9a3c 6f19 a73d 3f94 223d c0fb 003b
000000f0: 33f0 47bd 3b9e b03d dbfd cc3d 73f5 78bb

mlp_head.2.weight f4 [64, 64]
0.05517491 -0.033979278 -0.14483237 0.084004134 -0.011237829 0.14047636 0.08570245 -0.0432295
0.035660163 -0.036656987 0.14339541 -0.10606604 0.18175536 0.011540458 0.1525445 0.15682852
-0.11334535 0.11261586 0.086690575 0.08386867 -0.07691625 -0.07627483 -0.013503476 0.10517393
-0.081777275 -0.019886283 0.05091048 0.11977149 -0.037374917 0.100496024 0.093126476 -0.07926432
0.16459048 -0.017315825 -0.0068721487 -0.07209719 0.033459015 -0.082892686 0.16508918 -0.17808494
-0.05763378 -0.030977711 -0.023191085 0.13063845 -0.051809177 0.16155565 -0.05396284 -0.06662124
0.15176237 0.12656824 0.033330273 0.02847305 -0.09124455 0.04940151 0.06863397 -0.14354292
0.08092635 -0.07688283 -0.1391471 -0.042704534 0.046620768 -0.042870257 -0.09055015 -0.024879629
0.070975855 0.098977104 0.043785434 -0.045410693 0.11822563 0.0800564 0.09972895 -0.01605862
-0.0022657185 -0.11449043 0.10341863 0.10263817 -0.052956957 0.045065947 0.1239562 0.1107342
-0.070112295 0.13466166 0.06319952 0.049458448 0.13130711 -0.10927181 0.11279788 0.09872616
-0.016913744 -0.14093271 0.114041865 -0.07641669 0.10119197 -0.053850856 0.059095133 0.019040529
0.1662562 0.14140184 0.08865865 0.116027236 -0.112990804 -0.025893915 -0.041771896 0.07509872
-0.042573933 -0.04419722 -0.1517475 0.119332336 -0.11763956 -0.05088447 -0.0752749 0.113423176
-0.12608303 0.1562312 -0.086499915 -0.15330964 0.10823766 0.07624731 -0.00925915 0.004434084
-0.026575828 0.049287528 0.012142683 0.033117738 -0.09382061 -0.053270493 0.13138828 0.06875278
-0.033774607 0.112845 -0.10364489 0.026364166 -0.010663932 -0.030122267 0.09723568 0.005278701
0.13631864 -0.11052135 0.14717612 0.0845607 0.0803694 -0.03500986 0.09355925 0.071860954
-0.040516537 -0.049363438 0.04933333 -0.0085661905 0.09656133 0.09981019 -0.015110679 0.053654708
-0.066795826 -0.016688136 0.03197805 -0.07783954 0.08661498 -0.05380426 0.06322307 0.06317068
0.13471608 -0.00056879147 -0.0028777118 -0.055282112 0.09041016 0.100874804 -0.0843706 -0.030413862
0.10444022 -0.022342501 -0.060780052 0.0369908 -0.07859522 -0.017638357 0.061000496 0.034538943
-0.011775337 0.020247001 0.097552225 -0.00038068974 -0.03335353 0.119829096 0.07303893 0.030394489
-0.08012809 0.06891261 -0.009337457 -0.028583309 -0.039538153 -0.014878659 0.065881714 0.09369742
-0.0962959 -0.03469633 -0.006207874 0.12670511 -0.042297386 0.101768635 0.037468646 -0.1308626
-0.022687102 0.07863951 0.016860029 -0.020144008 0.056639206 0.01793314 -0.11319852 -0.004218473
-0.15856053 -0.029173076 0.13519594 0.08829005 0.0019417048 0.038638894 -0.05079893 0.058885965
-0.10983379 0.00024116924 -0.07630035 0.034730095 0.043038797 0.17727165 0.09012197 0.023640411
0.046448026 -0.041491356 -0.026558395 0.08160144 0.00074377656 0.06622426 0.003073033 -0.10950736
-0.017060203 0.0471012 0.10631965 0.019235471 -0.017207181 0.037351884 -0.06623489 -0.057035387
0.11616293 -0.0713695 0.031202935 -0.024894036 0.08179842 0.031221984 0.16636391 0.086412475
0.058252923 -0.092542015 0.009904013 0.018876288 -0.03188093 0.024760293 0.035213828 -0.032276344
00000000: 16ff 613d db2d 0bbd f04e 14be 5c0a ac3d
00000010: df1e 38bc 09d9 0f3e c484 af3d 6b11 31bd
00000020: 6410 123d a325 16bd 3fd6 123e 2739 d9bd
00000030: 141e 3a3e 3014 3d3c a034 1c3e a897 203e
00000040: 9b21 e8bd 25a3 e63d d48a b13d 56c3 ab3d
00000050: 4486 9dbd fa35 9cbd af3d 5dbc 6e65 d73d
00000060: d87a a7bd 8fe8 a2bc 8287 503d c14a f53d
00000070: 7116 19bd dcd0 cd3d 18b9 be3d 5555 a2bd
00000080: 688a 283e ebd9 8dbc c32f e1bb b1a7 93bd
00000090: 520c 093d a4c3 a9bd 230d 293e e65b 36be
000000a0: 6611 6cbd f8c4 fdbc 3bfb bdbc 16c6 053e
000000b0: dc35 54bd d86e 253e 2408 5dbd b770 88bd
000000c0: 9867 1b3e 1b9b 013e 5385 083d 5040 e93c
000000d0: 6cde babd 3d59 4a3d f88f 8c3d eafc 12be
000000e0: b7bc a53d bf74 9dbd 947c 0ebe f3ea 2ebd
000000f0: 6bf5 3e3d b998 2fbd 5b72 b9bd 5dd0 cbbc
00000100: ca5b 913d 82b4 ca3d 5b58 333d 9000 3abd
00000110: 4720 f23d 9cf4 a33d b13e cc3d 5e8d 83bc
00000120: 737c 14bb f579 eabd 26cd d33d f633 d23d
00000130: 65e9 58bd 1297 383d c0dc fd3d 9dc8 e23d
00000140: 0997 8fbd bfe4 093e c06e 813d f194 4a3d
00000150: 5f75 063e e6c9 dfbd 9302 e73d f130 ca3d
00000160: b18e 8abc aa50 10be c88e e93d 5b80 9cbd
00000170: bc3d cf3d b792 5cbd bd0d 723d e2fa 9b3c
00000180: 113f 2a3e a5cb 103e ab92 b53d b09f ed3d
00000190: b967 e7bd 7a1f d4bc 0219 2bbd 5ccd 993d
000001a0: 0162 2ebd 2508 35bd b263 1bbe 8364 f43d
000001b0: 02ed f0bd 3c6c 50bd ba29 9abd 694a e83d
000001c0: e91b 01be 12fb 1f3e de26 b1bd 34fd 1cbe
000001d0: b5ab dd3d 8d27 9c3d b1b3 17bc cb4b 913b
000001e0: 8db5 d9bc b8e1 493d 1bf2 463c 77a6 073d
000001f0: 0525 c0bd 2932 5abd a68a 063e 42ce 8c3d
00000200: 3e57 0abd 481b e73d c643 d4bd aaf9 d73c
00000210: c6b7 2ebc f9c2 f6bc 8023 c73d f4f8 ac3b
00000220: 1d97 0b3e 0459 e2bd 56b5 163e 292e ad3d
00000230: b698 a43d 8066 0fbd fe9b bf3d d62b 933d
00000240: abf4 25bd 5131 4abd bf11 4a3d 3559 0cbc
00000250: f2c1 c53d 4969 cc3d c892 77bc 0ac5 5b3d
00000260: 40cc 88bd 8fb5 88bc 6afb 023d 566a 9fbd
00000270: 3263 b13d db61 5cbd 197b 813d a15f 813d
00000280: 03f3 093e f31a 15ba fe97 3cbb 7f6f 62bd
00000290: f628 b93d 7397 ce3d 7eca acbd 7e26 f9bc
000002a0: c1e4 d53d 9f07 b7bc 81f4 78bd aa83 173d
000002b0: 88f6 a0bd 517e 90bc a8db 793d b578 0d3d
000002c0: 58ed 40bc 0add a53c 76c9 c73d 5097 c7b9
000002d0: b69d 08bd f568 f53d 6f95 953d ddfd f83c
000002e0: 321a a4bd 0e22 8d3d 22fc 18bc 8b27 eabc
000002f0: c2f2 21bd 9ec5 73bc feec 863d 6fe4 bf3d
00000300: c936 c5bd bd1d 0ebd 6c6b cbbb fcbe 013e
00000310: 0640 2dbd 136c d03d b978 193d d800 06be
00000320: 4dda b9bc c00d a13d 0b1e 8a3c 0c05 a5bc
00000330: 83fe 673d 85e8 923c a0d4 e7bd 1e3b 8abb
00000340: b15d 22be 60fc eebc ce70 0a3e 6ad1 b43d
00000350: cd80 fe3a d143 1e3d 8a12 50bd 6932 713d
00000360: 8af0 e0bd 60e2 7c39 5c43 9cbd 2541 0e3d
00000370: 7349 303d b386 353e de91 b83d 89a9 c13c
00000380: 4940 3e3d d7f2 29bd fe90 d9bc a81e a73d
00000390: 00fa 423a 96a0 873d f064 493b 6545 e0bd
000003a0: d7c1 8bbc 30ed 403d 1ebe d93d b593 9d3c
000003b0: 13f6 8cbc 4afe 183d 28a6 87bd f09d 69bd
000003c0: d5e6 ed3d 2c2a 92bd 4c9d ff3c 94ee cbbc
000003d0: ee85 a73d 3fc5 ff3c 4d5b 2a3e 06f9 b03d
000003e0: 9e9a 6e3d ab86 bdbd 7144 223c 72a2 9a3c
000003f0: 9495 02bd 19d6 ca3c 603c 103d 3334 04bd

mlp_head.2.bias f4 [64]
0.08772354 -0.044535153 -0.039293494 0.007002029 0.09703048 0.09872074 0.09103224 -0.076250985
0.053242244 -0.07322133 0.012159391 0.115081064 0.025987307 0.040836662 0.10946055 0.111581475
-0.09479605 0.0059829094 0.04204122 0.061160136 0.0380551 0.07315927 0.054823156 0.13274471
-0.02616257 -0.08215856 -0.064785935 0.09641644 0.03473513 -0.01257116 -0.06539747 0.1294199
-0.062801555 0.0251328 -0.10341672 0.05061817 0.09394132 0.016457273 0.12918442 0.11603463
0.0318696 -0.00049539027 0.06481908 0.0011717073 -0.04850723 -0.08911616 -0.108388975 -0.06145162
0.12648502 -0.09506112 -0.006094587 0.09169517 0.10145164 -0.007885326 0.116367586 0.080911234
0.019565793 -0.050772008 0.08762744 -0.0038909933 0.07523068 -0.09440315 0.051390152 -0.06635454
00000000: 66a8 b33d 7e6a 36bd 37f2 20bd 4771 e53b
00000010: ebb7 c63d 192e ca3d 1c6f ba3d 7a29 9cbd
00000020: 8a14 5a3d 11f5 95bd 2f38 473c 9faf eb3d
00000030: 55e3 d43c 5844 273d da2c e03d d484 e43d
00000040: 6e24 c2bd 480c c43b 6a33 2c3d 0d83 7a3d
00000050: aadf 1b3d 87d4 953d 3f8e 603d 3bee 073e
00000060: e352 d6bc bf42 a8bd 7dae 84bd fc75 c53d
00000070: 6c46 0e3d 44f7 4dbc 1cef 85bd a686 043e
00000080: 1a9e 80bd 4de3 cd3c 25cc d3bd 0055 4f3d
00000090: 4f64 c03d 67d1 863c ec48 043e 90a3 ed3d
000000a0: b389 023d 14dd 01ba debf 843d f993 993a
000000b0: 84af 46bd 8982 b6bd 0afb ddbd b2b4 7bbd
000000c0: 4a85 013e 68af c2bd 1ab5 c7bb adca bb3d
000000d0: e1c5 cf3d 7431 01bc 2152 ee3d cab4 a53d
000000e0: 7148 a03c 4ff6 4fbd 0476 b33d 0900 7fbb
000000f0: 8b12 9a3d 7056 c1bd 7b7e 523d e4e4 87bd

mlp_head.4.weight f4 [8, 64]
0.12951611 0.008025445 -0.13335638 0.14461221 0.051514402 0.089974165 0.124581136 0.066813655
0.0010988833 -0.16999282 -0.113523036 0.023063263 0.09379814 -0.04596165 0.0373583 0.060068924
-0.07977283 -0.038519915 -0.14949463 0.06350781 0.11855174 -0.024746934 0.123260655 -0.014661034
0.053557336 0.13005982 0.14078777 -0.08000251 -0.09899605 -0.052643172 -0.03609012 0.08165907
0.0039450917 0.07387383 0.10326886 -0.055442855 0.119398415 0.12760124 -0.029912308 -0.06925802
0.13442002 -0.04025571 0.04933728 -0.041482646 -0.08300226 -0.11666212 0.056497827 -0.12802678
-0.10616284 0.09854971 -0.12856735 0.06664449 0.040533192 0.093357325 -0.13221554 -0.08155984
0.050515812 0.05089016 -0.012788588 0.13272004 0.08261478 0.15340018 0.10485626 -0.050463274
0.1643537 -0.14942549 -0.104481995 0.17690252 0.0486896 0.07223065 0.11148079 0.11353247
0.046526823 0.03429214 0.102052435 0.020295378 0.041421358 0.06102936 0.067065276 0.124412045
-0.0709323 0.05814281 0.007729435 0.03506383 -0.004903615 0.040184695 -0.006209312 -0.06081145
0.012189225 0.0995342 -0.0036904323 -0.00036909344 -0.04345913 -0.1243997 0.030182227 0.0063210526
-0.02486097 0.021224847 -0.043226264 -0.15024236 0.0029661437 -0.011831929 -0.1396342 -0.09063863
-0.008625422 -0.104729585 0.16230184 -0.08221877 0.01993893 0.04657982 0.036689907 -0.033047628
-0.124553755 -0.110120595 -0.06265439 -0.02773098 0.06269217 0.15467624 -0.043126725 -0.06800636
-0.049254082 0.11099967 -0.03952175 0.06526345 -0.07674662 0.11901951 0.10604522 0.059407294
-0.02607337 0.05125827 -0.0038247963 -0.011305335 -0.08891486 0.042359952 0.09670436 -0.038854454
-0.109286085 0.00432852 -0.025261132 0.06225578 0.0628805 0.13324627 0.06442658 0.10547424
-0.03315036 -0.12494382 -0.03477228 0.15277606 0.07609641 0.064792044 0.090286456 0.13365093
-0.029752422 -0.030970957 0.117469706 0.11106914 -0.051487245 0.04273415 -0.061265305 -0.08259425
0.021211527 0.11328894 -0.077167474 -0.022483304 0.12622735 0.11938699 -0.10419893 -0.006334433
-0.029418059 0.06769068 0.1486165 -0.075986244 -0.026645536 0.04795972 0.074592635 -0.10391274
-0.08608873 -0.102199376 -0.15793537 -0.05114719 -0.06439829 -0.007914734 -0.15093105 -0.0080110915
-0.045064557 0.120636135 -0.13915607 0.07441728 0.018878624 0.08078432 0.14212385 0.03566785
0.1393313 -0.04108993 0.051653385 0.14555398 0.12765412 0.02666373 -0.09527593 -0.015958296
-0.062196117 -0.051427614 0.109150164 0.012261347 -0.13607696 -0.045721225 0.097456105 0.07949499
0.057684198 -0.014939915 -0.09820595 0.09498564 0.02984926 0.12790032 -0.12619826 0.16764101
0.009389284 -0.0011048921 0.11068687 0.08272553 -0.034126922 0.10741118 -0.10213184 -0.05558005
-0.070573546 -0.00011940203 -0.05875382 -0.13810651 -0.0030165098 0.124148786 -0.10358347 0.011840236
0.07724781 -0.082276076 0.111657016 0.02758161 -0.033337444 -0.08521085 -0.10204992 -0.07117866
-0.080186486 -0.060336888 0.034521215 0.050288036 0.020506473 -0.001981686 -0.109600544 -0.06566026
-0.13499513 -0.06592389 -0.09810968 0.118603304 -0.066599354 -0.016671894 -0.03223917 0.032363057
00000000: df9f 043e 287d 033c 938e 08be 3915 143e
00000010: c400 533d 6044 b83d 6524 ff3d 99d5 883d
00000020: 6808 903a 9912 2ebe c47e e8bd 2bef bc3c
00000030: 3d19 c03d 4842 3cbd 0405 193d d50a 763d
00000040: f05f a3bd 0fc7 1dbd 1f15 19be 6210 823d
00000050: 41cb f23d 15ba cabc 1570 fc3d d534 70bc
00000060: f05e 5b3d 672e 053e ab2a 103e 5bd8 a3bd
00000070: 71be cabd 5ea0 57bd 3cd3 13bd df3c a73d
00000080: d445 813b 2a4b 973d a07e d33d 0c18 63bd
00000090: 2887 f43d e6a9 023e a80a f5bc 26d7 8dbd
000000a0: 67a5 093e 2ce3 24bd e315 4a3d b5e9 29bd
000000b0: 17fd a9bd 8dec eebd 446a 673d 7419 03be
000000c0: e76b d9bd 6ed4 c93d 29a7 03be e87c 883d
000000d0: 2206 263d 2032 bf3d 8363 07be d808 a7bd
000000e0: abe9 4e3d 3372 503d 3a87 51bc c3e7 073e
000000f0: f031 a93d f014 1d3e e1be d63d 94b2 4ebd
00000100: 564c 283e ff02 19be a8fa d5bd ef25 353e
00000110: bf6e 473d aaed 933d 0a50 e43d b683 e83d
00000120: e992 3e3d ea75 0c3d de00 d13d 7e42 a63c
00000130: 71a9 293d ecf9 793d 8559 893d becb fe3d
00000140: f444 91bd 2827 6e3d 3347 fd3b 179f 0f3d
00000150: 81ae a0bb b598 243d 7c77 cbbb 6d15 79bd
00000160: 51b5 473c 96d8 cb3d 2edb 71bb e282 c1b9
00000170: 3302 32bd 45c5 febd b840 f73c d520 cf3b
00000180: 3ca9 cbbc bbdf ad3c 060e 31bd 22d9 19be
00000190: a263 423b b5da 41bc 45fc 0ebe bfa0 b9bd
000001a0: a451 0dbc 777c d6bd 7432 263e 5162 a8bd
000001b0: f856 a33c 7bca 3e3d 2848 163d f35c 07bd
000001c0: 0a16 ffbd e886 e1bd f250 80bd 152c e3bc
000001d0: c164 803d 7363 1e3e a6a5 30bd eb46 8bbd
000001e0: a6be 49bd cc53 e33d 8fe1 21bd d8a8 853d
000001f0: 552d 9dbd 80c0 f33d 3c2e d93d 1055 733d
00000200: d297 d5bc 31f4 513d 6fa9 7abb 033a 39bc
00000210: fe18 b6bd a181 2d3d ef0c c63d d925 1fbd
00000220: 62d1 dfbd 42d6 8d3b 6ff0 cebc ebff 7e3d
00000230: 7ec7 803d b671 083e 15f2 833d e102 d83d
00000240: acc8 07bd 8ce2 ffbd 616d 0ebd 5471 1c3e
00000250: 6fd8 9b3d b1b1 843d 1be8 b83d cadb 083e
00000260: 5abb f3bc ceb6 fdbc f593 f03d 3878 e33d
00000270: 4ae4 52bd 010a 2f3d 54f1 7abd 2d27 a9bd
00000280: ccc3 ad3c 0804 e83d fb09 9ebd e82e b8bc
00000290: be41 013e 2b81 f43d 4066 d5bd 1391 cfbb
000002a0: 24fe f0bc 69a1 8a3d ec2e 183e ad9e 9bbd
000002b0: bd47 dabc 6971 443d 06c4 983d 34d0 d4bd
000002c0: 4a4f b0bd e84d d1bd cfb9 21be b77f 51bd
000002d0: 40e3 83bd cdac 01bc ab8d 1abe f440 03bc
000002e0: 9d95 38bd 1410 f73d ee7e 0ebe 1668 983d
000002f0: 58a7 9a3c 4072 a53d ea88 113e 7418 123d
00000300: ddac 0e3e ea4d 28bd 8092 533d 1a0c 153e
00000310: c3b7 023e e56d da3c 0720 c3bd f9ba 82bc
00000320: 5bc1 7ebd c3a5 52bd 1f8a df3d d1e3 483c
00000330: c257 0bbe 2e46 3bbd 1197 c73d 45ce a23d
00000340: 4446 6c3d 8cc6 74bc 3320 c9bd d587 c23d
00000350: 6f86 f43c 4df8 023e 1e3a 01be 16aa 2b3e
00000360: 83d5 193c 07d2 90ba ccaf e23d 016c a93d
00000370: acc8 0bbd 65fa db3d 802a d1bd e8a7 63bd
00000380: dd88 90bd 7a67 fab8 d8a7 70bd cb6b 0dbe
00000390: a3b0 45bb b841 fe3d 9223 d4bd 8dfd 413c
000003a0: 1a34 9e3d 5c80 a8bd 6fac e43d d4f2 e13c
000003b0: d88c 08bd 0783 aebd 8cff d0bd 1ec6 91bd
000003c0: d038 a4bd d023 77bd 1e66 0d3d d4fa 4d3d
000003d0: 31fd a73c 2ddf 01bb 4076 e0bd e378 86bd
000003e0: 2a3c 0abe 1b03 87bd baed c8bd 4ae6 f23d
000003f0: 3e65 88bd 7f93 88bc 380d 04bd 208f 043d

mlp_head.4.bias f4 [8]
-0.032872032 0.09535353 -0.039944727 0.056930974 -0.11305393 0.0725801 -0.10310361 0.10852823
00000000: d3a4 06bd b648 c33d 159d 23bd 7430 693d
00000010: d288 e7bd e0a4 943d fc27 d3bd 0c44 de3d
