runs/4_hour_forecasting/328/best_model.pt (torch, 385145 bytes, 6 tensors)

net.0.weight f4 [64, 1422]
000000 7b be 8d 3c ec 33 9a 3c f7 70 aa ba dd d2 c4 3c
       0.017302742 0.018823586 -0.0013003637 0.024026329
000010 77 f6 f7 bb 28 e8 6b 3a ae 3b 86 bc 24 41 8c 3c
       -0.0075672227 0.00089991326 -0.01638588 0.017120905
000020 56 e5 96 3c 03 eb 9f bc 4c 14 b4 3c bd 3c 86 3b
       0.018419903 -0.019521242 0.021982335 0.004096596
000030 d9 64 ab 3c b3 0d 92 bb f2 48 82 3c d1 f9 15 3b
       0.020922111 -0.0044571995 0.015903924 0.0022884498
000040 7f 19 df 3c 67 e7 1c 3c d3 e6 a9 bb 4d e4 5d 3c
       0.027233837 0.009576655 -0.005184987 0.013543201
000050 4e 11 a6 bb e5 fa 5e bb c0 67 be bb c0 be 77 3c
       -0.005067981 -0.0034024057 -0.005810708 0.015121162
000060 79 78 98 bc 35 39 3b bc 9a 4a bb 3b 4c 5f 9a bc
       -0.018612133 -0.011427213 0.0057156803 -0.01884427
000070 ad 97 bd b8 56 73 ee bc e1 da e2 3c 76 94 ba bc
       -9.040474e-05 -0.02910773 0.02769226 -0.02277587
000080 a9 18 99 3c d0 cc 52 3c 39 a0 d1 ba 22 d3 bd 3c
       0.018688517 0.012866214 -0.0015993185 0.023171965
000090 ce cd 39 3a 09 9f a4 3c ce 84 bf 3b 92 49 a0 bb
       0.0007087857 0.020095365 0.005844689 -0.0048915828
0000a0 63 70 47 3c 86 9e bf ba 21 80 1c 3c 58 86 e7 3c
       0.012172791 -0.0014619387 0.009552033 0.028262302
0000b0 13 67 ac 3c 93 fd 23 bc 8b 30 8f 3c 42 8d 1e 3c
       0.021045243 -0.010009187 0.017479202 0.009677233
0000c0 3a 4d 97 3c 6f c5 4e bc 5d 88 dd bc 86 38 27 bc
       0.018469442 -0.012620314 -0.027042562 -0.010206347
0000d0 1b b7 75 bc 9b 6e aa 3c 94 4e d0 3b 0f fd 87 3c
       -0.014997269 0.020804694 0.0063570235 0.01660016
0000e0 34 4d 7a 3c ae f3 40 3b b4 86 9f 3c 14 42 46 bc
       0.015277196 0.002944212 0.019473411 -0.012100715
0000f0 9d 76 4e 3b 52 5c b3 bc c7 3f cd 3b 2b ba 2b bc
       0.0031503804 -0.021894608 0.0062637064 -0.010481398
000100 c7 d9 56 3b e9 15 bb bb 19 12 c5 3c 44 19 49 bc
       0.0032783614 -0.005709399 0.024056481 -0.01227409
000110 b7 fd 77 bc df b5 8b bc fc a6 94 3c 63 c1 09 3c
       -0.015136174 -0.017054496 0.01814603 0.008407923
000120 08 c3 fa 3c 53 93 a0 bc 84 0f 9b bc 74 c0 0a bd
       0.030610576 -0.0196015 -0.018928297 -0.033874944
000130 84 ea e0 bc 26 98 55 3c 33 b2 ca 3c 1d dd 99 3c
       -0.027455576 0.013036763 0.024743175 0.018782193
000140 39 5b 7d bc 02 2c 4f bc 8a e2 5f 3c c3 25 62 bc
       -0.015463644 -0.01264477 0.013664851 -0.013802948
000150 a7 1c 4f 3c cd 45 1b bc 97 a1 99 3c 66 ce ae bc
       0.012641109 -0.009477091 0.01875381 -0.021338653
000160 1a 2f 64 bc d2 43 0f 3c 82 ec 8e 3b 25 2f 93 bb
       -0.0139272455 0.008744197 0.00436169 -0.004491704
000170 87 14 e5 3b 3a f2 a6 3c 9d 36 90 bc 3b ab 14 bc
       0.0069909724 0.020379175 -0.017604167 -0.009074028
000180 57 2b e2 3c fe 64 15 bb 06 4d 36 bb ad af 9c bc
       0.027608557 -0.0022795792 -0.0027816906 -0.019126737
000190 44 c6 1f bc 23 3e 13 3c db 89 91 bb d7 1a 97 bc
       -0.00975186 0.0089869825 -0.0044414825 -0.018445415
0001a0 e6 d6 ca 3a 17 12 a5 bb ad 16 ce bc 43 8b 70 bc
       0.0015475422 -0.005037557 -0.025157297 -0.01468164
0001b0 07 43 d5 bc b1 5a 83 bc 8b 0e bb 3c 51 f3 59 3b
       -0.026032938 -0.016034456 0.022834083 0.00332566
0001c0 06 bb 55 3c f3 de a4 bc 32 57 61 bc e5 10 3b bc
       0.013045078 -0.020125842 -0.013753699 -0.011417602
0001d0 c3 68 b1 3b 54 1e a6 bc 57 94 b7 bb 9d f5 17 bc
       0.0054141 -0.020278133 -0.0056024003 -0.009274867
0001e0 f5 ab 2d 3b 82 e8 38 bc 15 2b ef 39 51 63 3a bc
       0.00265002 -0.011285903 0.0004561773 -0.011376218
0001f0 7a c1 8a bc 09 55 5e bc 00 57 8e bb 39 6b 84 bc
       -0.01693796 -0.013570079 -0.0043438673 -0.016164409
000200 71 ea cf 3c 62 9a d1 bb b2 b6 b7 3c b1 1d 5d 3c
       0.025380345 -0.0063965777 0.022425983 0.0134958485
000210 ef 11 c1 bc 06 ce 87 3c ee 60 03 bb b1 22 5e bb
       -0.023568122 0.016577732 -0.0020046788 -0.003389519
000220 69 01 99 bc 5e 9f e3 bc f8 29 69 3c 72 8a 9a bb
       -0.01867743 -0.027785953 0.014231198 -0.004716211
000230 13 88 cb 3b bf 05 c5 bc 6f 62 91 3c 7b fb ca bc
       0.0062112897 -0.024050592 0.017747132 -0.024778118
000240 c9 5e ac bb 8a ae ee 3b 8f 34 88 3c 2b b6 ad 3c
       -0.0052603227 0.0072839903 0.016626624 0.021205029
000250 c5 b2 bb 3c 01 57 db bc 5e 65 b8 3b 17 45 e0 bb
       0.022912392 -0.026774885 0.0056273183 -0.0068441737
000260 87 70 8f ba 89 44 50 bc c7 d7 2f 3c ac 6e ea bc
       -0.001094357 -0.012711653 0.010732598 -0.028617226
000270 e8 ec 86 3c 4b 40 c9 3c de 41 d0 3b dc d2 8a bc
       0.016470388 0.02456679 0.006355508 -0.016946249
000280 24 52 f1 3c 85 56 92 3b 48 49 1d 3a 47 3d d7 bc
       0.029458113 0.0044658803 0.00059999945 -0.026274337
000290 45 08 e9 3b 11 ce 63 b9 bf 03 70 bc 4d a7 ac 3c
       0.0071115815 -0.00021725173 -0.014649331 0.021075869
0002a0 dc d9 ed 3b 26 7a 7e bc e6 ba 1a bc 9d 7c 0d bc
       0.007258637 -0.015532052 -0.009443974 -0.008635667
0002b0 a6 b3 91 3c 69 87 d7 bb d2 b6 41 bc de 69 aa bb
       0.017785858 -0.0065774214 -0.011823373 -0.0052006086
0002c0 74 30 50 bc 48 37 67 3c 23 5f ca 3c c8 b4 8e bc
       -0.012706865 0.014112301 0.024703568 -0.017420188
0002d0 33 0d c7 3b 03 8e 5b 3c ad 43 cc 3b 8b ca f1 bb
       0.0060745715 0.013400557 0.0062336535 -0.0073788813
0002e0 d8 40 bb 3c b2 26 05 3c fe 77 10 3c f8 83 e7 bb
       0.022858068 0.008126901 0.008817671 -0.0070652924
0002f0 c7 74 79 bb 8c 4c fa 3a ad 83 b3 bb 93 4c 68 bb
       -0.003806399 0.0019096299 -0.0054783435 -0.0035446032
000300 4a 68 c1 3c ee d0 c4 3c c1 a8 4e bb 4c bc 2f bb
       0.0236093 0.024025407 -0.003153369 -0.0026815115
000310 d6 d5 44 3b be 4a 1b 3b 45 9b 51 3c 2e 86 e0 3b
       0.0030034683 0.0023695673 0.012793367 0.006851933
000320 27 01 9b bc 5d d1 f3 bb 39 b8 e3 3c 76 9f 38 3c
       -0.018921448 -0.0074407295 0.027797805 0.011268487
000330 44 1c bc 39 96 16 3b bc e0 55 3f bc ca ca ab bc
       0.00035879214 -0.011418959 -0.011678189 -0.02097072
000340 66 35 25 bc ff cc 05 3c c5 cc b4 3c 9a 42 34 3c
       -0.010083532 0.008166551 0.022070298 0.011002207
000350 58 6d d2 bc 41 ed 33 bc 33 a3 24 3b 44 10 ed 3c
       -0.025686905 -0.010981859 0.0025121688 0.02893842
000360 59 57 17 3b 7c c9 a3 b9 bd c8 3d 3c ea 8c 6f bc
       0.0023092835 -0.000312399 0.011583504 -0.014620999
000370 47 77 a1 bc a1 b0 89 3c 7b e7 90 bc 5e 2e d8 bb
       -0.019710196 0.016807856 -0.017688503 -0.0065973243
000380 7f 26 cc bc 15 b8 a5 3c e0 fa 9b 3c 68 0d 09 3c
       -0.0249207 0.020229379 0.019040525 0.008365013
000390 f8 01 c8 bc 43 b1 e4 bc 2e 34 90 bc dd fc ab 3c
       -0.024415001 -0.027916556 -0.017603006 0.020994598
0003a0 89 05 a0 3c 43 64 0d 3c 31 6f ab 3b 5e a2 13 3c
       0.01953389 0.008629861 0.005231761 0.009010879
0003b0 92 8b 75 3c 6d c7 a7 bc c1 07 ce bc a3 7b 8d bc
       0.014986889 -0.020480836 -0.025150182 -0.017270869
0003c0 50 17 23 3c 60 20 73 bc 3e fd 0a bc ef a6 90 bc
       0.009954289 -0.014839262 -0.008483229 -0.017657725
0003d0 d7 6a a8 ba 9f 1d ad bc 69 e4 96 bc 15 6e 33 3c
       -0.0012849224 -0.021132289 -0.018419461 0.010951539
0003e0 d6 f7 34 bc 70 7e a3 3c a0 c3 87 bc 76 0d 7a bc
       -0.011045417 0.019957751 -0.016572773 -0.015261998
0003f0 9c 82 60 bb 8c da 2c bc b2 10 3c bb 72 4d a4 bc
       -0.0034257537 -0.0105501525 -0.0028696475 -0.02005646

net.0.bias f4 [64]
000000 9f f2 b7 3c af bc 86 3b 24 cc 89 3c 75 10 50 3b
       0.022454558 0.0041118483 0.016820975 0.003174809
000010 9f 10 81 bb 76 c7 90 bb da 8c b8 3c 22 ab cb 3c
       -0.003938749 -0.004418309 0.0225281 0.024861876
000020 d9 d8 84 3b 72 f4 0d 3d a3 c2 c0 3c 72 f2 b8 3c
       0.0040541706 0.03465695 0.02353031 0.022576544
000030 08 97 94 bc bc c6 5e 3b 2b b2 d2 bc 05 1f 74 bc
       -0.018138424 0.0033992967 -0.025719723 -0.014899974
000040 c3 10 fd 3b 2a c5 86 3b 61 f3 54 bc 3f 28 8d bc
       0.0077229454 0.0041128593 -0.012997479 -0.017231105
000050 14 9d 92 3c b0 7a 10 bc ce 45 5b bc 86 f3 0a 3d
       0.017897166 -0.0088183135 -0.013383342 0.03392365
000060 da b5 a8 3b 83 99 29 bc 05 2b d6 bc bb 4f 17 3d
       0.0051486315 -0.010351541 -0.02614356 0.03694127
000070 55 01 84 3c 44 a2 1b 3c 92 a7 c1 3b 81 d1 18 3c
       0.016113916 0.009499136 0.0059098685 0.009327293
000080 de 12 78 bb 26 3a fd bb b5 de b3 3c e9 d8 85 3c
       -0.0037853043 -0.007727879 0.02195678 0.016338782
000090 4c e3 00 3d 73 09 ae bb c6 6b 02 3c cb 46 06 3d
       0.031466767 -0.005311185 0.0079602655 0.032782357
0000a0 35 44 56 3c 68 9c bd bc 1d 9f 06 3c 8b fc c0 3b
       0.013077785 -0.02314587 0.0082166465 0.0058894805
0000b0 3a 54 98 3b 85 d4 25 3b 6a 21 f2 39 76 06 4c 3c
       0.0046487125 0.0025303673 0.00046182732 0.012452712
0000c0 aa f8 45 3b 13 4e 6d ba 71 5e c5 3b 4b 79 7e 3c
       0.003020803 -0.00090524665 0.006023221 0.015531848
0000d0 6a 11 38 bc 13 b2 16 bc 7c 42 60 3c e7 cb a3 3c
       -0.011234621 -0.00919773 0.013687726 0.01999469
0000e0 36 fd 70 3c 6b 8a 00 3d cc fd 7f 39 9e e7 fa 3c
       0.014708808 0.031382006 0.00024413242 0.030628022
0000f0 2b 0a 22 3c d5 89 2f bc a5 71 a2 3b 9f 0b 7f 3c
       0.00989012 -0.010714014 0.004957395 0.0155667355

net.2.weight f4 [64, 64]
000000 16 8f 02 be 59 a7 41 3d 7a 3d 95 bd 05 dd db 3c
       -0.12749895 0.047278736 -0.07287116 0.026838789
000010 84 62 b6 3d f5 0c 32 3d 77 0f 05 3e cd 3e 0d be
       0.08905509 0.043469388 0.1299418 -0.13793488
000020 bd fb ef bd 87 e7 4b bc 97 02 55 bd 2a 1d 00 3e
       -0.11717937 -0.012445337 -0.052004423 0.12511125
000030 55 06 08 3d 29 db 62 3d 42 dd 52 bd 1e 74 9b bd
       0.033209164 0.05538479 -0.05148054 -0.07590507
000040 9c 35 74 3d f4 98 04 3e 5c 75 3e bd 32 2c a5 bd
       0.05962144 0.12948972 -0.04649864 -0.0806507
000050 51 cc 1e be bf ba 64 3d 7d bb 9f 3d 58 cd 5d bd
       -0.15507628 0.055842157 0.077994324 -0.05415091
000060 6a 41 ae 3a ac 16 79 3d 78 5e 57 3d 46 d9 4e 3d
       0.0013294641 0.060812637 0.052580327 0.050500177
000070 46 a8 92 bd 3b 0e 06 3e 69 62 88 3d 00 91 05 bd
       -0.07161002 0.13091366 0.06659395 -0.032608986
000080 b6 de ef bc bb 43 41 3d 52 84 8b 3c b5 2c b0 bd
       -0.029281002 0.047183733 0.017030869 -0.08602277
000090 03 2c 8f bd c4 cb 7d 3d 50 05 a8 3b 12 68 9a bc
       -0.069908164 0.061961904 0.0051275864 -0.018848453
0000a0 6c 74 87 3c 27 40 d1 bd 9a 42 ea bc 54 7f 19 3d
       0.016535006 -0.10217314 -0.028596211 0.037474945
0000b0 33 e3 1d bd 93 b6 0a bd 2b 32 83 bc 7a 56 ad bd
       -0.038546752 -0.033865523 -0.016015133 -0.0846376
0000c0 bc 98 9b bc 57 29 94 bc f0 8d 96 bc bf c6 4b 3d
       -0.018993728 -0.018086119 -0.018378228 0.049750086
0000d0 45 2b 77 bd 6a 26 59 bd b7 b8 c4 3d 3e 33 c3 3d
       -0.060344 -0.05301515 0.09605544 0.09531258
0000e0 12 a8 a9 bc 3e 6e a7 3d a4 0b e6 3b 29 58 ac bd
       -0.020710025 0.08175324 0.0070204306 -0.08415253
0000f0 f5 bb 01 be 09 17 a8 bd cf 10 e6 3d 76 41 f4 3d
       -0.12669356 -0.082075186 0.11233675 0.11926548
000100 f9 13 52 bd 74 ac 76 bd 50 42 1b bd 2b 15 e0 bd
       -0.05128858 -0.060223058 -0.037905037 -0.109415375
000110 97 f8 80 ba 11 db f3 bc f4 3b c6 3d 80 0a 85 3d
       -0.000983971 -0.029767545 0.09679404 0.06496143
000120 f4 38 4e 3d ae b1 d3 bd ff b2 db 3c 82 14 4d 3d
       0.050347283 -0.10336624 0.02681875 0.050068386
000130 8e e0 b3 3d 85 82 3e bd b4 9b 2d bd e1 cd 58 3d
       0.08783065 -0.046511192 -0.04238482 0.052930716
000140 a4 d6 be bb f2 8b 03 be c9 02 e4 bc 23 da 84 3d
       -0.005823927 -0.12846354 -0.02783336 0.06486919
000150 dd 6d 2d 3d 69 74 d8 bd 02 d9 d1 3d e6 45 a6 bd
       0.042341102 -0.105690785 0.10246469 -0.08118801
000160 6a 97 07 3d 09 e3 65 bd 85 af 61 3b 15 69 37 bd
       0.033103384 -0.05612472 0.0034436893 -0.04477795
000170 6a 7b ae 3d fb 72 04 3e 5f 3b c0 3d 91 76 1e 3d
       0.08519633 0.12934487 0.09386324 0.038687292
000180 39 d6 d4 3d 82 1e bf 3c d3 26 0c bd 70 fc a4 bc
       0.10392422 0.023329977 -0.034216713 -0.020139903
000190 d4 50 19 3c 3d 39 83 3d 21 38 86 3a f6 cb e4 3c
       0.00935765 0.06407402 0.0010240116 0.027929287
0001a0 c0 c6 3e 3d 86 d9 e3 3d fd 83 38 bd 8a 66 3d 3d
       0.04657626 0.11125474 -0.04504775 0.046240367
0001b0 4a 82 46 bd fb 1f c8 bd a7 a5 dc bd 73 23 ad bd
       -0.048464097 -0.09771725 -0.10773783 -0.08454027
0001c0 e1 6d dc 3d c7 c5 9d 3d 3e 53 96 bd 90 64 a3 bd
       0.10763145 0.07703739 -0.07340096 -0.07978165
0001d0 77 26 e9 3d 67 95 83 bd 98 31 bc bd 3c f1 da 3d
       0.1138429 -0.064249806 -0.09189147 0.10690543
0001e0 cf 31 5b bd 38 7d c9 bd 6f 47 8c 3d 07 ab ad 3d
       -0.053514298 -0.09838337 0.068495624 0.084798865
0001f0 ce 9b f0 bd 17 db 43 3d ea 75 ee bc e2 f4 2d bb
       -0.117484674 0.047816362 -0.02910896 -0.0026543667
000200 d5 21 26 3d 16 8c 97 bd ea fc 0d 3e db 03 0d 3e
       0.04055961 -0.07399766 0.1386601 0.13771002
000210 e5 c0 f5 3d e6 78 82 bd 23 11 e2 3c 20 94 82 3d
       0.11999682 -0.06370716 0.027596062 0.06375909
000220 5b 47 80 3d ff 62 1e 3d 2a 4b 29 3d 49 0e a2 3d
       0.0626361 0.03866863 0.041331448 0.07912881
000230 62 05 b1 bd 83 de a9 3d 33 d0 9b bd 89 c9 cd bd
       -0.08643605 0.08294394 -0.0760807 -0.100482054
000240 c3 e2 79 bc 41 a0 bc 3d 4e f4 ee bb cf 70 bf bd
       -0.015251818 0.092102535 -0.007292307 -0.093476884
000250 93 ff 66 bd af 0a a0 bc f4 01 0b be 71 d4 d5 3d
       -0.05639608 -0.019536344 -0.13574964 0.104409106
000260 e7 a6 28 3d 94 21 a1 3d da 6e 22 bd 83 37 a4 3d
       0.041174795 0.07867733 -0.039656498 0.080184005
000270 78 03 54 3c f9 2b f7 bd 74 cb bc 3d f3 54 9f bc
       0.01294028 -0.12068934 0.09218493 -0.019449687
000280 fc eb e0 3d c3 e9 92 3b 18 8a a0 3d 28 7f b9 bd
       0.109825104 0.004483433 0.07838839 -0.09057456
000290 91 dd cc bd 00 5c 9c bb bd 7e e8 3d ca ce a8 bd
       -0.10003198 -0.0047717094 0.113522984 -0.08242567
0002a0 43 33 59 bc 0a 99 6b 3a f7 3a e1 3d f1 c5 b2 bc
       -0.013256851 0.0008987343 0.10997575 -0.021822901
0002b0 80 79 09 bc 59 83 00 3c 2c 7c a4 bc a6 df bd 3d
       -0.008390784 0.007843816 -0.020078741 0.09271173
0002c0 5d 15 18 3d 31 dc e4 3c c5 ae 98 3c 0d b4 71 bc
       0.03712975 0.027937027 0.018638024 -0.0147524
0002d0 ad d6 03 3e 71 a6 8a 3d b3 28 a6 3d c6 45 eb bd
       0.12874861 0.067700274 0.081132315 -0.114879176
0002e0 73 3e c5 3d 47 e2 7a 3d 7c b3 fd bd 9e f8 4c 3d
       0.09631052 0.06125095 -0.123877496 0.050041787
0002f0 e2 82 10 3d 2d 72 22 bd 27 56 41 3d 92 1f 86 3d
       0.03528107 -0.039659668 0.047201302 0.0654899
000300 32 36 a0 3c 19 77 0b bd 8f ac c9 bd 3f 11 a8 3d
       0.019557092 -0.034049127 -0.09847366 0.082064144
000310 26 5e 7a 3c 74 9b 6f 3d dd 3a 57 bc 7d 45 ad bd
       0.015281236 0.05849786 -0.013136593 -0.084605195
000320 5d a1 d0 3d 67 c1 b6 bc 3d 6d 6f bd 4c 23 c3 3d
       0.101870276 -0.022309018 -0.058453787 0.09528217
000330 35 87 c0 3d d0 cd 04 3e 46 be 23 bd 2d 28 be 3d
       0.09400789 0.12969136 -0.03997638 0.09285007
000340 b5 2c ae bd 29 8f 6a bd 1f 18 a4 3c 41 0b d5 3d
       -0.08504621 -0.057265434 0.020031033 0.10402537
000350 50 21 85 3b f4 2e db bd 5b a2 73 bd 20 2b 8e 3d
       0.004062809 -0.10702315 -0.059481006 0.06941819
000360 bb 89 59 3d 5b 04 83 3d 4b b9 2b bc 5e e6 8c bc
       0.053109866 0.06397315 -0.010481189 -0.017199691
000370 0a 4b 55 bd 29 ba 25 bc 2c cb 82 3d e7 c2 80 3d
       -0.052073516 -0.010115185 0.06386408 0.06287175
000380 73 5c 03 bc c5 68 cb 3d 57 6d 4a bd e0 4a 2f bd
       -0.008017647 0.099320926 -0.04942068 -0.042796016
000390 bb 8c 00 3d 8e ef 53 3d 23 b4 ea bd 18 df fa 3d
       0.03138421 0.05174213 -0.114601396 0.12249583
0003a0 f4 61 08 be 78 55 95 3d 71 ab da bd 4c aa 45 bd
       -0.13318616 0.072916925 -0.10677231 -0.04825811
0003b0 5c bb aa 3d 86 4d 12 bd 21 43 e3 bc aa 64 c4 3d
       0.08336517 -0.035718463 -0.02774197 0.09589513
0003c0 48 95 bd 3d 19 18 c3 3b 13 81 d4 3d 0b 99 a8 3d
       0.09256989 0.0059538004 0.103761815 0.08232316
0003d0 65 24 d2 3d bf 00 c1 3d ca 69 0d be 95 a2 63 3d
       0.10260848 0.094239704 -0.13809887 0.055574972
0003e0 8c 80 eb 3c 0c 87 00 bd d7 4a b5 3d 75 9c 13 bd
       0.02874782 -0.03137879 0.08852165 -0.03603788
0003f0 b1 6d a5 3d 99 d9 e9 bd ee 46 9d bd 82 d4 26 3b
       0.080775626 -0.114184566 -0.076795444 0.0025456254

net.2.bias f4 [64]
000000 67 19 bf 3c ef f3 bb 3d 47 38 b4 3d 6c 24 fe 3b
       0.023327542 0.09177386 0.087997966 0.0077558067
000010 7a 19 81 3c 98 dd fb 3d 7e 9f 2c 3c 6b 3f a7 3d
       0.015759218 0.12298125 0.010536073 0.08166393
000020 67 fb ee bd f1 a8 ce 3d ef 8a 00 3e 64 ba e1 bd
       -0.11669045 0.10090817 0.12552999 -0.11021879
000030 48 15 de bc 88 26 03 be 89 39 4a bd 02 b6 7b bd
       -0.027109757 -0.12807667 -0.049371276 -0.061452873
000040 7d 7f 57 bc d9 5b c3 bd c6 f6 b7 3d 1f 36 a6 3c
       -0.013152954 -0.09539003 0.08982615 0.020289479
000050 8a 16 ac 3c db 81 b9 3c 79 ee 41 bd 02 b3 56 3d
       0.021006841 0.022644928 -0.047346566 0.05241681
000060 8c 58 57 bd e1 71 b5 3d de c3 17 3d 7f 5b ea bb
       -0.05257468 0.08859611 0.037052028 -0.0071520205
000070 9d 20 5b 3d 55 d8 7c 3d 20 88 a0 3d e0 3a d8 3d
       0.0534979 0.061729748 0.07838464 0.105581045
000080 3f a1 af 3c 81 de da 3d 89 29 0d 3d 30 84 8e bd
       0.021439193 0.106869705 0.03446344 -0.069588065
000090 1d dc 0d 3e 62 9f c0 3d 31 d0 87 bd 77 52 ec bd
       0.13853498 0.094054 -0.06631506 -0.115391664
0000a0 96 44 f8 3d 67 20 5f bd b0 99 dd bc 12 fc 36 bd
       0.12122457 -0.05447426 -0.027050823 -0.044673987
0000b0 70 7a 0c bd b7 99 ff bd 58 44 7d 3c 61 45 84 bd
       -0.034296453 -0.12480491 0.015458189 -0.064585455
0000c0 0b d8 9d 3c 4b 9e f7 bd 8d 62 a7 3d 5c b1 d6 bd
       0.019268056 -0.12090739 0.08173094 -0.10483047
0000d0 07 9c 6d bd 5c 8d 43 3d 4d 30 57 3d fe fa 09 3d
       -0.058010127 0.047742233 0.052536298 0.03368663
0000e0 73 7e 5d bd cb 42 6b 3d d1 49 00 be 0d ad 88 3d
       -0.05407567 0.057436746 -0.12528159 0.06673632
0000f0 65 fc 1f bb bb a3 36 3d b9 0b 30 3d bc 19 a6 bd
       -0.0024411913 0.04458974 0.04297993 -0.08110377

net.4.weight f4 [4, 64]
000000 e7 5c 4c 3c 6f 29 e5 bd e7 df fd 3d 1f a9 40 bd
       0.0124733215 -0.111895435 0.123962216 -0.047036286
000010 e1 85 53 3d ec 1a fb bd 6e d0 fa 3d 32 0e 5c bc
       0.05164135 -0.12260994 0.12246786 -0.013431119
000020 bc b6 b4 bd ee b6 b3 bd 34 c9 eb 3d 45 7c 1c bd
       -0.08823916 -0.087751254 0.11512986 -0.03820445
000030 90 41 ef bd 3f a4 90 3c c4 23 ec bd 41 69 a5 bd
       -0.11682427 0.017656444 -0.11530259 -0.08076716
000040 24 06 24 bb 77 9a b1 3d 0f d9 ba 3d 88 25 30 bd
       -0.0025028074 0.0867204 0.09123432 -0.043004543
000050 d8 55 99 3d c0 ff 83 3d 56 91 5b 3d 08 ae 96 bd
       0.074870765 0.06445265 0.0536054 -0.073574126
000060 e7 77 4c 3d 65 e7 cd 39 3f f5 fb bd b3 52 96 bd
       0.049919035 0.0003927305 -0.12302636 -0.073399924
000070 1d 1c d0 3c d1 77 d0 bd df b7 35 3c 6a 88 04 3c
       0.02540403 -0.10179103 0.011091202 0.008089164
000080 08 ad 9b 3d d0 bd cc bd 26 8b f2 bd 34 30 98 3d
       0.076013625 -0.09997141 -0.11842947 0.07431069
000090 09 3d 74 3d 8b 4e 72 3d 6d 8e 47 bd 44 09 71 3d
       0.05962852 0.059156936 -0.048719812 0.058846727
0000a0 26 c6 82 bc 1c 64 13 3d 8a 2f c5 3d 2a 57 4e 3d
       -0.015963625 0.035984144 0.09628208 0.050376095
0000b0 da 61 82 bd d9 f3 a4 bd 74 be c5 3d 39 8a ef 3d
       -0.0636632 -0.08054323 0.09655467 0.11696286
0000c0 2e 3b a5 bd bb 14 dc bd d7 7f 21 3d ec 05 99 bc
       -0.08067928 -0.107461415 0.03942856 -0.018679582
0000d0 62 95 53 bc c5 64 49 3d 80 28 ef bd 13 02 bd bd
       -0.012914034 0.049168367 -0.11677647 -0.09228911
0000e0 43 8c 04 3e bf f8 b8 bd 91 56 d8 3c e4 5b 3b bd
       0.1294413 -0.090318196 0.026408466 -0.04574193
0000f0 d8 c3 0f be bc ca 5d 3c a8 fc e8 bd f1 ae 89 3d
       -0.14039552 0.013537105 -0.11376315 0.067228206
000100 3d 91 b1 bd 42 35 df bd d5 e0 7c 3c 78 cf 88 bd
       -0.0867028 -0.1089883 0.0154344635 -0.066801965
000110 f7 b1 06 bd 2c 50 b8 3d e7 c6 85 bc 64 9d 9c 3d
       -0.032884564 0.089996666 -0.016330196 0.076472074
000120 58 47 83 3d 61 76 05 be 58 f8 0d 3e 94 06 ca bd
       0.06410092 -0.13033439 0.13864267 -0.09864536
000130 e0 b5 84 bc c2 14 0b bd 01 79 ea bd 5e 2a 23 bd
       -0.016200006 -0.033955343 -0.11448861 -0.039835326
000140 95 d8 c8 3d 8f 9e d5 3d 29 8f ce bd 49 d6 fc bd
       0.09806935 0.10430633 -0.100858994 -0.12345559
000150 8f de ee bc c7 11 55 3d 1e ce f5 bc 8b a8 19 bc
       -0.029158859 0.052018907 -0.03000551 -0.009378563
000160 c9 d3 30 bd 9c e8 0d 3e 9e ce 0d bc ab 3a 7e bd
       -0.043170724 0.13858265 -0.008655218 -0.06206767
000170 ba 80 52 3d 3a fe 21 3d 4a d8 fe bd 68 6e c0 3d
       0.051392294 0.03954909 -0.124435976 0.09396058
000180 93 b9 84 3d 5d 59 b7 3d ef 8b f4 bd d4 87 b1 3d
       0.06480708 0.089525916 -0.11940753 0.08668485
000190 2d be 81 bd 9b 2e cf bd ba 56 58 3d 8e 16 73 bd
       -0.06335101 -0.10116311 0.052817084 -0.05934768
0001a0 78 3e 25 3d 5c 70 e8 3d f9 34 9a bd a3 61 41 3d
       0.040342778 0.11349556 -0.07529635 0.047212254
0001b0 1b 9b 11 bd 7f 6a b7 bd 33 70 aa 3d 9c f1 7b bd
       -0.03554831 -0.089558594 0.083221816 -0.061509714
0001c0 f7 8c a3 bd 24 a1 c0 bd 12 66 36 3d 6c df 51 bd
       -0.07985871 -0.09405735 0.044530936 -0.051238462
0001d0 a8 cf c0 3c e8 0e 49 bd c4 49 c2 bd f6 72 8f bd
       0.023536518 -0.04908648 -0.09486726 -0.07004349
0001e0 9f 47 f1 3c ed 55 a6 bd 2b 72 fe bd 5b 56 ff bd
       0.029453097 -0.08121858 -0.124241196 -0.12467643
0001f0 3a d2 ac bd 54 db 3e bc de 70 73 bd 68 80 27 3c
       -0.08438535 -0.011648972 -0.05943381 0.0102234855
000200 44 d4 8c bd 06 be b5 bd 67 e4 07 3e f3 e9 68 3c
       -0.06876424 -0.08874135 0.13270722 0.014215934
000210 b5 b5 df bd 33 a2 84 3d b0 fc d0 3d 69 8b f8 3b
       -0.1092333 0.064762495 0.10204446 0.0075849784
000220 63 49 f8 3d ea 86 1c be 31 33 a2 bd 5e dd ff bd
       0.121233724 -0.1528584 -0.0791992 -0.12493394
000230 75 dc 93 bd e5 1f 63 bd e0 40 9b 3c 59 d8 4f bd
       -0.07219783 -0.05545034 0.018951833 -0.050743435
000240 7f 76 9e 3d e9 ea 0a 3e ed 26 72 bd ce dc a3 3c
       0.07737445 0.13566174 -0.059119154 0.020002749
000250 a9 73 9f bd 2b a6 83 3c ab 6e f3 bd ed 6f dd 3c
       -0.07785732 0.016070446 -0.118863426 0.02703091
000260 6c 27 74 bc fa e2 4a 3d 7f a0 f5 bd e9 5d 2e bd
       -0.014901977 0.049532868 -0.11993503 -0.04257003
000270 e4 5b be bd f9 97 86 3d 02 16 03 be 8b 00 e0 3d
       -0.092948705 0.06571955 -0.12801364 0.109376036
000280 d6 e7 05 3d ef 13 a2 3d a6 f0 46 3c e2 27 47 3c
       0.0326918 0.07913958 0.012142336 0.012155505
000290 cf 96 ef 3d a5 bb 25 be 7a 11 fe bd b5 67 f1 bd
       0.11698686 -0.16184862 -0.12405677 -0.11787359
0002a0 28 40 1a 3e d4 9f f6 bc dc ff ea 3d 0e 0d 55 3d
       0.15063536 -0.030105509 0.114745826 0.052014403
0002b0 f1 24 12 3d 96 ac 01 be 24 10 01 bd f3 3c fc 3d
       0.03567976 -0.12663493 -0.031509534 0.12316313
0002c0 e8 79 31 bd 44 0f 0c 3d 98 17 44 3c 86 96 5f bd
       -0.04332915 0.034194246 0.011968516 -0.05458691
0002d0 94 0c 30 bb 12 d4 93 3d 57 54 c0 bd 87 02 f5 bc
       -0.0026862966 0.072181836 -0.093910865 -0.029908432
0002e0 6c 08 b9 3d 9f 62 27 bd d5 5b a8 3d 73 6e 87 bd
       0.090348095 -0.040865537 0.082206406 -0.066128634
0002f0 87 3f 1a be c4 c5 f8 3b 4f 77 7e bd df df 29 bd
       -0.15063296 0.007591935 -0.0621255 -0.041473266
000300 45 8d c9 bd a5 e4 d4 bd 35 c4 0c 3e a5 d2 02 be
       -0.09841398 -0.10395173 0.13746722 -0.12775667
000310 b7 cf 0d be fc 0e 90 3d cf 34 72 3d e6 67 d2 bd
       -0.13848768 0.07034108 0.059132393 -0.10273723
000320 4e 04 a5 3d 71 bc f7 bd e0 e3 c0 3d 85 40 ce ba
       0.08057462 -0.12096489 0.09418464 -0.0015735781
000330 52 06 19 bc 7b 0f 1c 3e 51 67 17 bd b3 bb 63 bd
       -0.009339886 0.1524028 -0.036963765 -0.055598926
000340 64 65 33 bc 03 44 1d 3e c5 b2 ca bd af a7 38 bd
       -0.010949466 0.15357976 -0.09897379 -0.04508179
000350 0b f9 4e bd c3 6b 8f 3d 00 41 e5 bd bc a2 02 3d
       -0.050530475 0.07002976 -0.111940384 0.031893477
000360 f7 41 91 bd 08 1e 9b bd 07 31 fc bd b8 d0 8f bd
       -0.0709266 -0.075740874 -0.12314039 -0.07022232
000370 a9 cd e5 bd f1 35 11 bd a5 60 af 3d ff 0a 7e 39
       -0.11220867 -0.035451833 0.08563355 0.00024227424
000380 b7 44 27 bd 02 9f 0f 3e 6a 23 94 3d 3e b9 03 bd
       -0.040837016 0.140255 0.07233317 -0.032159083
000390 4a 42 04 3e cc b6 27 be 07 ae 17 be df e2 17 be
       0.12915912 -0.16378325 -0.1481248 -0.14832638
0003a0 5a e9 cd 3c ca d4 05 3e ff 27 cd bd ae cb 0e 3c
       0.025135685 0.13069454 -0.10017394 0.008715553
0003b0 d3 33 95 bd 72 ec 29 3d c8 fc c5 3d e2 c3 aa 3d
       -0.07285275 0.041485257 0.09667355 0.08338143
0003c0 10 e0 72 3d 14 ab 81 3c b0 c5 99 3d 3c 63 e1 bd
       0.059295714 0.015828647 0.07508409 -0.110052556
0003d0 5e ad 1e 3e 73 89 d3 bd 4d 0b ea bd ea 02 ad 3d
       0.15495822 -0.10328951 -0.11427937 0.084478214
0003e0 d5 21 10 3c 98 53 91 3c 87 2c 3b bc 6e 3c 0a be
       0.008797129 0.017740056 -0.01142419 -0.13499615
0003f0 b1 a4 75 bc 7f b9 93 3d 3b b3 0c be 01 04 e0 bc
       -0.014992879 0.07213115 -0.13740246 -0.02734566

net.4.bias f4 [4]
000000 c2 8e 28 3d 45 a2 c5 3d 2c fe 3b bd 2c 0d a0 3d
       0.04115177 0.09650091 -0.045896694 0.07815012
