runs/4_hour_forecasting/39/best_model.pt (torch, 502968 bytes, 10 tensors)

lstm.weight_ih_l0 f4 [512, 89]
000000 21 d9 a3 3d fc d2 a4 3d eb 04 d6 bc 37 b2 82 3d
       0.080003984 0.080480546 -0.026125392 0.06381648
000010 61 29 ee bb 2d 75 da 3c cb 54 0d bd 55 8c 5b 3d
       -0.0072681163 0.026667202 -0.034504693 0.053600628
000020 ee 08 81 3d 77 1e ac bd 23 b8 aa 3d 23 16 a5 ba
       0.06300531 -0.08404248 0.083359025 -0.0012595098
000030 85 2d 98 3d fc fd 64 3b 1a 24 4b 3d 2c d3 8c bc
       0.07430557 0.0034941426 0.049594976 -0.017190538
000040 1d c9 9d 3d 43 a6 8e 3c f1 e4 20 bd 95 2b 94 3c
       0.07704375 0.017413264 -0.039280836 0.018087188
000050 c5 28 30 bd 3b fe 88 bb a4 49 fa bc f8 b9 8f 3d
       -0.04300763 -0.0041806973 -0.030552693 0.070178926
000060 70 9f 84 bd c3 31 14 bd 68 5f b0 bc 5d 98 44 bd
       -0.06475723 -0.03618027 -0.021529868 -0.047996867
000070 9d cf 3a 3c 92 b1 a8 bd e9 9c b3 3d 2e 9d 9b bd
       0.011402038 -0.08236994 0.087701626 -0.07598339
000080 0e 73 95 3d ba 77 fe 3c 3d 8e 93 bc 34 2d 07 3d
       0.072973356 0.03106295 -0.01801216 0.033002093
000090 1d 5d 90 3c d9 7d 7e 3d 15 cd 8b 3c 2b c4 a8 bc
       0.017622525 0.062131736 0.017065564 -0.020601353
0000a0 ed 40 dc 3c 9e c1 0b bd 7c cb 13 3d 56 02 8a 3d
       0.026886428 -0.034120195 0.03608273 0.06738727
0000b0 59 9d 3a 3d b7 49 2a bd 23 cd 4c 3d 17 30 be 3b
       0.045560215 -0.041574206 0.05000032 0.0058040726
0000c0 07 9c 6a 3d 99 78 4e bd 15 bd 8e bd 30 72 fb bc
       0.057277706 -0.05040798 -0.06969658 -0.030694097
0000d0 b2 dc 9b bd bc 9d 96 3d 38 3f e5 3c 0b eb 04 3d
       -0.07610454 0.07354304 0.027984247 0.032450717
0000e0 07 b6 d4 3c e7 f8 05 bc 48 7f 8a 3d 32 dc 8c bd
       0.025965704 -0.008177019 0.06762558 -0.068779364
0000f0 6c e1 c1 bb cc 7c 82 bd 6f 96 99 3c bd ed 04 bd
       -0.005916765 -0.06371459 0.01874849 -0.032453287
000100 08 36 b6 3c 65 1b aa bc 4f 26 9a 3d 96 a4 57 bd
       0.022242561 -0.020765016 0.07526838 -0.052647196
000110 83 6a 7d bd 55 4e 73 bd 57 bb a3 3d 74 c0 f7 3c
       -0.061869156 -0.059400875 0.079947166 0.030243136
000120 e5 ec ab 3d 2e 55 91 bd cc c4 d4 bd fc 4e 95 bd
       0.083947934 -0.07096325 -0.103890985 -0.07290456
000130 83 12 70 bd e5 d8 ed 3c 91 41 8e 3c 68 cf 9b 3d
       -0.058611404 0.029034087 0.017365249 0.07607919
000140 71 c1 33 bd 4a 33 7e bd eb 82 40 3d 0d d5 12 bd
       -0.043885652 -0.06206063 0.046999853 -0.035847712
000150 e1 43 57 3d a2 0b 46 bd b1 d0 84 3d 3b e8 87 bd
       0.05255497 -0.048350938 0.06485117 -0.06636091
000160 4c 2e 0e bd 91 ea 1e 3d 5e 55 6c 3c 3f b7 d7 bc
       -0.03471212 0.03879792 0.01442465 -0.026332496
000170 f4 33 88 3d fd 2f 96 3d 79 49 4b bd e5 40 22 bd
       0.06650534 0.07333372 -0.049630616 -0.03961267
000180 52 53 ae 3d 7b 14 82 bd 80 ef 8e bd a1 fe c5 bd
       0.08511986 -0.063515626 -0.06979275 -0.09667707
000190 a7 a6 e9 bc 91 ef f4 3c ee 9a 1b bd 76 6f 2e bd
       -0.028521849 0.02989939 -0.03798955 -0.042586766
0001a0 2c 02 fb 3b e0 3d 6c bd fe 42 82 bd f4 14 66 bd
       0.007660171 -0.057676196 -0.06360434 -0.056172326
0001b0 df 7d 93 bd f9 13 2d bd 36 5c b7 3d 6d 6b 8f 3c
       -0.072017424 -0.042255376 0.08953135 0.01750728
0001c0 05 f0 1f 3d 9a 95 9e bd 29 5e 67 bd 92 eb 90 bc
       0.03904726 -0.07743378 -0.056486282 -0.017690454
0001d0 08 18 1d 3d b5 c3 93 bd f3 47 ce bc d1 d2 65 bd
       0.038352996 -0.072150625 -0.025180792 -0.056109253
0001e0 05 48 d8 3b b7 b9 95 bc 38 0f ba 3b 6f 60 8c bd
       0.0066003823 -0.018277032 0.0056780837 -0.06854331
0001f0 6c f6 b5 bd af 8d 3b bd d0 0a 03 bd 30 cc aa bd
       -0.08884892 -0.045789417 -0.031992733 -0.08339727
000200 4b 73 84 3d 84 8d 01 bd cb ee 99 3d 70 46 bc 3c
       0.06467303 -0.0316291 0.07516249 0.022982806
000210 f1 68 b8 bd 11 0c 5d 3d ce c9 9e bc 74 6b 3e bd
       -0.09004391 0.053966586 -0.019383337 -0.046489194
000220 0a 7e a2 bd c6 96 a4 bd eb d5 2b 3d 86 56 a8 bc
       -0.07934196 -0.0803657 0.041952055 -0.02054907
000230 ca a4 b3 3c 20 72 b9 bd 7b fb 4c 3d 06 8d a1 bd
       0.021929163 -0.09054971 0.050044518 -0.07888226
000240 7e df fe bc 3d 83 7b 3b c4 a5 bc 3c b8 14 58 3d
       -0.031112429 0.0038377785 0.023028262 0.052754134
000250 72 ca 6e 3d 72 70 c2 bd f9 80 01 3b e1 d6 69 bd
       0.058298536 -0.094941035 0.0019760712 -0.05708969
000260 16 89 c3 bc d0 87 ac bd 0e 9f 77 3d 1f b6 a3 bd
       -0.023869079 -0.08424342 0.06045442 -0.07993721
000270 31 59 05 3d f4 07 67 3c 78 36 62 3c 22 22 39 bd
       0.032555763 0.014101017 0.013806932 -0.045198567
000280 43 9c a4 3d 5a 40 83 3c 87 7d 9b 3c 69 67 cc bd
       0.08037617 0.016021896 0.018980755 -0.099806614
000290 37 44 e6 3c 23 a2 39 bc b9 01 67 bd e0 85 5f 3d
       0.0281087 -0.01133016 -0.056398127 0.054571033
0002a0 4b 55 bd 3c ad b6 27 bd 3d 2d 55 bd a9 35 ba bb
       0.02311196 -0.040945698 -0.052045096 -0.0056826663
0002b0 7f e2 46 3d dd e1 da bc e2 6d 3d bd 22 87 28 bd
       0.048555847 -0.026719028 -0.04624737 -0.041144498
0002c0 ca af 6d bd d2 f3 2d 3d ee a6 7d 3d fe d1 b3 bd
       -0.058028974 0.042468853 0.061926775 -0.08780287
0002d0 8e 1c 84 3c 3f 39 6e 3d cb e9 99 3b e6 04 04 bd
       0.016126897 0.058160063 0.0046970597 -0.032231234
0002e0 de 35 c4 3c a3 cb 07 3d c2 ec 88 3c fc 89 e3 bc
       0.023951467 0.033153187 0.016714457 -0.027775757
0002f0 4e 2a 87 bc ed e8 b8 3c 29 2d 1f bd 75 18 23 bd
       -0.016499665 0.022572005 -0.038861427 -0.039818246
000300 42 ba 7b 3d 6f df 65 3d 4a 4f 4f bc 62 67 43 bc
       0.061456926 0.056121286 -0.012653181 -0.011926504
000310 3e 54 5d 3c 25 1a e7 b9 e8 6e 01 3d 76 19 1c 3d
       0.013508854 -0.00044079233 0.03159991 0.03811022
000320 d5 66 8a bd c0 15 f4 bc 21 47 b4 3d a0 91 d3 3c
       -0.06757895 -0.029795527 0.08802629 0.025826275
000330 da d2 e1 3b 8f 92 59 bd b0 42 1d bd 6a 4c 5c bd
       0.0068915905 -0.053118285 -0.038393676 -0.05378381
000340 17 53 d6 bc 59 b2 14 3d 23 aa 86 3d 66 1b 53 3d
       -0.026162667 0.036302898 0.0657542 0.0515398
000350 9e 39 a9 bd d4 b0 78 bd 72 94 f5 bc c6 d3 ad 3d
       -0.08262943 -0.06071551 -0.02997801 0.08487658
000360 92 50 25 3a 5b 2c f0 bc 34 6d fb 3c 88 b8 56 bd
       0.00063062564 -0.029318025 0.03069172 -0.052422076
000370 a6 2b 90 bd bc 65 3e 3d da 0f 27 bd 79 bf 6c bc
       -0.07039575 0.04648374 -0.0407866 -0.0144499475
000380 f0 03 be bd af 2c 25 3d 36 38 89 3d 0d 92 98 3c
       -0.09278095 0.040325817 0.067001745 0.01862433
000390 a9 6e 73 bd 0c 39 ca bd d6 e7 b2 bd d0 6c 67 3d
       -0.059431706 -0.09874162 -0.087356254 0.056500256
0003a0 2e 78 0d 3d 85 fb 68 3d f5 a7 08 3d 23 41 c3 3a
       0.03453844 0.056880493 0.0333633 0.0014896732
0003b0 dc bb 86 bc 18 e7 b5 bd e1 4c d3 bd 5a c6 c6 bd
       -0.016447 -0.08881968 -0.10317398 -0.09705801
0003c0 0d a1 a3 3c 87 ab 77 bd 76 f2 0a bd 4c 0f 84 bd
       0.019974256 -0.060466316 -0.033922635 -0.0644823
0003d0 ca 0b f3 bc a7 13 a1 bd 4e b5 55 bd 8d 24 30 3d
       -0.029668707 -0.078650765 -0.05217486 0.043003608
0003e0 17 95 93 3b 45 a5 aa 3d a9 6e c3 ba cf 30 12 bd
       0.004503857 0.08332304 -0.0014910299 -0.03569108
0003f0 0e 71 73 bc 16 64 a7 bc b9 57 04 3c e4 52 90 bd
       -0.014858497 -0.020433467 0.008077555 -0.0704706

lstm.weight_hh_l0 f4 [512, 128]
000000 d4 7b 86 bb cb f9 ca bc c2 f3 c5 bd b3 6a e8 3b
       -0.004104117 -0.024777314 -0.09665634 0.0070927977
000010 e8 4e 38 bd 0b 07 3a bd 90 88 0a bd 5d 0e be bd
       -0.044997126 -0.045416873 -0.033821642 -0.09280083
000020 3a aa 82 3c 15 cd 26 bc 3e 95 98 bd cd f9 93 3d
       0.015950311 -0.010180731 -0.07450341 0.0722538
000030 96 36 49 3c 95 35 23 3d 20 c9 18 bd 76 66 2b bc
       0.012281081 0.03984602 -0.037301183 -0.01046144
000040 20 e2 cc 3d 16 94 96 3d 03 96 75 bd 8b 44 e3 3c
       0.100040674 0.07352464 -0.059957515 0.027742645
000050 01 bd af 3c 05 b9 8a 3d 13 8f 90 3d 21 68 0a 3d
       0.021452429 0.06773571 0.07058539 0.03379071
000060 e7 81 21 3d 6a c4 a9 3d 3f 66 ef bc cf 4e 78 bc
       0.039430525 0.08289416 -0.02922356 -0.015155508
000070 c6 be 4d 3d 6f 28 4a ba 12 f9 b8 3d be a6 b2 3b
       0.050230764 -0.00077117136 0.090318814 0.005452006
000080 c1 98 b8 3c 14 87 c0 3d 11 0c a2 bd e4 eb 9c 3c
       0.022533776 0.09400764 -0.07912458 0.01915545
000090 71 cb a8 bb 99 a1 a8 3c 99 bc ad bb c1 fb 84 bd
       -0.005151205 0.020584868 -0.0053020236 -0.06493331
0000a0 2c 5b a9 bd 5c 3b d1 3b d5 7d e6 3c 06 6f 82 bd
       -0.08269343 0.00638525 0.028136173 -0.06368832
0000b0 d9 93 8b 3d 05 3e 5c bd a6 e1 c0 3b fd 55 aa bd
       0.06815309 -0.053770084 0.0058862744 -0.08317182
0000c0 68 27 ca bd 24 70 a0 3d a6 0d be 3d 70 93 b0 3d
       -0.098707974 0.07833889 0.09279947 0.086218715
0000d0 de f7 a0 3d 78 e6 d3 3d 24 3d a9 3d 37 4d 93 bd
       0.07859777 0.10346693 0.08263615 -0.07192462
0000e0 3a 9e 54 bd 4a da 12 bd 7d 7f a5 bd a4 d8 bf bc
       -0.05190871 -0.035852708 -0.08080957 -0.023418732
0000f0 b5 1f 91 bd 3c 41 97 bb e0 d9 32 bd bf 19 99 3b
       -0.07086126 -0.004615931 -0.043664813 0.0046722586
000100 35 83 05 3d bb 22 bd 3d ea 04 5a 3d 59 da 04 bd
       0.032595832 0.0923514 0.053227343 -0.032434795
000110 c3 a0 d6 3d e2 e3 99 bd c2 2c 3e bd 15 d5 ac bc
       0.104798816 -0.07514168 -0.046429403 -0.0210977
000120 b6 4c 72 3d 43 22 8e bc 9f bf 04 3c 55 4d 44 bd
       0.05915519 -0.017350322 0.008102327 -0.047925312
000130 75 ad b2 bd da ad 07 3d 61 ea ce 3b 0e 65 ae 3d
       -0.087244906 0.033124782 0.0063145612 0.085153684
000140 6b ed 65 3c a3 b6 a2 bd 7c b4 cb bd 1b 43 b1 bd
       0.014033656 -0.079449914 -0.09946534 -0.086553775
000150 a8 d2 a9 3d 93 10 0b bc 75 09 98 3d 13 f1 61 bd
       0.082921326 -0.008487838 0.07423679 -0.055161547
000160 7f 50 86 bd 2b 94 95 3d 82 2b 2a bd 29 22 2b 3c
       -0.06558322 0.073036514 -0.0415454 0.010445156
000170 14 7e 9b 3d 5e 01 07 bd 64 1f a2 3d b6 3c 00 bd
       0.07592407 -0.03296029 0.079161435 -0.0313079
000180 6e 4b 48 bc e0 95 1e 3b 88 7d 88 bc ec 8d ec 3c
       -0.012225015 0.002419822 -0.01666142 0.028876267
000190 30 66 87 3d 2f 62 b7 3d 4c 5d 18 bd 59 76 38 3d
       0.066112876 0.08954274 -0.03719835 0.04503474
0001a0 b2 a5 e1 3d e3 fb d8 bb 83 de 6a 3d 1a d4 a2 3d
       0.11017932 -0.006621824 0.05734111 0.079506114
0001b0 93 b7 be bd 21 5c d9 bc bb 90 6a bd ab fc d9 3c
       -0.09312358 -0.026533188 -0.057266932 0.02660974
0001c0 84 50 6e 3d 1b e7 a1 bd 7e 80 17 bd 98 e4 a1 3d
       0.058182254 -0.07905408 -0.036987774 0.07904929
0001d0 27 8a e8 bc 04 14 53 3d 11 7a 2c 3d b7 26 6f bd
       -0.028386189 0.05153276 0.0421086 -0.05838653
0001e0 f2 07 4e bd be e4 65 bd 83 1c f8 3b d5 90 64 bd
       -0.050300546 -0.05612635 0.0075717582 -0.055802185
0001f0 0e 98 5a bc d1 6f 7d 3c 5d 3d 5c 3d 02 29 bb 39
       -0.013341917 0.015468554 0.053769458 0.00035697973
000200 94 2e b1 3d 83 c6 04 3d c3 23 6a 3d d9 c8 4c bd
       0.08651462 0.032415878 0.05716301 -0.04999623
000210 a6 06 93 3d 7c be fc 3c a0 fe 3d 3c ba ff df bd
       0.071790025 0.030852549 0.011596352 -0.10937448
000220 65 af e9 bc b5 d2 f1 3c e3 46 4e 3d 35 af 0a bd
       -0.028526017 0.029519418 0.05036057 -0.033858497
000230 a5 a7 e4 bc 7a 03 18 3b e0 a0 56 bc 3f e4 56 bd
       -0.02791197 0.0023195432 -0.013099879 -0.052463766
000240 71 60 e6 3c 14 13 3b bd 46 1f 70 bd 70 2d cb bd
       0.028122159 -0.04567249 -0.058623575 -0.09920776
000250 25 e1 82 bc 37 39 82 bd 6f 92 90 bd db 1f b4 3d
       -0.015976498 -0.06358569 -0.0705918 0.087951384
000260 11 60 0a bd dd 11 fa bc ea 81 77 bd 50 6d 06 3d
       -0.033783022 -0.030526096 -0.06042663 0.032819092
000270 70 f9 64 bc 23 48 2c 3d 37 fc b4 3c d6 c8 8e 3c
       -0.013975486 0.042060982 0.022092922 0.01742975
000280 9a 0d f2 3c 87 c6 08 3d c3 83 e5 bd db 22 9b bd
       0.029547501 0.033392455 -0.11206772 -0.075750075
000290 23 8f 6b 3c 64 7f 69 bd c3 c7 20 bc dc 9a dc bc
       0.014377388 -0.057006255 -0.009813252 -0.026929311
0002a0 ea c1 8c ba 2e 09 ef 3d e7 db 45 3d 82 66 67 bd
       -0.0010738943 0.11671673 0.04830542 -0.056494243
0002b0 d0 e5 35 3b b7 e4 8b 3d e1 ed 83 bd f2 ca 0a bd
       0.0027755387 0.06830733 -0.06441856 -0.03388495
0002c0 8b 42 bc bd 0e c4 21 bd 60 5b 69 bd fd 0b 6e 3d
       -0.091923796 -0.039493613 -0.056971908 0.0581169
0002d0 5d 81 09 bc d2 88 41 3c 30 1b 8d 3d 3e d5 ef bc
       -0.008392659 0.011812406 0.06889951 -0.029276486
0002e0 6e e1 9c bd 91 aa 4b 3d 1c 16 c6 3d 0a 85 34 bd
       -0.07660185 0.04972321 0.09672186 -0.04407219
0002f0 54 bc f6 3c 8e fa 1a 3c 54 11 7b bd 97 f7 31 bc
       0.030119099 0.009459151 -0.061295822 -0.010862253
000300 bd 83 b4 3c 12 4a e7 bc fb 90 86 3d d9 7b 54 bc
       0.022035474 -0.028233562 0.065706216 -0.012968981
000310 74 7f 8b 3d 08 ab c5 bd c5 b6 0b bd b5 bc 6e 3b
       0.06811419 -0.09651762 -0.03410985 0.0036428396
000320 c9 1a 63 bd 2b 84 46 bd 15 11 74 bc 62 1a c7 3d
       -0.055445466 -0.04846589 -0.014896651 0.09721829
000330 88 7e 0b 3d 1b 20 51 3c bb db 30 bd f3 2b d5 bc
       0.034056216 0.012764002 -0.0431783 -0.026021933
000340 9c 01 61 bd 58 0c e5 bd 5f 51 f3 bc 27 d4 44 bd
       -0.054933175 -0.11183995 -0.029701887 -0.048053887
000350 6a 83 9f 3c 0a 04 a6 bc 74 e9 6d 3d 8f 11 66 3d
       0.019471843 -0.020265598 0.058083966 0.05616909
000360 92 f8 3f bd 60 c2 f1 3d 6d e4 2b 3d 89 66 dc bc
       -0.046867914 0.11804652 0.04196589 -0.026904361
000370 23 6c 08 3d a2 ce 8d bd 49 48 f4 3c c8 4f 9a bd
       0.033306252 -0.06924178 0.029819624 -0.07534748
000380 85 60 24 bd ad 1d 28 3d 0e 40 f0 bb e4 1c 73 3d
       -0.04013111 0.041043926 -0.0073318547 0.059353724
000390 0c ba 5a bd 9f b6 76 bd 5c 65 c1 bd 99 18 6b 3d
       -0.053400084 -0.060232755 -0.09443161 0.057396505
0003a0 ec de ea 3d 44 e2 aa bc 22 df 21 3d 62 b9 74 bc
       0.114683 -0.020859845 0.039519437 -0.014936777
0003b0 7a 18 4d 3d ca 5b 00 3c 7c ae 70 bd 73 98 1a 3d
       0.05007217 0.007834384 -0.05876015 0.037743043
0003c0 b1 ff 38 ba a1 7e a0 3c 70 59 a1 bd 12 15 bb 3c
       -0.0007057144 0.019591631 -0.07878387 0.022837196
0003d0 ce 9c e4 bb 4b 30 a8 bc 29 78 06 3d c2 14 7d bd
       -0.0069767004 -0.02053084 0.032829437 -0.061787374
0003e0 fc ad 69 3c 44 78 8d 3c b6 2c 67 3d 72 7e 03 3c
       0.0142626725 0.017269261 0.056439124 0.008025752
0003f0 a3 53 97 bd 19 36 8b 3c 63 2e 32 bd 87 a6 90 3b
       -0.07388999 0.01699357 -0.04350127 0.004414383

lstm.bias_ih_l0 f4 [512]
000000 3d 4c f0 3c 52 cc 33 3d 43 26 23 bd 4a 9d 8a 3d
       0.029333228 0.043896027 -0.03983141 0.06768282
000010 1d 96 18 3d 60 c4 95 3d cc 5d 93 3c c8 21 47 bc
       0.037252534 0.07312846 0.017989062 -0.01215405
000020 87 4e c4 bc a6 cc 3a bd c8 2e 09 bd 90 69 cd bc
       -0.023963226 -0.045605324 -0.03349188 -0.02507475
000030 5f b0 95 3d b5 f7 84 3d 17 c9 c6 3c 68 73 c3 3d
       0.07309031 0.06492559 0.024265809 0.09543496
000040 77 a7 54 3c 6d 11 53 3d 0d e8 85 3c 7e 12 6f bc
       0.01297938 0.05153029 0.016346002 -0.014591811
000050 e4 1e 26 bd b8 4f 68 bc 28 8f c9 3c 1c 68 ed bc
       -0.040556803 -0.014179163 0.024604395 -0.028980307
000060 b4 30 83 bd dc bb 20 3d 25 ce 3b 3d 2c 91 09 3c
       -0.06405774 0.039241657 0.04585089 0.008396428
000070 ac cb 4b bd 80 43 0e 3d e0 69 02 bd 36 af bd 3c
       -0.049754784 0.03473234 -0.03183925 0.023154836
000080 61 06 41 bd 5d e5 d9 3d 09 22 01 3d e4 ad 8e bc
       -0.047125224 0.10639451 0.0315266 -0.017416902
000090 94 63 c7 3d 59 22 22 bd c5 55 cd 3c b6 2d 31 bd
       0.0973579 -0.039583538 0.025065312 -0.043256484
0000a0 cd 9d 27 3d 8c c0 d8 3d f7 1c 79 3a d4 90 3d 3d
       0.040921975 0.105836004 0.0009502912 0.046280697
0000b0 e0 34 8c 3d 6c 71 dd bc 35 6b b3 3d f6 69 56 3a
       0.068460226 -0.027031623 0.087606825 0.00081792416
0000c0 61 0d 22 bd d1 2b 9b 3c 6e bc 0a 3d aa 52 98 bd
       -0.03956354 0.018941792 0.033871107 -0.07437642
0000d0 f3 c9 e5 bb 74 b9 7a 3b f7 5c 05 bc 49 f5 d0 3d
       -0.0070125996 0.0038257511 -0.00813984 0.102030344
0000e0 ea aa 03 bd 4d 80 28 bd 12 7c ad 3d 98 58 04 3d
       -0.03214542 -0.041137982 0.0847093 0.032311052
0000f0 45 22 bc 3d 9b 56 a1 bc b0 db c8 bc 96 cf 4f bd
       0.09186224 -0.019694617 -0.024518818 -0.05073508
000100 d8 a2 bf 3c a6 ca e5 3d 7f 76 0f 3d 33 f5 7d bd
       0.02339308 0.11220293 0.035025116 -0.06200142
000110 f6 f5 57 bc 78 53 9d 3d 6d ce 33 bc 3d 0b 73 3d
       -0.0131812 0.07681936 -0.010974509 0.05933689
000120 23 cb 11 3d ef 4d 0b bd 58 83 4e bd 73 90 58 3d
       0.035594117 -0.03400987 -0.050418228 0.052872133
000130 8c ab c3 3b d0 6e 5b bb 15 63 ed bb 46 26 87 bb
       0.0059713777 -0.0033482797 -0.0072444775 -0.0041244356
000140 fb 79 c7 3d 4f 04 92 bd 60 88 6d 3d 7e 20 19 bd
       0.09740063 -0.07129728 0.057991385 -0.037384503
000150 95 4b 63 bc 9c 23 af 3d c2 d5 81 bc f7 97 92 bc
       -0.013873001 0.08551714 -0.015848998 -0.017894728
000160 95 39 84 bc 19 af 6d 3c e6 ca 80 bc 60 61 bf 3d
       -0.016140739 0.014507079 -0.01572175 0.09344745
000170 e2 93 59 3d 9f 3d cd 3b 2a 7c 8a bd 8e 2a 75 bd
       0.053119548 0.0062634493 -0.06761964 -0.059855036
000180 c4 c5 d2 3d 5a b8 45 3d 56 57 91 3d 23 ae 72 3d
       0.10291627 0.048271514 0.07096736 0.0592481
000190 f7 42 22 bd b9 e4 dc bc bf 5e 32 bc 77 4b b8 3d
       -0.039614644 -0.026964532 -0.010886847 0.08998769
0001a0 f9 b7 d2 3c 49 6f e0 bb cc 4f d7 3d ca 3d 04 bd
       0.02572249 -0.0068492037 0.10513267 -0.03228549
0001b0 7a 5a dd bb 13 86 5c bc c9 f9 a3 3d a4 de d1 3d
       -0.0067551704 -0.0134597 0.08006627 0.102475435
0001c0 d7 1b 21 bd 52 55 29 bd df 27 ca 3d af 03 ad 3d
       -0.03933319 -0.041341133 0.09870886 0.08447968
0001d0 3d e6 6e 3c 4e b2 d3 bc ce d6 98 bd 45 57 b3 3d
       0.01458126 -0.025841858 -0.07462846 0.0875688
0001e0 39 57 87 bd 51 a0 ea bc 69 34 cf 3d af 06 c5 bc
       -0.06608433 -0.028640898 0.10117418 -0.024051039
0001f0 fc 7f e1 3d b6 f6 34 bd 26 d0 dd 3c db 39 65 3d
       0.11010739 -0.044180594 0.027076792 0.05596338
000200 08 60 23 bc 77 7c 71 bd 02 9e 5c 3d bf f1 40 3d
       -0.009971626 -0.05895659 0.053861625 0.047105547
000210 ae 82 2d 3d 59 74 7c 3d 6e 17 67 3d d8 ed b7 3b
       0.042360954 0.061634395 0.05641883 0.00561307
000220 75 94 10 bd 2f 1a 4b bd 6c b8 66 bd cd cf 3e bd
       -0.03529783 -0.049585517 -0.056328222 -0.046584893
000230 f8 05 02 3d eb 6e ab 3d 3d a2 d1 3c 43 5f 94 3d
       0.031743973 0.08370765 0.025590057 0.07244732
000240 92 07 c0 3b 06 43 1f 3d 0d 55 45 3d 1d fc 7c bd
       0.0058602775 0.038882278 0.048176814 -0.06176387
000250 cc 06 b2 3d 07 08 8d 3d 6f 54 87 bd be 46 9b 3d
       0.08692703 0.06886297 -0.06607901 0.075818524
000260 09 3a 24 3c 31 c4 9a 3d f4 92 88 bd fd 5d 64 3d
       0.010023602 0.07556952 -0.06668654 0.055753697
000270 90 99 c8 3d fb ea f0 3c 20 32 7b bd ad e8 86 3d
       0.09794915 0.029408922 -0.0613271 0.06587348
000280 22 b8 4d 3d 3c c2 5a 3d fa 67 69 3d dd 61 2d bd
       0.05022443 0.053407893 0.056983925 -0.042329658
000290 e1 3d bc 3d 75 f5 be 3d 5f 48 1b bc cc 61 c1 3c
       0.0919149 0.09324161 -0.009477704 0.023606203
0002a0 5f 84 af 3c 25 e9 97 3d ef 7a 39 3c 1b 33 c0 bb
       0.021425424 0.07417516 0.011320814 -0.0058654672
0002b0 96 1b 96 3d 71 be 5e 3d a4 77 26 3d 12 0e 6d bd
       0.0732948 0.054380838 0.040641442 -0.057874747
0002c0 ad 14 6c 3d d3 e2 a5 3a d2 9d fa 3b 7c c6 99 3d
       0.057636905 0.00126561 0.007648208 0.07508561
0002d0 f6 e7 0c bd 41 56 c3 3d d4 d4 38 bd 73 53 f6 3c
       -0.034400903 0.09537936 -0.045124844 0.030069089
0002e0 c3 62 ae 3b d3 42 ae 3d 2c 8b 3d bd a5 5e 4c bd
       0.005321832 0.085088395 -0.046275303 -0.049894948
0002f0 ca d7 46 3d 62 04 c2 39 0e a0 be 3d db 17 db 3c
       0.048545636 0.0003700583 0.09307872 0.026744774
000300 81 ac f5 3b b5 81 88 ba 18 af e3 bc 1a 74 31 3d
       0.0074973707 -0.0010414632 -0.027793452 0.043323614
000310 c9 8f 57 bd ed fa b2 3d bb af ce 3d f5 54 06 ba
       -0.05262736 0.087392665 0.10092112 -0.0005124354
000320 8e 08 83 3d de 35 01 bd a0 9f b3 3d e3 5d 39 bd
       0.06398116 -0.031545512 0.087706804 -0.045255553
000330 4c ea cb 3d 00 dc dc 3c 77 eb a8 3d 5b 78 89 bd
       0.09956798 0.026960373 0.08248036 -0.06712409
000340 a6 21 5d bd ac 52 cd 3c b1 c0 4d 3d 1d de 77 3d
       -0.053987168 0.025063835 0.050232593 0.060514558
000350 d7 8d 37 3a 61 a5 83 3d a6 ba 61 b9 ea ea 89 bd
       0.0007002032 0.06428028 -0.00021527204 -0.067342594
000360 00 51 8c 3a fa b5 11 bd 68 30 4c bd 7c 25 6e bc
       0.0010705292 -0.035573937 -0.04985085 -0.014535304
000370 ed ee 65 bd ec 64 ce 3c 32 67 7c bd ba b7 70 bc
       -0.05613606 0.025194608 -0.061621852 -0.014692241
000380 40 6a 96 3d 5a 5b 4b 3d 87 2e 10 bc 1f 7f 57 3d
       0.07344484 0.049647667 -0.0088001555 0.052611466
000390 a3 07 95 3d 05 6f 0d 3d 75 14 4a bc d4 fc ac bc
       0.07276847 0.034529705 -0.012333979 -0.021116652
0003a0 78 f4 90 3d ea 1a f8 bc 8c 02 87 bd ab f6 8e 3d
       0.07077879 -0.030286271 -0.06592283 0.06980642
0003b0 b7 95 9f bc 6b 9f 02 bd 7d 10 44 3c 18 8d 1d 3b
       -0.01948057 -0.031890314 0.011966822 0.0024040397
0003c0 94 d4 c9 bc ed c0 64 bd e0 20 cf bc bb a3 9e bc
       -0.024637498 -0.05584805 -0.02528423 -0.019365182
0003d0 88 aa 01 3d 84 bb 36 bd 5d 7f 55 bd 42 8a 0c 3d
       0.031656772 -0.044612423 -0.052123416 0.03431154
0003e0 96 5e bd 3c 2c cf 74 bd ca 63 a6 3d 8f 16 c0 3d
       0.023116391 -0.059767887 0.08124502 0.09379303
0003f0 22 43 84 3d a4 3d 52 3c b7 a4 b3 bb 1c e7 bf 3c
       0.06458117 0.012832079 -0.005482282 0.023425631

lstm.bias_hh_l0 f4 [512]
000000 1e 61 4a 3d 90 f4 b5 3d d7 69 12 3d 97 26 9e 3d
       0.049409024 0.08884537 0.035745468 0.07722204
000010 a2 c2 05 3d d3 a2 39 bc 6e 7d 88 3d 85 4d 86 3d
       0.03265632 -0.011330324 0.06664549 0.065577544
000020 cd c2 44 3c eb e2 5f 3d dc 0a ad 3b d7 d9 23 3d
       0.012009335 0.054659765 0.0052808356 0.04000267
000030 1c 5f 0e bd a4 f1 d5 3d 63 83 29 bd c2 4c 9c 3d
       -0.034758672 0.1044648 -0.041385066 0.07631828
000040 4e 27 73 bd f0 59 6f 3d 4c 9d 0f bc b6 c5 1a bd
       -0.059363656 0.05843538 -0.00876553 -0.037786208
000050 7e 5d c3 3d cf fc 35 bd 76 94 0d bd b0 f4 a0 3d
       0.095393166 -0.04443055 -0.03456541 0.078591704
000060 fe 37 c3 3d 12 8c 5d 3a 55 1f 35 bd 73 33 0d bd
       0.09532164 0.0008451353 -0.044219334 -0.034472894
000070 79 83 cd bc 18 fd 6c bd 28 06 a1 3d 4f b9 97 3d
       -0.025087105 -0.057858557 0.07862502 0.07408392
000080 7e c0 a6 bd d1 91 97 3d c4 a3 19 bc 92 99 e2 3b
       -0.08142184 0.07400859 -0.009377424 0.0069152797
000090 7c 1e 03 bd 0d ee 9d 3d 43 a6 36 bc 18 2b 6e 3d
       -0.032011494 0.0771142 -0.011148038 0.058146566
0000a0 d4 c8 12 3d 47 3f 84 3d 5f 98 bf 3d c1 8c 38 bc
       0.035836056 0.06457382 0.09355234 -0.011264027
0000b0 b0 6c 5e bd b3 07 d0 3d 21 2b 9a 3d 86 25 67 bd
       -0.05430287 0.101577185 0.075277574 -0.05643227
0000c0 93 42 67 3d 91 93 1f 3d 14 9c 34 3c 59 5f a9 3b
       0.056459974 0.03895909 0.01102354 0.005168837
0000d0 14 04 fd bc 8f 26 0e 3d 16 c4 b8 3d 23 01 b5 bb
       -0.030885734 0.03470474 0.090217754 -0.005523817
0000e0 13 3e 5b 3b 9c 71 5f bb 70 6e 9a 3d d7 69 68 3b
       0.0033453747 -0.0034094816 0.075405955 0.0035463476
0000f0 32 6c 0f 3d 2c ca 5a bd 85 ba a4 3d 87 11 df 3a
       0.035015292 -0.053415462 0.08043388 0.0017018773
000100 af cf 7a bc 9c d6 87 3d 53 56 f2 3d ff 43 cc bc
       -0.015308305 0.0663273 0.11832871 -0.024934767
000110 79 36 6c 3d e9 8e 8f bc 5a 60 5b 3b 65 f0 95 bd
       0.057669137 -0.0175242 0.0033474178 -0.07321242
000120 76 f0 53 3d d6 a6 e6 3d 18 c3 64 bd b5 81 37 3d
       0.051742993 0.1126229 -0.05585012 0.044801433
000130 da 4e 93 3d ad 88 21 bd c0 7f 31 bd ba 5c 90 bd
       0.07192774 -0.039436985 -0.043334723 -0.07048936
000140 be 4e eb 3c 9d 9e ae ba 05 ac f9 bc 44 c8 e6 3d
       0.02872407 -0.0013322417 -0.030477533 0.112686664
000150 c0 32 86 3d a5 9b b9 3d 8b d0 37 bd 50 86 9d bd
       0.065526485 0.0906289 -0.044876616 -0.07691634
000160 87 8c b4 3d 59 79 31 bd de 96 99 3c 30 05 18 bd
       0.08815866 -0.043328617 0.018748697 -0.037114322
000170 a3 d1 83 3d df da b7 3d 84 a3 5a bd e4 34 04 bd
       0.064364694 0.08977293 -0.053378597 -0.032277003
000180 66 b1 9b bc fa b2 4b bd 03 2e 92 3d 2b 6d d5 3d
       -0.019005489 -0.049731232 0.07137682 0.10421213
000190 b2 0f bf 3d 6c f5 d2 3b 92 1a 85 bd 0a ad 3f 3d
       0.093291655 0.006437948 -0.064992085 0.046795882
0001a0 60 30 b8 3d c1 28 d5 3d 67 04 8c 3d 52 fd a3 bc
       0.08993602 0.10408164 0.06836777 -0.020018253
0001b0 94 6f 6b 3d 8d a2 6b bd ab e6 16 bd ac 21 d4 bc
       0.057479456 -0.057528067 -0.036841076 -0.025894962
0001c0 f6 57 5d bc 8d 37 b7 bb 88 81 34 bd 76 89 e0 3c
       -0.013509741 -0.005591339 -0.044068843 0.027409296
0001d0 a2 13 99 3c 31 62 bf 3d 14 13 5a bd a3 35 8e 3c
       0.01868612 0.093449004 -0.05324085 0.01735956
0001e0 4c d8 02 3c 1e cc 73 bd a9 ce 40 bd 75 f6 b5 bb
       0.0079861395 -0.059520833 -0.047072086 -0.0055530616
0001f0 fb 53 1e 3d 9c 1a 52 3c 43 5c 8a bd c1 3a 6f bd
       0.03865431 0.012823727 -0.06755879 -0.05840564
000200 12 e0 36 3d 95 ba 82 3c ec 3b 83 3c cc b0 f4 3c
       0.044647284 0.01595811 0.016019784 0.02986946
000210 19 c9 a8 3d d6 94 8e 3d 1c d1 46 bd 4a 63 af bc
       0.08241481 0.06961982 -0.048539266 -0.02140965
000220 e3 31 11 bc 70 e2 95 3c 55 8d aa 3c 60 3a a9 bc
       -0.008861992 0.01829645 0.020819345 -0.020657718
000230 43 3d 58 bd 29 81 52 3d 58 86 80 bd f0 06 11 bc
       -0.0527928 0.051392708 -0.06275624 -0.008851752
000240 31 f0 30 bd 2b a0 fb 3c 6f 1d 5b 3c 9c 5e 64 bd
       -0.043197814 0.030716022 0.013373717 -0.05575429
000250 89 d0 fc bb 49 3c 6a 3d f3 3d a0 3d 3e 6b d6 3b
       -0.007715289 0.0571864 0.07824316 0.006543546
000260 15 47 7b bd 2e 4d bf bc 11 4d bb 3c 8a 76 b1 3d
       -0.061347086 -0.023352232 0.022863897 0.08665188
000270 c0 c0 ad bc aa f0 85 bd 83 63 8a bc e9 ef b7 3d
       -0.021210074 -0.06540044 -0.016893154 0.08981306
000280 94 7f 9d 3d 6a 0c 27 bd 4c 04 70 bd 5b 06 85 3d
       0.07690349 -0.040783323 -0.058597848 0.06495353
000290 17 ec c4 3d 8b a9 1b bc 3e 9e 03 3d 6d 15 3c 3d
       0.09615343 -0.009500871 0.032133333 0.04591887
0002a0 56 68 6b 3d ca 08 46 3d 95 23 51 bc 02 de 72 3d
       0.05747255 0.048348226 -0.012764831 0.059293754
0002b0 37 c8 8a bd b8 53 5c bd 56 4f 10 3d 5b 86 6e 3c
       -0.06776469 -0.053790778 0.03523191 0.0145584
0002c0 1b d2 a1 bc 10 20 81 3d 2b 40 48 3c 38 0c f3 3c
       -0.019753506 0.063049436 0.01222233 0.029668912
0002d0 a1 23 40 bd 9f c6 c6 3d b5 54 61 3d 61 ef c5 3d
       -0.04690898 0.09705853 0.055012424 0.096647985
0002e0 75 a9 ba 39 63 37 9d 3d 8a b3 1a bd 12 df 39 3d
       0.0003560294 0.0767658 -0.037768878 0.045378752
0002f0 7d 66 90 bc 54 c9 9b 3d df c5 30 bd 13 53 29 3d
       -0.017626995 0.0760676 -0.043157455 0.04133899
000300 08 1a ea 3c 85 21 2d bc d2 6d cb 3d 7a 04 f6 3c
       0.028576866 -0.010567074 0.09933056 0.030031431
000310 23 a5 0b bd 51 04 c3 3c d0 8c 56 3d 9c b0 85 3c
       -0.034093034 0.02380577 0.052380383 0.016319565
000320 64 3b 69 3d 36 96 70 3d 60 86 ad 3d 2f 8c b4 3d
       0.056941405 0.058737002 0.084728956 0.088158004
000330 9b 7c a9 3d 3c b6 11 bd c6 40 a6 3c d6 25 77 bd
       0.0827572 -0.035574183 0.020294558 -0.060338818
000340 17 a2 90 3d 68 ec ce 3d 9b d7 48 bd c7 ff b4 bc
       0.07062166 0.10103685 -0.049033742 -0.02209462
000350 c5 27 52 3d 58 a0 bd 3d 65 ab b3 3d f0 86 8d 3d
       0.05130746 0.09259099 0.08772925 0.06910503
000360 d8 5b 45 3c 23 6b 7f 3d 36 22 78 bd df 3f 39 bd
       0.012045823 0.062358033 -0.0605795 -0.045226928
000370 29 49 73 3b 15 7c 66 bd b4 cc 5d 3c 25 4c 14 bd
       0.0037122464 -0.056270678 0.013537575 -0.03620543
000380 ab b6 c2 3d 32 e1 59 3d c8 4f d1 3d 17 1b b1 bc
       0.095074974 0.05319328 0.10220295 -0.021619363
000390 02 3f c2 3d 6b c9 a3 3d a1 8f 3b bd 89 e0 c4 3d
       0.09484674 0.07997402 -0.045791272 0.09613139
0003a0 54 fb 96 3a ae 0b fb bb 4f 7e bb 3d 0a a1 95 3d
       0.0011518993 -0.0076613044 0.09154951 0.073061064
0003b0 cb e4 35 bd de 1a 81 3c 8b fa 1c bc 64 89 5a bd
       -0.044407647 0.015759882 -0.0095812185 -0.053353682
0003c0 e2 e1 82 bd d7 4c 3f bd e0 a9 74 3d 41 74 4c bd
       -0.0639074 -0.04670414 0.059732318 -0.049915556
0003d0 8b cc ad 3a ef 36 01 bd 55 d7 cc bc 36 f1 8b 3c
       0.0013259811 -0.03154653 -0.025005022 0.017082792
0003e0 b7 83 8f 3d a8 92 84 bd 07 cc bd 3a 7f 57 55 3d
       0.070075445 -0.06473285 0.001448036 0.052085396
0003f0 65 f1 b2 3d 67 ca 96 bd f0 02 27 bd e4 8c 55 3d
       0.087374486 -0.07362824 -0.040774286 0.052136317

mlp_head.0.weight f4 [64, 128]
000000 8e 3a 2f bd b1 5c 5d bd 6b f1 cd bd 20 bb fe 3c
       -0.04278045 -0.054043476 -0.100558124 0.031095088
000010 62 21 8b 3d 32 99 5b 3c 0d 8a 61 3d 6b 62 ef bc
       0.06793477 0.013403224 0.055063296 -0.029221734
000020 43 ca a0 3d 92 79 db bc 46 79 8c bd eb 16 d5 bd
       0.07851078 -0.026791368 -0.068590686 -0.10404762
000030 8a 68 85 bc b2 8e d8 3d b5 07 49 bd 54 a3 5f 3d
       -0.0162852 0.10574092 -0.049079616 0.05459912
000040 5f f1 9b 3d 0f 3a bb bc 10 1a 77 3b 39 22 e6 3d
       0.07614397 -0.022854833 0.0037704743 0.11236996
000050 fb 5c 97 bd 66 5a 82 3d 59 e3 70 bd 77 df 02 bd
       -0.073907815 0.063648984 -0.058810566 -0.031951394
000060 cd 26 a6 3d da 39 74 3d 82 43 5c bd 92 84 d0 3c
       0.081128694 0.059625484 -0.053775318 0.02545384
000070 cd da 89 bd 27 4d 70 3d af 4f 99 bd 6c 3f 04 3d
       -0.06731186 0.05866733 -0.074859016 0.032287046
000080 d6 10 93 bd 06 93 94 bd 60 a3 7d 3b 6c e7 2f bd
       -0.071809456 -0.07254605 0.0038702115 -0.04294531
000090 ce c9 45 3a 5c ce b1 bd 33 7e 41 bd 76 17 21 3c
       0.0007545025 -0.08681938 -0.047239494 0.009832254
0000a0 ec 32 00 bc af c6 20 bd dc f5 8b bc 0a 12 73 bd
       -0.007824641 -0.03925198 -0.017085008 -0.059343375
0000b0 94 77 49 bd 99 d5 81 3d 48 b1 c7 3c 0c 54 d1 3c
       -0.049186304 0.06339569 0.024376526 0.025552772
0000c0 2b 79 20 bc 99 cf 53 3d c3 af 09 3d 5b 68 8c 3c
       -0.009794514 0.051711652 0.033614885 0.017139604
0000d0 ac 82 96 bc 5d ee aa 3b 8c 88 c3 bc e4 3a 3f 3d
       -0.018372856 0.0052164034 -0.023868822 0.04668702
0000e0 17 ec 42 bd 0c d0 b1 bc 0e b0 97 bd 3e 0f 3e 3d
       -0.047588434 -0.02170565 -0.07406627 0.046401255
0000f0 22 e5 64 bd c5 55 ae 3c 87 89 b0 bd b3 82 7f 3d
       -0.05588258 0.021281132 -0.08619981 0.062380504
000100 1c 0f 3b 3d 60 32 85 3c b3 0c bd 3a f0 c2 82 bd
       0.045668706 0.016259372 0.001442334 -0.063848376
000110 00 08 6a 3c 14 38 52 3d d4 e1 78 3d b6 98 9c 3c
       0.014284134 0.05132301 0.06076224 0.019115787
000120 0c 50 2b bb 0d b4 99 3d e5 90 11 3d 79 dd 7c 3d
       -0.002614024 0.07505045 0.035538573 0.06173465
000130 0e 6c 33 3d 27 29 ef 3b 9d b9 7f bd ae 39 83 bd
       0.04380422 0.007298607 -0.062432874 -0.06407486
000140 5c 99 69 bc d1 57 19 3d 62 ba 16 3d 3b 30 be 3d
       -0.014257755 0.037437264 0.036798842 0.09286543
000150 bc 8a 90 bd 67 b5 a8 bc a3 74 a6 3c e1 e4 5d 3d
       -0.070577115 -0.020594312 0.020319289 0.054173354
000160 81 54 85 3d 57 96 5f 3d cc e5 38 bd 14 12 a8 bd
       0.065102585 0.054586735 -0.045141026 -0.08206573
000170 f7 96 c2 3c 90 d1 8a bd 26 20 5a bd d6 1a 9c bc
       0.023753626 -0.06778252 -0.053253315 -0.019055765
000180 0c 9b c8 3d b4 2d ac bd 47 e8 f1 3c 1a ea 9a 3c
       0.09795198 -0.08407155 0.029529704 0.018910456
000190 0c b8 b1 bc 25 b0 53 bd ef 59 93 bd 32 7a a8 bd
       -0.021694206 -0.051681656 -0.07194888 -0.08226432
0001a0 c2 e6 02 bc 46 0b 97 bd 4e 28 a1 bd c4 38 81 bd
       -0.007989587 -0.07375197 -0.07869016 -0.06309655
0001b0 85 61 00 bd 7f 39 92 3d 2a b8 41 3c 4f 7b 51 3d
       -0.031343002 0.07139873 0.011823693 0.051142987
0001c0 00 9e 90 3d 2b 4a 7a bd d1 63 ca bd f8 aa 96 3d
       0.07061386 -0.06110589 -0.0988232 0.073568285
0001d0 7a 55 b9 bc 67 c3 5a bd b2 d5 32 3d af 70 6a 3d
       -0.022623766 -0.053409006 0.043660827 0.05723637
0001e0 b1 cc ab bd 46 ba 84 bd 77 42 d1 bc 1e b1 07 bd
       -0.08388651 -0.06480841 -0.025544388 -0.033127896
0001f0 69 d4 90 3d 4d e0 8f bd 76 1f b1 bd 6f 52 bc 3d
       0.07071764 -0.07025204 -0.08648579 0.091954105
000200 70 e7 66 bd 2b b7 16 3d ae c8 d9 3c cc 67 5e 3c
       -0.05637306 0.036795776 0.02658495 0.013574552
000210 44 aa d2 bc 16 06 cf 3d 26 0c 4a bb 5d 34 37 bd
       -0.025715955 0.10108583 -0.0030829995 -0.044727672
000220 f2 1d 39 bd 14 1d 6c bc 4d f6 9c 3d 0f 8c 9e 3d
       -0.045194574 -0.01441123 0.07664166 0.07741558
000230 68 48 27 3d a6 1a 1b 3d 09 c0 e5 3c 9d 38 06 3d
       0.040840536 0.03786721 0.028045671 0.032768834
000240 d6 d2 9d 3d 8b fe 5c bd 1a d4 6a 3d be 7a 25 bd
       0.077062294 -0.05395369 0.057331182 -0.04040026
000250 fc 82 74 3c e8 8b f1 bb 5b 2e 97 3d e0 2c d0 3d
       0.014923807 -0.0073714145 0.073818885 0.10164809
000260 6a fb ca 3d a9 e3 67 bd 45 04 ba 3d 14 ad 8c bd
       0.09911235 -0.056613598 0.090828456 -0.068689495
000270 0d 0c ad bc 69 af aa bd e1 5f aa 3c 43 9a bc bd
       -0.02112391 -0.08334238 0.020797672 -0.092091106
000280 e2 cb bb bc 09 92 27 3d 2a 9a 16 3d a7 01 b6 3c
       -0.022924367 0.040910754 0.036768116 0.022217585
000290 32 56 7c 3d 4e f2 3e 3d e7 2b 01 bc 9f 83 11 bd
       0.06160564 0.0466178 -0.007884002 -0.035525914
0002a0 35 88 f3 bd 7a 9d 9f bc 1f 81 5e bd 3a e7 29 3c
       -0.11891214 -0.01948427 -0.05432236 0.01037007
0002b0 a8 6b bc 3d 02 ee 03 3d 6e a6 da bd 36 47 8d 3c
       0.09200221 0.032209404 -0.10676275 0.01724587
0002c0 1d 5b 5e bd 07 ad 05 bd 9b 5c 54 3d ec 9f 4d 3d
       -0.05428611 -0.032635715 0.051846128 0.05020134
0002d0 e5 29 1a bd ac bd 61 3d ce 01 ad bb a9 58 7e bd
       -0.03763761 0.055112526 -0.005279756 -0.06209627
0002e0 a2 79 d6 3c 88 28 ba 3b 15 1b 68 3d 58 dd 96 3d
       0.026181046 0.005681101 0.056666452 0.07366437
0002f0 da 0e b6 bd 9a d1 88 bc 64 e8 4b bc 33 1c 0e bd
       -0.088895515 -0.016701508 -0.012445543 -0.03469486
000300 c7 ce 8f bd f2 4e d6 3c 4b d6 b8 3c 3a ca b6 3b
       -0.070218615 0.026160691 0.02256312 0.0055783065
000310 ac c4 35 3c eb 49 93 bc e4 28 3d bd 51 0f aa bd
       0.0110942535 -0.017979583 -0.046181574 -0.083037026
000320 77 09 5e 3b a9 a9 ce bc 5c 09 68 3d 58 2f 17 bd
       0.0033880153 -0.025227385 0.05664955 -0.036910385
000330 e8 db bb bc 48 ee ba bc 0a c4 b0 bc 13 44 fd bc
       -0.022932008 -0.0228187 -0.021577854 -0.03091625
000340 0d e3 d3 bb be 66 46 3d f1 4c 7a 3d 79 74 0a bd
       -0.0064662755 0.048437826 0.061108533 -0.033802483
000350 8c 13 b3 3d 2e 63 9c bd d6 e6 bc bd e6 ae 57 3d
       0.08743963 -0.076361045 -0.09223716 0.05265703
000360 ca 62 82 3c ef 27 49 3b 12 c5 a2 3d 5e 9b e3 bd
       0.015916247 0.0030693968 0.079477444 -0.11113618
000370 5c 21 b5 bc 7c 3e 15 3c 57 70 f9 bc fb a3 76 bd
       -0.022110634 0.009109136 -0.030449076 -0.060214978
000380 4d 42 48 3d d4 db 9c bd bb ee 21 3d 9a ef f1 3b
       0.048891354 -0.076591164 0.03953431 0.007383299
000390 49 49 82 bc d1 0b 0f bd 30 d3 08 bd 58 2f 7e 3d
       -0.015904086 -0.03492338 -0.03340453 0.06205687
0003a0 7b 80 97 bc 37 6b 42 bd a4 0d a2 bb 6c 8d 51 bd
       -0.018493881 -0.04746553 -0.0049454737 -0.05116026
0003b0 d0 49 9c bd da fa 86 bc bd e2 0c 3b dd a7 0f 3d
       -0.07631266 -0.016477037 0.0021497451 0.035072196
0003c0 a2 07 47 ba f2 13 a7 bc 9f 37 a2 3d 79 66 91 bc
       -0.0007592385 -0.020395253 0.07920765 -0.017749058
0003d0 9b 74 1e bc 8a 06 dc bc 4c 15 1d bd bd 13 04 bd
       -0.009671356 -0.026858587 -0.03835039 -0.032245386
0003e0 b8 6d 66 3d b4 5e b5 3c 44 28 02 3d 3e fe 92 bb
       0.05625698 0.022139885 0.03177668 -0.0044858744
0003f0 4c e5 2c bc 99 3b 12 3d 36 ac aa 3d dd 4a ca 3d
       -0.0105527155 0.035701368 0.08333628 0.0987756

mlp_head.0.bias f4 [64]
000000 10 fe 7f bd a5 bc 0d 3d 13 28 96 3a eb 2b a6 3d
       -0.062498152 0.034603734 0.0011456035 0.081138454
000010 fc 4a 02 bd f2 29 25 bd 83 f3 f5 3c 1f 3e b9 3d
       -0.031809792 -0.040323205 0.030023342 0.09045052
000020 60 52 be 3d ba c1 68 bb f2 b8 2b bd 3d 4b 99 3d
       0.092930555 -0.003551586 -0.041924424 0.07485054
000030 7c ea e5 bc 26 60 d7 3d f3 43 98 3c fa c7 64 3d
       -0.028065912 0.10516386 0.018587088 0.055854775
000040 35 08 5a 3d c6 8e 1b 3d fb 78 09 bc a0 1d 48 3d
       0.053230483 0.037977956 -0.00839066 0.048856378
000050 3d c5 d9 3d 30 2a 39 3d 5d d8 49 3d 28 1b b8 3d
       0.10633323 0.04520625 0.049278606 0.08989555
000060 ef 21 c1 3d 16 11 ac bd b8 57 65 3d 5e 1d 72 bd
       0.094303004 -0.084016964 0.05599186 -0.059110038
000070 dc 96 a2 3d bb b4 74 bd 32 83 1c bd 0c 1d b0 3d
       0.079389304 -0.05974267 -0.038211055 0.0859929
000080 d3 3e 37 3d b9 40 0d bd 53 63 a6 3d fb 95 c0 3d
       0.04473765 -0.034485552 0.08124413 0.094036065
000090 f1 0e 43 3d 60 03 53 bd 70 91 27 bd cd fe 62 bb
       0.04762167 -0.05151689 -0.040910184 -0.0034636736
0000a0 b9 9b db 3b 34 dc 7f bc 67 26 bb 3b c1 16 61 3d
       0.006701913 -0.015616465 0.005711365 0.05495334
0000b0 bc 04 4f 3d 34 95 c6 3d 55 74 9e 3d 60 bf e7 bb
       0.050541624 0.09696427 0.07737032 -0.007072374
0000c0 16 0f b5 3c e4 00 ab 3c 65 df c7 3d bb 36 e0 bc
       0.02210192 0.020874448 0.09759406 -0.027369848
0000d0 ae 5d 0a 3c 6a 00 83 3d df ff 11 3d c0 60 1f 39
       0.008445187 0.06396563 0.03564441 0.00015199464
0000e0 dd 8c 7b bd c5 65 4a bd a7 11 87 3d 18 57 51 3d
       -0.061413635 -0.04941346 0.06595164 0.05110845
0000f0 77 52 b7 3d 7a 4a 4e bd 76 46 92 3d fc f2 b2 3d
       0.08951276 -0.050363995 0.071423456 0.08737752

mlp_head.2.weight f4 [64, 64]
000000 0c ac 93 bd 8f dd e8 bd 62 9a d4 3d 1f ca 48 3d
       -0.0721055 -0.11370384 0.10381009 0.049020883
000010 dc 04 cc 3d 08 2f 90 3d bd 63 05 3e a8 85 50 3d
       0.09961864 0.070402205 0.13026328 0.050908715
000020 be b6 76 3d 07 8a e0 bd c8 f5 1d bd 92 d9 c9 3c
       0.06023287 -0.109638266 -0.038564473 0.024639878
000030 f1 05 03 3d 4f aa ea 3d e6 32 64 bd 46 17 ea 3d
       0.031988088 0.11458265 -0.055712603 0.1143022
000040 e5 34 73 bd b9 c1 05 3e 94 e3 f7 bd 2c 7c 74 bd
       -0.059376616 0.1306218 -0.12103954 -0.059688732
000050 a6 2c d6 3d e5 cb cb 3d 67 e3 c0 3d 78 4c 0f 3e
       0.10457735 0.09950999 0.094183736 0.13994014
000060 c3 92 00 3e 69 fe a0 3d 85 25 0c be 6d 35 22 3e
       0.12555985 0.07861025 -0.13686188 0.15840693
000070 72 7d c9 bd 25 3a ea bd f3 0b 69 3d 65 62 f3 bd
       -0.0983838 -0.114368714 0.05689616 -0.11884002
000080 be db 08 3d 27 3a c0 3d 86 4c e1 bd 01 30 9f 3c
       0.033412687 0.09386092 -0.11000924 0.01943207
000090 7f a9 44 bd de f6 42 bc d8 51 3e bc 3e 40 a7 3d
       -0.048013207 -0.011899678 -0.011616193 0.0816655
0000a0 5c 36 e8 bd 6d 74 13 bd 52 8f 6a bd 68 a7 22 3d
       -0.11338493 -0.035999704 -0.057265587 0.039710432
0000b0 9e ab cd 3d 24 e9 82 3d 4d 5b 8e bd 3f aa ed bd
       0.10042499 0.06392124 -0.06951008 -0.116047375
0000c0 44 13 1f bc 40 1d 85 bd 19 6d ad 3c 4b 3e e9 3d
       -0.009709183 -0.064997196 0.021170186 0.113888346
0000d0 bc e4 e2 bd bc f1 ec bc e6 33 c2 3c 14 dc ae bc
       -0.11078784 -0.028923862 0.023706388 -0.021345176
0000e0 5a 1f d2 3d 58 ab af bc cf 31 f5 3c 93 63 21 bd
       0.10259886 -0.021444008 0.029930977 -0.039401602
0000f0 57 38 8e bc d5 bc 93 3c 20 73 c6 3d b6 a9 9e 3c
       -0.01736085 0.018034378 0.09689927 0.019368034
000100 66 cb 89 bd e6 54 b8 3d 1e 1a 54 3d 06 73 ea bc
       -0.06728248 0.09000568 0.05178272 -0.0286193
000110 4c 64 cd bc 4e e7 b7 3d 12 77 b8 bd bd 16 cb bd
       -0.02507224 0.08979665 -0.09007086 -0.09916446
000120 46 3a 24 bd 8d 6d 8d 3d 6c 72 eb 3d c8 78 ec 3c
       -0.040094636 0.06905661 0.114964336 0.028866187
000130 35 ba 77 bd 86 0e 95 3d bd 8e 34 bd bc d4 85 3d
       -0.060480315 0.07278161 -0.04408144 0.065347165
000140 0e 9b 19 3e 98 6d 63 bd 24 09 c2 3d 9e 39 6d bd
       0.15000555 -0.05552444 0.094744 -0.057916276
000150 21 40 e6 bd 37 74 4c bd 91 a4 5b bc 9a eb b6 3c
       -0.112427 -0.04991552 -0.013405935 0.02232914
000160 49 36 68 3d 36 ce d0 bc 7f 46 dc 3d fa 9f b2 bd
       0.056692395 -0.025488954 0.107556336 -0.08721919
000170 81 b7 c4 3c 7c 10 1b bc cd b0 99 bd af eb 70 3d
       0.024013283 -0.009464379 -0.07504425 0.058818515
000180 df 7f 15 bd 95 1d b3 3c 97 64 d0 3d 2e ca c7 b9
       -0.0364989 0.021864692 0.10175436 -0.00038106873
000190 9f dd ef 3d 54 7a 32 3d f6 e6 7f bb 25 a5 20 bd
       0.11712193 0.043573692 -0.0039047576 -0.039219994
0001a0 67 66 1b 3e 70 b1 50 3d 45 e8 8b 3d ff 03 8c bd
       0.15175782 0.050950468 0.06831411 -0.068367
0001b0 18 dc 69 bd f3 1f af bb c9 fc 3c 3d 6b 8b fb bc
       -0.057094663 -0.005344385 0.046139512 -0.030706128
0001c0 ca 44 49 bd 39 f0 cf bc 0e c1 02 3e 1a 6c 49 3d
       -0.049137868 -0.025383102 0.12768957 0.04917536
0001d0 da 73 51 3d 4d 96 08 3d 2f 51 fa 3d 48 ae 95 bd
       0.051135875 0.033346463 0.12222516 -0.07308632
0001e0 b1 2c 9d 3d 1e cf 7a bd fd 06 e3 bd 7c 99 d2 bd
       0.0767454 -0.06123268 -0.11085317 -0.10283181
0001f0 03 a7 e0 bc 47 d6 d9 bc 67 a4 48 3c b0 40 99 3d
       -0.027423387 -0.026591433 0.012246228 0.07483041
000200 d2 bd d5 bc af 93 0e 3e 75 fb a6 bd 16 f3 7d 3b
       -0.02609149 0.13923524 -0.0815343 0.0038749627
000210 83 0b a6 bd c4 86 ab bd bb 36 ed 3c 81 2e c3 bd
       -0.081076644 -0.08375314 0.028956762 -0.09530354
000220 9a 1c ae bd b9 e9 ec 3d 31 70 85 3d 48 bf 68 3d
       -0.08501549 0.115680166 0.065155394 0.056823045
000230 5b 29 f5 3d f4 8d 3e 3d 37 21 83 3c d0 e9 80 3d
       0.119707786 0.046522096 0.016007049 0.06294596
000240 75 40 42 bd 54 0e a6 bd 8d 3e ee bc 90 4b 85 b8
       -0.047424752 -0.081082016 -0.02908256 -6.356009e-05
000250 e7 de 9c 3d 1b d4 f3 bd a0 f1 c1 3c 6e 69 49 bd
       0.07659703 -0.1190569 0.023674786 -0.04917281
000260 4d c1 3f 3d 21 e8 f9 bd 6c c7 d5 bd 77 e2 bb bc
       0.046815205 -0.12202478 -0.10438427 -0.022935135
000270 4d 0d 6e bd 61 f5 8f 3d e6 62 18 bd a4 1c e1 3d
       -0.058118153 0.07029224 -0.037203692 0.10991791
000280 7d a4 13 bc 0b eb 89 3d b1 a5 fe 3d 10 0f 90 bc
       -0.009011385 0.06734284 0.12433947 -0.017585307
000290 f4 aa e3 bd 48 4f de 3d e8 e5 ca bd 4e 48 49 3d
       -0.11116591 0.108549654 -0.099071324 0.04914122
0002a0 ed 5a 9b 3d 9f 49 8c 3d e0 a3 23 bd cc 03 a8 bd
       0.07585702 0.068499796 -0.039951205 -0.08203849
0002b0 9d 09 e4 bd c0 83 8e 3c 96 33 a5 3d a7 5d c4 bd
       -0.11134646 0.017396808 0.0806648 -0.09588175
0002c0 b4 8f d4 bd 27 88 b6 bd f9 7b bb bd 59 ed cc 3d
       -0.10378972 -0.08912688 -0.09154505 0.10006208
0002d0 61 cb 85 3d da 81 d1 3c fb a4 f7 bc e4 80 63 bd
       0.06532932 0.025574613 -0.030230036 -0.05554284
0002e0 c3 d5 7e 3d 88 a4 c9 3d 02 56 43 3d 13 ab a6 bd
       0.062215578 0.09845835 0.047689445 -0.081380986
0002f0 f0 b6 d9 3d 18 b8 cc 3c f2 33 99 3d 57 cd 12 3d
       0.10630596 0.024990126 0.07480611 0.03584036
000300 a4 ac f1 3d ec 36 74 3d 35 a9 fc 3c 16 91 48 bd
       0.11800507 0.05962269 0.030842403 -0.04896649
000310 46 e5 d4 bd 3c 0e 6e 3d 05 0c 97 3c 58 4d d8 bc
       -0.10395293 0.058119044 0.018438349 -0.026404068
000320 08 67 c3 bd f4 1a 30 bd 26 65 57 bd a8 a4 64 bd
       -0.09541136 -0.042994455 -0.052586697 -0.05582109
000330 fd 95 8e bd e0 57 76 3d 6c ff a8 3d 4d 98 05 bd
       -0.06962202 0.060142398 0.08251843 -0.03261595
000340 e6 12 a7 bc 39 7e 3c 3d 8a f6 05 3d 02 f3 bf bd
       -0.020394754 0.046018813 0.03270582 -0.09372522
000350 86 d5 8b 3d ce 35 95 3d ce a4 b8 bd 0b 5b b4 bd
       0.06827836 0.07285653 -0.09015809 -0.088064276
000360 1a b0 8a bd 00 55 71 3c 40 2a bf 3d 01 20 c1 bc
       -0.0677187 0.014729738 0.093342304 -0.023574831
000370 00 d5 9c bd 8c 93 e3 bc 36 8d dd bd 5d c3 8f bb
       -0.07657814 -0.027780317 -0.108179495 -0.004387303
000380 2c 6a 86 3d 26 b9 fa bd e0 2c b3 3d de cc 2f bc
       0.065632194 -0.122423455 0.087487936 -0.0107299965
000390 ea c7 5b 3d 9b cd 94 bd 68 11 55 3d b2 8a 5d bd
       0.05365745 -0.07265779 0.052018553 -0.05408735
0003a0 87 de e4 bd 53 5e 24 bc 21 3c d5 3c a3 ff 29 3c
       -0.11175256 -0.010032254 0.026029648 0.01037589
0003b0 2c d0 30 3d 50 51 86 bd 35 58 84 bd 22 08 b1 3c
       0.04316728 -0.06558478 -0.06462137 0.021610323
0003c0 6d 1e cf bd 80 58 ab bb 85 54 54 3d ec 0f 12 3d
       -0.10113225 -0.005229056 0.051838417 0.035659716
0003d0 19 e9 87 3d 28 a5 43 bd 2b 27 95 3c d4 74 9b 3d
       0.06636257 -0.047764927 0.018207153 0.075906426
0003e0 84 d2 83 3d 45 aa 34 3d 9e f7 de bd 30 bd 9f bd
       0.06436637 0.044107694 -0.10887073 -0.077997565
0003f0 3f ff ed bd 19 46 09 3d aa 54 b2 3b 94 8c bd 3d
       -0.1162095 0.033514116 0.0054422216 0.09255329

mlp_head.2.bias f4 [64]
000000 6f 40 08 3e e4 2d 0e 3b ed 2e 2b bd 6d 22 7d bd
       0.1330583 0.0021694833 -0.0417928 -0.06180041
000010 14 c8 10 3d 2f ad d5 3d c2 50 00 be da 49 a2 3b
       0.03534706 0.10433423 -0.12530807 0.0049526514
000020 e1 a6 87 bc 4d 52 b8 3c b4 12 49 3c 92 72 ec bc
       -0.016559066 0.022500182 0.012272526 -0.028863225
000030 20 31 06 3c 0a 14 90 3c 86 1b 17 3d 5d 27 af 3d
       0.008190423 0.01758768 0.036891483 0.0855243
000040 34 b5 5c bc 03 aa 9b bd 38 0d 94 bc df bc 88 bd
       -0.013470937 -0.076007865 -0.01807271 -0.06676649
000050 b4 c8 83 3c d5 0a 27 3d 45 fe 75 bd 51 9a a8 3c
       0.016086914 0.040781815 -0.060056943 0.020581396
000060 f0 86 06 3e 18 af da 3c d6 98 9b bc 42 63 32 bb
       0.13137412 0.02669482 -0.018993776 -0.0027219807
000070 93 93 a2 bd a4 4c 7e bd 34 9f a5 bc ac 07 9b bd
       -0.07938304 -0.06208481 -0.020217516 -0.07569823
000080 55 1b b6 bc 8f c5 d8 bd 4f d4 d0 bc c2 c5 01 3e
       -0.02222983 -0.10584556 -0.025491862 0.12673095
000090 5b 9f ae bd 7a 37 df 3d c1 eb 03 3e 20 2b 9e 3d
       -0.085264884 0.10899253 0.12882902 0.07723069
0000a0 c5 c8 9a bd b9 0e f0 37 e2 37 c8 3d c5 4a bb 3c
       -0.07557825 2.8617085e-05 0.09776284 0.022862801
0000b0 9b 67 61 bd e1 2e 9b 3c 80 4c 7b bd 0d 7f 10 3e
       -0.055030446 0.018943252 -0.061352253 0.14110966
0000c0 54 88 cd 3d 22 19 d9 3d 77 c9 e3 3d 18 9e ae 3d
       0.10035768 0.10600497 0.11122411 0.08526248
0000d0 d5 ba 6e bd 46 e7 1a 3c c7 67 62 3d 50 0d 8c 3d
       -0.058283646 0.009454554 0.05527475 0.06838477
0000e0 99 dd ef bc a6 59 40 3d 5e da f5 3d 14 3b 81 3d
       -0.02928047 0.046960495 0.12004541 0.063100964
0000f0 0c 49 b5 bd f9 45 6a 3c f4 f5 ef 3d d3 81 d9 3d
       -0.08851823 0.014298909 0.11716834 0.10620465
