runs/8_hour_forecasting/235/best_model.pt (torch, 295545 bytes, 6 tensors)

net.0.weight f4 [64, 1068]
000000 1b 37 ad 3c 02 6f cd 3c ef c8 be bb 7e ce 16 3d
       0.02114444 0.025077347 -0.005822293 0.03681802
000010 bf fe d5 bb fb d6 83 3b 2a 18 a0 bc 00 b0 5a 3c
       -0.0065306122 0.0040234304 -0.019542772 0.013347626
000020 c3 dc ef 3b 50 54 a0 bc 32 a2 7d 3c c3 b2 47 3b
       0.007320018 -0.019571453 0.015480565 0.003047154
000030 5b 64 b4 3c 4b 4a 46 ba 6b c1 a1 3b fe aa 80 bb
       0.02202051 -0.0007564171 0.0049363873 -0.003926634
000040 05 93 fe 3c 19 52 63 3c b4 9c e4 bb c4 7a 1c 3c
       0.031075964 0.013874554 -0.0069766883 0.009550754
000050 a0 ae a9 bc d6 c3 8b 3a 61 6f 0e bc 75 3d b2 3c
       -0.02071315 0.0010663222 -0.008693547 0.02175782
000060 12 0e a5 bc 8d a9 0f bc 35 7b 5a 3a af 9c 4f bb
       -0.02014831 -0.008768451 0.00083343993 -0.0031679084
000070 9a b0 09 bc 93 cd e0 bc dc d9 d7 3c 7c 8d 65 bc
       -0.0084039215 -0.027441775 0.026349 -0.014010783
000080 83 df bd 3c ff 7a 8b 3c 09 47 ea 3a 0d 6d c4 3c
       0.023177868 0.017026423 0.0017873953 0.02397778
000090 9f 84 2d 3b 12 e4 0c 3d 9f c3 a5 bb fe 72 97 bc
       0.0026476753 0.034397192 -0.0050587202 -0.01848745
0000a0 c2 19 86 3c 88 05 ee bb 44 ac 84 3c cd 50 07 3d
       0.016369704 -0.007263843 0.016195424 0.033036042
0000b0 93 e6 6a 3c 0b 7f ef bb 6b 5d 38 3c 96 83 99 3a
       0.0143372 -0.007308846 0.011252741 0.0011712189
0000c0 60 40 b8 3c b6 cb ed bb c3 ba 85 bc 8e d1 03 bc
       0.022491634 -0.0072569503 -0.016324406 -0.008045567
0000d0 12 fe 93 bc f6 ce 2d 3d a8 96 d0 3c 6b e3 d9 3c
       -0.018065486 0.0424337 0.025462463 0.0265977
0000e0 71 68 f3 3c 8d 7f 69 bb ba 31 0b 3d 34 5f 9a bb
       0.029712887 -0.0035629005 0.03398297 -0.004711056
0000f0 a6 ff 0a 3c 67 8d b5 bc 68 1f e4 3c 73 8e 0e 3c
       0.008483803 -0.022162152 0.027847007 0.008700955
000100 21 32 ae 3c f5 e4 12 3c ed 51 26 3d 1b 00 9e bb
       0.021264138 0.00896572 0.040605474 -0.00482179
000110 b3 6f d8 bc 06 c3 a4 bc 9e fe 22 3d 5b 26 0f 3c
       -0.02642045 -0.020112526 0.039793603 0.008737172
000120 f4 5b 24 3d 2d 96 88 bc 27 79 de bc f8 95 d9 bc
       0.040126756 -0.016673172 -0.02715738 -0.026560768
000130 a9 f9 2d bc a8 d4 76 3c 2e 4e 16 3c d1 b7 f5 3c
       -0.010618606 0.01506535 0.009173913 0.029994877
000140 1a 77 99 bb 87 83 a6 bc 5e b4 01 3c 04 e8 81 bc
       -0.0046833875 -0.020326389 0.007916538 -0.015857704
000150 3f 0e 19 3c d2 a3 76 bc 40 e2 9a 3c 08 1b 75 bc
       0.009341775 -0.015053706 0.018906713 -0.014960058
000160 cb c5 e2 bc 63 ea 13 3c 4a c7 e5 3b 32 9d 51 bb
       -0.027682206 0.00902805 0.0070122825 -0.0031984565
000170 76 9f fd 3c d0 08 be 3c 83 54 c9 bc f6 f4 91 bc
       0.030959826 0.023197562 -0.024576431 -0.017817002
000180 19 b7 d2 3c 10 e8 cf bc 0d 2b ff bb 30 4c 01 bd
       0.025722073 -0.02537921 -0.0077871145 -0.0315668
000190 1b 62 9c bc 7d f8 10 3c b7 31 f9 bb 62 03 f5 bc
       -0.01908975 0.008848307 -0.0076048034 -0.02990884
0001a0 ef d8 fe ba a6 1b 49 bc 0a bb 89 bc e8 a3 31 bc
       -0.0019443313 -0.012274658 -0.01681282 -0.010842301
0001b0 cf af eb bc f8 6f f1 bc 6e cd f8 3c 13 42 9f 3b
       -0.028770356 -0.029472336 0.030371394 0.0048601716
0001c0 b8 3b 12 3c 91 87 d5 bc 4c 9e aa bc d8 b4 eb bb
       0.008925371 -0.02606562 -0.020827435 -0.007193189
0001d0 0a 24 53 3c 15 bf 1c bd b3 bf 4b bc a7 ec bd bc
       0.01288701 -0.038268168 -0.012435841 -0.023184134
0001e0 98 52 c4 3b e9 a2 32 bc 03 c0 b1 3b 1b 76 3a bc
       0.0059912913 -0.010903099 0.005424501 -0.011380698
0001f0 0c f7 9d bc 22 28 9c bc ea 20 ac 3a 71 1c 03 bd
       -0.01928284 -0.019062106 0.0013132368 -0.032009546
000200 7b 25 b4 3c ee f5 7e bb a9 7b d8 3c f5 54 1f 3c
       0.021990528 -0.003890391 0.026426153 0.009724845
000210 42 ba 7e bc 51 ac c6 3c 7b 03 83 bb 31 76 66 bc
       -0.015547337 0.024252089 -0.0039982176 -0.014066265
000220 47 d4 cb bc 81 ea d1 bc f3 8e 96 3c 97 8a a3 3a
       -0.024881495 -0.025624515 0.01837871 0.0012477216
000230 8c dc 6d 3c b6 63 b0 bc 39 36 1c 3d 61 af 00 bc
       0.0145179145 -0.02153192 0.03813765 -0.007854314
000240 49 79 e3 3b a5 ae ca 3c 64 01 43 3c a3 de 06 3d
       0.0069419486 0.02474148 0.011902187 0.032927167
000250 b4 0d 2d 3d cb d4 9f bc 5b 36 af 3b b3 50 44 3b
       0.042249396 -0.019510647 0.005347056 0.0029955327
000260 ee dc 65 3c 1c 2d 5b bc 4d 07 2c 3d b0 a4 1e bc
       0.0140297245 -0.013377454 0.04199915 -0.009682819
000270 2c 5c e8 3c 92 d6 27 3b df f7 e6 3b 11 b9 8e bb
       0.028364263 0.0025610072 0.0070485915 -0.0043555577
000280 1c f0 cd 3c 45 63 65 3c f4 36 35 3c 6a 5e c4 bc
       0.025138907 0.0140007185 0.011060465 -0.023970801
000290 b4 ea 1f 3c 1c 74 96 3b dd f8 47 bc 6c bd cf 3c
       0.009760547 0.004591478 -0.01220533 0.025358878
0002a0 11 4d 58 3c 93 7a f7 bb c6 9a 73 bc b7 a7 2f bc
       0.013201968 -0.007552454 -0.014868444 -0.010721139
0002b0 81 76 41 3c f5 35 85 bc 3a 45 d2 bc cf cc 17 bc
       0.011808039 -0.01626108 -0.025667775 -0.009265139
0002c0 26 28 66 bc f0 59 ae ba fd 70 c6 3c 43 64 bb bc
       -0.014047658 -0.001330195 0.024223799 -0.022874957
0002d0 4b dc 2b 3c 78 51 d8 3c 70 bc 1e 3c dd 3c 61 bc
       0.010489534 0.026406035 0.009688482 -0.013747421
0002e0 01 aa 5d 3c 62 16 68 3c 6b ce 12 bb fa 53 c8 b9
       0.013529302 0.014165493 -0.0022400867 -0.0003820954
0002f0 e6 33 81 bc d8 ad c2 3b 57 ba 7e bb 8c e8 0d bc
       -0.015771817 0.005941134 -0.0038868391 -0.0086614005
000300 bc e8 1f 3c aa 1f d7 3c 03 a4 d5 3a f2 95 c2 3b
       0.009760078 0.026260216 0.001629949 0.005938285
000310 f1 b2 29 3b 07 76 66 bb fd 51 73 bb dc a9 12 3c
       0.002589401 -0.0035165565 -0.0037127726 0.00895163
000320 48 e9 00 bd 64 ea 8d bc 2f 1d bd 3c d0 7b f1 3b
       -0.031472474 -0.01732368 0.023085205 0.007369496
000330 da 16 7c 3a a4 0d 05 bc 7c c6 fc bc ee 15 f1 bc
       0.0009616442 -0.008120928 -0.030856363 -0.029429402
000340 a8 60 6b bc 34 2c 79 3c 8e cc 91 3c 44 46 b5 3c
       -0.014366306 0.015208293 0.017797735 0.022128232
000350 8a 5a 95 bc 5f ff a0 bc 69 6e c6 bb 95 45 1a 3d
       -0.018231649 -0.01965302 -0.0060556424 0.037664015
000360 c6 6e c0 bb 2e 7a 38 bc 52 64 52 3c 72 eb 2d bc
       -0.00587258 -0.011259599 0.012841301 -0.010615217
000370 cd 12 74 bc 43 c3 01 3d 45 29 78 bc 6c ee f8 ba
       -0.014897061 0.031680357 -0.015146558 -0.0018991954
000380 97 a9 f2 bc b7 53 79 3c 80 df cd 3c 44 c6 b9 3c
       -0.029621882 0.015217713 0.025130987 0.022677548
000390 5e 0b 85 bc 09 40 ec bc cb 5b bc bc 2b 59 14 3d
       -0.016240772 -0.028839128 -0.022992989 0.03621785
0003a0 ef 97 dd 3c 7a 21 14 3d 31 a3 05 3d 11 53 45 3b
       0.027049987 0.03616474 0.032626335 0.0030109326
0003b0 a9 fc c9 3b 76 8c 3c bc b5 46 bf bc ba 3e 03 bd
       0.0061641526 -0.011508098 -0.023349145 -0.032042243
0003c0 0d 09 d7 3c 66 32 bf 39 a6 cd 81 3a c7 d3 9b bb
       0.026249433 0.0003646791 0.0009903207 -0.0047554704
0003d0 a2 9f 9f 3b 52 a2 32 bc 31 1c df bc c1 b6 a8 3b
       0.0048713246 -0.010902958 -0.027235122 0.005148739
0003e0 23 68 14 3b 0b 74 81 3c d8 dd 88 bb 10 6e 8f bc
       0.0022645078 0.015802404 -0.0041768365 -0.017508537
0003f0 95 12 79 bb 62 c5 90 bc 71 42 11 38 f1 73 e9 bc
       -0.003800546 -0.017672244 3.4632572e-05 -0.028497668

net.0.bias f4 [64]
000000 68 9f 8d 3c f3 16 1f bc 87 d8 b7 3b d0 a2 87 bc
       0.017287925 -0.009710061 0.005610529 -0.016557127
000010 8d 3f d7 bb bc 5d ed 3b 52 28 87 bc 87 48 b7 3c
       -0.006568855 0.00724384 -0.016498718 0.02237345
000020 db 77 d6 3c ba 9c 07 3d 80 5e 4c bb e2 e3 2c bc
       0.026180198 0.03310845 -0.0031184256 -0.010552378
000030 1e a9 13 3d a5 b5 96 bc 16 0e bd 3b 69 e8 57 3b
       0.036049955 -0.018397162 0.0057695014 0.0032944924
000040 f5 fb 10 bc 00 1b 75 bc 5d ed d3 3c 35 6d 6a 3b
       -0.008849134 -0.014960051 0.02587002 0.003577066
000050 64 0b cb 3b 3e 68 09 3d 4e bf 59 bc f1 13 c1 bc
       0.006196426 0.03354668 -0.0132902395 -0.02356908
000060 0f 99 b0 bb 42 aa e3 3b ac 9d 08 3b e8 f2 cd 3b
       -0.0053893398 0.0069477865 0.0020845933 0.00628506
000070 c4 98 bb bc 34 f6 34 bb 6d e6 a2 bc 4f 93 ba 3c
       -0.022899993 -0.0027612569 -0.019885266 0.02277532
000080 ce f1 86 3c 81 60 ff 3c d5 bb d5 3b 95 04 2c 3d
       0.016472723 0.031173946 0.0065226355 0.041996557
000090 82 90 c8 3c 93 5f e5 3c de 35 ec 3c 8f ea fd 3b
       0.02448297 0.027999675 0.02883428 0.007748909
0000a0 a3 70 9f bc 62 5d a1 bb 0f 08 19 3d 18 ee 8d bb
       -0.019462889 -0.004924462 0.0373612 -0.0043313615
0000b0 4b 1f d1 3a fd 4d 15 3d 8f 6a 10 bc a7 fa 14 3d
       0.0015954761 0.03645133 -0.008814468 0.036371853
0000c0 b6 aa 38 3d dc f3 9f bc 94 1a df 3c b4 2c eb 3b
       0.045084678 -0.01952546 0.027234353 0.00717696
0000d0 f8 02 7e 3b e3 0e 9a 3c 22 27 73 3c bc 22 a4 3c
       0.0038759094 0.018805927 0.014840873 0.020036094
0000e0 f1 a4 2c bc ba d1 6d 3c fc 44 f9 3a 9d 06 a1 3c
       -0.010537372 0.014515335 0.0019017751 0.019656474
0000f0 8f 0b 51 3c 14 e5 c9 ba 32 53 66 3b 04 a0 09 3b
       0.012759103 -0.0015403354 0.0035144803 0.0020999918

net.2.weight f4 [64, 64]
000000 c7 ca b9 bd 5a 30 9f 3d ad 6c 0a 3e b1 ef c9 bd
       -0.0907188 0.07772894 0.13518019 -0.09860171
000010 ff fb fb bb a7 be 46 bd 6f 31 fb 3c 9f 74 40 3d
       -0.0076899524 -0.048521664 0.03066322 0.04698622
000020 6e 3c 12 3d 91 79 c1 3d 7a 68 83 bd 2e a2 1c bc
       0.03570216 0.09447015 -0.06416412 -0.009560151
000030 84 c5 22 bd df 1b e9 3d c9 f9 c8 bd bc ba 5a 3c
       -0.039739147 0.11382269 -0.09813268 0.013350185
000040 6c bb 5c 3d c6 21 97 3d c9 94 f7 3d 2a c9 62 bd
       0.053889677 0.07379489 0.120889254 -0.055367626
000050 69 8f 9e bb 29 e5 04 3e 98 68 82 bd b5 4d 70 3c
       -0.004838873 0.12978043 -0.06367606 0.014666964
000060 93 bb e1 3b 20 5d 63 bd 83 f3 c8 3c 81 0f 4e bc
       0.0068888157 -0.055508733 0.024530178 -0.012576939
000070 53 d8 c4 3d 04 4a c2 bd 98 e2 24 be a1 42 5c 3d
       0.09611573 -0.094867736 -0.16102064 0.05377448
000080 7f 4e bf 3c a5 48 dd bd ea fe 82 bd 3d 0f 59 bd
       0.02335286 -0.108048715 -0.06396277 -0.052993048
000090 6b 40 7d 3d 6f 9c ce bc d6 cf e6 bd 96 d8 b6 bb
       0.061829012 -0.025221078 -0.1127011 -0.0055800183
0000a0 9d b1 cf 3c 21 da c2 bd 0e e6 8a 3d 5c 8c cb 3d
       0.025353247 -0.09514261 0.06782161 0.09938881
0000b0 ce 24 8d 3b 6c fc 4c 3d 4c 72 3a bd fd 1e d2 3d
       0.004307366 0.050045416 -0.04551916 0.10259817
0000c0 77 1b 0b 3d 9d 65 49 3d 57 10 10 3e c6 25 11 bd
       0.03396174 0.04916917 0.14068733 -0.035436414
0000d0 16 73 7a 3d 99 d3 25 3d 41 97 84 bc 7b 5a bd bd
       0.06114491 0.040485 -0.016185405 -0.092457734
0000e0 90 08 c0 3d 7e bd 91 bd 2b 4d dc 3d fc b0 0e 3e
       0.09376633 -0.07116221 0.10756906 0.13934702
0000f0 83 84 65 3c ca 3a af bd d2 52 b6 bd 0d a4 dd ba
       0.014008644 -0.08556135 -0.089025155 -0.0016909853
000100 0f da 06 bc 2f 30 12 be 4e a2 bb 3c e1 68 42 3d
       -0.0082307 -0.14276193 0.022904541 0.0474633
000110 92 b8 8c 3d bf 7a 9c bd 8d 3c a4 bd a9 02 0f 3e
       0.068711415 -0.076405995 -0.08019362 0.13965859
000120 98 54 a8 3c a0 2f df 3b 7a f1 9d 3d 4f 38 ff 3d
       0.02054815 0.0068110973 0.077120736 0.12461912
000130 ab 1c 4c 3b 52 6a cd bc 29 8d 79 3c 60 46 c6 3d
       0.0031145017 -0.025075112 0.015231409 0.09681392
000140 3a 0e ea 3d 7e 0c aa bc 80 47 ff bd 47 e7 9a bd
       0.11428495 -0.02075791 -0.124648094 -0.07563644
000150 be 8b 14 3d 4f 52 ed 3d 48 3c 62 3d d6 8d 5a 3d
       0.03626608 0.11587965 0.05523327 0.05335792
000160 c8 7a 09 3e b6 a3 c0 bb 5f 66 de 3d fe 41 50 bc
       0.13425744 -0.005878891 0.108593695 -0.012711046
000170 e7 02 88 3d 00 5f a2 3d 31 2d 43 3d 78 d3 0c bd
       0.066411786 0.07928276 0.04765052 -0.03438136
000180 31 64 29 3d 6d 23 17 bc a3 c2 d1 bc a3 70 81 3d
       0.041355316 -0.009224755 -0.025605505 0.06320312
000190 83 d5 9b bd 4f 38 8a bb 8f 0f b1 3d 0a b5 88 3d
       -0.076090835 -0.0042181383 0.08645546 0.066751555
0001a0 6d 8a ca 3d 70 04 99 3d b1 84 bf 3d 9c c7 aa 3c
       0.09889684 0.074715495 0.09351481 0.020847134
0001b0 f9 09 7f bd 78 cb 7a bd 01 cc 56 3d 08 17 24 bb
       -0.06226537 -0.0612292 0.052440647 -0.0025038142
0001c0 4a 4f f1 bc fb 55 3f bd 67 89 b3 bd f6 46 68 3d
       -0.029456753 -0.046712857 -0.08766442 0.0567083
0001d0 cd 3c cb b7 f2 4c 14 3d e2 5d 0a be 9d c3 07 3e
       -2.4227798e-05 0.036206193 -0.13512376 0.13258214
0001e0 eb 0a 42 3d 85 81 f3 3d 20 d0 00 bd 06 fd bc 3d
       0.047373693 0.11889938 -0.031448483 0.09227948
0001f0 3b 88 e0 bd 77 50 cd bb 17 a2 5b 3d 32 eb 9c bd
       -0.10963484 -0.0062656957 0.053621378 -0.076620474
000200 79 38 05 bd a9 8d 8e 3d 8c d4 57 bd fe 24 45 b9
       -0.03252456 0.06960613 -0.052692935 -0.00018801165
000210 e3 fa 19 3d 6a 0f 10 be 18 9a 60 bd 4e d2 a1 3d
       0.03759278 -0.1406838 -0.054834455 0.079014406
000220 f8 93 a9 bd 55 0b 27 bb 01 f1 b5 3d 95 bf 7b bd
       -0.08280176 -0.0025488932 0.088838585 -0.061462004
000230 7e f1 b2 3d dd 87 3a 3d ae bb 7d bd 59 48 ad 3d
       0.08737467 0.045539726 -0.061946563 0.08461065
000240 6a 41 a8 3d 98 7c d0 3d 27 98 0f 3d ea e8 72 3d
       0.08215602 0.10180014 0.035057213 0.059304155
000250 2c 93 64 bd 4b a6 bd 3c 24 fc 9a 3d df 8f f2 bd
       -0.055804417 0.023150584 0.07567623 -0.118438475
000260 33 10 db ba fc 89 dd 3d 25 07 9c ba 91 14 9e bd
       -0.0016713202 0.10817334 -0.0011903985 -0.077187665
000270 2d 19 ce bd 7b 9c 86 bd bd d0 9b bd 82 b4 6a 3c
       -0.10063396 -0.06572815 -0.07608173 0.014325263
000280 5b 93 2b 3d 1a dc 91 bd 67 ed da bd 8b 68 ec bc
       0.041888576 -0.07122059 -0.10689812 -0.028858444
000290 b1 48 4b bd 02 10 2b bd 80 45 9a bd dc 8b d0 bc
       -0.04962987 -0.041763313 -0.07532787 -0.025457315
0002a0 d7 ff f5 3c 86 84 25 3d 1e b6 55 bc 87 b2 84 bd
       0.03002922 0.040409587 -0.013043908 -0.06479364
0002b0 d3 35 71 bd 79 c4 66 3b c4 19 2f bd 16 bd a4 bc
       -0.05888922 0.0035212322 -0.04274918 -0.020109694
0002c0 a4 5a 46 bd 80 61 85 bd cd e3 e1 3d e7 18 09 3d
       -0.048426285 -0.06512737 0.11029778 0.033471014
0002d0 6e 51 bb 3d 11 4e a7 3d 0f 1e c1 3d 40 5e 0d bd
       0.09146391 0.08169187 0.09429561 -0.034513712
0002e0 d2 34 f1 bd b1 82 9c bd 70 1e 85 bc 33 2c 99 3c
       -0.11777653 -0.07642115 -0.016249865 0.018697834
0002f0 25 e2 59 bd 82 5a ce bd bb 9b ad bd a6 ef b5 3d
       -0.053194184 -0.10075857 -0.08476969 0.088836
000300 9e 16 4d bd 5f 52 da bd 96 44 72 3d 7d e1 36 ba
       -0.050070398 -0.10660242 0.05914744 -0.00069763494
000310 65 0c 8e 3c 5a 1c b3 3d 2d d2 d5 3d 15 3b 02 3e
       0.017339895 0.08745642 0.104404785 0.1271785
000320 5d 06 be bd 11 d9 48 bc fe 72 96 bc aa 8c 98 3d
       -0.092785574 -0.012258784 -0.01836538 0.074487045
000330 e1 68 e5 3d 2f 3c d0 3d 2f 6b d9 bd 6f 4f 06 3e
       0.11201645 0.10167729 -0.10616147 0.13116239
000340 30 96 01 3e 62 7b e5 bd 09 12 d8 bd 83 48 ce 3d
       0.12654948 -0.11205174 -0.10550315 0.10072424
000350 62 79 88 bd d6 c2 cc bd 0a 67 0d 3d 40 64 53 3b
       -0.06663777 -0.099980995 0.034522094 0.0032255799
000360 28 25 c7 3d 4a 7d 7c bd df 94 03 3e 28 50 21 bd
       0.09723884 -0.061642922 0.12849759 -0.039383084
000370 30 f1 d1 bd 95 69 77 3d 3b 49 23 bd b1 76 ea bd
       -0.10251081 0.060403425 -0.03986476 -0.1144842
000380 b9 71 0f bd b6 08 dd 3c 67 a8 8e bd 65 81 56 3c
       -0.035020564 0.026981693 -0.06965714 0.0130923735
000390 03 bd 02 be 24 a0 d4 3d 7d f4 11 3c 66 86 77 3d
       -0.12767415 0.10382107 0.008908388 0.060430907
0003a0 7c bd 99 3d 9e 8f d2 3d b5 d1 04 3e b2 b5 a2 3d
       0.075068444 0.10281299 0.12970622 0.07944812
0003b0 cb 4b 9c 3c 65 48 b7 bd 1e ee 9e 3d 4d 2d e9 bc
       0.01907911 -0.08949355 0.07760261 -0.028463984
0003c0 7a 9b 85 3d 68 76 3b 3e 24 8f bf bd 4a 47 2b bd
       0.065237954 0.18306887 -0.09353474 -0.041816033
0003d0 14 1c b1 bd c0 26 b4 bc 40 7b 62 bd 70 f1 86 bd
       -0.086479336 -0.021991134 -0.05529332 -0.06589019
0003e0 86 cf 12 bd c9 c9 84 3d e6 58 c3 bd 75 3e 9f bc
       -0.03584244 0.064838 -0.095384404 -0.019438962
0003f0 8b 2b 99 3d fc bf a8 3d 25 ab a3 bd 45 75 90 3d
       0.07479008 0.08239743 -0.079916276 0.070536174

net.2.bias f4 [64]
000000 88 7e 99 3d 95 78 e0 3d 38 97 10 3d 54 ee ba 3d
       0.07494837 0.10960499 0.035300463 0.09127489
000010 57 c6 fc 3d 74 be 73 3d 92 f9 b6 3d 13 af b6 bc
       0.12342518 0.059507802 0.089343205 -0.022300279
000020 15 93 3b bc 1d 30 99 3d 6c 93 c0 3d a4 c9 ed bc
       -0.011448641 0.0747988 0.094031185 -0.029026814
000030 b4 d3 e5 3d 3b de ec 3d 96 6d c6 3c 39 7c fb 3d
       0.1122202 0.115658246 0.024222177 0.12279553
000040 42 2c f8 3c f3 92 d0 bc e8 83 c3 bd 14 4a 76 bd
       0.030294541 -0.025460696 -0.095466435 -0.06012924
000050 09 7a de bd 54 a2 90 3d 98 26 85 3d 98 e7 84 3d
       -0.1086312 0.07062212 0.06501502 0.064894855
000060 a9 cc d8 3d a2 a3 cf bd bf f9 54 3d 9c c4 ad bd
       0.10585911 -0.10138632 0.05199599 -0.08484766
000070 b3 c5 49 3d d8 98 00 3e 39 78 db 3d a1 23 9f 3a
       0.049260806 0.12558305 0.1071629 0.0012141356
000080 ce e4 9e bd c8 d8 ef bc 4e 42 84 bd 50 45 82 3d
       -0.07758485 -0.029278174 -0.06457959 0.063608766
000090 bf 3d 8a bd a0 00 c7 bd 29 33 71 bb ee 58 0b bd
       -0.067500584 -0.09716916 -0.0036804175 -0.034020357
0000a0 92 b3 97 3c e9 d3 a5 3d e0 c8 64 3d 75 f3 96 3d
       0.018518243 0.08097059 0.05585563 0.073706545
0000b0 ca cc e5 3c cc 59 5c bd 79 7f f8 bd 58 5d 00 3d
       0.028051753 -0.053796574 -0.121336885 0.03133902
0000c0 60 22 86 bc 84 41 b6 3d 42 21 94 bd fe 1f 79 bd
       -0.016373813 0.08899215 -0.07232906 -0.060821526
0000d0 e8 f2 ff bc 68 b6 81 bd 12 af e0 bd 4a 86 e5 bd
       -0.031243756 -0.06333619 -0.10970892 -0.11207254
0000e0 b3 84 90 bd d6 9a fa bb ea 00 03 3e 92 32 99 3d
       -0.0705656 -0.0076478524 0.12793317 0.07480349
0000f0 59 b0 16 bd d1 2c 53 3d c4 47 6c bd fd 71 92 bd
       -0.036789272 0.051556412 -0.05768563 -0.07150648

net.4.weight f4 [8, 64]
000000 73 88 f9 bd 7f 61 c7 3d 47 f7 86 3d 04 8e b8 3d
       -0.12184229 0.09735393 0.06590133 0.09011462
000010 15 1d 22 3d 74 91 28 bd 30 19 df 3d 3c 9d d8 3b
       0.039578516 -0.04115434 0.10893476 0.0066105407
000020 9c 1b dc bd e8 bd 0d bd 98 ec 96 bc 56 30 d0 bd
       -0.107474536 -0.034604937 -0.018423364 -0.10165469
000030 f9 42 ae bd 89 4d 23 3d 8c 5c 25 3e 1b 00 d8 bd
       -0.08508868 0.039868865 0.16148585 -0.10546895
000040 90 55 93 3c 96 80 e1 3d e1 05 40 3c bb ac de 3d
       0.017985135 0.11010854 0.011720152 0.108727895
000050 7c b7 ed 3c 08 d2 f0 3b 1c b6 40 bd 68 d0 c0 bd
       0.029018156 0.0073492564 -0.047048673 -0.0941475
000060 3f 61 b1 bb b6 f2 9f bc 18 70 fa bd 1c 31 93 bc
       -0.005413204 -0.019524913 -0.122284114 -0.017967753
000070 4d d0 94 3b 90 31 b1 3b bd 6d 0b 3e 30 b8 bc bd
       0.004541433 0.0054075196 0.1361608 -0.092148185
000080 fc 8c a6 3d de 31 2b bd d9 9d 5c 3d 51 28 df 3b
       0.081323594 -0.041795604 0.053861473 0.006810226
000090 e2 c6 77 bd fe b6 86 bd 8c 24 c1 bc 28 b4 c8 bd
       -0.060492404 -0.06577872 -0.023576997 -0.09799987
0000a0 fc bd 16 3d e3 fa 21 bd 71 9d 11 3d c7 ec ae bb
       0.036802277 -0.039545905 0.03555054 -0.0053382847
0000b0 d4 80 01 bd f8 3a a6 bc de be 7a bd bf 29 e7 bd
       -0.031617 -0.02029179 -0.06121718 -0.11287259
0000c0 08 32 89 bd e0 4f dc 3c e8 77 b0 3d 29 79 b8 bd
       -0.06698996 0.026893556 0.0861662 -0.090074845
0000d0 97 d4 80 bd 32 bf 99 bd 0d 92 cf 3d de 6e 89 3d
       -0.06290548 -0.07507171 0.10135279 0.06710599
0000e0 5f c0 c3 bd ab 58 c9 bd 62 7c 49 bd ae 17 b9 bd
       -0.09558176 -0.09831365 -0.049190886 -0.0903772
0000f0 fe 29 88 bd 1a a0 f9 3d c6 4e 73 3b 38 bd b1 3c
       -0.066486344 0.1218874 0.003712581 0.021696672
000100 fc 6c 72 bc e2 16 42 3d 56 8c 45 3a f9 c9 47 3d
       -0.014796492 0.047385104 0.00075358653 0.0487766
000110 76 90 a0 bd 88 93 42 bd f6 2f a6 3d 35 f7 52 bd
       -0.07840054 -0.047503978 0.081146166 -0.051505286
000120 d6 15 cf bd db 50 8f bd 3f 4c 2f 3c d2 ec 44 bd
       -0.10111587 -0.06997844 0.010699331 -0.048077412
000130 af a7 da bd 99 19 c3 3a c3 f6 9f 3c bf 71 2f bd
       -0.10676514 0.0014884948 0.019526845 -0.042833086
000140 4d 64 d5 3d 02 63 ce 3d 8d 46 2f ba d4 13 d7 3d
       0.104195215 0.10077478 -0.0006686233 0.10501829
000150 8a f6 f3 3b 2a ab d2 bd 20 50 28 bd d4 a2 2d 3d
       0.007445161 -0.10286553 -0.04109204 0.042391613
000160 ad 25 80 bd 84 d7 0e 3d 2e 54 89 3c 4e 1f ed 3d
       -0.06257186 0.0348735 0.016763773 0.115782365
000170 af 32 0c 3e 04 f7 36 3d 7e 61 91 bd fc 87 b8 bc
       0.1369121 0.044669166 -0.07098673 -0.02252578
000180 67 68 ad bd 7c ff b6 3d d1 59 13 3d 2b 16 25 3d
       -0.08467179 0.089354485 0.035974327 0.040304344
000190 b9 4c d4 3d ed 3f e9 3d 29 0b 8c 3c 4d 2a 56 bd
       0.10366196 0.11389146 0.017095165 -0.052286435
0001a0 a2 04 7c bd 2c 8b 0b bc 32 fc 02 3e f7 64 f6 3d
       -0.061527856 -0.008517068 0.12791517 0.12030976
0001b0 de 0c a0 3d e4 9b 82 bd 47 79 27 3c a7 91 cd bd
       0.07814954 -0.0637739 0.010221786 -0.100375466
0001c0 00 5f 88 bd 07 f6 f4 3d 8d 10 be 3d a5 2d b8 bc
       -0.06658745 0.119609885 0.092805006 -0.022482703
0001d0 7f f1 00 bd 86 39 d7 bd 1a 5a 12 bc 89 04 3b bc
       -0.03148031 -0.105090186 -0.008932615 -0.0114146555
0001e0 e4 35 4f 3d 13 b2 9f 3d 59 4d 7f 3d a8 7c 79 bd
       0.050588503 0.07797637 0.062329624 -0.060909897
0001f0 ba 91 20 be 61 b3 3c bd 6d ae 58 bd ab 39 d9 bd
       -0.1568059 -0.046069507 -0.05290072 -0.106067024
000200 a4 e5 f5 bd ed 2e 49 3d 68 92 d1 bb b8 02 32 bd
       -0.12006691 0.049117018 -0.006395627 -0.043459624
000210 9c 1f 70 bd c9 b3 c4 3c b3 7d 27 3c 2f 85 b1 ba
       -0.058623895 0.02401151 0.01022284 -0.001354372
000220 ff c9 ab bc be d6 16 3d 73 9b 57 3d 32 2e 14 be
       -0.020970343 0.036825888 0.052638482 -0.14470747
000230 d4 5c 2d bd 5b 25 c8 3d 6e 05 08 3e fd 7c 07 be
       -0.042324856 0.0977275 0.13283321 -0.13231273
000240 f3 03 06 bd bb 83 39 bd 81 49 cc 3d b5 92 22 3d
       -0.03271861 -0.045291644 0.09974957 0.039690692
000250 09 d6 78 3c 66 ed 7a 3d 32 63 89 3d 4e 08 84 3b
       0.015187749 0.061261557 0.06708373 0.0040293103
000260 d8 02 92 bd 08 c9 9b 3d 6c 7f 87 bc 3d a7 13 bc
       -0.07129449 0.07606703 -0.016540252 -0.009012041
000270 a4 b2 1d 3e 0f 18 b3 3d 2f 2d f2 bc f8 d2 b4 bd
       0.15400177 0.08744823 -0.02956256 -0.088293016
000280 85 99 79 bd 1d 00 0d 3d 64 e2 cd 3d 1f 98 8c bd
       -0.060937423 0.034423936 0.10052946 -0.06864952
000290 4b db ea bc ea a1 15 3e 65 7c 76 3d ac d2 82 bd
       -0.02866902 0.14612547 0.060177226 -0.06387839
0002a0 c6 82 a4 bd 20 b2 ba bd 56 63 d5 3d 95 70 0c 3e
       -0.080327556 -0.09116006 0.104193375 0.13714822
0002b0 27 8e 93 bd e6 62 04 be 2e 7e 6d bd a3 50 b4 bd
       -0.07204848 -0.12928352 -0.057981662 -0.08804443
0002c0 a6 c2 e6 bd 6e d6 2e 3d 7f 9d 85 3c 04 ab 4b 3c
       -0.11267595 0.042684965 0.016310452 0.01243091
0002d0 05 e9 33 bd 54 d8 32 bb 5f f3 cc 3c 71 1e a3 bc
       -0.043923397 -0.0027289586 0.025018392 -0.019911977
0002e0 35 3f 1c bd 35 28 2b 3c 00 f5 92 3d d5 e3 60 bd
       -0.038146216 0.010446598 0.07175636 -0.054904778
0002f0 bb 0e 44 bd ee 56 03 bd e3 ca 00 be 50 47 61 3c
       -0.04786561 -0.032065324 -0.12577395 0.013749912
000300 ce 27 07 be 24 55 5f 3d 3c 6f c8 bc 36 c5 e3 3d
       -0.13198778 0.054524556 -0.024467103 0.111215994
000310 2d c6 e5 bd 77 8d a9 bc 5d 46 e8 3b 95 0d ec bd
       -0.1121944 -0.020697339 0.007088466 -0.11526028
000320 1d cc bb 3d b0 7c fb bc 63 5f 97 3a 7d a6 36 3c
       0.09169791 -0.030699104 0.0011548813 0.011148092
000330 9c dc 2a bc a0 b8 55 3b 67 1c bd bd bb 01 31 bd
       -0.010428574 0.0032611266 -0.09233933 -0.04321454
000340 2a 86 0d 3e f6 7f 0d bd e9 dc 87 bd e3 7f 03 3d
       0.13820711 -0.03454586 -0.06633932 0.032104384
000350 33 9a 96 bd c3 39 dd bd c0 c4 85 bc 33 f3 fa 39
       -0.0735363 -0.10802033 -0.01632917 0.00047864913
000360 b3 8d 07 bc ab c6 c0 3d f3 17 b6 bd f4 d0 70 3d
       -0.00827353 0.09412893 -0.08891287 0.058793023
000370 1e bc dc 3d 4a 6b b0 3d c7 4b e4 bc 1f e7 ee bd
       0.10778068 0.08614214 -0.027868165 -0.116651766
000380 63 0c 0d 3d 64 a6 0b 3e 83 66 0d 3e 5f 0b c8 3d
       0.03443564 0.13637692 0.13808636 0.09767794
000390 a4 ad 81 3d 9d 66 4e 3d ca 32 26 3e d5 ab e9 3d
       0.063319474 0.05039083 0.16230312 0.114097275
0003a0 0c 96 4a bd a4 e1 f3 bd 7f 99 1e 3e 3f f1 80 3d
       -0.049459502 -0.11908272 0.15488242 0.06296014
0003b0 88 ea a4 bd 0d a6 9d bc 76 e8 e2 3c 09 3b 2c bd
       -0.08052546 -0.019244218 0.027698737 -0.042048488
0003c0 70 44 ab bd 24 f9 d5 3c 86 4a ae 3d 6f 2f c1 3d
       -0.08362663 0.026119776 0.08510308 0.09432875
0003d0 dc 40 7c bd 14 f8 6f bd da 0d 71 3d fb 2e 10 39
       -0.061585292 -0.058586195 0.0588511 0.00013750412
0003e0 45 34 82 bd 98 c9 ef bc 45 69 8a bd 4c fb 3b bd
       -0.06357626 -0.029270932 -0.0675836 -0.045893952
0003f0 21 06 56 bd 6c 83 32 3d 39 52 c3 bd db 30 1f bb
       -0.05225194 0.043582365 -0.09537167 -0.0024290595

net.4.bias f4 [8]
000000 6c 19 e2 3d f6 e6 c4 3d 05 e3 81 bb 32 47 f1 3c
       0.11040005 0.09614365 -0.0039638304 0.029452894
000010 ce b9 db 3d 82 51 b4 bd e0 c7 dc bd 82 9c f3 bd
       0.10728799 -0.08804609 -0.10780311 -0.11895086
