runs/1_hour_forecasting/31/best_model.pt (torch, 822137 bytes, 5 tensors)

net.0.weight f4 [64, 3132]
000000 7b 73 05 3c 05 7a 7e 3c 0b f3 e9 bb 41 a4 94 3c
       0.0081452085 0.015532021 -0.0071395687 0.018144729
000010 08 94 9a bb 42 34 5b 3b a3 d7 8a bc 2e 2d f5 3b
       -0.0047173537 0.0033447896 -0.016948527 0.0074821925
000020 45 c6 0a 3c 3d 65 62 bc ac 8b 0d 3c 93 83 99 3b
       0.008470123 -0.013818082 0.008639257 0.0046848743
000030 47 ae 2d 3c 06 1e 68 ba 37 8b 28 3c 3f 49 09 bc
       0.010600633 -0.00088545715 0.010287098 -0.00837928
000040 24 83 02 3c f1 39 78 3b 0b 67 41 bb 78 ec b7 3b
       0.007965837 0.0037876333 -0.0029510881 0.005612906
000050 73 ad e2 bb 36 f3 ea 3a 73 c9 b4 ba a6 99 b0 3c
       -0.0069176494 0.0017925266 -0.0013792947 0.02155764
000060 96 ce 4d bc 20 06 e2 bb 28 80 c3 bb 9b 0d 74 bc
       -0.012561461 -0.006897703 -0.005966205 -0.014895822
000070 8b 78 39 ba 4e 41 69 bc f3 7b 7c 3c 80 3d 8c bb
       -0.0007075152 -0.014236761 0.015410411 -0.0042797923
000080 da 91 49 3c 38 3b 31 3c b6 06 17 bc 8a 0f 4d 3c
       0.01230284 0.0108173415 -0.009217909 0.012515912
000090 5e 37 33 ba 99 18 6c 3c 30 77 c9 3a 8c 3a 55 bc
       -0.00068365585 0.014410161 0.0015370604 -0.013014447
0000a0 67 29 25 3c 47 47 c7 bb 72 a8 c9 3b b3 bd 62 3c
       0.010080672 -0.006081495 0.0061541134 0.013839173
0000b0 95 bb 88 3c dc f5 c2 bb be bf fa 3b 1b cc 29 ba
       0.016691009 -0.005949719 0.007652252 -0.00064772525
0000c0 6a e2 11 3c c3 fc 4f bc c8 5d 73 bc 36 b0 41 bc
       0.008904079 -0.01269454 -0.014853902 -0.011821797
0000d0 72 13 8c bc e6 f9 82 3c f7 b8 b5 3b bb fd c2 3b
       -0.017099116 0.015988301 0.005545731 0.005950657
0000e0 c8 72 f4 3b d8 66 bb bb 9b 45 41 3c 7b ec 24 bc
       0.007459972 -0.005719047 0.01179638 -0.010066147
0000f0 24 89 21 bb 80 86 8d bc a1 0a d5 3b 98 86 7e bb
       -0.0024648393 -0.017276049 0.006501511 -0.0038837548
000100 49 5d a7 3b 42 33 c9 bb 9e 57 81 3c 8b e2 55 bc
       0.005107556 -0.0061401436 0.01578885 -0.0130545
000110 89 3d 68 bc c4 69 7e bc b9 ae 5d 3c c9 11 94 3b
       -0.014174827 -0.015528146 0.013530427 0.0045187217
000120 1a 7c 33 3c 6d 4d 90 bc e4 55 be bc c8 22 8f bc
       0.010954881 -0.017615044 -0.023234315 -0.01747264
000130 91 eb 64 bc 9c b8 8f 3b cf 2b 73 3a 58 94 2d 3c
       -0.013972179 0.004386021 0.00092762423 0.01059445
000140 9c 3d 3d bc 1d 3d 70 bc ca 42 92 3b e6 fe 4a bc
       -0.011550333 -0.014663008 0.0044635283 -0.012389874
000150 8b 3e b6 3b 9b 7c 6c ba e7 b3 6f 3c 56 69 98 bc
       0.005561655 -0.0009021253 0.014630294 -0.018604916
000160 e1 c9 02 bc f4 60 73 3b fc c2 c5 3b 2d f8 a7 bb
       -0.007982702 0.0037136646 0.006035207 -0.0051260204
000170 3a 32 37 3c 94 5b ea 3b b7 64 7f bc 6b a4 7a bc
       0.011181409 0.0071520302 -0.015587977 -0.015297989
000180 62 13 8b 3c 9c 02 66 bc 1d 1c b1 bb d1 d3 a9 bc
       0.016977016 -0.014038708 -0.0054049627 -0.020730885
000190 b6 28 6d bc a9 69 c5 3b 9e 01 c9 bb 82 cd 8e bc
       -0.014475038 0.0060245586 -0.006134226 -0.017431978
0001a0 4b 17 73 3b 4b 29 b4 bb 72 ad 59 bc a7 48 1f bc
       0.003709274 -0.0054980866 -0.0132859815 -0.0097219115
0001b0 e8 8d 53 bc 44 2f c1 bb 93 7e c1 3c d3 b0 88 3b
       -0.012912251 -0.005895527 0.023619926 0.0041714697
0001c0 ef bd c3 3b 02 30 95 bc e3 8c 68 bc 55 00 09 bc
       0.0059735696 -0.018211368 -0.014193746 -0.008361896
0001d0 02 2c dd 3b 01 f3 91 bc e3 12 09 3b 3a 32 56 bc
       0.006749631 -0.017816069 0.0020915798 -0.013073498
0001e0 d3 10 fc 3b e1 cf 1d bc 45 b1 8c 39 b5 90 8f bc
       0.0076924353 -0.009632082 0.00026834957 -0.017525056
0001f0 ee 88 52 bc 18 43 51 bc 63 23 7f bc 51 dd 31 bc
       -0.012850029 -0.012772344 -0.015572402 -0.010855989
000200 10 ee 5f 3c 19 b3 40 bb 4e 42 84 3c eb bb 27 3c
       0.013667598 -0.0029403626 0.016144898 0.010237674
000210 1a 96 59 bc 72 71 0f 3c 72 0e 1f bc 29 4f 9e bb
       -0.013280416 0.008755075 -0.009708034 -0.004831214
000220 32 b7 7a bc 56 d3 80 bc 4b 24 95 39 ae ae e8 bb
       -0.015302466 -0.015725773 0.00028446535 -0.0071009016
000230 f3 8f 09 3c 65 9b 66 bc 41 29 42 3c 54 81 39 bc
       0.008396137 -0.014075135 0.011850656 -0.011322338
000240 bd 70 09 bc 04 b2 dc 3a 01 92 45 3c 96 e7 33 3c
       -0.008388695 0.0016837721 0.012058736 0.010980507
000250 95 20 39 3c 6f c8 55 bc 31 c9 e0 3b b8 ba fe bb
       0.011299272 -0.013048275 0.0068599214 -0.0077737235
000260 9d f5 8b bb d1 4b 48 bc bd f5 63 3c 99 c5 87 bc
       -0.0042712227 -0.012225107 0.013913569 -0.016573714
000270 9d f0 a9 3b 8d d2 76 3b b9 4a 83 3b 21 9e 85 bc
       0.005186154 0.003766212 0.0040067104 -0.016310753
000280 8d 6d 58 3c 7b ae d8 ba b8 b3 c7 ba de b8 92 bc
       0.013209713 -0.0016531491 -0.0015236055 -0.017910417
000290 3b 72 92 3b d7 8d 0c bc bd 59 48 bc dc 65 53 3c
       0.0044691837 -0.008578739 -0.0122284265 0.012902703
0002a0 70 a4 9a 3a 16 b4 7f bc f2 16 6d bc 64 97 e1 bb
       0.0011798274 -0.015606901 -0.014470803 -0.0068845022
0002b0 33 2c 5a 3c d5 e2 25 b9 9e 2f 7b bc 80 bb 8d bb
       0.013316202 -0.00015820128 -0.015331177 -0.0043253303
0002c0 33 da 55 bc 69 59 fb 3b b9 a0 46 3c 13 65 80 bc
       -0.013052511 0.0076705706 0.01212328 -0.015673196
0002d0 af 4e 19 3a a9 ab de 3b 32 74 dd ba c0 5f d5 bb
       0.00058482116 0.006795366 -0.0016895591 -0.0065116584
0002e0 25 0e e6 b9 66 58 2c 3c 25 69 4d 3b 40 4d f0 bb
       -0.00043879557 0.010519123 0.0031343189 -0.0073334277
0002f0 05 70 0b bb 78 7c d6 39 6b d7 e7 bb 05 aa b9 ba
       -0.0021276486 0.00040909997 -0.0070752404 -0.001416505
000300 b7 25 8e 3c a9 50 87 3c 3c eb 28 bb 18 b6 83 ba
       0.017351968 0.016517954 -0.0025774976 -0.0010048775
000310 78 4e b1 3b 17 b8 dd 3b 4f 1a 8d 3b aa fb ad 3b
       0.0054109655 0.00676633 0.0043061147 0.0053095417
000320 b2 f3 92 bc e4 94 ec bb 3c a3 4b 3c d3 57 4e 3c
       -0.017938469 -0.0072198976 0.012429055 0.012594181
000330 d7 ef 88 bb 24 2a f5 ba df 96 6d bc b9 03 21 bc
       -0.0041789818 -0.0018704575 -0.0145013025 -0.009827548
000340 f9 51 16 bc 6a 6d 03 3c 85 7e a0 3b 19 63 dd 3b
       -0.009174817 0.008021692 0.004897895 0.006756198
000350 32 a5 90 bc a6 15 ae bc 5e f7 08 3b 06 a4 80 3c
       -0.017656896 -0.021250557 0.0020899395 0.015703212
000360 d1 8c 0e ba 4c ad b2 bb df 7d 51 3c 7c bc 9f bb
       -0.00054378534 -0.0054527875 0.012786358 -0.004874764
000370 fe 29 70 bc bd 2b ea 3b bb 75 d3 bb d4 32 3a bb
       -0.014658449 0.0071463273 -0.0064532435 -0.0028411644
000380 94 7d 88 bc 89 43 ec 3b 31 f2 2a 3c 15 c1 03 3c
       -0.016661443 0.0072101993 0.0104337195 0.00804164
000390 ef a2 3f bc 4a f2 9b bc 5a f8 4f bc 95 c1 04 3c
       -0.011696561 -0.01903643 -0.012693489 0.008102794
0003a0 81 39 d7 3b 7a 04 93 3c 93 78 c5 3b 33 ac c8 b9
       0.0065681343 0.01794647 0.0060263365 -0.0003827527
0003b0 9b 6a 7b 3a 15 4e 38 bc 76 53 78 bc 9b 2f 9b bc
       0.00095907756 -0.011249085 -0.015156617 -0.018943598
0003c0 93 d3 0b 3c 2e f5 35 bc 8c 9d f2 bb 56 fe 66 bc
       0.00853433 -0.011105819 -0.007404035 -0.014098724
0003d0 2e de bd bb f1 a3 74 bc 09 5e 98 bc 97 1e 36 3b
       -0.005794308 -0.014931665 -0.018599527 0.002778923
0003e0 b2 35 2e bc e0 e4 e2 3b 5e 57 02 bc 06 18 84 bc
       -0.010632919 0.0069242567 -0.0079554 -0.016124737
0003f0 f0 df 18 bc 2f f8 4e bc 72 7b 07 bc f1 ce a3 bc
       -0.009330735 -0.012632414 -0.008269178 -0.019996138

net.0.bias f4 [64]
000000 78 23 17 3c 3e 9b 26 bc 7f 5a 1e bc d9 ff a2 3b
       0.009224765 -0.010168849 -0.009665131 0.004974347
000010 4c 50 92 bb aa 76 b6 39 be 14 81 3c ba 00 dc ba
       -0.0044651385 0.00034802157 0.015756961 -0.0016784885
000020 8a 1c 50 bc 15 c1 7f 3c ee c9 17 3c dd 40 2e 3c
       -0.012702117 0.015609999 0.009264452 0.010635582
000030 65 09 1b bc 83 25 a9 3c 46 be 9c b9 c8 4e 82 3b
       -0.009462689 0.02064777 -0.00029896403 0.0039766766
000040 be a4 71 3c df a4 54 3b db 2e 6d 3c ee 9f a3 3c
       0.01474875 0.0032446904 0.014476503 0.019973721
000050 e5 10 64 bc 6b d3 57 bc 67 47 05 3c 93 56 9b 3b
       -0.013920044 -0.013172965 0.008134699 0.004740545
000060 db 53 ae 3c 08 78 90 b8 5c 37 c3 bb e0 08 30 3a
       0.02128022 -6.888813e-05 -0.005957527 0.00067151897
000070 be 41 50 3c d8 88 83 bb 84 06 5c 3c bf 8a 80 3c
       0.012710987 -0.004014116 0.013429288 0.01569116
000080 a2 76 71 3c 39 48 32 bc f7 3b 59 bc 28 3e 85 3c
       0.014737757 -0.010881477 -0.013258926 0.01626499
000090 d6 61 41 3c bd c5 31 bc 17 75 72 bc f8 a1 ae ba
       0.011803111 -0.010850367 -0.014798424 -0.0013323417
0000a0 aa 01 6c 3b 29 3c 37 bc 2f 90 50 3c a3 57 04 3c
       0.0036011734 -0.011183777 0.012729689 0.008077535
0000b0 ae c0 db bb da 27 c5 bb 5b 16 bf 3b 86 a0 0c bb
       -0.006706319 -0.0060167136 0.0058315224 -0.0021457984
0000c0 83 55 0d bc 29 93 8b 3c e6 8d a4 3c 57 59 f6 bb
       -0.008626345 0.017037945 0.020087194 -0.0075179744
0000d0 22 54 61 bc cd 00 a3 bb 1e 9d 5b 3b 24 68 c2 3c
       -0.013752969 -0.0049744607 0.0033510397 0.023731299
0000e0 9f 16 04 bb 76 17 8f 3c 05 f0 ab bb 3e 67 e1 3b
       -0.0020155085 0.017467242 -0.0052471184 0.0068787625
0000f0 cf 00 60 3c e1 d7 a9 3c c9 a9 ac 3b 44 af 95 bb
       0.013672068 0.020732822 0.0052692634 -0.0045680124

net.2.weight f4 [64, 64]
000000 e9 38 c2 3d 8d f5 a3 bd ed 97 08 3c 95 5e b5 3d
       0.09483511 -0.080058195 0.008337003 0.08855931
000010 0d 24 87 bc da 2a 9b bd d2 fb e2 3d 15 a9 94 3b
       -0.016496683 -0.07576533 0.11083187 0.0045367577
000020 00 cc b0 bc e4 7f 40 3d 66 0b 0e 3d ac 65 b4 3d
       -0.02158165 0.046996966 0.03467884 0.08808455
000030 d1 36 df 3d fa 9e 63 bd cc b9 9a bd b8 34 ef 3b
       0.10899127 -0.055571534 -0.07554969 0.0072999857
000040 7d 13 24 3d b2 4b 02 be d4 07 e7 bc 81 86 3b bc
       0.040057648 -0.12724188 -0.028201975 -0.011445642
000050 89 b4 85 bc c8 0e 8a 3d 10 db a8 bd 73 58 6a bd
       -0.016321437 0.067411005 -0.08244908 -0.057213258
000060 bc 60 77 3d d5 48 a5 3c 10 6a 87 3d cc 02 39 bc
       0.060394987 0.02017633 0.06612027 -0.011292171
000070 e5 e2 ff bc fa 25 82 3d 4e e9 bc bd 0f 18 0f 3c
       -0.031236121 0.063549 -0.09224187 0.008733763
000080 a7 35 d1 3d 0c d4 a9 bc 0a 2c 1b bd 1c 26 d7 bc
       0.102153115 -0.020730995 -0.037883796 -0.02626329
000090 d6 86 2c bd 8d 0d 09 3e 79 ce cf 3d 22 de 56 bd
       -0.042120777 0.13384075 0.101468034 -0.052457936
0000a0 0f 44 fa 3d cc 91 d0 bd bc b4 d8 bd 30 73 e2 3c
       0.122200124 -0.101840585 -0.10581347 0.027642816
0000b0 6c 69 01 be ea 04 e2 bd 93 a4 ad bd e5 1c 01 3d
       -0.12637872 -0.110360935 -0.08478656 0.031521697
0000c0 58 a3 ad 3d 3e de 03 3e 89 b3 ff 3c dd 77 94 3d
       0.08478421 0.12877747 0.031213539 0.072494246
0000d0 4e 04 6b 3d 72 3d 0f 3d 9a 05 c2 bd fb 69 3d 3d
       0.057377152 0.03497071 -0.09473725 0.04624365
0000e0 ce 12 a9 bd 33 cf c5 bd cd 28 e4 bd 6b c1 6a 3d
       -0.0825554 -0.09658661 -0.11140595 0.057313364
0000f0 67 8e 43 3d 5b f9 c6 bd 72 ca fa bc 42 5b 51 3c
       0.047743227 -0.097155295 -0.030614112 0.012778105
000100 42 c5 c0 bd 4b 22 e9 3d f8 54 fa bd f9 a7 d1 3d
       -0.09412624 0.11383494 -0.12223238 0.10237116
000110 3a 31 15 3d 30 81 d8 3d fb 6c b3 3d e1 c6 e5 3d
       0.0364239 0.105715156 0.08761021 0.11219574
000120 0a fe a7 bc c6 66 99 bd 88 68 e6 3d 76 50 3f 3d
       -0.020506877 -0.074903056 0.112504065 0.046707593
000130 d7 c7 d1 bd 6c 7a a6 3d d8 af c1 bd 7c 84 a1 bd
       -0.102431946 0.08128819 -0.09457368 -0.078865975
000140 31 97 8d bb 49 9c da bd 17 f5 bd 3d 9b e9 ea bd
       -0.004321002 -0.1067434 0.09275263 -0.11470338
000150 7e fc 63 3d a3 1c bd bd 16 3e c8 3d a9 fc d7 3d
       0.055660717 -0.09233978 0.09777467 0.10546238
000160 aa b1 a7 bd 3d 74 7d bd 00 c0 c2 bc 16 13 37 3d
       -0.081881836 -0.06187843 -0.023773193 0.044695936
000170 99 3d d4 3d 42 bc fb 3d 55 e6 8b 3d 20 34 15 3c
       0.10363311 0.12291767 0.06831042 0.009106666
000180 e3 30 be 3d fb 91 04 be af 3c d6 bd c6 cb 8d bd
       0.09286668 -0.12946312 -0.10460793 -0.06923632
000190 47 6d 36 3d 57 96 83 3d 7b 07 c5 3c 55 5b f6 3c
       0.04453781 0.064251594 0.024051419 0.030072847
0001a0 35 9e d2 bd cf ed 81 bc 95 a3 ca 3d 08 1a 83 bd
       -0.10284082 -0.015860466 0.09894482 -0.064014494
0001b0 a0 80 a4 bd 43 3d 17 3d 49 98 7f bd cf 57 86 3d
       -0.08032346 0.036923658 -0.06240109 0.06559717
0001c0 e4 36 65 bb af 82 f8 3d 45 32 9e bd 4a 05 5a 3d
       -0.0034975344 0.12134301 -0.07724432 0.0532277
0001d0 66 c5 0a be 0d 59 12 be 1c f8 b8 3c cc 51 eb bd
       -0.13551864 -0.14291783 0.022579245 -0.11490211
0001e0 7c 0e 80 bd 60 34 e9 3d b8 10 f7 3d 94 69 d4 3d
       -0.06252763 0.11386943 0.12063736 0.103717
0001f0 7f 3d e7 3d b6 a1 e7 3d de fb 05 bd f1 ad 01 be
       0.11291026 0.11310141 -0.032710902 -0.1266401
000200 54 bf c0 3d 21 94 ea 3d 1d 85 ba bd 23 f4 ed 3c
       0.09411493 0.114540346 -0.091074206 0.029047078
000210 43 0a 80 3c 71 7e 2a bd e3 75 6d 3d c1 b7 4a 3c
       0.015629893 -0.04162449 0.057973754 0.012372912
000220 de 02 e9 bd 3e e4 61 3c 00 03 16 3d b9 1a 22 bd
       -0.113775 0.013787327 0.036623955 -0.039576266
000230 7e 88 0c 3c 97 b3 9a bd ff b2 dc 3c cd 7a 4c 3c
       0.008577464 -0.07553785 0.02694082 0.01248045
000240 7a ea 24 bd f3 5a 6e 3c 23 92 ed 3d 32 6f a7 3d
       -0.040262677 0.014548051 0.11600139 0.08175506
000250 be f8 bf bd 40 a5 cd 3d ba 9b 80 bd 56 32 bb 3d
       -0.09373616 0.100412846 -0.062797025 0.0914046
000260 08 6a 80 3d f8 52 36 bd c5 f7 db 3d 59 ad 15 3c
       0.06270224 -0.04451272 0.10740618 0.009135568
000270 c5 e1 a6 bd aa 43 c7 bd 70 a0 95 bd 29 ca 18 3d
       -0.08148531 -0.09729703 -0.07305992 0.03730217
000280 d4 35 09 3d d8 d1 59 3d 49 86 94 3d bc bf 8b bd
       0.0334986 0.05317864 0.07252175 -0.0682368
000290 21 f0 b9 bb 73 80 99 3d 36 48 be bd 8e 4f 6f bd
       -0.0056743775 0.07495203 -0.09291117 -0.05842548
0002a0 7b 02 06 be 43 72 0b 3d d1 da 31 3c 2b 8c a5 3d
       -0.13086884 0.034044515 0.010855393 0.080833755
0002b0 ca da df bc 2f 3d bb 3d ad d6 52 3d 9a fe e6 3d
       -0.027326006 0.09142529 0.051474262 0.1127903
0002c0 13 c1 d7 3d d1 77 2f bd 5c 1c 05 be 66 82 cb bd
       0.10534873 -0.042838875 -0.129991 -0.09936981
0002d0 58 22 4c bd e3 db ab 3d d0 c9 b5 bb 24 d0 00 bb
       -0.04983744 0.083915494 -0.0055477396 -0.0019655311
0002e0 76 e9 b0 3d f3 bd d5 bd ad 8c eb bd 6d 2b f2 3d
       0.08638279 -0.104366206 -0.11501441 0.11824689
0002f0 f8 14 0a 3a b3 8a bc bd 67 70 50 bd b2 a3 c5 bd
       0.0005267407 -0.09206142 -0.050888445 -0.09650363
000300 f1 74 a7 3d aa a3 13 bd 3b 62 c6 3d e4 03 c3 3c
       0.08176602 -0.036044754 0.09686705 0.023805566
000310 e0 59 ad bd ed 81 70 bd 04 d6 a8 bd d2 fc e1 bd
       -0.08464408 -0.058717657 -0.08243945 -0.1103455
000320 d5 c9 0c bd 5a 25 c8 3d a5 b7 e0 bd 6b 9b df bc
       -0.03437217 0.09772749 -0.109725274 -0.027295789
000330 ef 07 62 3d 6e 34 96 3d 58 d4 f6 3d ff f5 ce bd
       0.055183347 0.07334219 0.1205222 -0.10105514
000340 92 cc a2 ba 4e e3 87 3c 53 dd 02 3e 84 72 87 bd
       -0.0012420586 0.01658788 0.12779741 -0.06613639
000350 27 d1 c4 3d ef 0b 02 3e 2b e6 3d 3d 47 2b a7 3d
       0.09610205 0.12699865 0.046362083 0.081625514
000360 f4 06 d5 bc a7 31 70 3d f2 a1 30 3d a1 a1 ec 3d
       -0.026004292 0.058641102 0.043123193 0.11554266
000370 dc 5f 11 bc 78 32 9c 3c 8f ab ac 3d 27 cd 9d bc
       -0.008872952 0.019067034 0.0843116 -0.019262863
000380 4f ba 90 bd bc 0c 75 3d f8 14 e7 bd cd db d8 3d
       -0.070667855 0.059826598 -0.11283296 0.10588799
000390 61 ce 9e bd f8 3f 0b 3e af 9b ce bd e8 08 b0 3d
       -0.077542074 0.13598621 -0.10088288 0.08595449
0003a0 d1 fe 86 3d ec 26 e7 3d e3 d9 26 3d 02 1b f9 3d
       0.06591571 0.11286721 0.040735137 0.121633545
0003b0 ca d2 18 3d 61 34 b3 bd ff dd 0c 3e 78 cb d0 3d
       0.0373104 -0.08750225 0.1375656 0.101950586
0003c0 1e 9c e9 bd c0 80 a1 3c 89 f4 04 3c d0 9f c9 3d
       -0.1140673 0.019714713 0.008114942 0.09844935
0003d0 80 56 a7 3d 9a c0 a0 3d e5 2a 5c bd 5f cb e3 3d
       0.081707954 0.07849236 -0.053751845 0.11122774
0003e0 14 90 12 bc 06 fe 96 3d 9e b8 71 3d de f2 d7 bd
       -0.008945484 0.0737267 0.059013955 -0.1054437
0003f0 f6 d3 58 3d 9a 76 f0 3c 98 46 28 bd 7f d9 e1 bd
       0.052936517 0.029353429 -0.04108295 -0.11027812

net.2.bias f4 [64]
000000 10 15 32 3d 1d 85 67 bd 1b cd 91 3d d7 8e c5 3d
       0.043477118 -0.05652343 0.07119199 0.09646385
000010 c0 4d cd bd 1e 7c 33 3d db 99 85 bd 69 c2 78 bd
       -0.10024595 0.04381954 -0.06523486 -0.06073228
000020 3a 41 e1 3c 87 21 76 3d 48 2a 03 bd cc 20 ee bd
       0.027496923 0.060090568 -0.032022744 -0.11627349
000030 c7 0f e9 3d d9 26 fa 39 45 33 be 3d 2d 89 58 3d
       0.113799624 0.0004771266 0.09287123 0.052865196
000040 42 6f c5 bd f4 e9 ad bb b9 8d a9 bd 13 83 25 bd
       -0.09640361 -0.0053074304 -0.082789846 -0.040408205
000050 05 e5 51 bd 47 16 8a 3d 30 12 02 3e 75 37 96 3d
       -0.0512438 0.0674253 0.1270225 0.07334796
000060 7a 14 49 3c 2b c5 f3 bd 81 0c 10 bd ce 45 98 3d
       0.012272948 -0.11902841 -0.035168175 0.07435189
000070 7a f7 36 bd 10 6c 41 bd bf ab a2 bd eb d9 d8 bc
       -0.044669606 -0.047222197 -0.07942914 -0.026471099
000080 d1 c1 01 bb 8a 62 ea 3d 40 e5 e1 3d d0 18 96 3c
       -0.0019799361 0.11444576 0.11030054 0.018322378
000090 b4 08 26 3d b6 ab e6 3c 1c 06 c1 bd 97 5e 2a bd
       0.040535644 0.02815805 -0.094249934 -0.041594114
0000a0 27 f1 f4 bd 11 99 ce 3d d2 e7 84 3d 7f 08 76 bd
       -0.11960059 0.10087789 0.06489529 -0.060066696
0000b0 24 65 43 3c 51 12 e8 bd 36 f2 ec bd 60 56 ac bd
       0.011925969 -0.113316186 -0.115696356 -0.08414912
0000c0 97 8b ac 3c ea 39 44 bd f3 f4 12 bd ec 13 00 3e
       0.021062655 -0.047906794 -0.035878133 0.125076
0000d0 f3 09 84 3c 04 3c ba 3c 5f 47 dd 3d 29 17 b8 3d
       0.016118025 0.022733696 0.108046286 0.089887924
0000e0 ec 2c 03 3d cb 66 b1 3b d4 24 ab 3d 50 96 a7 bd
       0.032025263 0.005413865 0.08356634 -0.08182967
0000f0 3a 83 9d 3d b7 90 e4 bd ac dc eb 3d 34 4f 17 bd
       0.07691045 -0.11160415 0.11516699 -0.03694077

net.4.weight f4 [1, 64]
000000 87 fb 31 3d 1a ec 9f 3d 91 33 a8 bd c0 85 e0 3d
       0.043452766 0.07808705 -0.082129605 0.10963011
000010 53 79 6f bd 70 2b c7 3d 01 01 d7 bd 7b 91 0a 3d
       -0.058465313 0.09725082 -0.10498238 0.033830147
000020 89 5d b9 bc 9a b3 6f 3c 31 2d cd 3c 07 a9 13 be
       -0.022627609 0.014630223 0.025045963 -0.14419948
000030 2a 9e e3 bd 72 11 10 bd f1 7b ac bd f6 59 bd 3d
       -0.11114152 -0.035172887 -0.084220774 0.09245674
000040 24 33 ba bc ed 9b db 3d 9f be 98 3d 7f 26 bc bc
       -0.022729464 0.107231 0.07458233 -0.022967575
000050 64 75 25 3c 26 dc d4 bd 95 75 06 be 3b a8 00 3d
       0.010098789 -0.103935525 -0.13130791 0.031410437
000060 bf 3b de bd e6 a3 c6 bd d5 c0 23 3d b9 6b 85 3d
       -0.108512394 -0.0969923 0.03997882 0.06514687
000070 16 66 97 3d 28 4c 08 3c 79 c1 e0 3d 8a e1 78 bd
       0.07392518 0.008318938 0.10974402 -0.060761966
000080 d6 37 96 3d e1 aa 7a 3d 16 5c b3 3c c1 b9 a3 bc
       0.073348686 0.06119812 0.021894496 -0.019986035
000090 36 ea b9 3c 0d 72 08 be 9b ed ab 3d 96 06 1a 3d
       0.022694688 -0.13324757 0.08394929 0.037603937
0000a0 62 d3 de bd 24 29 05 be 2e db bf bd dc 3f 81 bd
       -0.10880162 -0.13003975 -0.09367977 -0.06311008
0000b0 81 47 06 be 0d aa 64 bd dd 2a bf bc d3 d6 d3 3d
       -0.13113214 -0.055826236 -0.023335868 0.10343709
0000c0 ec 8a 0a 3e dd ac 16 3d 50 ae 47 bd bc a7 ae bd
       0.13529557 0.03678595 -0.04875022 -0.085280865
0000d0 c4 99 fe bd c3 8e 83 3c 28 aa 03 be d2 86 e5 3d
       -0.12431672 0.016059285 -0.12857878 0.112073556
0000e0 64 f7 bd bd da fe 3d bd 8e 70 d7 3a 9f 8d b9 3d
       -0.09275702 -0.046385624 0.0016436742 0.09060215
0000f0 8e 11 47 bd 4d 5f 1f bc 77 00 ea 3d 0a 76 0b 3e
       -0.048600726 -0.009727311 0.1142587 0.13619247
